models/base_last_epoch.pt (torch, 206379 bytes, 38 tensors)

backbone.0.conv3x3.weight f4 [32, 3, 3, 3]
000000 4d ff 7f 3d 38 ee ea 3d c8 09 37 bd e2 2c 44 3e
       0.062499333 0.11471218 -0.044687063 0.19157746
000010 77 34 7e bd 9c 53 ae 3d cf 3d ec bc 08 c5 1a 3e
       -0.062061753 0.08512041 -0.028838066 0.15114224
000020 a4 cb f3 3d 60 2f 96 bd ad 2a c8 3d 27 db de 3d
       0.11904076 -0.07333255 0.09773765 0.10881644
000030 c2 a3 19 3e 9c 31 db 3c 68 5f c7 3d 28 c4 5c bd
       0.15003875 0.026757054 0.09734994 -0.053898007
000040 d2 8c 03 3e 49 3a 83 bd 8a 34 1b be d9 15 31 3d
       0.12846687 -0.064076014 -0.15156761 0.043233726
000050 2b 2f 36 be 32 0b 7d 3c cc b5 53 be 1d 78 1e 3e
       -0.1779143 0.015444564 -0.20674819 0.15475507
000060 c5 19 00 be 57 ea 09 be 47 bb c2 bd 7f 81 bf bd
       -0.1250983 -0.134683 -0.095083766 -0.09350871
000070 a3 a5 c8 3d 86 a5 e6 bd fa 64 8f 3d aa 80 57 be
       0.09797218 -0.1126204 0.070016816 -0.21045175
000080 ff 25 7b 3d dc 9a df 3c 8d 6a 30 be 4d 92 a3 3d
       0.061315533 0.027295522 -0.17228146 0.07986889
000090 e6 ce 97 3c 3c cc 17 3e fc 7e 98 3d 28 14 76 3d
       0.018531274 0.14824003 0.07446095 0.060077816
0000a0 62 fe 40 3e 50 e5 71 3d ee 02 1b 3d 60 b3 0e 3e
       0.1884704 0.05905658 0.03784459 0.13935614
0000b0 9c 53 0f 3e 7b d5 6a bd a2 d0 98 3d 9d 90 c6 bb
       0.13996738 -0.057332497 0.074616686 -0.0060597197
0000c0 d9 23 fc 3d 04 35 3e be 0d 28 a8 be 55 6d 05 bd
       0.12311525 -0.18574911 -0.32843056 -0.03257497
0000d0 36 fa 42 bd a7 22 17 3e 9d ff 83 3b b4 df 9b 3b
       -0.0476019 0.14759313 0.004028274 0.004756892
0000e0 d0 84 35 3d 95 05 05 bb f0 ca 87 3e a7 a0 25 bd
       0.044316113 -0.0020297517 0.26522017 -0.040436413
0000f0 ef 43 94 ba 51 a7 ac be 2c 11 0d 3d 52 57 8e bd
       -0.001131175 -0.33721402 0.034440205 -0.06950249
000100 0f c4 ee ba 7b e9 9d 3b cb 68 13 3e fd c8 4f be
       -0.0018216389 0.004819093 0.14395444 -0.20291515
000110 a3 7c 96 bc ba b2 53 bd 7f 03 88 3e d6 bf 81 bb
       -0.018369978 -0.05168412 0.26565167 -0.003959636
000120 77 32 b8 3d 2b 1c 7c bd b2 29 c9 bc ce 31 d8 bd
       0.089940004 -0.0615503 -0.024556015 -0.105563745
000130 aa 67 07 be b4 f9 73 3d 18 01 07 bc ce 33 5c 3e
       -0.13223138 0.059564307 -0.008240007 0.21504137
000140 c3 47 77 bd 73 dc b5 3c 13 a7 72 bb bd e6 9f 3b
       -0.06037117 0.022199845 -0.0037025854 0.004879801
000150 e6 81 2a 3e de 41 f6 be 6f 2e 1b 3d 38 e6 56 3b
       0.16651115 -0.48097128 0.03788608 0.003279103
000160 1f 47 47 bc 0c 6a 1f 3d 31 8d 36 3d da f6 b7 3a
       -0.012162953 0.038919494 0.044568244 0.001403536
000170 e4 65 f1 3c b2 39 09 3e 8b 81 e4 be a3 4d 09 bd
       0.02946753 0.13400915 -0.44630083 -0.033521306
000180 de 92 7b 3d c8 29 e4 ba 27 ea 1a bc 2f 88 f2 3a
       0.06141936 -0.0017407471 -0.00945524 0.0018503721
000190 73 5d ff bd e1 5b 31 3d 79 b5 2c 3d 38 22 6f be
       -0.12468996 0.043300513 0.042165253 -0.23352897
0001a0 46 77 85 bb e9 b6 5f ba fc 3e 36 3d ad 62 99 bc
       -0.0040730564 -0.00085340306 0.04449366 -0.01872381
0001b0 cf ee f4 be be ae 23 be dc 67 79 3e dd fd 54 bb
       -0.47838446 -0.15984628 0.24356025 -0.0032499947
0001c0 8a 35 41 be 24 6a 0d be 2a 1b 2a 3c 67 f4 75 bd
       -0.1886808 -0.1381002 0.010382453 -0.060047533
0001d0 23 49 97 3d 22 06 34 be ca 75 53 3a 39 7f 9c 3c
       0.073869966 -0.17580464 0.0008066563 0.019103633
0001e0 4b ed b8 bc 84 5e 3b be 1b 01 9f bd 77 61 68 bd
       -0.022574088 -0.18297774 -0.07763883 -0.056733575
0001f0 e2 03 b3 bd 02 64 0a 3d e8 ec 16 be 04 bf 14 be
       -0.08740975 0.03378678 -0.1473881 -0.14525992
000200 a2 8a cd 3d df 97 53 3d 3a 0c 06 3e ab 83 07 bc
       0.10036208 0.051658507 0.13090602 -0.008271138
000210 a7 31 c0 3c 8a ff c3 3d 9e 23 1b 3a 44 7b b4 3a
       0.023461176 0.095702246 0.0005918088 0.0013769646
000220 26 b8 93 be 78 3f 38 be 28 05 a3 3d fd f2 d1 bc
       -0.28851432 -0.17992961 0.07959968 -0.025628561
000230 48 5e b6 3c 64 a1 ab bc fa 23 03 3e 05 dc 8f bc
       0.022261754 -0.02095098 0.12806693 -0.017560968
000240 d7 4e be 3b 63 23 c5 3d fa 8a 20 3e d8 15 0e 3d
       0.0058077383 0.0962589 0.15678015 0.0346888
000250 f3 21 4f 3e 2b 4d 53 be f0 66 8d 39 39 e4 84 be
       0.20227794 -0.20634906 0.0002697031 -0.2595537
000260 30 3e 4a 3d 82 8c 12 be 20 63 0e 3e de 01 d4 bd
       0.049375713 -0.14311412 0.13905 -0.10351919
000270 41 f4 e3 bb 67 eb c8 3c a6 86 ee 3c c1 e5 14 be
       -0.0069566076 0.024526311 0.02911694 -0.14540769
000280 e4 3d 42 3e d8 61 d7 bc cc 81 07 3c eb d9 18 be
       0.18968922 -0.026291773 0.008270692 -0.14926879
000290 1e 18 b0 3a 23 ee 94 3b 8e 74 64 bb e6 da 9c 3e
       0.0013434922 0.0045449897 -0.003485951 0.30635756
0002a0 8c 30 27 3c 40 e5 90 bd b9 a6 7a bb 5f 11 58 bb
       0.010204446 -0.07074976 -0.0038246347 -0.0032969338
0002b0 3c 6b f1 3d e4 de 09 bb 58 ab 9f bc 54 85 da 3a
       0.117880315 -0.0021037394 -0.019490883 0.0016671815
0002c0 7b 44 b4 be f5 ca 05 bc 33 f5 0a 3e 1b b5 8f bd
       -0.35208496 -0.0081660645 0.13570099 -0.07016965
0002d0 1e df 55 bb 34 a9 9e 3b 08 68 a7 3a c0 1a b9 bc
       -0.003263421 0.004841948 0.0012772093 -0.022595763
0002e0 ca df 0b 3c 18 20 16 3e 12 32 89 bb e6 2f fe bb
       0.008537242 0.1466068 -0.004186877 -0.007757175
0002f0 af 84 91 bc 3e 12 b5 3a 27 a9 6c bc 26 54 aa 3b
       -0.017763464 0.0013814641 -0.014444626 0.0051980196
000300 ca f6 f9 3d 75 41 92 3e 34 95 7d bd 4a a0 29 bd
       0.122052744 0.28565565 -0.06190987 -0.04141263
000310 f7 db 11 3c a4 b1 72 bd af 0d 9c 3b 04 7d 77 3d
       0.008902541 -0.059251443 0.0047623734 0.06042196
000320 4e e1 e1 bd 3a 51 6e bd 5c 64 38 3e 66 0a 19 bb
       -0.110293016 -0.058182932 0.18007034 -0.0023352145
000330 eb e6 e3 bc 38 e1 02 be 8e 18 2d be f1 10 a6 bd
       -0.027820071 -0.12781227 -0.16903898 -0.081087
000340 93 15 cc bc 94 9f 2a 3c 82 97 a1 3d 76 10 1d 3e
       -0.024912631 0.010414023 0.07890226 0.1533831
000350 0c 78 6d be 28 bb 4b bd 12 18 16 bd fd de 5e 3e
       -0.23190325 -0.049739033 -0.03664405 0.21764751
000360 d7 10 70 bc ae f2 5f 3d df ad 26 3d ac 7b fe ba
       -0.014652452 0.054674797 0.04069316 -0.0019415519
000370 06 7c fd 3c a8 d2 1c 3e 90 62 02 bd ac a5 c0 3c
       0.030942928 0.15314734 -0.031832278 0.023516499
000380 a2 2b fe be 8c 13 35 bc 94 4f 4f 3c a2 23 34 3c
       -0.49642664 -0.011052024 0.01265325 0.010994824
000390 fd e8 2f 3b e6 d1 d3 be 78 bc 91 bd 36 9f d7 3c
       0.0026841753 -0.41371077 -0.07116026 0.026321035
0003a0 a8 c5 bf 3d 77 31 68 3e 87 06 95 3a 66 52 be 3c
       0.09363872 0.2267512 0.0011369743 0.02323265
0003b0 7a 33 a1 3c d6 c3 43 bb fa 16 f5 bd 72 6b a6 bd
       0.019677866 -0.0029871366 -0.11967273 -0.08125962
0003c0 20 2a b5 3c f2 6d b9 bc e4 0f 32 bc 96 2b 25 3d
       0.022114813 -0.022635434 -0.010868046 0.04032477
0003d0 dc c1 13 3d cd db 93 be 8d 10 05 bc 8a a3 9a 3c
       0.03607355 -0.28878632 -0.008121622 0.01887681
0003e0 72 b4 38 3a 3e e1 41 3d 20 7e b4 bc fe e5 91 be
       0.00070459314 0.04733395 -0.022032797 -0.28495783
0003f0 d4 98 6e 3d 07 9c c8 bc 46 cc 99 be 3d a2 17 3c
       0.058251217 -0.024488462 -0.3003866 0.009254989

backbone.0.conv3x3.bias f4 [32]
000000 8c dc b3 bd ee 12 30 3e 7f 71 21 3e 27 12 68 3d
       -0.087823 0.17194721 0.15765952 0.056657936
000010 eb a8 84 3c 4c db 26 be fb 90 82 bc 42 c3 29 3e
       0.016193828 -0.16294593 -0.015938273 0.16578391
000020 f1 91 45 3d dd 72 63 3c fa 34 2d bd 11 e7 91 bd
       0.048234884 0.013882366 -0.04228685 -0.071241505
000030 a6 c6 ef 3d 2b dd 37 3c 61 a8 03 3e 16 00 19 bd
       0.11707811 0.011222164 0.128572 -0.037353598
000040 a9 39 b2 3d c2 df a3 3d 95 be c8 bb ef 54 07 3e
       0.08702404 0.08001663 -0.006126235 0.13215993
000050 dc 11 ed 3d 7c f9 3b 3e 9b aa 16 3e 0c e1 41 bd
       0.11575672 0.1835689 0.14713518 -0.047333762
000060 e6 4c 28 be 0d ba 04 3d a8 fe c7 3b fa 02 66 bd
       -0.16435584 0.032403994 0.0061033554 -0.056155182
000070 37 bb eb bc 4d fd 2b 3c a1 f3 14 3e f3 eb 72 3d
       -0.028775794 0.010497403 0.14546062 0.05930705

backbone.0.bn.weight f4 [32]
000000 3d 5a 51 3f 9e c0 5b 3f 34 f4 7e 3f 51 e2 9e 3f
       0.8177832 0.85840786 0.99591374 1.2412816
000010 86 3c 89 3f 91 81 60 3f 8a 0c 68 3f 0c 47 4f 3f
       1.0721595 0.876977 0.90644133 0.80967784
000020 f1 27 94 3f 8f 98 74 3f 63 90 81 3f 7e 1e 76 3f
       1.1574689 0.95545286 1.0122188 0.9614028
000030 6a 59 9f 3f 50 eb 4c 3f d8 44 6d 3f 84 e7 87 3f
       1.2449162 0.8004656 0.9268317 1.0617528
000040 73 8f 12 3f 1e 0c 74 3f a6 26 a0 3f c6 84 5a 3f
       0.57250136 0.9533099 1.2511795 0.85358846
000050 f6 bc 66 3f 50 01 33 3f 2a e0 83 3f 12 27 90 3f
       0.9013208 0.6992388 1.0302784 1.1261923
000060 a3 9a 92 3f e4 c1 54 3f 1d 2e 2b 3f c7 f3 54 3f
       1.1453441 0.83108354 0.6686724 0.83184475
000070 96 2f 95 3f dd 71 62 3f 13 cd 86 3f 8c 35 5c 3f
       1.1655147 0.8845499 1.0531334 0.86019206

backbone.0.bn.bias f4 [32]
000000 81 fe af be c3 0a 5c ba 9e 70 82 3e b2 8d 49 3d
       -0.3437386 -0.00083939376 0.25476545 0.049207397
000010 11 01 60 be e3 ca 12 be e7 ba 86 3f a0 35 e6 3e
       -0.21875407 -0.14335208 1.0525788 0.44962788
000020 09 5b fd 3c c5 78 44 be 10 b0 82 bd 3b d7 a7 bc
       0.030927198 -0.19186695 -0.063812375 -0.020488372
000030 e9 b3 4b be e8 95 e9 3e 88 4c ca bd 32 e0 bb be
       -0.19892849 0.45622182 -0.098778784 -0.36694485
000040 b7 1c 12 3f 26 2d 02 bd 42 8d 97 3f 7e 79 80 bc
       0.57075065 -0.03178134 1.1839983 -0.015682932
000050 ef e8 6a be f5 f2 6a 3f 51 06 38 be 31 ef c6 bd
       -0.2294042 0.91776973 -0.1797116 -0.09713591
000060 36 d7 bf bd f8 95 6b be d0 ec 8a 3f cf 16 8e be
       -0.0936722 -0.23006427 1.085352 -0.27751777
000070 14 c0 0b be 98 58 e9 bd 99 fb a3 be a6 bb e6 bd
       -0.1364749 -0.11393851 -0.3202789 -0.1126626

backbone.0.bn.running_mean f4 [32]
000000 08 20 7c 3c c4 f2 91 3e 6e 44 27 3e fe b4 14 be
       0.015388496 0.28505528 0.16334698 -0.14522168
000010 a0 b0 a6 be 0f c7 70 be 6a fe b1 bc 42 d8 29 3e
       -0.3255663 -0.23513435 -0.02172776 0.16586402
000020 cc 78 d3 bd 13 f4 ec bd 4e a0 f2 bd 7a b2 8b 3b
       -0.103257746 -0.11569991 -0.11846982 0.0042632194
000030 47 3e 46 bd b3 bd 56 3c cc 36 86 3c 2d c7 1a be
       -0.048399236 0.013106751 0.016383551 -0.15115042
000040 fc 8e ce 3d 77 23 0b 3c e6 08 96 3c 4b 1f 0a 3e
       0.10085866 0.008492342 0.01831479 0.134885
000050 69 ae 1a 3e b2 de 4d 3e 7b 25 9e bd 47 f1 66 be
       0.15105595 0.20104483 -0.077219926 -0.22552978
000060 df 08 ab be 6e 27 ae 3d ba 0d c9 3c a4 a8 c6 bd
       -0.33405206 0.08503614 0.024542678 -0.097001344
000070 06 62 40 be 3d c8 d8 bd 9c d5 06 3e 64 ef 57 3a
       -0.18787393 -0.105850674 0.13167423 0.0008237271

backbone.0.bn.running_var f4 [32]
000000 f5 10 84 3b 43 54 69 3b a2 33 26 3a 26 10 78 3c
       0.0040303417 0.0035603202 0.00063400913 0.015140569
000010 ad f4 21 3d 9c 4f 34 3b 56 a8 f1 39 60 6a 8a 3a
       0.03953998 0.0027513271 0.00046092522 0.0010560267
000020 3e e2 0c 3c 0d f4 13 3c 34 2e 64 3b 5b 9b 3a 3b
       0.008598862 0.009030354 0.0034817578 0.0028473947
000030 04 61 54 3c ff 5c 5a 3a e3 bc b8 3b ff 7a 94 3b
       0.012962583 0.00083298975 0.0056377514 0.004531264
000040 46 c4 d3 3a df ea 9e 3b 7d 40 0a 3a 0e 89 2b 3a
       0.0016156517 0.004849776 0.0005273892 0.0006543555
000050 c5 60 e6 3a f1 34 8b 3a 44 2c a6 3c 0d f2 34 3c
       0.0017576447 0.0010620636 0.02028478 0.0110440375
000060 f2 ad 25 3c c5 0b 7e 3b 23 02 83 3a b3 1f e2 3a
       0.010112273 0.003876434 0.0009995144 0.0017251879
000070 83 90 0d 3c 3f 08 b9 3b f7 ab 9d 3a c8 02 16 3b
       0.008640411 0.005646735 0.0012029399 0.0022889841

backbone.1.conv3x3.weight f4 [32, 32, 3, 3]
000000 28 a8 b1 3b b5 c4 95 bd b2 32 93 bd d6 35 89 3c
       0.005421657 -0.073129095 -0.07187404 0.016749304
000010 5a af 58 3d 17 50 bf bd f9 cf 68 3d b2 f0 48 3d
       0.052901603 -0.09341448 0.056838963 0.04905767
000020 ea 3c 41 3d c5 ef 3b bd 50 ce bd bc 0e 15 60 ba
       0.047177233 -0.04588296 -0.023169667 -0.0008548059
000030 89 b1 1b 3d cb b1 ea bc 5f da 36 bd 17 23 26 3d
       0.038011108 -0.028649231 -0.04464185 0.040560808
000040 0b 5b ce 3c b0 6f 10 3c 92 f6 ef 3b 0a bc 91 bd
       0.025189897 0.008815691 0.0073230946 -0.07115944
000050 3c 54 0f 3c 75 7c 27 bc 02 20 eb bc e4 91 0e 3c
       0.00874811 -0.010222544 -0.028701786 0.008701775
000060 c8 aa 1a bb 94 31 08 ba c3 24 c4 ba 8a a5 0d bd
       -0.0023600329 -0.0005195376 -0.0014964569 -0.0345817
000070 4b e4 57 3d b7 6b 03 bd 2c f1 78 bb dd 99 89 bb
       0.05270795 -0.032085147 -0.0037985547 -0.00419925
000080 42 31 86 3b 5e 30 09 bc ec 4e 9e 3d 80 15 a0 bc
       0.0040952275 -0.008373348 0.07729897 -0.019541502
000090 94 d5 59 bd 43 c3 b3 bb ec e2 69 bc 91 fb b1 bc
       -0.0531822 -0.0054859235 -0.014275294 -0.021726402
0000a0 d0 18 0a 3d 7d 93 25 3e cc 51 2a 3c 91 af a1 bd
       0.03371507 0.16169544 0.010395478 -0.07894815
0000b0 d9 fb a1 3b 48 bd f8 bc 10 21 f6 3c 81 57 ca bb
       0.0049433527 -0.030363694 0.030045062 -0.006174982
0000c0 b7 d8 74 3d b3 5a 19 3e 47 e1 b1 bd 54 39 99 bb
       0.059776988 0.14976005 -0.08685546 -0.0046760235
0000d0 02 ca c2 3c 0d dd cc 3b ce b5 35 bc df e0 0b bd
       0.023777965 0.0062519372 -0.011090709 -0.03415
0000e0 72 b7 e7 bb cd 51 18 bd b1 8f b6 3d dc 19 c7 ba
       -0.007071429 -0.037187386 0.08914126 -0.0015190202
0000f0 6a 8a 48 bd b3 b8 98 bc 94 51 34 bb 50 7a 2b 3d
       -0.048960127 -0.018642759 -0.0027514445 0.041864693
000100 72 26 4c bd eb c5 3a bc d0 42 31 bd 7e 2f ea bc
       -0.04984135 -0.011399726 -0.043276608 -0.0285871
000110 54 fa bc bd e8 8c 05 3d db a1 cf 3c e9 a8 0f 3d
       -0.09227434 0.03260508 0.025345733 0.035073195
000120 b5 58 8d bd d7 a8 17 be 13 1b 9c bc ae 34 f7 bb
       -0.06901685 -0.14810501 -0.019055879 -0.0075441217
000130 69 cc e1 b9 ad bd 66 3c a5 ef 39 3d ec 79 c6 bb
       -0.00043067642 0.014083308 0.04539456 -0.0060570147
000140 e1 8c 83 bc e7 e0 2d bd 29 22 58 3d d5 8a b3 3c
       -0.016058387 -0.04245081 0.052766953 0.021916786
000150 93 28 1d 3c f7 10 0a bc 17 b6 3c 3d 69 a4 82 bc
       0.009592193 -0.008426896 0.046072092 -0.015947537
000160 1f 8f fc 3b a9 75 4f bc f5 75 01 bd 66 a5 0c be
       0.007707491 -0.01266233 -0.031606633 -0.1373497
000170 8e 3e 8b bd 7e 8f 98 3d 9f 8c 6b 3c a9 b5 9d bd
       -0.06799041 0.07449244 0.014376788 -0.077006646
000180 2a 23 25 3d 95 45 52 bc 6e f4 c3 3c 8e 4f c5 bc
       0.04031674 -0.012833972 0.023920264 -0.024085786
000190 3d 47 5d 3d bc 1a e6 bb 11 3c b7 3c 3d 5a ab bc
       0.054023016 -0.00702223 0.02236751 -0.020917052
0001a0 fd 50 89 bc 89 74 3f bd 5e 6f 9d bd 08 c1 85 bb
       -0.016762251 -0.046741996 -0.07687257 -0.004081849
0001b0 1b 87 b2 bb 98 01 79 bd a1 fd 7e 3e a5 4d 4d bc
       -0.0054482347 -0.060792536 0.24901439 -0.012530719
0001c0 a1 45 97 bd 55 8c 64 3c c9 f3 bd 3c 43 f1 3e bb
       -0.073863275 0.013949473 0.023187535 -0.0029135502
0001d0 a6 0e 80 3c c8 80 16 3d fb 66 b3 bc 21 cb a7 3b
       0.015631985 0.03674391 -0.02189969 0.0051206504
0001e0 6a cc 55 bc c7 d8 e1 3b fe b1 38 3b 87 f8 3d 3c
       -0.013049224 0.006892297 0.0028182263 0.011594898
0001f0 12 38 07 bd 25 0b 2f bd e0 4a 90 3c 56 3f e7 bc
       -0.033012457 -0.042735238 0.017613828 -0.028228443
000200 1a ef 8f bb 79 1e 57 bd 9e 21 02 3e 94 7b a3 be
       -0.004392517 -0.052519295 0.12708136 -0.3193022
000210 e9 10 f6 3a d6 ee 13 3b 18 18 88 3c 8b 6e 87 bb
       0.001877335 0.0022572777 0.016613051 -0.004133051
000220 aa 65 0a be e1 37 15 3d 80 e7 81 bc ce e0 88 3e
       -0.13515344 0.036430243 -0.015857458 0.26734012
000230 e0 44 fb 3d 24 da 6d bc 93 41 b2 bb 07 1a 6a 3c
       0.12268996 -0.014517341 -0.005439946 0.014288432
000240 c5 a7 bb 3c d3 8c da 39 1e 6c 81 3b 6b 21 1b 3d
       0.022907147 0.00041685122 0.003949656 0.037873667
000250 d6 dc e6 bd 4d ad 02 3d 33 a0 73 bd 43 00 e0 3c
       -0.1127259 0.031903554 -0.05947895 0.027343875
000260 ff 0c b1 bc ef 32 7e 3c 89 0c 01 3e 3a 09 8a bd
       -0.021612642 0.015515073 0.12602438 -0.06740041
000270 78 94 cf bb b4 b7 3e bd c4 fe 0e 3d 45 a1 4a 3d
       -0.0063348375 -0.04656191 0.034910932 0.049470205
000280 d6 e4 14 bd 20 8e 55 bc d3 9c aa 3c bd 53 7f 3c
       -0.036351047 -0.0130343735 0.020826733 0.01558393
000290 0d e5 62 3c 40 76 06 bf a8 85 e2 3d a7 b9 1f 3c
       0.013848555 -0.52524185 0.11060649 0.009748853
0002a0 71 32 be 3d f3 66 a0 3d 6b 4b d1 3c 7a c9 da bb
       0.09286965 0.07832136 0.025548657 -0.00667685
0002b0 ed 2d 17 ba 8f 45 03 bc 56 98 18 3b f8 cc 4a 3b
       -0.00057670363 -0.0080121895 0.0023284159 0.0030944925
0002c0 09 3d 60 ba fc ad 06 bb 86 09 d2 bc e9 63 0f bc
       -0.0008554017 -0.002055048 -0.025639307 -0.008751848
0002d0 62 d5 a8 bb 97 a8 b2 bc 42 2b cb 3b 5f b4 1e 3d
       -0.0051523903 -0.021808906 0.006200225 0.038746234
0002e0 93 c7 9c 3d 64 1a dc bb d4 72 4b 3c ab d2 1e 3c
       0.07655253 -0.006717013 0.012417514 0.009693782
0002f0 8d d3 03 3d d7 e9 92 3d f4 9b 8f 3c 70 3b a3 3c
       0.032184172 0.07173508 0.017530419 0.019925803
000300 fa 3e aa 3b d0 4e 89 bd cf ac 32 3d 4b ea 74 3c
       0.0051954957 -0.067044854 0.043621834 0.014948438
000310 dd d6 1a bb 01 97 1e 3c 8c 5c b5 3d 62 88 04 bd
       -0.0023626604 0.009679557 0.088555425 -0.032356627
000320 aa 05 37 bd 84 d1 8a 3d f6 c2 23 3e a3 cf cb 3d
       -0.044683136 0.06778243 0.1599234 0.09951713
000330 2a 75 30 3c 91 26 ba 3c b0 c1 5a 3c 54 a1 32 bc
       0.010770122 0.022723468 0.013351843 -0.010902721
000340 71 6f ad bd 1b b9 bf ba 28 1d c0 bb 11 f4 e1 3b
       -0.084685214 -0.0014627309 -0.0058628507 0.00689555
000350 bb de 3b bd f6 bd 23 3c ad 09 fb bc 10 08 a8 3b
       -0.04586671 0.009994021 -0.030644262 0.0051279142
000360 74 c2 0b bd 09 68 00 bd 38 09 11 bd d2 87 40 bc
       -0.03412099 -0.031349216 -0.035409182 -0.011751132
000370 a2 c4 26 bd 0d d4 cb 3c db 82 6b 3d 18 07 31 bc
       -0.040714867 0.024881387 0.05749784 -0.010804914
000380 61 8a 7c 3d 05 d8 ec bc cd 51 29 3d b8 dc f2 3c
       0.061655406 -0.0289116 0.041337777 0.029646263
000390 dc 8b c9 3c 51 69 b8 bd 7c d3 9b 3d 05 72 8a 3c
       0.024602823 -0.090044625 0.07608697 0.016900072
0003a0 64 4a 3d bc 59 46 de 3b 66 df cd 3b 5e b2 37 3c
       -0.011553381 0.0067832884 0.0062827347 0.01121196
0003b0 49 2c 46 3d 33 4a b9 bc 3a fa fa 3d 48 6d 68 bb
       0.048382077 -0.022618389 0.12254758 -0.0035465527
0003c0 09 fb 00 3b e5 b6 ed bc 44 b9 b2 bd a3 62 81 3a
       0.0019680879 -0.029017875 -0.08726743 0.0009871315
0003d0 ec d5 09 bd 77 bb be 3c e8 94 b9 3d bb 13 e7 bd
       -0.033651277 0.02328275 0.09061605 -0.1128306
0003e0 a7 53 a4 3c 2f e6 1e b9 3c dd b1 bc 9f 3f 1f bd
       0.02005942 -0.00015153804 -0.021711938 -0.038879033
0003f0 e7 7c 17 3d a5 8b 4d 3d 3d bc 4b be ef e6 a0 bd
       0.03698435 0.050182004 -0.19896026 -0.07856547

backbone.1.conv3x3.bias f4 [32]
000000 1c 6d 57 bd 3c 5f 68 3d 3f 6f 27 3d 40 5b 3b bd
       -0.05259429 0.056731448 0.040877577 -0.04574132
000010 8b d0 3c 3d 73 c3 61 bd 7c c8 1f 3d 57 5b 27 3d
       0.04609732 -0.055118036 0.039009556 0.040858593
000020 4f b6 16 3d 9e 7c cd 3c a2 30 10 bd 90 0a cf bc
       0.036794957 0.025083836 -0.03520263 -0.025273591
000030 ce 77 4a 3c 4e 49 c0 3c 96 1f 55 3d cc 81 38 3b
       0.012357665 0.023472454 0.052032076 0.0028153537
000040 47 75 c7 3c 65 52 36 bd cd 66 45 bc 77 7d 0f 3d
       0.024347914 -0.04451217 -0.012048435 0.035031762
000050 2b d0 91 3b 4f 4f 3d 3d 66 cb 3f bd 19 c4 21 bd
       0.0044498644 0.046218213 -0.046824835 -0.039493654
000060 91 5e 99 3c 4f f1 22 bb 5f 74 4d bd e5 63 cb 3c
       0.01872185 -0.002486307 -0.05015981 0.024827907
000070 b6 cb 31 3b 43 ce 67 3c 33 6d 54 3c 82 40 27 bd
       0.0027129478 0.014148298 0.012965488 -0.040833004

backbone.1.bn.weight f4 [32]
000000 dd 39 93 3f 60 37 5b 3f 55 2d 72 3f 72 95 88 3f
       1.1502033 0.8563137 0.9460042 1.0670607
000010 5d 11 83 3f ac e8 79 3f 77 ab 5f 3f 13 f1 94 3f
       1.0239674 0.97620654 0.8737101 1.163607
000020 47 2f 91 3f fb fe 97 3f 69 e0 b3 3f b0 1c 89 3f
       1.1342553 1.1874689 1.405286 1.071188
000030 c3 45 89 3f 50 53 58 3f 81 4a 70 3f b7 b8 80 3f
       1.0724415 0.84502125 0.93863684 1.005637
000040 c6 84 78 3f 60 c4 77 3f 9f 65 8c 3f 1d 84 6b 3f
       0.97077596 0.9678402 1.0968512 0.91998464
000050 33 aa 34 3f 49 be 9c 3f 56 70 7d 3f a3 38 78 3f
       0.70572203 1.224557 0.98999536 0.9696142
000060 26 68 72 3f 09 2c 76 3f ed d7 40 3f 4b 58 58 3f
       0.9469017 0.9616094 0.75329477 0.84509724
000070 4f 8f 70 3f 36 1c 81 3f 78 49 6c 3f 1c f1 41 3f
       0.9396867 1.0086734 0.92299604 0.7575853

backbone.1.bn.bias f4 [32]
000000 85 be 63 be 28 cd 81 be ac f6 fa be bf 24 5f 3d
       -0.22240646 -0.25351834 -0.4901632 0.054478403
000010 51 58 23 be 2e 47 74 bc 37 fc 98 be 71 20 8d be
       -0.15951659 -0.014909549 -0.29879925 -0.27563813
000020 25 d2 97 be 62 6c 39 be ac 0e b7 be 8f 2e 82 bc
       -0.29652515 -0.18107751 -0.3575338 -0.015891341
000030 c1 1f 53 be 12 90 b2 be 70 a5 32 be ea 15 ce 3d
       -0.20617582 -0.34875542 -0.17445922 0.100627735
000040 f0 8d 1a be 8a 4c c0 bd b7 96 17 3e c8 8c 78 be
       -0.15093207 -0.09389599 0.14803587 -0.24272454
000050 3c fe 6c be 1d 36 6e bb 92 f4 22 bf fa 69 2e bd
       -0.23143858 -0.0036348172 -0.63654435 -0.042581536
000060 70 11 cf bd 58 05 11 be 2c cd e7 be b0 7d b0 be
       -0.10110748 -0.14162195 -0.4527372 -0.34470892
000070 4a 52 f2 3c 79 d2 31 be 4d 4c 9a bd 04 b6 a4 be
       0.029580254 -0.17365445 -0.075340845 -0.32170117

backbone.1.bn.running_mean f4 [32]
000000 a5 9b e7 be 47 ea bc 3e ac 49 eb 3e f9 19 4c bf
       -0.45235935 0.3689749 0.45954645 -0.7972713
000010 ff 87 79 bf 3b 96 fc bf 2e 96 5d 3f 23 8d 65 3e
       -0.9747314 -1.9733347 0.8655728 0.2241712
000020 dc 35 d0 be 92 b3 fa 3e ef f6 34 be 4e b8 07 bf
       -0.4066609 0.48965126 -0.17672323 -0.530156
000030 f8 bf 60 be 51 0d 30 3f 35 63 46 3f 01 f1 bb bf
       -0.2194823 0.6877032 0.7749513 -1.4682924
000040 31 f8 d0 bd 73 92 38 bf a0 9b 63 bf 59 37 2d be
       -0.10203589 -0.72098464 -0.8890934 -0.16915645
000050 90 22 70 3f 3e 1d a4 be b9 ab c0 3f 50 4e 8b bf
       0.9380274 -0.3205356 1.5052406 -1.0883274
000060 d4 3c b5 bf b1 39 47 be 45 d0 11 3f 33 52 e1 3f
       -1.4159188 -0.19455601 0.5695842 1.760321
000070 55 73 c2 bf 47 61 2b bf f5 4a 60 3e c0 f2 3e 3f
       -1.5191447 -0.6694531 0.21903594 0.7458916

backbone.1.bn.running_var f4 [32]
000000 55 2d c8 3e 59 1b 61 3e b0 93 8a 3e 78 d2 22 3f
       0.39097086 0.21983089 0.27065802 0.636024
000010 f3 73 d3 3e 69 11 d5 3f 41 7d f6 3f d9 37 d7 3e
       0.412994 1.6645938 1.9256974 0.42034796
000020 a2 b8 e8 3e ce b8 22 3f fb 8e 05 3f e3 7a 14 3f
       0.45453364 0.6356324 0.52171296 0.5800001
000030 a6 5b eb 3e 09 e2 3c 3e 54 9a 91 3f ba ce 01 40
       0.4596836 0.184456 1.1375222 2.0282426
000040 df db 30 3f ec 58 f2 3e b0 1d 65 3f ce 04 d5 3e
       0.69085497 0.47333467 0.89498425 0.41605228
000050 4a 6f ae 3e b4 f4 9f 3f 7e f5 93 3f 66 67 fc 3e
       0.34069282 1.2496552 1.1559293 0.49297637
000060 c2 a3 29 3f 75 22 50 3f 25 2b 83 3e c2 5a c7 3f
       0.662655 0.8130258 0.25618854 1.5574572
000070 be 68 e2 3f 24 f5 5f 3f a1 50 ee 3e 43 9b 8a 3f
       1.7688215 0.8748343 0.4654589 1.0828632

backbone.2.conv3x3.weight f4 [32, 32, 3, 3]
000000 78 68 12 bc df 6a 90 3b 05 35 be 3c 4f 8d 45 3d
       -0.00893604 0.0044072713 0.023218641 0.048230466
000010 08 ea 91 3d 41 6b 20 3d 11 b2 00 3d 77 c0 d4 3d
       0.07124716 0.039164785 0.031419817 0.10388272
000020 68 55 a1 3b 72 f1 11 bc e9 bc 95 3c d0 81 f9 3b
       0.0049235113 -0.008907663 0.018278556 0.007614352
000030 17 44 87 bc 8a 8e 31 3c 0e b8 b6 3c 25 8b a0 bd
       -0.01651196 0.010837207 0.022304561 -0.0783904
000040 31 9e 95 bd b6 87 ff bc 79 ed 10 bd e6 78 ad 3c
       -0.07305563 -0.031192642 -0.03538272 0.021175813
000050 1b 01 4b bd 4c dd 4a bd 10 9f 3e 3e 3b a0 b7 3c
       -0.0495616 -0.04952745 0.18615365 0.022415271
000060 48 06 76 3b 29 a1 c3 bd da 16 ac bc 75 44 d9 3d
       0.0037540365 -0.09552223 -0.02100699 0.1060876
000070 2a e2 3e be 75 32 2c 3d 24 8e 09 3b c8 20 f9 3d
       -0.18640962 0.042040307 0.0020989263 0.12164456
000080 e5 92 25 3d 4a 06 2d bd 67 69 e1 bc 9f 28 0f 3d
       0.040423293 -0.042242326 -0.02751608 0.03495085
000090 7b 98 09 bd b6 3c 92 3d 65 c3 42 3c 17 c5 89 bd
       -0.033592682 0.07140486 0.011887406 -0.06727045
0000a0 e3 6d 5a bd ae 88 ca bc a9 36 89 bd 81 ff 3b bd
       -0.053327452 -0.024723377 -0.06699879 -0.045897964
0000b0 a7 90 fb bc 32 7f c3 bd 2f 05 a1 3c 02 53 5f bb
       -0.030708624 -0.09545745 0.019655792 -0.0034076576
0000c0 77 27 52 bd 46 0e db bc 90 4a 16 3d e8 3a cb 3c
       -0.051307168 -0.026740205 0.036692202 0.024808362
0000d0 ae c8 d3 3c 74 21 11 3d 2d 6e e4 bc ad f4 37 3c
       0.025852527 0.035432294 -0.027884567 0.011227769
0000e0 99 4e 7c bd 1f 7e a1 bc bc b3 d4 3d ea 85 b7 bb
       -0.061598394 -0.01971346 0.10385844 -0.0056006806
0000f0 ff 07 23 bd 72 70 87 3c c8 6c 54 3c 41 af 0f 3c
       -0.039802548 0.01653311 0.012965389 0.008769811
000100 a9 67 a4 bc 07 19 33 3c 6d 4e fd ba 66 22 9a 3c
       -0.02006896 0.01093126 -0.0019325741 0.01881523
000110 ae 13 45 3d 93 50 3e 3b a7 70 58 3e 7f 35 ca bc
       0.04811447 0.0029039725 0.21136723 -0.024683712
000120 d2 fb fd bc 8f a0 17 bc 95 1f a8 3a eb 54 65 3e
       -0.031003866 -0.009254589 0.0012826795 0.22395675
000130 ea e1 e6 3c 89 69 88 3c ea 26 24 3d ab af 7d b9
       0.028183896 0.016651886 0.040076174 -0.00024193402
000140 71 75 23 3c e1 a8 d1 3b 3c 84 c8 bc a1 45 34 bd
       0.009976731 0.0063983058 -0.024477117 -0.044011716
000150 23 db 5e bd b3 c6 8b 3e 33 f5 8e 3c a9 8a 28 bc
       -0.054408204 0.27300033 0.017450904 -0.010286965
000160 16 47 f1 bb 07 57 f3 bb d1 1b 8d 3b b7 6d ba bc
       -0.0073632104 -0.007426146 0.0043062945 -0.022757394
000170 8f 5b ed b9 eb 67 ee 3e 62 09 0b 3d a7 cb 98 3a
       -0.0004527238 0.46563658 0.033944495 0.0011657373
000180 e1 96 f9 bc 59 3c 15 bd 17 ff 52 bc 4e dd b0 bd
       -0.030467452 -0.036434505 -0.012878201 -0.086359605
000190 ea 8b be b9 3f 30 0e 3d b9 21 1c 3b b8 e5 c9 bd
       -0.00036343868 0.03471398 0.0023823811 -0.098582685
0001a0 97 55 0e 3c e5 be a5 bb ac 81 8f 3c b3 57 a4 bc
       0.008687398 -0.005058157 0.017517887 -0.02006135
0001b0 74 e7 e4 3c fa b9 cb 3d 94 a0 58 3c fc fb 85 3c
       0.027942397 0.099475816 0.013221879 0.016355507
0001c0 fa a8 0c 3d c9 f5 c4 3c a4 70 37 3c 51 b8 7c 3c
       0.034340836 0.02404298 0.011196289 0.015424804
0001d0 ee e7 a1 b8 cb 7c 6a bd e6 cb 2a bc ee c1 21 bd
       -7.7202785e-05 -0.057247918 -0.01042459 -0.039491586
0001e0 b7 7a 0f bd 02 32 e8 3d e4 f0 03 bd a5 34 45 bb
       -0.03502914 0.11337663 -0.032212153 -0.0030091193
0001f0 00 03 07 3c 62 e8 b8 bc 7c 02 94 3c fd db 0f 3c
       0.008240461 -0.022571746 0.01806759 0.008780477
000200 47 5f 16 bc 6a 0b 83 3d 01 9c 2a 3d 46 0d 85 3d
       -0.009177989 0.063986614 0.041652683 0.06496672
000210 35 2f 70 3c 52 cd 23 3d 0e 1f 6a 3c 17 48 16 3d
       0.0146596925 0.03999073 0.014289631 0.036689844
000220 8b 01 52 3d 60 4b 27 3c f3 57 d5 3d 84 60 f8 3c
       0.051271003 0.010210842 0.104171656 0.03031946
000230 b0 bd 0e 3d 86 42 61 bc 1b 2a 1a bc 31 97 a2 3a
       0.03484887 -0.013748771 -0.009409453 0.0012404678
000240 d9 d5 65 bb 3c ba b6 bb 2a 9b f1 bc 8b 56 a8 3c
       -0.003507009 -0.0055764 -0.029492933 0.02054908
000250 1f 53 e2 bd 68 ae 9d bc 4d 99 ed bc b6 b5 56 bc
       -0.1105101 -0.019248202 -0.029003764 -0.013104847
000260 c9 e8 6e 3c c2 0b 48 3c 8e 31 ed 3c d1 74 24 3d
       0.0145818675 0.0122098345 0.028954294 0.040150467
000270 95 4d d7 bc d7 ef 56 bd 83 f0 27 3b b4 73 22 3d
       -0.026282111 -0.052474823 0.0025625534 0.039661124
000280 9a 75 11 bc 66 7f 7b bc 95 ef 66 3d ea 82 d8 3a
       -0.008878136 -0.015350198 0.056380827 0.0016518508
000290 22 30 14 bd d9 ac ad 3c c4 61 5c 3e 5a 57 63 3d
       -0.036178716 0.021200584 0.2152167 0.055503227
0002a0 c9 e9 e3 3c 35 60 ea 3d eb 29 b4 3d d5 60 8a 3c
       0.027821438 0.11444131 0.08797058 0.016891876
0002b0 23 ea da 3b 6c 37 b7 3c fe 7b 09 3d fd 44 90 bd
       0.0066807433 0.022365294 0.033565514 -0.070444085
0002c0 0a 9a e5 3c be fc c5 3c ad cf d0 3c 4e dd 1e 3d
       0.028027553 0.024168368 0.025489653 0.03878527
0002d0 5c 0a 2e 3c 34 0c 12 bd 1d 4d de 3c 78 ac d6 3c
       0.010622587 -0.03565617 0.02713638 0.026205286
0002e0 82 fc d1 3c ca de 86 3c 55 ba 15 bd 2e 16 c9 3d
       0.0256331 0.016463656 -0.036554653 0.098186836
0002f0 ef e8 f0 3b 56 76 1e bd 68 c3 98 bb 37 f1 88 bc
       0.0073519866 -0.038687073 -0.004661966 -0.016716583
000300 5d e9 b7 bd 4d 82 84 3e cf ea f2 3c 1a bf 58 bd
       -0.089800574 0.25880662 0.029652981 -0.052916624
000310 7b 44 22 bc 07 1b 9c bd 24 2e f8 3c b2 43 5b 3d
       -0.009904022 -0.076223426 0.030295439 0.053531356
000320 31 ae a2 3b b0 bf f7 bb 4e 13 5d 3e be a4 2b bc
       0.004964613 -0.0075606927 0.21589395 -0.010476289
000330 e8 2a 2f bd ee 67 cf 3c b5 fc ce bc 8c 0d 98 3c
       -0.042765528 0.025318112 -0.025266984 0.018561147
000340 c3 12 54 3d e7 c7 c3 3c 94 b3 0b 3d 9f ca c9 3c
       0.051775705 0.023899032 0.034106806 0.02463275
000350 62 f7 8f 3c 6b 52 89 3c 27 29 91 3c 9a 4e ef 3c
       0.017574016 0.016762933 0.017719818 0.029212285
000360 ee fb 9b bd c9 2e dc bc 8f f1 a8 bd 7a 85 76 bd
       -0.07616411 -0.026877778 -0.08249199 -0.060185887
000370 9d ff 5c 3d 08 05 c4 bd 8a 88 9a bd 76 4d 0f bd
       0.05395471 -0.09571272 -0.07545574 -0.034985982
000380 83 a5 5f bd 53 c6 02 3c 75 27 d9 3d 03 45 c8 3c
       -0.054601204 0.0079818545 0.10603229 0.02444697
000390 a1 ac 05 bd c2 87 20 3d b8 28 be bc 14 9c 93 bd
       -0.032635335 0.03919197 -0.023212776 -0.07207504
0003a0 aa 7a d1 3c a9 d0 17 3d 60 11 a6 3c 9a 2d af 3c
       0.025571186 0.03706423 0.020271957 0.02138405
0003b0 57 d3 1e bd b7 6c 21 bd 65 ce 99 3b 55 8d 87 3d
       -0.038775768 -0.03941032 0.0046937936 0.06618754
0003c0 9f 3c c5 3c cb 35 18 bd 3b 24 5f bb 0b c3 72 3c
       0.024076758 -0.037160676 -0.0034048695 0.01481701
0003d0 9c f5 8f 3c 19 12 24 bd b7 0b a7 bc 62 4e c0 3c
       0.01757317 -0.04005632 -0.020391328 0.023474876
0003e0 8f fe 9d bd b8 f6 17 3c 82 60 6a 3d 56 bb bf bc
       -0.07714569 0.009275131 0.057220943 -0.023404758
0003f0 da a4 bf bc 26 ab 44 bd f6 ab 7c bd f0 95 94 bd
       -0.023394037 -0.048014782 -0.061687432 -0.07255161

backbone.2.conv3x3.bias f4 [32]
000000 43 86 34 bd 6b 16 e9 3c e5 30 30 bd eb 3d 3a bd
       -0.044073354 0.028453073 -0.04301538 -0.045469206
000010 6d 37 30 bd 76 05 42 bd a6 3d 3a 3d ac 78 cf bc
       -0.04302161 -0.04736849 0.04546895 -0.025326096
000020 77 f0 14 3d c4 a1 85 bc 6c db 91 bc c4 af 84 bc
       0.036362138 -0.016312487 -0.017804824 -0.016197093
000030 f2 0a 43 bd 03 ac 8a 3c 3e c8 be bc b0 d3 8e 3c
       -0.04761786 0.016927725 -0.023288842 0.017434925
000040 ed d6 4c bd ca ac 17 3c 96 dd 42 3d 9d 07 98 bc
       -0.050009657 0.009257505 0.047574602 -0.018558318
000050 bb 54 4a 3c 01 b8 6d bd c1 5c c4 bc 1b 6e 47 3d
       0.012349303 -0.058036808 -0.02397001 0.04868899
000060 8c 87 bf 3c 3c c2 b2 3c 16 01 d2 3c 2b b7 44 bc
       0.023380063 0.021821134 0.025635283 -0.012006561
000070 ce f3 cb bc 67 56 63 3d ad cd b1 bc 3a cc 9a bb
       -0.024896529 0.05550232 -0.02170452 -0.0047240527

backbone.2.bn.weight f4 [32]
000000 eb b3 82 3f c8 50 89 3f 8d 6d 97 3f 14 4f 6c 3f
       1.0211157 1.0727777 1.1830307 0.92308164
000010 ec f2 6e 3f fc 51 7b 3f bd 35 73 3f 45 d9 85 3f
       0.9333942 0.98171973 0.95003873 1.045693
000020 fe ef 81 3f d2 33 66 3f c9 ed 5b 3f 18 4d 80 3f
       1.0151365 0.8992282 0.85909706 1.0023527
000030 ca c8 59 3f 4f bf 86 3f 6d 05 69 3f 2b 2c b4 3f
       0.85072005 1.0527133 0.91023904 1.4075979
000040 e2 0d 5a 3f 68 93 87 3f 76 93 87 3f f3 54 91 3f
       0.85177433 1.059186 1.0591877 1.135405
000050 84 6c 6b 3f 03 88 85 3f cb c3 4a 3f f3 41 8b 3f
       0.91962457 1.0432132 0.79205006 1.0879501
000060 69 0c 54 3f f1 e5 7b 3f 7a b9 80 3f 06 c8 73 3f
       0.82831436 0.9839774 1.0056603 0.95227087
000070 58 8d 8d 3f ca 3e 76 3f e3 cb 84 3f e8 6c 78 3f
       1.105876 0.9618956 1.0374721 0.9704118

backbone.2.bn.bias f4 [32]
000000 ac 28 02 bf 8b 84 80 be ca cd ff bd 7f 85 11 be
       -0.5084331 -0.25101122 -0.12490423 -0.14211081
000010 f5 98 e1 be 35 0f 09 be 9f 73 0c 3e ce 09 ad bd
       -0.4406201 -0.13384707 0.13715981 -0.08449136
000020 52 e4 99 bc 35 22 a3 be 38 02 cc be bc c8 5f bc
       -0.01878563 -0.31862035 -0.39845443 -0.013658699
000030 7b 81 ad be df 2e 2f be e2 a7 4b be b0 75 bb be
       -0.33887848 -0.17107724 -0.19888261 -0.36613226
000040 2a 96 59 be 17 8f bd be 63 2f b4 be 5a 06 b3 be
       -0.2124869 -0.3702323 -0.35192403 -0.34965783
000050 d8 16 92 be 6a 91 cb bd 52 97 73 be 17 ea 88 be
       -0.28533053 -0.09939845 -0.23788193 -0.26741096
000060 91 d1 63 be 47 3c 9d be 94 c4 a1 be 96 ae 7b be
       -0.22247912 -0.3071005 -0.3159529 -0.24578318
000070 15 7c 92 be e7 67 9a bd 99 ad 9c 3d aa d8 0e be
       -0.28610292 -0.07539349 0.076502986 -0.13949838

backbone.2.bn.running_mean f4 [32]
000000 7b 15 25 3f 5f 6a b0 be 3c a9 31 bf b9 bd 4b bf
       0.644859 -0.34456155 -0.69398856 -0.7958637
000010 c3 c9 f2 bd 74 d0 36 bf 1c 8f ab bf cd e6 15 bf
       -0.11854889 -0.71411824 -1.3403049 -0.585553
000020 aa 7e 9d bf fb e0 3e 3f 84 0e 1f bf e0 02 9b bf
       -1.230428 0.7456204 -0.62131524 -1.2110252
000030 d9 82 60 3f 6a 75 fa be 80 93 87 bf f8 ea cb bd
       0.8769966 -0.48917705 -1.0591888 -0.09956926
000040 f1 98 ad bd 77 ff 29 bf 80 d3 a3 bc c4 a5 f3 be
       -0.08476437 -0.66405433 -0.019998312 -0.47587407
000050 64 e5 cc 3e 6e fe 95 be 3b ac d1 3d ce e3 f4 bc
       0.4001876 -0.29295677 0.102379285 -0.029893782
000060 05 94 9c 3f 71 42 48 bf a6 62 25 be a2 56 24 bf
       1.2232672 -0.7822638 -0.16150913 -0.6419469
000070 50 70 60 bf c7 48 4d bf d8 54 c0 bf c5 d2 83 bf
       -0.87671375 -0.80189174 -1.5025892 -1.0298697

backbone.2.bn.running_var f4 [32]
000000 dc 67 36 3f 4b 20 ea 3e c1 74 03 3f 7b 27 85 3f
       0.71252227 0.45727763 0.5135003 1.0402673
000010 d2 40 f3 3e 44 45 ad 3e 3b 37 4e 3f 9c 83 3f 3f
       0.4751039 0.33841908 0.80553025 0.74810195
000020 ca 83 a4 3f 52 9e 8d 3f f1 23 36 3f 0f e5 bf 3e
       1.2852719 1.106394 0.7114859 0.37479445
000030 29 48 b6 3e e2 5c 02 3f 27 90 aa 3f 84 6c ab 3e
       0.3560193 0.5092298 1.3325242 0.33481228
000040 ec ec d3 3e 77 a2 49 3f d4 fa 1d 3f 63 00 df 3e
       0.41391695 0.78763527 0.6171086 0.43554983
000050 01 b8 16 3f a4 9a 6a 3f 64 26 bd 3e 2c c5 71 3f
       0.5887452 0.9164221 0.36943352 0.94441485
000060 21 ea fd 3f 88 77 29 3f ed 20 2f 3f 9b 3e 0d 3f
       1.9837075 0.66198015 0.68409616 0.55173653
000070 71 52 48 3f 27 02 08 3f 6f 95 ae 3f 8f 8f 06 3f
       0.78250796 0.53128284 1.3639354 0.52562803

backbone.3.conv3x3.weight f4 [32, 32, 3, 3]
000000 b1 27 29 bd 67 0d 04 be a1 36 b0 3c 6e 10 e4 bc
       -0.04129762 -0.12895738 0.021510424 -0.027839866
000010 45 12 c1 3d 0c 4d eb 3b 4b d6 09 be b9 da 1e 3b
       0.09427313 0.0071808156 -0.13460653 0.0024239256
000020 2e fe 3d 3d 6a 9c 2a 3c 39 ec b5 ba 3c 12 0b 3d
       0.046384983 0.010413269 -0.0013879604 0.033952937
000030 7d 6f 12 3d 08 64 40 ba ea 10 46 bd d9 42 27 3d
       0.035750855 -0.00073391246 -0.048355974 0.040835235
000040 44 f7 0c 39 de 1c 77 bd ed 0a b9 bc 7e bd ad 3c
       0.00013443554 -0.060330264 -0.022588218 0.021208521
000050 d4 e7 9d 3c a0 3b 11 3c 9f af 6a bb aa 0d e6 bd
       0.019275583 0.008864313 -0.0035810245 -0.11233075
000060 13 84 75 3c 6a 68 bc 3d c5 55 f2 bc 5e 27 0a bd
       0.014985102 0.09199603 -0.029581914 -0.03372895
000070 7c c1 bc 3c 89 0e b0 3c 1d 4b 0a 3d 66 2c c0 bb
       0.02304148 0.021491306 0.03376304 -0.0058646677
000080 fc da 86 3d 59 0e 58 3d e3 8a 57 3d 9a a4 1c bd
       0.06584737 0.052748058 0.052622687 -0.038242914
000090 2a 44 a5 bb 69 89 8a bc 51 44 06 bd 9c d1 45 bd
       -0.005043526 -0.016911225 -0.032779995 -0.048295602
0000a0 62 c0 e0 bc b8 eb b9 3d 70 06 35 ba a2 fe 05 3d
       -0.027435485 0.09078163 -0.00069055613 0.03271354
0000b0 78 91 0a bd 4e 6c 17 be 97 ab 50 3c 0a 19 12 bc
       -0.033830136 -0.14787409 0.012736223 -0.008917103
0000c0 fc 3a f2 3a 02 b3 15 3d 41 e1 9c 3d b5 67 14 bd
       0.0018480713 0.03654767 0.07660151 -0.036231715
0000d0 79 45 10 3e 64 6b 0d 3d 12 9c 13 bd 9d a3 18 bd
       0.14089002 0.034526244 -0.036037512 -0.03726541
0000e0 dd c6 46 bd 6d de bf 3b 0f f5 93 3d 8f 5d f2 bd
       -0.048529495 0.0058553726 0.072244756 -0.11834251
0000f0 e0 77 02 bc b2 6b e8 bd 83 f6 21 bd 2b 20 b0 bc
       -0.007963151 -0.11348666 -0.039541733 -0.021499714
000100 76 a1 b0 3d f1 09 91 bc 1a 82 c4 3d 3e ff c3 bd
       0.08624546 -0.017704936 0.095951274 -0.09570168
000110 8f 38 8e bc d3 84 78 3b 01 f2 84 3d c7 ce 9f bd
       -0.017360954 0.0037920966 0.06491471 -0.078031115
000120 50 98 91 bd 0d 72 2a bb 81 c4 e3 b9 d9 a6 c3 3d
       -0.071091294 -0.002600792 -0.0004344322 0.09553308
000130 d9 7f c4 bd a0 95 54 bc 0b a5 68 3c 56 6e ca bc
       -0.095946975 -0.0129751265 0.014199506 -0.024710815
000140 f0 b4 4e bc 91 9e 25 3c 43 ae 50 3d 83 08 b3 3c
       -0.012616381 0.010108606 0.05094744 0.021854645
000150 b2 17 9e 3d c4 04 9f 3d 9a 35 2e bc 04 30 a2 3c
       0.07719363 0.07764581 -0.010632897 0.019798286
000160 88 1f e2 bc c4 77 09 3c 19 d2 2f 3d c2 c5 c7 bb
       -0.027602926 0.008390371 0.042924974 -0.0060965726
000170 95 b8 51 bc 78 9e 0f 3d 81 3b 5e bd c4 0d 23 3e
       -0.012800355 0.035063237 -0.054255966 0.1592322
000180 35 25 91 3c 9d 0e 92 3c 61 bd c8 bc 60 1c f0 bd
       0.017717937 0.017829234 -0.024504365 -0.11724162
000190 39 f0 5e bc 9f b3 98 bc cb 4d 21 bd f7 b4 d3 bd
       -0.013607078 -0.018640338 -0.03938083 -0.10337251
0001a0 ce 37 8f bd 5c 58 05 be c7 99 c4 bc f4 87 4c bd
       -0.06993066 -0.13021988 -0.023999108 -0.049934343
0001b0 57 f7 e6 bc c4 85 4e 3d 41 8e e5 3a 82 3b fe 3d
       -0.028194113 0.050420538 0.0017513708 0.12413694
0001c0 82 6b 4d 3d c3 ee 8a 3d 89 8d de bb 34 e9 09 bd
       0.050151356 0.067838214 -0.0067917746 -0.033669665
0001d0 53 b7 6f 3b 50 0f f7 bc df 53 3a 3d 2e f6 65 bc
       0.0036577776 -0.030158669 0.045490142 -0.014035745
0001e0 89 80 3c 3d 85 17 2e bd 73 90 98 3d 17 22 a0 3d
       0.04602102 -0.0425029 0.074494265 0.07819002
0001f0 8b 60 e7 bc fe e4 01 3d 93 06 ad bb eb 35 86 3d
       -0.028244277 0.031712525 -0.0052803247 0.06553253
000200 8f 13 6c 3d 1a d6 f2 3d 40 c0 65 3d a9 27 bf 3d
       0.05763584 0.11857243 0.056091547 0.093337364
000210 d2 84 e7 3c db fb 0c 3d 4e b8 cf 3c bd 0c db 3b
       0.028261576 0.034419876 0.025356438 0.006684868
000220 e9 81 ff 3d 52 75 b8 bc 17 2b 02 3e d8 9e 9b 3d
       0.1247595 -0.02251688 0.1271175 0.075986564
000230 bc 7a 6d 3d 86 d2 c2 bc 38 dc f4 3d 90 1a 96 bc
       0.057978377 -0.023782026 0.11956066 -0.018323213
000240 32 3c 99 bd e4 22 59 bd fd 2b e5 bc 18 6c 46 be
       -0.074821845 -0.05301179 -0.027975077 -0.19377172
000250 a3 a7 29 be af 7c 2a 3c 21 86 cf 3a e2 6b d6 bd
       -0.16567855 0.010405703 0.001583282 -0.10469796
000260 a0 e0 0a 3c b7 b8 d4 bc d8 cc cd 3d da 0f b2 3c
       0.008476406 -0.025966985 0.100488365 0.021736074
000270 29 c5 01 bd 0e de be 3b c3 94 95 3c 99 d7 06 3d
       -0.031682167 0.005824811 0.018259412 0.032920454
000280 b1 d0 cf 3d 5e 75 8b 3b 92 92 78 3d 41 ff d4 bc
       0.101472266 0.0042559346 0.060686655 -0.02600062
000290 4a bc 57 bb 2e 80 50 be 16 8c 04 3e 12 1c 9c bc
       -0.0032918626 -0.20361397 0.12944064 -0.019056354
0002a0 72 32 e7 bc 06 72 3c 3d 6d 8d 68 3d cd fd 6c 3c
       -0.028222296 0.04600718 0.0567755 0.014464808
0002b0 cc 01 df bc 5f 32 a7 bc 95 90 f0 bd 79 ef 13 be
       -0.027222537 -0.020409761 -0.11746327 -0.1444682
0002c0 b0 41 ff 3d e4 9e e4 bc 7c 20 68 3d 3d 79 0c 3d
       0.12463701 -0.027907796 0.056671605 0.03429531
0002d0 47 bd 26 3d 3d e3 2b bc fb e5 44 bd ef 6c 94 3d
       0.040707853 -0.01049119 -0.04807089 0.0724734
0002e0 68 05 af bc 6e 2c dc bc c0 6c b2 bc f5 9e a3 bc
       -0.021364883 -0.026876654 -0.021780372 -0.019973258
0002f0 b1 d6 e9 3b 9c f7 d3 bc bc 05 5c 3c c6 66 a3 3b
       0.007136189 -0.025874905 0.013429102 0.004986617
000300 54 b4 e2 3c 8b fb 75 bd 67 6b 4a 3d 95 ba df 3d
       0.027673878 -0.060054343 0.049418833 0.109242596
000310 b3 10 b9 3d c9 15 51 b9 67 35 77 3b 0f be 2f bd
       0.09036388 -0.00019939909 0.003772104 -0.042905863
000320 1c d3 b0 3c d7 df c1 bc 65 0f 46 bd d0 79 85 3b
       0.02158504 -0.023666305 -0.048354525 0.004073359
000330 ba 51 0c bc e8 76 a0 3c 6f a9 47 bd cd be ce bc
       -0.008564407 0.019587949 -0.04874557 -0.025237465
000340 b4 ac 28 3e 34 fa c6 3c d2 4d 04 3e ce 36 13 3d
       0.16472131 0.024289228 0.12920311 0.035940938
000350 9a 82 3c bd 72 c4 f0 3c 51 6c e6 3c 70 f3 5b bd
       -0.04602299 0.029390547 0.028127821 -0.053698957
000360 5d 2a d4 3c 99 54 3f 3d 9b 5e 2a bd 49 9a 82 bc
       0.025899107 0.046711538 -0.04159413 -0.01594271
000370 fd b5 2b 3b f7 a6 99 3c 39 99 a2 3b 0c ac 19 bd
       0.0026201003 0.018756373 0.004962113 -0.037517592
000380 7a c4 3b bc b1 a1 c1 3c 38 81 86 3c d8 bf 4c 3d
       -0.011460418 0.02363667 0.016419038 0.049987644
000390 6f 61 02 3d 47 86 7b 3d d8 0e 31 3c 54 d6 88 3c
       0.0318312 0.061407354 0.010806762 0.016703762
0003a0 0e d2 6c 3c 24 d2 92 bc 46 89 1b 3d dd 18 3a bd
       0.014454378 -0.017922468 0.03797271 -0.045433868
0003b0 e5 0c 2c bd ca 71 f3 3c 82 16 c0 3c a2 1e 8d 3d
       -0.042004485 0.029717345 0.023448233 0.06890608
0003c0 88 40 11 3d d5 0f 2b 3d 0b 85 ba 3d 6b a5 f9 3c
       0.035461932 0.041763145 0.09107407 0.030474385
0003d0 99 c5 8e bc 10 3b 58 3d 6e a2 87 3d a1 4b c5 3d
       -0.017428206 0.0527907 0.06622778 0.09633566
0003e0 02 69 05 3e 62 33 0f 3c d8 7d 35 3d 68 b5 24 3d
       0.13028339 0.008740278 0.044309467 0.040212065
0003f0 50 3d bd bb ac 5b fb 3d 20 f0 e9 3c 43 b9 65 bb
       -0.0057751313 0.122733444 0.028556883 -0.0035053052

backbone.3.conv3x3.bias f4 [32]
000000 5f 87 12 3d 42 0b a7 3b 3f de b4 bc 77 4c 01 3c
       0.03577363 0.0050977776 -0.022078631 0.007891766
000010 43 e6 98 bc 3c 00 3e bd 5a a3 24 bc ee f6 6f bd
       -0.018664485 -0.046386942 -0.010048712 -0.0585851
000020 75 00 9b bc b4 c9 9e 3c c8 7d 3d bd f4 93 b6 3c
       -0.018921116 0.019383289 -0.046262532 0.022287346
000030 0f 5d 71 3d 12 38 75 3c 05 d4 24 bd af b7 a7 bc
       0.05892664 0.0149669815 -0.04024126 -0.02047333
000040 58 eb 7b bc ab 0a ae bb 86 53 2f bd 36 f6 7e bc
       -0.015375935 -0.0053113303 -0.042804264 -0.015561631
000050 43 85 90 3c 0f ba 5d bd a5 55 30 bd 10 12 e5 3c
       0.01764167 -0.054132517 -0.043050427 0.027962714
000060 bb fc 4e bc 04 fa ff bc 98 b5 df 39 96 2d 02 3d
       -0.012633498 -0.031247146 0.00042669172 0.031781755
000070 f6 57 f4 3c 04 43 1a bc ac d8 f1 bb 98 1c e8 3c
       0.0298271 -0.009415392 -0.0073805656 0.028333947

backbone.3.bn.weight f4 [32]
000000 32 b8 65 3f 4b b7 71 3f 6c 9c 85 3f a9 8e 7f 3f
       0.89734185 0.9442031 1.0438361 0.9982706
000010 c4 66 6b 3f b6 98 88 3f 6b e4 8a 3f 47 09 88 3f
       0.9195368 1.0671604 1.0850958 1.0627831
000020 40 6a 4e 3f 86 eb 64 3f 13 a8 74 3f 11 cd 80 3f
       0.80630875 0.8942188 0.9556896 1.0062581
000030 b5 cf 75 3f 0a 51 81 3f d6 ed 81 3f e0 07 92 3f
       0.9602006 1.0102856 1.0150707 1.1408653
000040 3f c8 84 3f 11 e1 86 3f 0a 41 66 3f 61 de 73 3f
       1.037361 1.0537435 0.8994299 0.952612
000050 4b 24 85 3f 7b 24 57 3f 74 12 81 3f 5b 1f 61 3f
       1.0401701 0.8404004 1.0083756 0.8793847
000060 e1 b3 85 3f ae ec 92 3f 0a 4f 63 3f 67 22 75 3f
       1.044552 1.1478479 0.8879248 0.9575562
000070 72 49 79 3f 87 d3 5c 3f d3 f5 98 3f c1 71 66 3f
       0.97377694 0.86260265 1.195002 0.90017325

backbone.3.bn.bias f4 [32]
000000 e3 1c cd be 26 7e d0 be 2e f2 93 be d9 82 9d be
       -0.400611 -0.40721244 -0.28895706 -0.3076389
000010 fa 19 db bd ff f7 d4 be 02 2b d0 be fd 2e 7e be
       -0.10698314 -0.41595456 -0.40657812 -0.24822612
000020 e4 6d 7b bd 0f 33 75 be 0b bb 97 be 61 d8 a5 bc
       -0.061384097 -0.23945259 -0.2963489 -0.020244779
000030 06 13 8b bd fd 68 5b be 2d 3f 41 be d8 e4 a1 be
       -0.06790738 -0.21426769 -0.18871756 -0.31619906
000040 40 8b af be ab 9d 8d be 35 88 8e be 10 55 cf be
       -0.34285927 -0.27659354 -0.27838293 -0.40494585
000050 ba bc a7 3d 32 b0 6c be 49 a6 5a bd 3b 63 d3 bd
       0.081902936 -0.23114088 -0.053381238 -0.10321661
000060 9e a1 db be f0 0e 08 3e 00 f0 95 be aa f0 92 be
       -0.42896742 0.13286948 -0.29284668 -0.28699237
000070 61 b3 d7 be 11 3b 6e be cd fb 81 3e 77 a4 8c bd
       -0.42129043 -0.2326472 0.2538742 -0.06867307

backbone.3.bn.running_mean f4 [32]
000000 d8 17 b3 3e a3 ab 61 3e f8 84 7f be 20 50 5c 3e
       0.3497913 0.2203813 -0.24953067 0.2151494
000010 72 47 7e bd 7f e5 9a 3e 2c 67 84 bd 4d 3a fe ba
       -0.062079854 0.30253217 -0.06464991 -0.0019396037
000020 b2 bc 8a be 3a a8 ab be 0a 61 1b be c6 ce 5c bf
       -0.27097088 -0.33526784 -0.15173736 -0.8625301
000030 1c ba 29 3f f0 4e 2b bd 3a e7 72 be a1 4d 8a be
       0.66299605 -0.041823328 -0.23721018 -0.2701235
000040 22 2e 24 be 53 4a d6 bd 07 83 77 3d 62 d0 93 3e
       -0.16033223 -0.10463395 0.06042769 0.2886992
000050 7e 8d fe be d5 23 14 3f b5 66 f2 bd 3b 6f 66 3f
       -0.49717325 0.57867175 -0.11835996 0.90013474
000060 99 de c8 bd 20 0c 9e be 88 0f d6 bd 9f 8c 1c be
       -0.09808082 -0.30868626 -0.10452181 -0.15288018
000070 19 5a 64 3e d1 77 78 3e 64 73 68 bf 6f e6 bd 3e
       0.22299995 0.24264456 -0.9080107 0.3708987

backbone.3.bn.running_var f4 [32]
000000 22 68 68 3f 16 cb a6 3f 34 6d 90 3f 35 cf 13 3f
       0.90783894 1.3030727 1.1283326 0.5773805
000010 1b 09 22 3f 37 db 46 3f b9 ae 59 3f 48 4f 90 3e
       0.63295144 0.77678245 0.8503223 0.28185487
000020 b9 ef 23 3f 31 c4 4f 3f 91 4d 7d 3f ed 12 ca 3e
       0.6403766 0.8115874 0.9894648 0.39467564
000030 36 15 41 3f e7 49 fb 3e 44 fa 3e 3f 27 a3 55 3f
       0.7542299 0.4907982 0.74600625 0.83452076
000040 28 77 52 3f 44 76 25 3f f3 f2 6c 3f ae 3d 55 3f
       0.8221307 0.64633584 0.9255821 0.8329724
000050 0f dd f1 3f 58 4a 59 3f 06 88 1e 3f 58 9c 6e 3f
       1.8895587 0.84879065 0.61926305 0.9320731
000060 0c cb 4b 3f 9f f6 60 3f 1b f3 33 3f 01 97 68 3f
       0.796067 0.87876314 0.70292825 0.90855414
000070 11 fb 72 3f af e7 a1 3f 84 e1 0d 40 42 1d 4c 3f
       0.94914347 1.2648829 2.2168894 0.79732144
