models/ch48_last_epoch.pt (torch, 440555 bytes, 38 tensors)

backbone.0.conv3x3.weight f4 [48, 3, 3, 3]
0	0x3e4f9e63	0.20275263
1	0x3d4e0945	0.05030181
2	0xbd91da57	-0.07121723
3	0x3df979f7	0.12181466
4	0xbde16b3c	-0.110067815
5	0x3ba6d3a1	0.005091146
6	0xbd69112f	-0.056901153
7	0x3d723d66	0.059140585
8	0xbaca54c8	-0.0015436644
9	0xbeaa6abc	-0.33284557
10	0xbb64fca3	-0.0034940622
11	0x3cb94ded	0.022620166
12	0x3db3bb96	0.087760136
13	0x3e2f7e6e	0.17138073
14	0x3c68df31	0.014213369
15	0xbd71e5c6	-0.05905702
16	0x3e71b934	0.23605806
17	0xbd1d3f66	-0.03839054
18	0xbd2e82fe	-0.042605393
19	0x3d32fe50	0.043699563
20	0x3b9572b9	0.004560795
21	0x3ce2981c	0.027660422
22	0xbe4b4ec3	-0.19854264
23	0x3d85c3c6	0.065314814
24	0xbb97cb26	-0.0046323715
25	0xbe365112	-0.17804363
26	0x3c2ee309	0.010674247
27	0xbdd8a0f6	-0.10577576
28	0x3db80f88	0.08987337
29	0xbe48e250	-0.19617581
30	0x3d4c495f	0.04987466
31	0xbe1247e0	-0.1428523
32	0x3df83d26	0.12121038
33	0x3d3b7334	0.045764163
34	0xbdc47632	-0.095928565
35	0x3e100acc	0.14066619
36	0x3cdd0083	0.026977783
37	0x3dea5d32	0.11443557
38	0x3d42a533	0.047520828
39	0x3cde2da6	0.027121376
40	0x3e00b85a	0.12570325
41	0xbda423af	-0.080146186
42	0x3dc9f841	0.09861804
43	0x3e6dccfc	0.23222727
44	0x3e0ae902	0.13565448
45	0xbd7ace0a	-0.06123165
46	0x3de35577	0.111002855
47	0xbd2155da	-0.039388515
48	0x3d8d98b1	0.06913889
49	0xbe3df5d0	-0.18550801
50	0xbe6dbcf4	-0.23216611
51	0xbd27049c	-0.04077588
52	0xbe3d9fd8	-0.18518007
53	0x3e1b9796	0.15194544
54	0x3b0447a6	0.0020184307
55	0x3d160911	0.03662974
56	0x3ddbec9c	0.10738489
57	0xbd65cc7d	-0.05610322
58	0x3e7b01c8	0.24512398
59	0xbdcfe1da	-0.101505
60	0x3b3ffc39	0.0029294624
61	0xbe8c28bb	-0.27374825
62	0x3d7636cf	0.060110863
63	0xbdcb4e83	-0.09927084
64	0x3d1b6e08	0.03794673
65	0x3a6c235f	0.0009007956
66	0x3e5fd8de	0.21860072
67	0xbe1522ca	-0.14564052
68	0xbdab5396	-0.08365552
69	0xbdd1ce09	-0.10244376
70	0x3e087478	0.1332568
71	0xbbefcb85	-0.0073179626
72	0x3dd5ddf9	0.104427285
73	0xbdbec576	-0.093150064
74	0xbe01575a	-0.12630978
75	0xbdd823eb	-0.10553726
76	0xbdef8648	-0.11695534
77	0x3e2ed923	0.17075019
78	0x3ce9d41b	0.028543523
79	0x3e5eb924	0.21750313
80	0xbd66b818	-0.05632791
81	0xbd2e8e9f	-0.042616483
82	0x3dedabe4	0.11605051
83	0x3c076301	0.00826335
84	0x3d48d5c5	0.04903199
85	0xbe93bc0f	-0.28854415
86	0x3ddd2941	0.10798884
87	0x3d4c5194	0.049882486
88	0x3d145782	0.036216266
89	0x3d1ec07e	0.038757794
90	0x3cdfafff	0.027305601
91	0x3d9fa816	0.07795732
92	0x3d979d4a	0.074030474
93	0x3d87a49c	0.066231936
94	0xbe86c8ca	-0.26325065
95	0x3c683ef4	0.014175165
96	0x3d4d76b8	0.050162047
97	0x3bfd0601	0.007721663
98	0xbceb8a38	-0.028752431
99	0xbcfde4a8	-0.03099282
100	0xbba7c492	-0.0051198686
101	0x3d2faacf	0.042887505
102	0x3cfe6b03	0.031056887
103	0xbf1c66d8	-0.6109443
104	0x3d0e5d50	0.03475696
105	0x3be0c615	0.0068595507
106	0xba88a946	-0.0010426424
107	0xbb58fc5a	-0.0033109398
108	0xbd3b6e2f	-0.045759376
109	0xbe0d51d1	-0.13800742
110	0x3e40cb96	0.18827662
111	0xbd73a0df	-0.05947959
112	0x3bfcf05b	0.0077190823
113	0xbe8454b2	-0.25845867
114	0xbd4d7a98	-0.050165743
115	0xbd28e3f6	-0.041233025
116	0x3d77ed48	0.060529023
117	0xbdb9da8b	-0.09074887
118	0xbd9094c9	-0.070596285
119	0x3dc61f1f	0.09673905
120	0xbc8d8459	-0.017275022
121	0xbd82b51c	-0.063822
122	0xbdf831c7	-0.12118869
123	0xbcbd352b	-0.023096642
124	0xbce079b2	-0.027401779
125	0xbc926cba	-0.01787411
126	0xbccf7736	-0.025325399
127	0xbe16be19	-0.14720954
128	0x3e66f7cb	0.22555463
129	0xbd471aab	-0.048609417
130	0x3e5f3e95	0.21801217
131	0xbdac891c	-0.08424589
132	0xbeb01100	-0.3438797
133	0x3dba9faa	0.09112485
134	0x3e0d7ff1	0.13818337
135	0x3cb1ec78	0.021719202
136	0xbdb791cc	-0.089633554
137	0xbe0e90ed	-0.13922472
138	0x3d01c2bc	0.031679854
139	0x3ce24fee	0.027626004
140	0x3cb985b3	0.02264676
141	0xbda478de	-0.08030866
142	0x3db0f5fb	0.08640667
143	0x3c966c5f	0.018362222
144	0x3c588fcb	0.013217877
145	0xbbf34dc2	-0.007425041
146	0x3e8a84d8	0.27054477
147	0x3caa82ef	0.020814387
148	0x3e2da815	0.1695865
149	0xbe7c464c	-0.24636191
150	0x3c3c311e	0.01148632
151	0xbe73417d	-0.2375545
152	0xbc324bec	-0.010882359
153	0xbdcd572f	-0.100263946
154	0x3df03d7d	0.11730478
155	0xbe3d9edb	-0.1851763
156	0x3c05f719	0.008176588
157	0xbcb0f2f4	-0.021600224
158	0x3dc098d0	0.09404147
159	0xbdc15a51	-0.094410546
160	0x3e9d6151	0.3073831
161	0xbc6e3ae2	-0.014540406
162	0xbbdac40c	-0.0066762026
163	0xbe5349ac	-0.20633572
164	0xbc356b76	-0.011072984
165	0x3b15a456	0.0022833548
166	0xbc071bde	-0.00824639
167	0x3e8f95ef	0.28044078
168	0x3ca0fee8	0.019652799
169	0xbc659c98	-0.014014386
170	0xbc6b3d43	-0.014357868
171	0x3c016491	0.007897512
172	0x3e3150ff	0.17316054
173	0xbc16a5e0	-0.009194821
174	0xbcdc531c	-0.026895098
175	0xbbd3a963	-0.0064594015
176	0xbe9e1f0f	-0.3088307
177	0x3c3d38de	0.011549203
178	0x3da895f8	0.08231729
179	0xbdc3cdb2	-0.09560718
180	0xbb3fb3c6	-0.002925144
181	0xba4d7cc7	-0.00078387227
182	0xbb2bdc00	-0.002622366
183	0xbc3ec5da	-0.011643851
184	0x3b6ba4e4	0.0035956437
185	0x3e37dfc2	0.1795645
186	0x3b736a55	0.0037142236
187	0xbd35cf22	-0.04438699
188	0x3c17e8f8	0.009271853
189	0x3d1db2ae	0.03850048
190	0x3c436c68	0.0119277015
191	0x3cc5511e	0.024086531
192	0x3dd7af34	0.10531464
193	0x3e4b19f8	0.19834125
194	0xbd34e446	-0.04416301
195	0x3c20f0de	0.009823052
196	0xbb1f669e	-0.002432264
197	0xbc6fc6f6	-0.014634838
198	0x3d0ff53e	0.03514599
199	0x3d6425ea	0.05570022
200	0xbe1418b5	-0.1446255
201	0xbe46e049	-0.19421495
202	0x3d8331c2	0.06405975
203	0x3dad0573	0.08448305
204	0xbd3ebd0e	-0.046567015
205	0xbe8a00f7	-0.2695386
206	0xbe512cc2	-0.2042723
207	0xbdfac99a	-0.12245484
208	0xbc913b48	-0.017728463
209	0x3d84e567	0.064890675
210	0x3e18c13c	0.14917463
211	0x3dc9158c	0.09818563
212	0xbdffbe8d	-0.124875166
213	0xbd84bb10	-0.06480992
214	0xbc607ea0	-0.013702065
215	0x3e54b42b	0.20771854
216	0x3de5b444	0.112160236
217	0x3bd22090	0.006412573
218	0x3d43c9cf	0.04779988
219	0x3a9423f9	0.0011302225
220	0xbe5e9385	-0.21735962
221	0x3e538b49	0.20658602
222	0x3c0fc73e	0.00877553
223	0xbd972943	-0.07380917
224	0xbed1becc	-0.4096588
225	0x3dd86295	0.10565678
226	0x3d98d49a	0.074624255
227	0x3d2aef0a	0.04173187
228	0xbd6b8f6b	-0.05750982
229	0xbddd8aa8	-0.10817462
230	0xbd8b1825	-0.067917146
231	0x3d543d3b	0.051816206
232	0x3d2eeca9	0.042706165
233	0x3e057fdd	0.13037057
234	0x3e147951	0.14499404
235	0x3c0aeadd	0.008478847
236	0x3dca7ebb	0.09887453
237	0xbe176c76	-0.14787468
238	0xbe0a956c	-0.13533562
239	0xbe223b2a	-0.15842882
240	0x3d85e815	0.06538407
241	0xbd2740e1	-0.040833358
242	0x3b08ba8f	0.002086315
243	0xbd22f1a4	-0.039781228
244	0x3d8a4cc6	0.067529246
245	0xbe3c3096	-0.18377909
246	0xbd92b968	-0.0716427
247	0x3db4c137	0.08825915
248	0xbd5a1542	-0.05324293
249	0x3c176ba3	0.009241971
250	0xbbf9b6dd	-0.007620676
251	0xbe833cf6	-0.25632447
252	0xbd6afc87	-0.057369735
253	0xbe16707f	-0.14691351
254	0xbb01bee5	-0.001979762
255	0xbda1f124	-0.07907322

backbone.0.conv3x3.bias f4 [48]
0	0xbe378527	-0.17921887
1	0xbe193f79	-0.14965619
2	0x3d35faa0	0.044428468
3	0x3ddaee2e	0.106899604
4	0xbdc1f4f7	-0.094705515
5	0x3ca59633	0.020213222
6	0x3b8c498e	0.0042812293
7	0x3d69370c	0.056937262
8	0xbddace98	-0.10683936
9	0x3de2d568	0.1107586
10	0x3e03a45c	0.12855667
11	0xbe0839b1	-0.13303258
12	0x3a9c5e0f	0.0011929887
13	0xbb605883	-0.0034232445
14	0x3d81b2c7	0.06332927
15	0x3e31cf4a	0.17364231
16	0x3d6caffc	0.05778502
17	0xbd36ca46	-0.044626497
18	0x3e2f721d	0.17133375
19	0xbda02907	-0.07820325
20	0xbd6625f1	-0.056188527
21	0x3c6763fd	0.01412296
22	0xbe12e468	-0.14344943
23	0x3cc40b86	0.023931276
24	0xbe056894	-0.13028175
25	0x3c966bbf	0.018361924
26	0x3caf930d	0.021432424
27	0x3c97d1d7	0.018532677
28	0xbe2221a2	-0.15833142
29	0xbe348ecb	-0.17632596
30	0x3dbd2639	0.09235806
31	0x3e2b1bfa	0.16709891
32	0xbe33cc1f	-0.17558335
33	0x3d9255ad	0.071452476
34	0xbe0ec2b2	-0.13941458
35	0x3c3ce02e	0.011528058
36	0x3e306e4e	0.17229578
37	0x3e17a7d9	0.14810123
38	0xbe103fe2	-0.1408687
39	0x3dfc641f	0.12323784
40	0x3dc9e0d9	0.098573394
41	0x39b384fe	0.00034240627
42	0x3e48bbf6	0.19602951
43	0xbda8d4dc	-0.08243725
44	0xbd2e4bfc	-0.042552933
45	0xbdc40a5a	-0.09572287
46	0x3c92c979	0.017918335
47	0x3d4faf2c	0.050704166

backbone.0.bn.weight f4 [48]
0	0x3f52c0da	0.8232552
1	0x3f6d6239	0.92728
2	0x3f7608aa	0.9610697
3	0x3fa44cd5	1.2835947
4	0x3f83aeda	1.0287735
5	0x3f5b0604	0.85556054
6	0x3f865f26	1.0497787
7	0x3f513343	0.81718844
8	0x3f818e3e	1.0121534
9	0x3f86f979	1.0544883
10	0x3f8ce09b	1.1006044
11	0x3f59b8b7	0.8504748
12	0x3f91f172	1.1401808
13	0x3f540e4f	0.82834333
14	0x3f64b990	0.89345646
15	0x3f8f0693	1.1173881
16	0x3f484a22	0.7823812
17	0x3f596884	0.84925103
18	0x3f859e8f	1.0439013
19	0x3f5c804b	0.8613326
20	0x3f64b484	0.89337945
21	0x3f6c41f2	0.92288125
22	0x3f8f9d0d	1.1219803
23	0x3f95975d	1.1686817
24	0x3f3695f1	0.7132254
25	0x3f739bda	0.95159686
26	0x3f4962c8	0.78666353
27	0x3f721312	0.9456035
28	0x3f8b3151	1.0874425
29	0x3f67cd45	0.9054759
30	0x3f3dea0f	0.7418527
31	0x3f8085e4	1.004086
32	0x3f64c815	0.893678
33	0x3f863a4e	1.0486543
34	0x3f8df041	1.1088945
35	0x3f4fe696	0.8121122
36	0x3f5f935a	0.87334216
37	0x3fa37619	1.2770416
38	0x3f8726a7	1.0558671
39	0x3f757ead	0.95896417
40	0x3f5fd43c	0.8743322
41	0x3f7ad68f	0.9798364
42	0x3f68734a	0.9080092
43	0x3f69d845	0.91345626
44	0x3f680e34	0.9064667
45	0x3f50d53c	0.8157537
46	0x3f89a723	1.0754131
47	0x3f70a32a	0.9399897

backbone.0.bn.bias f4 [48]
0	0x3f585063	0.8449766
1	0x3cfa5e04	0.030562408
2	0x3f0d4544	0.55183816
3	0x3dc0a2a7	0.094060235
4	0xbc9fd593	-0.01951102
5	0x3f844cb9	1.0335914
6	0x3f954c56	1.1663921
7	0x3dff8c9f	0.12477993
8	0x3d450484	0.04810001
9	0xbe64fde4	-0.22362477
10	0xbe0e1f17	-0.13879047
11	0xbe0880fd	-0.13330455
12	0xbe445c7f	-0.1917591
13	0x3e1fb00d	0.15594502
14	0xbd85eeb2	-0.06539668
15	0xbeabba07	-0.33540365
16	0x3f27347a	0.6531445
17	0x3e4ab67a	0.19796172
18	0x3fcd6692	1.6046927
19	0x3f14af4c	0.5807998
20	0xbe924370	-0.28567076
21	0x3e898f02	0.2686692
22	0xbdd6a354	-0.10480371
23	0xbeab636d	-0.33474293
24	0xbe2d99c7	-0.16953193
25	0xbd27bb23	-0.04094995
26	0x3f560091	0.83594614
27	0x3ddc8d93	0.10769191
28	0xbd7bb04e	-0.061447434
29	0xbd626374	-0.055270627
30	0x3def5e89	0.11687953
31	0xbe3bb08e	-0.18329069
32	0x3c9f9fc0	0.019485354
33	0xbe3fefc1	-0.18743803
34	0xbe28b11d	-0.16473813
35	0xbc064202	-0.008194448
36	0xbe45c995	-0.19315179
37	0xbd81c8e6	-0.063371465
38	0xbe0497cf	-0.12948535
39	0xbcb16d07	-0.021658434
40	0xbd3858d3	-0.045006584
41	0xbdaf65d2	-0.085643426
42	0x3f17f0f4	0.5935204
43	0x3e735317	0.23762165
44	0xbc5b5c71	-0.013388739
45	0x3f0e54bf	0.5559806
46	0x3fc2a0fd	1.520538
47	0xbdb508a8	-0.08839542

backbone.0.bn.running_mean f4 [48]
0	0xbe2d5713	-0.16927747
1	0xbd68786c	-0.05675547
2	0x3d299b3b	0.041407805
3	0xbc8a6f4c	-0.016898774
4	0xbe932791	-0.28741124
5	0x3cbea957	0.023274107
6	0x3a8eb1e7	0.0010886759
7	0x3aff8644	0.001949497
8	0xbe3b50c8	-0.18292534
9	0xbc1e591e	-0.009664802
10	0x3db77431	0.089577086
11	0xbdc720d1	-0.09723056
12	0xbdb69472	-0.089150324
13	0xbc0824a9	-0.008309522
14	0x3e1483c8	0.14503396
15	0x3d518be0	0.051158786
16	0x3d88d25b	0.06680747
17	0xbd0a2111	-0.03372294
18	0x3e40cc86	0.1882802
19	0xbd92205e	-0.0713508
20	0x3d4f222f	0.05056971
21	0x3bedf28b	0.0072615794
22	0xbeb3713a	-0.35047323
23	0xbd118017	-0.035522547
24	0xbdb6c70a	-0.089246824
25	0xbd517661	-0.051138286
26	0x3ca5d958	0.02024524
27	0x3dd8f55b	0.10593673
28	0xbe88f055	-0.2674586
29	0xbe8602ab	-0.2617391
30	0x3dbfdb0f	0.09367954
31	0x3de6f629	0.1127742
32	0xbe171bc7	-0.1475669
33	0xbd3061a2	-0.04306186
34	0xbe925bb6	-0.28585595
35	0xbd02f1f3	-0.031969022
36	0x3e521ab9	0.20518006
37	0xbc586d39	-0.013209634
38	0xbe93fd60	-0.28904247
39	0x3da90851	0.08253539
40	0x3e04bc3e	0.12962434
41	0xbdbe5de5	-0.09295253
42	0x3e2fb6b4	0.1715954
43	0xbd353775	-0.04424234
44	0xbd16d65b	-0.03682552
45	0xbdc06b4b	-0.093954645
46	0x3d04dd95	0.03243788
47	0x3dc12934	0.09431687

backbone.0.bn.running_var f4 [48]
0	0x3a35f80d	0.00069415645
1	0x3b42f724	0.0029749358
2	0x3a25e001	0.00063276297
3	0x3bf3173e	0.007418542
4	0x3c5f5fc9	0.013633677
5	0x3a431d38	0.00074430136
6	0x39f27a09	0.0004624876
7	0x3aba6f23	0.0014223795
8	0x3b9012c2	0.0043967674
9	0x3bdf30ee	0.006811253
10	0x3aebe595	0.0017997498
11	0x3ad00d69	0.0015873137
12	0x3bba5ec3	0.005687566
13	0x3a50e804	0.00079691433
14	0x3b3a37ad	0.0028414533
15	0x3b9ebe82	0.0048444876
16	0x3ac92d52	0.001534859
17	0x3a8555ed	0.0010172703
18	0x3a278db3	0.0006391659
19	0x3a33dc36	0.0006861122
20	0x3bb08f50	0.005388178
21	0x3b82d2e7	0.0039924267
22	0x3c9a065e	0.018801864
23	0x3b4ac900	0.003094256
24	0x3ad632ee	0.0016342083
25	0x3ae13263	0.0017181154
26	0x3a5a601e	0.00083303626
27	0x3b3885ee	0.0028156
28	0x3ba6fd9d	0.005096151
29	0x3b331e56	0.0027331314
30	0x3a92902e	0.0011181885
31	0x3b216dd7	0.002463212
32	0x3a7589e4	0.00093665556
33	0x3bb242c8	0.00544009
34	0x3c445216	0.011982461
35	0x3a8a5a24	0.0010555428
36	0x3b0aa4c9	0.0021155349
37	0x3c43c091	0.011947767
38	0x3c206d1d	0.00979164
39	0x3acbdd87	0.0015553691
40	0x3b034a67	0.002003336
41	0x3b8649f5	0.004098172
42	0x3a55b455	0.0008152177
43	0x3a66b5f0	0.00088009145
44	0x3b48fc8d	0.003066811
45	0x3a8d9241	0.0010801033
46	0x3a28144c	0.0006411716
47	0x3b74323c	0.0037261387

backbone.1.conv3x3.weight f4 [48, 48, 3, 3]
0	0x3ca40e3d	0.02002632
1	0xbd286174	-0.041108564
2	0xbcf4b93e	-0.029873487
3	0xbdc80e33	-0.09768333
4	0x3dcc5925	0.099779405
5	0xbd2e9a33	-0.042627525
6	0xbd89b477	-0.06723874
7	0xbdac131e	-0.08402084
8	0x3dd02dfa	0.10165019
9	0xbdb6b773	-0.08921709
10	0x3d994e24	0.07485607
11	0x3c033ede	0.008010594
12	0xbd130178	-0.035890073
13	0x3d4193a5	0.047259945
14	0xbcf00d71	-0.029303284
15	0xbcba9913	-0.02277807
16	0xbe221b7a	-0.15830794
17	0x3ca05e54	0.01957623
18	0xbd41ba5d	-0.04729687
19	0x3d0bc414	0.03412254
20	0x3d68d10f	0.05684
21	0xbd824edf	-0.063627
22	0x3d03382e	0.032036
23	0xbc336fd1	-0.010951952
24	0xbd0bcc57	-0.03413042
25	0x3cbbfcda	0.022947717
26	0x3c074960	0.00825724
27	0x3cb1eecf	0.021720318
28	0xbc4bb8db	-0.01243421
29	0xbdaa8d80	-0.0832777
30	0x3dc8259d	0.09772799
31	0xbe307d41	-0.1723528
32	0x3d1ae6f3	0.037817907
33	0x3c56d57e	0.013112424
34	0x3dd92483	0.10602667
35	0xbd43b668	-0.047781378
36	0x3cb60d51	0.022223147
37	0xbd48339d	-0.048877347
38	0xbd55791b	-0.05211745
39	0xbd5bdb71	-0.053676073
40	0x3d084d1b	0.03327666
41	0x3c4ca869	0.012491324
42	0x3d3bf356	0.04588636
43	0xba8a4331	-0.0010548589
44	0xbc8ed86b	-0.01743718
45	0xbcf914fc	-0.030405514
46	0xbc706aef	-0.014673932
47	0x3b6704ca	0.0035250657
48	0x3cec4870	0.028843135
49	0x3c707f53	0.014678794
50	0x3ca17232	0.019707773
51	0x3c905d68	0.017622665
52	0x3cadb320	0.021203578
53	0x3b400c39	0.002930416
54	0x3d161de3	0.036649596
55	0x3c8037b6	0.015651565
56	0xbd529042	-0.051407106
57	0xbd15d462	-0.036579497
58	0x3bc6ca59	0.006066602
59	0x3d22b03c	0.03971885
60	0x3cd8327c	0.02639126
61	0xbd1556b7	-0.03645965
62	0x3b25d6fe	0.0025305147
63	0xbcbf69ad	-0.02336582
64	0xbdc8218d	-0.09772024
65	0xbd040c1a	-0.032238103
66	0xbd2b8185	-0.041871566
67	0x3d111fa4	0.035430565
68	0x39da99dc	0.00041694834
69	0xbd8e1944	-0.06938413
70	0xbd970061	-0.07373119
71	0xbd3a07a6	-0.04541745
72	0xbd618363	-0.05505694
73	0xbd2b9113	-0.0418864
74	0xbda1a555	-0.07892863
75	0xbca7ff20	-0.020507395
76	0xbde5f040	-0.11227465
77	0xbd6e406b	-0.058166903
78	0xb999cdde	-0.00029335817
79	0x3d0d84cf	0.034550484
80	0x3d1cf977	0.038323846
81	0xbe3759f8	-0.17905414
82	0xbc4121aa	-0.011787811
83	0x3cd368c6	0.025806796
84	0x3df2069a	0.118176654
85	0xbd5b9e8a	-0.05361799
86	0xbc92306f	-0.01784536
87	0xbd8ae016	-0.06781022
88	0x3ce5ea94	0.028065957
89	0x3d1b198f	0.03786617
90	0x3d8ed394	0.06973949
91	0x3d896b08	0.06709868
92	0x3c383925	0.011244093
93	0x3d5b55fb	0.053548794
94	0x3a19c820	0.0005866308
95	0xbcbbc7ad	-0.022922361
96	0xbbe05e7f	-0.0068472023
97	0x3a2b02d7	0.00065235555
98	0x3c1dca6d	0.009630782
99	0xbd82224c	-0.06354198
100	0xbd140c40	-0.036144495
101	0x3c2925c5	0.010323946
102	0x3df77ae5	0.12083987
103	0xbaa6cd46	-0.0012725971
104	0xbd9ed734	-0.077558905
105	0x3c53b95f	0.012922614
106	0x3d80d3c6	0.062903926
107	0xbd16b362	-0.036792167
108	0xbd1f0793	-0.038825583
109	0x3d7e9748	0.06215599
110	0xbcf0d65b	-0.029399088
111	0xbd1bba16	-0.038019262
112	0x3d808a59	0.06276388
113	0xbbab1276	-0.0052207066
114	0xbd7f4fb9	-0.06233189
115	0xbc75d1c6	-0.015003627
116	0xbd967213	-0.07345977
117	0xbcd0dadc	-0.025494985
118	0x3d1d148a	0.038349666
119	0xbd9ba0bb	-0.07599016
120	0x3c1e3a72	0.009657489
121	0xbd3ae545	-0.045628805
122	0x3d9bb769	0.07603342
123	0x3d81e3fd	0.063423134
124	0x3d669505	0.05629446
125	0x3cbb337f	0.022851704
126	0x3cf73aef	0.030179469
127	0xbd5c60d9	-0.0538033
128	0xbde26ae2	-0.110555425
129	0xbd9029bd	-0.07039211
130	0x3c1dd57b	0.009633417
131	0x3d9f5b3a	0.07781072
132	0xbd08b0f9	-0.0333719
133	0x3c0eae38	0.008708529
134	0x3cd401cd	0.025879765
135	0xbc7fff2a	-0.015624801
136	0xbe07c9f8	-0.13260639
137	0xbd292584	-0.041295543
138	0xbe03e547	-0.12880431
139	0xbe03fdf8	-0.1288985
140	0xbdabce2e	-0.08388935
141	0xbc685a0c	-0.014181625
142	0xbd1f786c	-0.038933203
143	0xbcd59221	-0.026070656
144	0x3cb2578c	0.021770261
145	0xbd2b2dc7	-0.041791704
146	0xbcb44bb2	-0.02200875
147	0xbd0fcab8	-0.035105437
148	0x3dae62a1	0.08514906
149	0xbcc38700	-0.023868084
150	0xbd26d526	-0.040730618
151	0xbc97273e	-0.01845133
152	0xbd0741f0	-0.033021867
153	0xbdc9888e	-0.09840499
154	0xbc877940	-0.016537309
155	0x3cccee74	0.025016047
156	0xbcc5683f	-0.02409756
157	0x3b9b1b76	0.004733498
158	0x3db07fbc	0.086181134
159	0x3dc9ce8f	0.09853851
160	0x3e171a1a	0.1475605
161	0x3cd8cf6b	0.026466092
162	0xbd050d05	-0.03248312
163	0xbd260438	-0.040531367
164	0xbd29578e	-0.041343264
165	0x3ceaf928	0.02868326
166	0xbd265ead	-0.040617634
167	0xbd5ef28f	-0.05443054
168	0x3d942567	0.072336964
169	0x3d372114	0.04470928
170	0xbd1f7bb0	-0.038936317
171	0xbd8dfc17	-0.06932848
172	0x3bdb1d82	0.006686867
173	0xbd905286	-0.0704699
174	0xbc02e7e3	-0.007989856
175	0xbcdd998b	-0.027050754
176	0x3d4bc304	0.04974653
177	0xbc3629a0	-0.011118323
178	0x3d049562	0.032369025
179	0x3d1430f5	0.0361795
180	0x3cd0fe6c	0.025511943
181	0xbce8877d	-0.028384918
182	0x3d0a42bb	0.033755045
183	0x3d95da90	0.07317078
184	0xbd186df0	-0.03721422
185	0xbd39ee4f	-0.045393284
186	0x3d08ec03	0.033428203
187	0x3da14978	0.07875341
188	0x3b683d79	0.0035437031
189	0xbdc54ca2	-0.09633757
190	0x3d10ca48	0.03534916
191	0xbb5967e0	-0.0033173487
192	0x3dda6c76	0.106652185
193	0x3d2f3d05	0.042782802
194	0x3cbf453c	0.023348443
195	0xbc930344	-0.017945893
196	0xbd705c0b	-0.05868153
197	0xbc0579d7	-0.008146725
198	0xbd87bb28	-0.06627494
199	0x3c788e6c	0.015170675
200	0xbd8bd5ec	-0.06827912
201	0x3c3dfe92	0.011596339
202	0x3d0e0ef4	0.03468223
203	0x3c6fed84	0.0146440305
204	0xbd87b6ae	-0.0662664
205	0xbddec8b9	-0.108781286
206	0xbdc8bf7f	-0.0980215
207	0x3d25da59	0.040491436
208	0x3d962aa0	0.07332349
209	0xbcc65136	-0.024208646
210	0x3d58b025	0.05290236
211	0x3cd1922e	0.0255824
212	0x3d546105	0.051850338
213	0xbd36fcca	-0.044674672
214	0xbd3c51b0	-0.04597634
215	0xbcf634a9	-0.030054407
216	0xbc993c12	-0.018705402
217	0xbc6fd77c	-0.014638778
218	0xbcc7051c	-0.024294429
219	0xbbc30eef	-0.005952708
220	0xbc8c7c54	-0.017149128
221	0x3cb8068b	0.022464057
222	0xbd8648c0	-0.06556845
223	0x3c9f66c9	0.019458191
224	0xbd0374ea	-0.03209392
225	0xbd913a63	-0.070912145
226	0x3cb77da2	0.022398774
227	0xbac6d9b5	-0.0015171083
228	0x3d2bc363	0.041934382
229	0xbc180897	-0.009279392
230	0xbd0690f7	-0.032853093
231	0xbc28d1de	-0.0103039425
232	0xbd077b72	-0.03307671
233	0x3b4b4d6f	0.0031021496
234	0xbda57265	-0.0807846
235	0x3d55dc54	0.052212074
236	0xbcaf6548	-0.0214106
237	0xbd2d9273	-0.042375993
238	0xbd076ba7	-0.03306165
239	0x3ddc0a32	0.10744132
240	0x3d4632ea	0.0483884
241	0x3d57afe3	0.052657973
242	0xbd042151	-0.032258336
243	0xbd48648a	-0.048924007
244	0x3c83c80d	0.016086603
245	0xbd50ca6c	-0.050974295
246	0xbd59ba22	-0.053156026
247	0xbd39e2f6	-0.045382462
248	0x3c88ed67	0.016714765
249	0xbcac6173	-0.021042561
250	0xbcb9322b	-0.02260693
251	0x3cfd7cb4	0.030943252
252	0xbd852011	-0.06500257
253	0xbdd0ccea	-0.10195334
254	0xbda29258	-0.07938069
255	0xbcbbdda4	-0.022932835

backbone.1.conv3x3.bias f4 [48]
0	0xbd2fc5f7	-0.042913403
1	0xbd18346f	-0.03715938
2	0xbd238736	-0.03992387
3	0xbc569d8c	-0.013099086
4	0x3c43f0fa	0.011959309
5	0xbc8d558f	-0.017252712
6	0xbc4538a7	-0.012037433
7	0xbcbf8125	-0.02337701
8	0xbc9ae345	-0.018907199
9	0xbd32fb54	-0.043696716
10	0x3b471251	0.0030375908
11	0x3c7a8e85	0.015292768
12	0xbc930988	-0.01794888
13	0x3b583aec	0.0032994105
14	0x3d26fd9c	0.040769204
15	0x3cfe86ab	0.031070074
16	0xbd3e3c3e	-0.04644417
17	0xbd1bb374	-0.038012937
18	0x3ca71a36	0.02039824
19	0xbada7348	-0.0016666437
20	0x3d202490	0.03909737
21	0x3d0cded7	0.034392204
22	0xbd0c5870	-0.034264028
23	0xbd28851f	-0.04114258
24	0x3c03c5b5	0.0080427425
25	0x3c74b10d	0.01493479
26	0xbc33eb8c	-0.010981452
27	0x3d0150c8	0.03157118
28	0x3d3ed135	0.046586234
29	0xbbba8a67	-0.0056927684
30	0x3c84feae	0.016234722
31	0xbd39816d	-0.045289446
32	0xbbb890fc	-0.005632518
33	0xbd1c8290	-0.03821045
34	0x3d1f88ee	0.038948946
35	0x3c75fe31	0.015014217
36	0x3cd05029	0.025428848
37	0xbc98ce62	-0.018653098
38	0x3cac6169	0.021042543
39	0x3c92527e	0.017861601
40	0xbcb09a66	-0.021557998
41	0xbc0e86d6	-0.00869914
42	0x3cd9a1a7	0.02656634
43	0x3c43aa6d	0.011942488
44	0xbb08c478	-0.0020869058
45	0xb9ddcb5c	-0.0004230392
46	0xbd07bf24	-0.03314127
47	0xbbe90b2f	-0.007111929

backbone.1.bn.weight f4 [48]
0	0x3f69b930	0.912982
1	0x3f732450	0.94977283
2	0x3f86439c	1.0489383
3	0x3f87dc4f	1.0614108
4	0x3f84de55	1.038035
5	0x3f7b2430	0.9810209
6	0x3f6f9df3	0.93600386
7	0x3faa0f8f	1.3285998
8	0x3f6c3a77	0.9227671
9	0x3f795d08	0.9740758
10	0x3fa9a886	1.3254554
11	0x3f863462	1.0484736
12	0x3f5ce250	0.86282825
13	0x3f7ef3b4	0.9959061
14	0x3f6dc0c7	0.9287228
15	0x3f6c8705	0.92393523
16	0x3f6b26bd	0.91855985
17	0x3f7d0e27	0.9884972
18	0x3f57234f	0.8403825
19	0x3f6bbb26	0.9208244
20	0x3f6775bc	0.90414023
21	0x3f656176	0.8960184
22	0x3f85882a	1.0432179
23	0x3f6e171c	0.9300401
24	0x3f6b289c	0.9185884
25	0x3f6e6071	0.9311591
26	0x3f5a87ce	0.8536347
27	0x3f79f4f0	0.9763937
28	0x3f7b7e13	0.9823925
29	0x3f675980	0.9037094
30	0x3f6bc219	0.92093045
31	0x3f6ddc67	0.9291443
32	0x3f6894a2	0.90851796
33	0x3f80f422	1.0074503
34	0x3f71c0c8	0.94434786
35	0x3f5493c2	0.8303796
36	0x3f73664b	0.9507796
37	0x3f8f4c83	1.1195225
38	0x3f6c14f1	0.92219454
39	0x3f8dde05	1.108338
40	0x3f8721c2	1.0557177
41	0x3f60081c	0.87512374
42	0x3f637552	0.8885089
43	0x3f6701ec	0.9023731
44	0x3f65d60a	0.8977972
45	0x3f8091d5	1.0044504
46	0x3f80c0e4	1.0058866
47	0x3f8f4f9c	1.119617

backbone.1.bn.bias f4 [48]
0	0xbdfd1901	-0.12358285
1	0xbdc428d0	-0.09578097
2	0x3e0d8f2c	0.13824147
3	0xbe766627	-0.24062406
4	0xbe3ab601	-0.18233491
5	0xbc990cb1	-0.01868281
6	0xbd51a20b	-0.051179927
7	0xbeb05df5	-0.34446684
8	0xbdcbafb1	-0.0994562
9	0xbe0c7c29	-0.13719238
10	0xbe8e6b51	-0.2781625
11	0xbd671524	-0.056416646
12	0x3d336087	0.043793228
13	0x3debedf2	0.11519994
14	0xbe39e0a6	-0.18152103
15	0xbdbb1c4c	-0.091362566
16	0xbdc5ef40	-0.09664774
17	0x3cf4f449	0.02990164
18	0xbe98d4f5	-0.29849973
19	0x3d4b4958	0.049630493
20	0xbd5483b3	-0.05188341
21	0xbe9aca3d	-0.3023242
22	0xbe1ec874	-0.15506154
23	0xbe1b093e	-0.15140244
24	0x3ba0f15f	0.004911586
25	0xbe013585	-0.12618072
26	0xbedffa7a	-0.43745786
27	0x3d0277cb	0.031852525
28	0xbcfc3b27	-0.030789925
29	0xbe93239b	-0.28738102
30	0xbb139bd1	-0.0022523294
31	0xbdf9d382	-0.12198545
32	0xbdfd94a3	-0.12381866
33	0xbdd80ef1	-0.10549725
34	0xbd66c35b	-0.05633865
35	0xbd539d92	-0.051663943
36	0xbcbfd53e	-0.023417111
37	0x3d3d8c53	0.0462764
38	0xbda603eb	-0.08106216
39	0xbdcf24f1	-0.10114468
40	0xbdaaade3	-0.083339475
41	0xbe1c4bb1	-0.15263249
42	0xbcdd66d8	-0.027026579
43	0xbdce3610	-0.10068905
44	0xbe61ee07	-0.22063456
45	0xbe49b009	-0.19696058
46	0x3d7518d8	0.059838146
47	0xbe94a7b6	-0.29034203

backbone.1.bn.running_mean f4 [48]
0	0xbffa4f22	-1.95554
1	0xbee7ab2a	-0.45247775
2	0xc0315e18	-2.771368
3	0xbddfe6af	-0.10932671
4	0xbeee66f5	-0.46562925
5	0xc05769bc	-3.3658285
6	0xc068284a	-3.627459
7	0xbd89fdbf	-0.06737851
8	0xbeff16b0	-0.49821997
9	0x3fa3d016	1.2797878
10	0x3edc8435	0.43069616
11	0xbf342c72	-0.7038032
12	0xbf0bdb85	-0.54631835
13	0xc06a9445	-3.6652997
14	0x3e32bcd5	0.17454846
15	0xbe954783	-0.29156122
16	0xbfdaa343	-1.7081074
17	0xc03a7656	-2.9134727
18	0x3df9546c	0.12174305
19	0xc08b7e3c	-4.3591595
20	0xbf93524b	-1.1509489
21	0x404078e4	3.0073786
22	0xbd8d1fc7	-0.06890827
23	0xbe57a191	-0.21057726
24	0xbee25341	-0.44204143
25	0x3d9ba3bf	0.075995915
26	0x3f0f529e	0.5598544
27	0xc0124c75	-2.2859166
28	0xbe7d26b6	-0.24721798
29	0x3f87ac33	1.0599426
30	0xc04da03f	-3.2129056
31	0xc056830b	-3.3517482
32	0xc0002050	-2.0019722
33	0xbed46b11	-0.41487935
34	0xbe89f14c	-0.26941907
35	0xbfccb3d6	-1.5992382
36	0xc07b9f5e	-3.931602
37	0xbe862dab	-0.26206717
38	0xbf90d8ca	-1.1316159
39	0xbed7d885	-0.4215738
40	0xbf65d479	-0.8977733
41	0xbeddee64	-0.4334594
42	0xbfda2ca9	-1.7044879
43	0xbffca25b	-1.9737047
44	0x402b75e8	2.6790714
45	0xbf3709af	-0.7149915
46	0xc015464c	-2.3324156
47	0xbe666da3	-0.2250276

backbone.1.bn.running_var f4 [48]
0	0x4031b3a0	2.7765884
1	0x40527bd4	3.2888079
2	0x40b16f02	5.5448008
3	0x3ff02563	1.876141
4	0x4020b9f4	2.5113497
5	0x4048df33	3.138623
6	0x4085ea82	4.1848764
7	0x3fd18e0a	1.6371472
8	0x3fce849c	1.6134219
9	0x400ac039	2.1679823
10	0x3fdce714	1.725802
11	0x40277ae8	2.6168766
12	0x3f35ea1b	0.7106034
13	0x40b44d2e	5.6344213
14	0x3fc68b8b	1.5511335
15	0x4037a970	2.8697166
16	0x3fb3db04	1.4051213
17	0x4033a868	2.8071537
18	0x3f175cf6	0.5912622
19	0x407f140a	3.985598
20	0x4056c45f	3.3557355
21	0x400f2661	2.2367175
22	0x401e3c31	2.4724238
23	0x3fa6c416	1.3028591
24	0x3f697754	0.91197705
25	0x3fb58748	1.418191
26	0x3febe9b3	1.8430694
27	0x40c789d9	6.235577
28	0x3f890113	1.0703453
29	0x4009b24f	2.151508
30	0x40acc5b2	5.3991327
31	0x411992a6	9.598303
32	0x405525cb	3.3304317
33	0x3fbbe888	1.4680338
34	0x40347b5d	2.8200295
35	0x4065d1ef	3.5909383
36	0x413463dc	11.27438
37	0x40d23e13	6.5700774
38	0x40bfd43e	5.9946585
39	0x401f30a6	2.4873443
40	0x3fa49520	1.2858009
41	0x3f6e96c8	0.93198824
42	0x3f85242e	1.0401666
43	0x410c0f29	8.753701
44	0x41041efc	8.257565
45	0x3fb58cd0	1.4183598
46	0x4135d26a	11.363871
47	0x3ffd0039	1.9765693

backbone.2.conv3x3.weight f4 [48, 48, 3, 3]
0	0xbe275c67	-0.16343842
1	0xbc55fe9b	-0.013061191
2	0xbd6c6387	-0.057712104
3	0x3c0ec69c	0.008714344
4	0xbd1a30e7	-0.037644293
5	0x3cf833e4	0.03029818
6	0x3d47ec27	0.048809197
7	0xbca6fe64	-0.020384975
8	0x3bf5b5f4	0.007498497
9	0x3cf3b8b4	0.02975116
10	0xbcaa3340	-0.020776391
11	0x3c227c4e	0.009917332
12	0x3d4d9ece	0.050200276
13	0x3bb117f3	0.0054044663
14	0x3b392da6	0.0028255968
15	0x3d90e46c	0.07074818
16	0x3c8385c4	0.016054995
17	0x3d4e5727	0.050376084
18	0xbd03148d	-0.03200202
19	0x3c2823ad	0.010262412
20	0xbd415962	-0.047204383
21	0xbd60ba81	-0.054865364
22	0xbd21173e	-0.039328806
23	0xbd484759	-0.048896167
24	0xbd697e53	-0.057005238
25	0xbdd45632	-0.10368003
26	0xbdb8c37e	-0.09021662
27	0xbd3a59d1	-0.04549581
28	0x3d14d39a	0.03633461
29	0x3d40aeb3	0.047041606
30	0xbce78e8a	-0.02826621
31	0xbd59fee0	-0.053221583
32	0xbd917a11	-0.071033604
33	0x3d25dd5a	0.0404943
34	0xbbbd3af8	-0.005774852
35	0x3d0325f4	0.032018617
36	0xbda18acc	-0.078878015
37	0xbd10f75a	-0.035392143
38	0xbcd55a14	-0.02604393
39	0x3cc9b64b	0.024623057
40	0x3bdcb454	0.006735364
41	0x3d19bb8f	0.037532385
42	0xbb0ca03a	-0.0021457807
43	0xbd31740f	-0.043323573
44	0xbbb91632	-0.005648398
45	0xbe11b183	-0.14227872
46	0xbd46521d	-0.048418153
47	0xbdb80e48	-0.08987099
48	0xbb8b36b2	-0.0042484635
49	0x3de9ff95	0.114257015
50	0xbc6b51d8	-0.014362775
51	0xbd9245ea	-0.07142241
52	0x3db474e2	0.08811356
53	0xbb822262	-0.003971384
54	0xbdad187f	-0.08451938
55	0xbd999a32	-0.075001135
56	0xbd905880	-0.0704813
57	0xbccb86b2	-0.024844501
58	0xbd106449	-0.03525189
59	0xbcd3b747	-0.02584423
60	0x3a399719	0.0007079705
61	0x3c41eb48	0.011835881
62	0xb9aa8027	-0.00032520408
63	0x3e0983ef	0.13429235
64	0xbcc337ed	-0.023830378
65	0x3cc81c8c	0.024427675
66	0xbb9d53bf	-0.004801243
67	0xbbf5b427	-0.0074982825
68	0xbeabd25f	-0.33558938
69	0xbda76696	-0.081738636
70	0xbc2d6f13	-0.010585564
71	0xbd260404	-0.040531173
72	0x3d2fae68	0.042890936
73	0x3d518b55	0.051158268
74	0xbcb82eb1	-0.022483202
75	0x3d8a26c8	0.06745678
76	0xbdbc7d33	-0.09203567
77	0xbbcf16d4	-0.00631986
78	0x3dac29b9	0.084063955
79	0xbd48f1a9	-0.04905859
80	0x3d26ebf5	0.04075237
81	0x3db13769	0.08653147
82	0x3c8e298f	0.017353801
83	0x3d8e12e3	0.06937196
84	0x3d311d09	0.04324058
85	0xbac23395	-0.0014816398
86	0x3c11fa08	0.00890971
87	0xbc61e1bd	-0.01378673
88	0x3d8d37c7	0.06895404
89	0x3ca7218d	0.02040174
90	0x3e31cc43	0.17363076
91	0xbc12e48f	-0.008965625
92	0x3c8ffe96	0.01757745
93	0x3b15a516	0.0022833995
94	0x39ef4fb2	0.0004564501
95	0xbe9b122b	-0.302873
96	0xbd41a59a	-0.04727707
97	0x3ba4400d	0.0050125183
98	0xbd01c087	-0.03167775
99	0xbc844663	-0.016146844
100	0xbd166c73	-0.03672452
101	0xbd3108d1	-0.0432213
102	0x3e007bca	0.12547222
103	0xbd68a3b3	-0.05679674
104	0x3dfc8640	0.12330294
105	0xbcdc5739	-0.02689706
106	0xbc053d01	-0.00813222
107	0xbd3f082e	-0.04663866
108	0x3add29d5	0.0016873429
109	0xbc7205bf	-0.014771878
110	0x3bb314d5	0.00546513
111	0x3c71619b	0.014732744
112	0x3d97ff44	0.07421735
113	0x3c95c64d	0.018283034
114	0x3a161326	0.0005724899
115	0xbb56395a	-0.0032687993
116	0x3d5ae075	0.053436715
117	0x3c6685ae	0.014069958
118	0xbc865433	-0.016397571
119	0x3dc14a9b	0.09438058
120	0x3d50d4e8	0.050984293
121	0xbc326e5e	-0.010890571
122	0x3cca9ae1	0.024732055
123	0xbcd7456c	-0.02627822
124	0x3c5bc1ba	0.013412887
125	0x3c231eb7	0.009956053
126	0xbcb51e25	-0.0221091
127	0x3b1763c1	0.002310023
128	0x3b5996a4	0.003320136
129	0xbdd69b2a	-0.10478814
130	0x3cd41706	0.025889885
131	0xbdb1122a	-0.08646043
132	0x3d18ceaa	0.037306465
133	0xbcbd3bc8	-0.023099795
134	0xbbd8b2fa	-0.0066131325
135	0xbd2c39ad	-0.04204719
136	0xbcedb8b0	-0.02901873
137	0x3ce4a709	0.02791168
138	0xbcb701ea	-0.02233978
139	0xbc160dba	-0.009158546
140	0xbcf89fe6	-0.030349683
141	0xbd02c291	-0.031923834
142	0xbce76ed3	-0.028251087
143	0xbccfa06d	-0.025345052
144	0xbb4ec741	-0.003155187
145	0x3da3cb28	0.07997733
146	0x3d325b1e	0.043543927
147	0xbd0d0c44	-0.034435526
148	0xbd4c09ac	-0.04981391
149	0xbc49a1f6	-0.012306681
150	0xbd0d104b	-0.034439366
151	0xbcb2dc54	-0.021833576
152	0xbc526980	-0.012842536
153	0xbe04a964	-0.12955242
154	0xbd6e96c1	-0.05824924
155	0xbc0e2ec1	-0.008678139
156	0xbd72d35b	-0.059283596
157	0xbcb874ad	-0.022516573
158	0xbca6da92	-0.020367894
159	0xbd07123b	-0.03297637
160	0xbda4d99a	-0.08049317
161	0xbcd06512	-0.02543882
162	0xb9b4e3f4	-0.00034502114
163	0x3c84e357	0.016221685
164	0xbd3419ff	-0.043970104
165	0x3d5111ef	0.051042493
166	0x3bf4867e	0.007462322
167	0xbd3c036e	-0.04590171
168	0xbbf5ca64	-0.0075009335
169	0x3bed7f50	0.007247843
170	0xbd8b1a3b	-0.067921124
171	0xba66ec19	-0.0008808985
172	0xbc4ccf70	-0.012500629
173	0xbd46f094	-0.048569277
174	0xbda2b412	-0.07944502
175	0xbcbf663b	-0.023364177
176	0xbd3083bc	-0.04309438
177	0x3cb7422a	0.022370417
178	0xbcb87651	-0.022517355
179	0xbc6afdd3	-0.014342743
180	0xbc2f18ef	-0.010687097
181	0xbd12f7d7	-0.03588089
182	0x3cc485f4	0.023989655
183	0x3d33d70f	0.043906268
184	0xbd2461f5	-0.04013248
185	0x3c626f95	0.013820549
186	0xbc1933a8	-0.009350695
187	0xbcb91f39	-0.022597896
188	0xbbf536ef	-0.0074833552
189	0x3d0086f1	0.03137869
190	0x3a1ccec0	0.0005981736
191	0x3d276c6a	0.040874876
192	0xbcce76cd	-0.025203133
193	0xbc84a163	-0.016190236
194	0x3a0f2068	0.0005459846
195	0x3c3192fa	0.010838265
196	0xbc6c33de	-0.014416663
197	0xbca58627	-0.02020557
198	0x3d04c778	0.03241679
199	0x3b2b7fdd	0.0026168742
200	0x3d431903	0.047631275
201	0xbbe83af5	-0.0070871064
202	0x3db5697c	0.0885801
203	0x3c3ea37b	0.0116356565
204	0xbc9915a9	-0.018687086
205	0xbd8ada39	-0.06779904
206	0xbd4511dc	-0.048112735
207	0x3d0fb62a	0.035085835
208	0x3d1d739a	0.038440324
209	0xbd4e160b	-0.05031399
210	0x3d6380b4	0.055542663
211	0xbce58b83	-0.028020626
212	0xbcaf71b5	-0.021416524
213	0x3af17ae5	0.0018423466
214	0x3d33785a	0.043815948
215	0x3c3adc93	0.011405128
216	0x3da13fba	0.07873483
217	0x3d52082e	0.051277332
218	0x3e248a82	0.16068462
219	0x3d0bc72f	0.034125503
220	0x3cae3a3a	0.021267999
221	0x3d906d92	0.07052149
222	0x3c2aa918	0.010416292
223	0x3c40c543	0.011765781
224	0x3c517a18	0.012785457
225	0x3bf2bbf2	0.0074076587
226	0x3b8cdc8e	0.004298753
227	0xbd1bc55d	-0.038030017
228	0xbcebda37	-0.028790576
229	0x3d156f1f	0.036482926
230	0x3bd717bf	0.00656411
231	0x3d472a68	0.048624426
232	0xbd06981b	-0.032859903
233	0xbc2cb56f	-0.010541304
234	0x3d62a5ef	0.055334028
235	0xbd7adcb9	-0.061245654
236	0x3be02fe3	0.006841646
237	0xbd3b9e12	-0.045805044
238	0x3b8fd6ef	0.0043896358
239	0xbd24e64e	-0.0402587
240	0xbcb2b777	-0.021815998
241	0x3c4ea565	0.012612675
242	0x3ca63ab5	0.020291666
243	0x3d2861b9	0.04110882
244	0xbc7a9937	-0.015295318
245	0xbd332ec4	-0.04374577
246	0x3bd6f2ce	0.0065597063
247	0x3b5e8a58	0.003395697
248	0x3ab6750a	0.0013920378
249	0xbc25863c	-0.010102805
250	0x3d152593	0.036412787
251	0xbd101efa	-0.03518579
252	0x3c16f5fc	0.009213921
253	0xbcecc131	-0.028900715
254	0xbcf283e3	-0.029603904
255	0xbc127b7c	-0.008940574

backbone.2.conv3x3.bias f4 [48]
0	0x3cbb31cc	0.022850893
1	0xbd354710	-0.044257224
2	0x3d3918fb	0.04518984
3	0x3c82a95d	0.0159499
4	0xbc845e9b	-0.016158393
5	0x3d298811	0.04138953
6	0xb9bbced7	-0.00035821527
7	0x3d149b40	0.03628087
8	0xbc17ccb2	-0.009265112
9	0xbc00cfff	-0.00786209
10	0xbd2687c9	-0.04065684
11	0x3adeff51	0.0017013346
12	0x3ba5ab26	0.005055803
13	0xbd453975	-0.0481505
14	0x3c8134c5	0.015772233
15	0x3d3eb054	0.04655488
16	0x3cb2ae28	0.02181156
17	0x3c90df9f	0.017684756
18	0x3c88b416	0.016687434
19	0x3bb43385	0.0054993057
20	0x3b16d067	0.00230124
21	0x3c0a1a82	0.0084291715
22	0x3c9b7787	0.018977894
23	0xbd3b3aae	-0.04571026
24	0xbd289f89	-0.04116777
25	0xbc079d3d	-0.008277235
26	0x3d239ce8	0.03994456
27	0xbcdf4f53	-0.027259504
28	0x3c1a3756	0.009412607
29	0xbd2994b6	-0.041401587
30	0xbd0446d9	-0.032294128
31	0x3d05fc34	0.032711223
32	0x3c8aa7e4	0.01692576
33	0x3bc29071	0.005937629
34	0xbbc1f7a7	-0.005919415
35	0x3d13ac42	0.03605295
36	0xbbc1276f	-0.0058945934
37	0x3c2c4697	0.010514877
38	0x3bd6f255	0.00655965
39	0x3d3d770c	0.04625611
40	0x3c861928	0.016369417
41	0x3ca8826f	0.020570008
42	0x3d131591	0.03590924
43	0x3d34866e	0.044073515
44	0x3c5be1a4	0.013420496
45	0x3c44f0fd	0.012020347
46	0xbcb6b253	-0.022301828
47	0x3bb28fce	0.0054492718

backbone.2.bn.weight f4 [48]
0	0x3f838fcf	1.0278262
1	0x3f664507	0.8994908
2	0x3f71b18c	0.9441154
3	0x3f84e354	1.0381875
4	0x3f8573a7	1.0425919
5	0x3f5df699	0.86704403
6	0x3f69b877	0.91297096
7	0x3f7b5bd1	0.98186976
8	0x3f6c1b1a	0.92228854
9	0x3f93fe4f	1.1561984
10	0x3f92c258	1.1465559
11	0x3fade6ac	1.358602
12	0x3f864c58	1.0492048
13	0x3f7779b0	0.96670055
14	0x3f9e9e56	1.239207
15	0x3f7ff6e7	0.9998612
16	0x3f70bdef	0.94039816
17	0x3f763aaa	0.96183264
18	0x3f698eef	0.91233724
19	0x3f6fa90b	0.93617314
20	0x3f90a62d	1.1300713
21	0x3f810d4f	1.0082186
22	0x3f714b1c	0.9425523
23	0x3f8ada85	1.0847937
24	0x3f67a1f9	0.90481526
25	0x3f750846	0.9571575
26	0x3f78b694	0.9715359
27	0x3f929ad2	1.1453497
28	0x3f64d35a	0.89384997
29	0x3f6544ef	0.8955831
30	0x3f77e48f	0.9683313
31	0x3f6b35f9	0.9187923
32	0x3f7c0721	0.9844838
33	0x3f5a741d	0.85333425
34	0x3f829ad2	1.0203497
35	0x3f704876	0.93860567
36	0x3f79dce6	0.9760269
37	0x3f73a5ee	0.95175064
38	0x3f7bbb87	0.9833302
39	0x3f82eaf9	1.0227958
40	0x3f84c09a	1.0371277
41	0x3f6a8f77	0.9162516
42	0x3f5ed4ad	0.8704327
43	0x3f916564	1.1359067
44	0x3f5f7ca0	0.8729954
45	0x3f612d57	0.8795981
46	0x3f78b635	0.97153026
47	0x3f5a0e73	0.851783

backbone.2.bn.bias f4 [48]
0	0xbe3423c4	-0.17591769
1	0xbe948163	-0.29004964
2	0xbd82031b	-0.063482486
3	0x3e2fcf85	0.17169006
4	0xbe60fcdb	-0.21971457
5	0xbdf0ccc7	-0.11757808
6	0xbec8fe3e	-0.3925647
7	0xbc670714	-0.014100809
8	0xbe19592a	-0.1497542
9	0xbe6b2f7d	-0.22967334
10	0xbed3fd7d	-0.41404334
11	0xbddeeea5	-0.108853616
12	0xbea53d06	-0.3227312
13	0xbeea544c	-0.45767438
14	0xbd116bab	-0.03550307
15	0xbbe25204	-0.0069067497
16	0xbdc13396	-0.09433667
17	0xbedfe94a	-0.43732673
18	0xbdf96b26	-0.1217864
19	0xbe07419f	-0.13208626
20	0xbef07ac7	-0.46968672
21	0x3d878f07	0.06619077
22	0xbdb74dd6	-0.08950393
23	0xbeb3e95b	-0.35138974
24	0xbdc0961c	-0.09403631
25	0xbdd546b5	-0.10413877
26	0xbe1a141c	-0.15046734
27	0xbe40d4d5	-0.18831189
28	0xbe497d1e	-0.19676635
29	0xbdb08e20	-0.08620858
30	0xbd9876f6	-0.07444565
31	0xbde52c6b	-0.11190113
32	0xbab205c4	-0.001358204
33	0xbe705a5d	-0.23471971
34	0xbe2df87f	-0.16989325
35	0xbe328b78	-0.17436016
36	0xbea55af1	-0.32295945
37	0xbdb9226b	-0.09039768
38	0xbeb26f15	-0.34850374
39	0xbea416a3	-0.3204852
40	0xbe24543e	-0.16047761
41	0xbdf7c914	-0.120988995
42	0xbeeedd03	-0.46652994
43	0xbe4f5cec	-0.2025029
44	0xbdfd4dbf	-0.123683445
45	0xbdf8fcd1	-0.12157596
46	0xbe740c9e	-0.23832938
47	0xbe0afbe5	-0.13572653

backbone.2.bn.running_mean f4 [48]
0	0xbf122183	-0.57082385
1	0x3f362ecf	0.71165174
2	0xbfadcf24	-1.3578839
3	0xc020da7a	-2.5133348
4	0xbfa0a1f9	-1.254943
5	0x3f98df8d	1.1943222
6	0x401b034a	2.4220757
7	0xc03d8522	-2.9612508
8	0xbf2d6723	-0.677355
9	0xbf681868	-0.9066224
10	0xbf333395	-0.7000058
11	0xbf383423	-0.71954554
12	0xbf83fe25	-1.0311934
13	0x3f106155	0.56398517
14	0xbf92f0d4	-1.1479745
15	0xc007309b	-2.1123416
16	0xc01cc055	-2.449239
17	0x40176964	2.3658075
18	0xbff02142	-1.876015
19	0xbf7d0c1b	-0.98846596
20	0xbf01d0bd	-0.50709134
21	0xc054bafa	-3.3239121
22	0x3ff6318c	1.923387
23	0xbf8734a0	-1.0562935
24	0xbfe656ba	-1.7995217
25	0x3f0b2c54	0.54364514
26	0x3e085347	0.13313018
27	0xbedab988	-0.42719674
28	0x3e17ebaa	0.14835992
29	0xc03d439e	-2.957252
30	0xbfa4ca8b	-1.2874311
31	0xbf0494e7	-0.51789707
32	0xc02e72cd	-2.725757
33	0xbfa9c903	-1.3264469
34	0x3d881f0e	0.06646548
35	0xbf720538	-0.94539213
36	0x3f77ff2c	0.96873736
37	0xbf319e55	-0.6938222
38	0x3f777da0	0.96676064
39	0xbf0d87a1	-0.5528508
40	0xbfbe1460	-1.4849968
41	0xbf234d66	-0.63789976
42	0x3f7103ba	0.9414631
43	0xbf03d86d	-0.51502115
44	0x3def4c3f	0.11684465
45	0xbdc71479	-0.09720702
46	0xbfaa1e7d	-1.3290554
47	0xbfe4eb13	-1.7884239

backbone.2.bn.running_var f4 [48]
0	0x3f38b157	0.721456
1	0x3f925968	1.1433535
2	0x3f510e46	0.81662405
3	0x3febbeca	1.8417599
4	0x3fd08f85	1.6293799
5	0x3fa38987	1.2776345
6	0x3f3aa421	0.7290669
7	0x3f62cbfa	0.88592494
8	0x4002f9f3	2.0465057
9	0x3fa822dd	1.313564
10	0x3f468832	0.7755157
11	0x3f5f0328	0.8711419
12	0x3fae3394	1.360949
13	0x3f57f4b3	0.84357756
14	0x3fe15057	1.7602643
15	0x3fbf7d76	1.4960163
16	0x3f8072e7	1.0035065
17	0x3f2a4a28	0.66519403
18	0x3f8de44d	1.1085297
19	0x402d7944	2.7105265
20	0x3ed97e71	0.4247928
21	0x40019c16	2.0251517
22	0x4006e5a7	2.1077669
23	0x3f404353	0.7510273
24	0x3ff7d530	1.9361935
25	0x40125c3d	2.2868798
26	0x4011b0d6	2.2764182
27	0x3f4818ad	0.7816265
28	0x3f9e1c84	1.2352452
29	0x3fa1fee9	1.2655917
30	0x40124b5a	2.285849
31	0x3f45bb68	0.77239084
32	0x3fe9a295	1.8252741
33	0x3f83771c	1.0270724
34	0x3f787ed6	0.97068536
35	0x3f9aa57f	1.2081755
36	0x3f49b995	0.787988
37	0x3eff6551	0.49881986
38	0x3f3861de	0.72024333
39	0x3fc4dcf8	1.5379934
40	0x3ec81607	0.39079306
41	0x4020bc39	2.5114882
42	0x3f0454c5	0.5169185
43	0x3f4e8f31	0.8068724
44	0x3f55a29d	0.83451253
45	0x407fb8b1	3.9956477
46	0x3f28c8b3	0.6593124
47	0x404eeffc	3.2333975

backbone.3.conv3x3.weight f4 [48, 48, 3, 3]
0	0xbd3f2e8b	-0.046675246
1	0x3b965dc1	0.004588813
2	0x3d207f77	0.03918406
3	0x3d70e812	0.05881507
4	0x3db77e9b	0.08959695
5	0xbcf6fda4	-0.030150242
6	0x3d318ec7	0.043349054
7	0x3c810e28	0.01575382
8	0xbd43f6df	-0.047842856
9	0x3d0434ad	0.032276798
10	0x3d4fa3f9	0.050693486
11	0x3d9d0957	0.07667797
12	0xbd80b09c	-0.062836856
13	0xbd5d90cb	-0.054093163
14	0xbdb1be85	-0.08678917
15	0x3bcdbe99	0.0062788245
16	0x3d096007	0.033538844
17	0x3c7a36b5	0.015271832
18	0xbd81abe0	-0.06331611
19	0xba94006a	-0.0011291627
20	0xbca72c96	-0.020407002
21	0x3c0528d7	0.008127413
22	0xbb2e8bf7	-0.0026633719
23	0xbc21494b	-0.009844135
24	0xbc4e1d8e	-0.012580289
25	0x3cb12571	0.021624299
26	0x3c872ace	0.016499903
27	0xbdd435bb	-0.10361811
28	0xbd9fc06f	-0.07800376
29	0xbd6b795b	-0.05748878
30	0xbd7b332a	-0.06132809
31	0xbd6c7012	-0.057724066
32	0xbdb7e661	-0.08979488
33	0xbd8dcd8e	-0.06923972
34	0xbda443ee	-0.08020769
35	0xbd720a2d	-0.059091736
36	0xbcce4a65	-0.025181958
37	0x3ce8e634	0.028430082
38	0x3c9b1561	0.018931093
39	0xbcebda50	-0.028790623
40	0x3e40ea5b	0.188394
41	0xbcebfbd9	-0.028806614
42	0x3c30dbe3	0.010794613
43	0xbc06e397	-0.008232973
44	0xbdb8fae5	-0.09032229
45	0x3d42d234	0.047563747
46	0x3d46ee8a	0.048567332
47	0xbdb251e4	-0.08707026
48	0x3d33a7a0	0.04386103
49	0xbd321152	-0.04347355
50	0xbcb9a9d9	-0.022663997
51	0x3c7656c8	0.015035339
52	0xbd331d04	-0.043728843
53	0xbd3d1b68	-0.046168715
54	0xbd1d78ec	-0.0384454
55	0xbd3da1ca	-0.046296872
56	0xbdb6c426	-0.08924131
57	0xbc683bfc	-0.014174458
58	0x3ba80d75	0.0051285573
59	0x3c95b318	0.018273875
60	0xbcfec885	-0.031101475
61	0x3d654d13	0.055981707
62	0xbc60873a	-0.0137041155
63	0x3d21085c	0.039314613
64	0x3b4f2feb	0.0031614255
65	0xbbc44d9b	-0.0059906966
66	0xbc3f2560	-0.011666626
67	0x3dab3b71	0.08360947
68	0x3d0a1c0a	0.033718146
69	0xbad84346	-0.0016499541
70	0x3c372910	0.011179224
71	0x3d142432	0.03616733
72	0xbbb97fa7	-0.0056609693
73	0x3ce1d6ef	0.027568309
74	0x3d11bb16	0.03557881
75	0xb6e8dacf	-6.9396115e-06
76	0x3cc16b26	0.023610663
77	0xbc5315f4	-0.012883652
78	0x3c013f28	0.007888593
79	0x3cae6983	0.021290546
80	0xbcf264fb	-0.029589167
81	0x3d9298e9	0.071580715
82	0x3d947b7f	0.072501175
83	0x3bb39eac	0.0054815616
84	0x3db0cd37	0.086328916
85	0xbd7ff825	-0.06249251
86	0x3dafadb6	0.085780546
87	0xbcf43f45	-0.029815326
88	0x3c06865c	0.008210745
89	0x3cebfc28	0.02880676
90	0xbc0da3f6	-0.008645048
91	0xbdd4a742	-0.103834644
92	0xbd1a34bf	-0.03764796
93	0xbb9d91e5	-0.0048086517
94	0x3da3e2a8	0.080022156
95	0x3d7f8c57	0.062389698
96	0xbde20e62	-0.110378996
97	0xbd34f6ab	-0.044180553
98	0x3a6ac66e	0.000895596
99	0x3cb1f3e9	0.02172275
100	0x3d04f95c	0.03246437
101	0x3da07cb7	0.078362875
102	0xbdaa1387	-0.08304506
103	0x3e3d8245	0.18506725
104	0xbca233c7	-0.01980008
105	0x3d0d1160	0.0344404
106	0x3d958f59	0.07302732
107	0x3d395e3a	0.045255877
108	0x3d3a9ee9	0.045561705
109	0x3d6dc8a0	0.05805266
110	0x3e368c29	0.17826904
111	0xbcb1fcbc	-0.021726958
112	0x3cdd36e0	0.027003706
113	0x3ddb4987	0.107073836
114	0x3ca478c8	0.020077124
115	0x3d79a4d7	0.06094822
116	0x3dfb9e2b	0.122860275
117	0xbdbddbf4	-0.09270468
118	0x3d211148	0.03932312
119	0x3d652b7d	0.055949677
120	0xbca7ebe1	-0.020498218
121	0x3d130494	0.035893038
122	0x3d14cbac	0.03632705
123	0x3ce24fab	0.02762588
124	0x3d9ab32f	0.07553708
125	0xbcce356f	-0.025171963
126	0x3d3998b1	0.045311633
127	0x3d0075cb	0.031362336
128	0x3d9edc23	0.077568315
129	0x3dcd7036	0.10031168
130	0x3cb3a04b	0.02192702
131	0x3e4bbe15	0.1989673
132	0x3e4645a6	0.19362506
133	0x3c840992	0.016117845
134	0x3b0b9313	0.002129738
135	0xbc111f0b	-0.008857499
136	0x3d280aec	0.04102604
137	0xb97a5f28	-0.00023877306
138	0xbd7350a0	-0.059403062
139	0xbc8d3784	-0.017238386
140	0xbd55268d	-0.052038718
141	0xbd89ba79	-0.0672502
142	0xbaa923c0	-0.0012904331
143	0xbd557ea9	-0.052122746
144	0x3bcec922	0.006310598
145	0x3d1c4612	0.03815276
146	0x3d697030	0.056991756
147	0xba59bc91	-0.00083059917
148	0x3d0e54c4	0.034748808
149	0xbca04b59	-0.019567179
150	0x3d7090f6	0.058731996
151	0x3ca4771b	0.020076325
152	0x3b433a3a	0.0029789344
153	0xbcf3b600	-0.02974987
154	0xbdbccfe9	-0.09219343
155	0xbd3ae584	-0.04562904
156	0xbd94cf6b	-0.07266124
157	0x3ca4afd1	0.020103367
158	0xbce8e3d6	-0.028428953
159	0xbd8543a7	-0.06507044
160	0xbd91b927	-0.07115393
161	0xbd9965cd	-0.0749012
162	0x3d153966	0.036431693
163	0x3ce1665e	0.027514633
164	0x3ce3b599	0.027796553
165	0xbd24ec1a	-0.040264226
166	0xbd4f9a6b	-0.050684374
167	0x3b6dc890	0.0036282875
168	0x39fe9f51	0.00048565355
169	0x3c9e9588	0.019358411
170	0xbbf80ca9	-0.0075698686
171	0xbcafd31f	-0.021462975
172	0xbc824e98	-0.015906617
173	0x3d30ba2b	0.043146294
174	0x3c9995ea	0.018748242
175	0xbc2c4759	-0.0105150575
176	0x3d251506	0.040303253
177	0x3c3cdc5a	0.011527145
178	0x3b8ed56b	0.0043589375
179	0xbc8c3398	-0.017114446
180	0x3bbeaae0	0.0058187097
181	0x3d5614fb	0.052266102
182	0x3c360842	0.011110367
183	0x3df92196	0.12164609
184	0xbb78d838	-0.0037970673
185	0x3da944db	0.08265086
186	0x3cb787f5	0.022403697
187	0xbcf241f4	-0.029572465
188	0x3ca8fa2c	0.020627104
189	0xbd379d97	-0.044828024
190	0x3d1a370c	0.037650153
191	0x3d0e32c2	0.034716375
192	0x3d6ab598	0.057302088
193	0xbd23d6fc	-0.039999947
194	0x3d079ec1	0.033110384
195	0x3dbd289e	0.09236263
196	0x3ce5c7f0	0.02804944
197	0x3d7f7288	0.062365085
198	0x3c2efbea	0.010680178
199	0xbc7946b9	-0.0152146155
200	0xbcba2c61	-0.02272624
201	0xbc5620ad	-0.013069314
202	0xbc28abb4	-0.010294843
203	0x3bb2de60	0.005458638
204	0xbd82639c	-0.06366655
205	0xbc097f3f	-0.008392154
206	0xb9189710	-0.00014552125
207	0x3d8d41a8	0.068972886
208	0x3d9a84bf	0.075448506
209	0x3dd3ea3c	0.10347411
210	0x3c1bb0c6	0.009502595
211	0xbccc4ed2	-0.024939928
212	0xbc1ea336	-0.009682467
213	0x3baf0456	0.005341093
214	0x3d090d35	0.03345986
215	0x3d604062	0.0547489
216	0xbb8a208b	-0.004215305
217	0x3c7fab2e	0.015604777
218	0xbd833a0f	-0.06407558
219	0x3af725b1	0.0018855837
220	0x3c8d49ad	0.017247045
221	0x3c6e3572	0.01453911
222	0xbd44a6eb	-0.048010748
223	0xbbac0bef	-0.005250446
224	0xbd13dd5a	-0.03609977
225	0x3a32ef0b	0.00068257813
226	0xbd4e68be	-0.05039286
227	0x3d61fef2	0.055174775
228	0x3ba80fc4	0.0051288325
229	0xbc9571db	-0.018242767
230	0x3ced0080	0.028930902
231	0xbcbffed0	-0.023436934
232	0x3d1786ba	0.03699372
233	0xbbded13e	-0.006799846
234	0x3d07c643	0.03314806
235	0xbc416f50	-0.011806324
236	0x3cc98015	0.024597207
237	0x3c6b949a	0.014378691
238	0x3bc0bf37	0.0058821696
239	0x3c90e5f2	0.017687771
240	0xbbec6ed4	-0.00721536
241	0x3d42c4fd	0.047551144
242	0xbcdf6030	-0.027267545
243	0xbc8d3ec1	-0.017241837
244	0x3d85c45d	0.06531594
245	0xbd51f5bb	-0.051259737
246	0xbd0a9c16	-0.03384026
247	0x3d7223af	0.05911606
248	0xbdea36ca	-0.114362314
249	0xbd058c20	-0.032604337
250	0x3ae6cd35	0.0017608764
251	0x3d901722	0.07035662
252	0xbd0a0ce8	-0.033703715
253	0xbce50713	-0.027957475
254	0xbd526956	-0.051369987
255	0xbd84b1f9	-0.06479258

backbone.3.conv3x3.bias f4 [48]
0	0xbd453d62	-0.048154242
1	0xbd34756d	-0.0440573
2	0xbc9c0490	-0.019045144
3	0x3d136e1f	0.03599369
4	0x39dff732	0.0004271805
5	0xbd0b7819	-0.03405008
6	0xbd13123a	-0.035906054
7	0xbcf70d79	-0.030157791
8	0xbd0f6c39	-0.03501532
9	0xbca4275f	-0.020038305
10	0x3ccc4cc5	0.02493895
11	0xbb1c90c0	-0.0023889989
12	0xbd3ad19d	-0.04561006
13	0xbd2becf1	-0.04197401
14	0xbd318aa2	-0.0433451
15	0x3d408d61	0.04700983
16	0x3d265317	0.040606584
17	0x3d35d2aa	0.044390358
18	0x3cd50e89	0.026007907
19	0xbd0565d5	-0.032567818
20	0xbcacc936	-0.021092039
21	0xbc52c367	-0.01286397
22	0x3c86dc31	0.016462417
23	0xbb9cbe4e	-0.0047834283
24	0xbc14ffa9	-0.009094157
25	0x3d1ebe01	0.03875542
26	0x3c335fe0	0.010948151
27	0x3a772217	0.0009427382
28	0xbc2dc590	-0.010606185
29	0x3d136215	0.03598221
30	0x3bc68ec1	0.006059498
31	0x3d0c0d4e	0.034192376
32	0xbcf8fe61	-0.030394735
33	0xbbd5cfc4	-0.0065250117
34	0x3d289ed6	0.041167103
35	0x3d096271	0.033541147
36	0x3d3cf02f	0.046127494
37	0xbc6e9f73	-0.014564383
38	0x3cc899ca	0.024487395
39	0x3cd38525	0.025820324
40	0x3ccb0137	0.024780853
41	0x3cafd14a	0.021462101
42	0xbc0fb8fa	-0.008772129
43	0x3d1df885	0.038567085
44	0x3b7cb8a1	0.0038562196
45	0xbc2f02db	-0.010681833
46	0x3c2e471b	0.01063707
47	0x3c5f370e	0.013623966

backbone.3.bn.weight f4 [48]
0	0x3f63ced6	0.8898748
1	0x3f783270	0.9695196
2	0x3f59e17b	0.8510968
3	0x3f867a39	1.0506049
4	0x3f69bd24	0.9130423
5	0x3f8fd304	1.1236272
6	0x3f808840	1.004158
7	0x3f699445	0.91241866
8	0x3f58e26e	0.84720504
9	0x3f6c15d0	0.92220783
10	0x3f6f9211	0.93582255
11	0x3f81dd22	1.0145609
12	0x3f7a914e	0.9787797
13	0x3f801583	1.0006565
14	0x3f800cec	1.0003943
15	0x3f75bc46	0.9599041
16	0x3f74bee1	0.9560376
17	0x3f90a619	1.1300689
18	0x3f6b540a	0.9192511
19	0x3f71d11c	0.944597
20	0x3f82a222	1.0205729
21	0x3f78b83e	0.9715613
22	0x3f762793	0.96154135
23	0x3f98d7fd	1.1940914
24	0x3f6ff361	0.9373074
25	0x3f819a02	1.0125124
26	0x3f8d69bc	1.1047893
27	0x3f5d0a50	0.8634386
28	0x3f6b13bc	0.9182699
29	0x3f7b22a7	0.9809975
30	0x3f6d705a	0.9274956
31	0x3f8f2d0b	1.1185621
32	0x3f79cc3e	0.97577274
33	0x3f8152f0	1.0103436
34	0x3f777d5a	0.96675646
35	0x3f77f907	0.9686436
36	0x3f5af629	0.8553186
37	0x3f64b656	0.8934072
38	0x3f90b0ef	1.1303996
39	0x3f66f369	0.90215164
40	0x3f8aefcd	1.0854431
41	0x3f76c9d6	0.9640173
42	0x3f7964fc	0.97419715
43	0x3f7500cb	0.95704335
44	0x3f88c9fe	1.0686643
45	0x3f6ba562	0.9204923
46	0x3f80da26	1.0066574
47	0x3f7725f4	0.96542287

backbone.3.bn.bias f4 [48]
0	0xbe7bf9cc	-0.24607009
1	0xbd2e7b74	-0.042598203
2	0xbe0c7809	-0.13717665
3	0xbeaee51d	-0.34159175
4	0xbdee0b88	-0.11623293
5	0xbe93848a	-0.28812057
6	0x3cdd79d2	0.027035628
7	0xbe22a581	-0.15883447
8	0xbe72baf9	-0.23704137
9	0xbe02d933	-0.12778167
10	0xbe015705	-0.12630852
11	0xbe52dcbc	-0.20592016
12	0xbda2dd9d	-0.07952426
13	0x3c29300f	0.0103263995
14	0xbdc2f62d	-0.095196106
15	0xbd8698a8	-0.065720856
16	0xbecb2f60	-0.39684582
17	0xbe9d1661	-0.30681136
18	0xbe41f40b	-0.18940751
19	0xbdc46432	-0.09589423
20	0xbe881714	-0.26580107
21	0xbe2ecd57	-0.17070518
22	0xbe3d2cb4	-0.18474084
23	0xbe9b6e31	-0.30357507
24	0xbdd5bb3f	-0.10436105
25	0xbd0b5dee	-0.034025125
26	0xbedd1569	-0.43180397
27	0xbe68a372	-0.227186
28	0xbe045a59	-0.1292509
29	0xbc4a3f5d	-0.012344209
30	0xbd566430	-0.05234164
31	0xbee6c16a	-0.45069438
32	0xbe5f44d5	-0.21803601
33	0xbe83ba1e	-0.25727934
34	0xbe4ea47c	-0.20179933
35	0xbd68aefb	-0.0568075
36	0xbe0c6e06	-0.13713846
37	0xbdd12adb	-0.10213252
38	0xbd98e364	-0.07465246
39	0xbe3ef266	-0.18647155
40	0xbec6b5a9	-0.3881047
41	0xbe8d8413	-0.27639827
42	0xbe6cb31c	-0.231152
43	0xbd28851a	-0.04114256
44	0xbda52f21	-0.0806563
45	0xbded0999	-0.11574096
46	0xbce436b3	-0.027858114
47	0xbd36afbc	-0.044601187
