models/ch48_best_epoch.pt (torch, 440555 bytes, 38 tensors)

backbone.0.conv3x3.weight f4 [48, 3, 3, 3]
0.18381529 0.06081196 -0.07557353 0.13331039 -0.092624806 0.012057244 -0.06114348 0.0746619
0.0089977095 -0.32339722 0.0059386245 0.026340045 0.09122211 0.15555239 0.017813398 -0.05522982
0.22534834 -0.04184674 -0.051394153 0.038919482 -0.014927601 0.030417955 -0.18071254 0.06405459
-0.021653654 -0.18452874 0.008099839 -0.11258668 0.08172204 -0.19977486 0.062060677 -0.14544514
0.11963074 0.04162476 -0.095231526 0.13528939 0.027404604 0.11079777 0.048017256 0.018204948
0.12251033 -0.07977091 0.09181967 0.2233523 0.12968852 -0.061013587 0.114733204 -0.029491013
0.07783919 -0.17307973 -0.22270952 -0.04066275 -0.18065839 0.15402468 0.00067270733 0.036543906
0.10828439 -0.042249206 0.22723173 -0.09709058 0.0052814735 -0.26533425 0.05480834 -0.10463883
0.05048119 0.0031029284 0.19959182 -0.14072731 -0.08333232 -0.10575371 0.13760732 -0.0043764305
0.109905906 -0.10322563 -0.12486528 -0.10600298 -0.1085945 0.17449059 0.03850174 0.20503625
-0.0627988 -0.04502909 0.110023715 0.0057119746 0.04696261 -0.27809715 0.11278962 0.041596677
0.025899524 0.040697645 0.03482293 0.0759942 0.08205765 0.06941026 -0.25517422 0.008008897
0.068339385 0.005399427 -0.01971058 -0.042387333 -0.01712468 0.035787385 0.030879268 -0.58181846
0.038640123 -0.0010001571 -0.006270075 -0.012449081 -0.057787087 -0.13262373 0.21241945 -0.059922908
0.018988404 -0.24463245 -0.06472287 -0.030906267 0.050113615 -0.10754975 -0.05683859 0.08295881
-0.0041866694 -0.051132083 -0.11500623 -0.016675916 -0.037587088 -0.027868764 -0.026468324 -0.13973443
0.21300249 -0.06442167 0.21617661 -0.06320686 -0.3248683 0.076603286 0.122160934 0.024566656
-0.1142824 -0.15836604 0.033998556 0.029233413 0.041129287 -0.08365375 0.099177256 0.012802438
0.015933506 0.011272621 0.25271934 0.032873854 0.17025207 -0.24257435 0.025375057 -0.21800247
-0.0035089504 -0.104109585 0.12635465 -0.1718383 0.012987842 -0.015599005 0.09858571 -0.09437784
0.2711351 -0.0064096684 -0.005803863 -0.21275347 -0.0073762797 0.0075227343 -0.0030515858 0.25205007
0.028935336 -0.03364928 -0.025666501 0.013591251 0.16955426 -0.018618982 -0.050633013 -0.00646102
-0.27239206 0.016703634 0.11753448 -0.104874 0.002277223 0.020490553 0.008224382 -0.02181573
0.017463652 0.17467068 0.0040677423 -0.05215828 0.016696397 0.03347456 0.009035581 0.016753765
0.104927085 0.18354563 -0.050790343 -0.003770445 -0.009185294 -0.010074506 0.044938006 0.057621073
-0.14818531 -0.17500581 0.078724995 0.08534702 -0.04579432 -0.24465181 -0.18596254 -0.12012237
-0.02150249 0.066789396 0.1430772 0.10099684 -0.14221716 -0.068407156 -0.015090923 0.20999734
0.0927808 -0.0014729503 0.03683184 -0.0023467531 -0.22590706 0.20806208 0.00447811 -0.06087524
-0.370097 0.09024631 0.073841624 0.040447846 -0.06028067 -0.11822735 -0.09844725 0.05891712
0.05206151 0.14051415 0.13217704 0.0075258706 0.09460638 -0.15220478 -0.11805093 -0.17194363
0.078284785 -0.042165235 -0.0017709788 -0.025032787 0.06896473 -0.17546782 -0.06865693 0.08923134
-0.044188894 0.027750982 -0.0071377014 -0.2478303 -0.028727548 -0.14754884 -0.009850369 -0.085466266
00000000: 133a 3c3e f615 793d 4bc6 9abd 8582 083e
00000010: 13b2 bdbd bf8b 453c 9671 7abd 57e8 983d
00000020: 216b 133c 5294 a5be cb98 c23b 14c7 d73c
00000030: a8d2 ba3d 2049 1f3e 67ed 913c aa38 62bd
00000040: b7c1 663e 7d67 2bbd ad82 52bd 096a 1f3d
00000050: e692 74bc 132f f93c b50c 39be 0e2f 833d
00000060: 0163 b1bc 1af5 3cbe 30b5 043c d893 e6bd
00000070: e35d a73d c891 4cbe 5633 7e3d 92ef 14be
00000080: f600 f53d b97e 2a3d bf08 c3bd 4d89 0a3e
00000090: 9f7f e03c f1e9 e23d bead 443d 8b22 953c
000000a0: b2e6 fa3d ee5e a3bd f30b bc3d 77b6 643e
000000b0: 11cd 043e 62e9 79bd 3ef9 ea3d 2397 f1bc
000000c0: 276a 9f3d d03b 31be f70d 64be fc8d 26bd
000000d0: 83fe 38be a5b8 1d3e a058 303a 10af 153d
000000e0: 35c4 dd3d 810d 2dbd 6faf 683e 6dd7 c6bd
000000f0: 3610 ad3b e4d9 87be b67e 603d e24c d6bd
00000100: 5dc5 4e3d 805a 4b3b cc61 4c3e d21a 10be
00000110: 23aa aabd 6795 d8bd efe8 0c3e 2968 8fbb
00000120: 5916 e13d f667 d3bd 5eb9 ffbd 1718 d9bd
00000130: cb66 debd a9ad 323e 00b4 1d3d 06f5 513e
00000140: a89c 80bd 6c70 38bd 1d54 e13d 842b bb3b
00000150: de5b 403d c062 8ebe 3ffe e63d 4761 2a3d
00000160: 3d2b d43c 93b2 263d 7da2 0e3d d9a2 9b3d
00000170: d70d a83d f726 8e3d 32a6 82be c037 033c
00000180: 85f5 8b3d aded b03b 1578 a1bc 579e 2dbd
00000190: 0f49 8cbc cb95 123d 85f6 fc3c 0ef2 14bf
000001a0: 1b45 1e3d b417 83ba 3475 cdbb 3bf7 4bbc
000001b0: 27b2 6cbd 84ce 07be 7c84 593e b971 75bd
000001c0: 928d 9b3c ee80 7abe 6d8d 84bd 242f fdbc
000001d0: ef43 4d3d 0b43 dcbd 95cf 68bd 4fe6 a93d
000001e0: 5430 89bb e06f 51bd 6388 ebbd ee9b 88bc
000001f0: ebf4 19bd 094d e4bc 19d4 d8bc 8b16 0fbe
00000200: 531d 5a3e 82ef 83bd 675d 5d3e 9972 81bd
00000210: 2355 a6be 2fe2 9c3d 832f fa3d 0340 c93c
00000220: e40c eabd b52a 22be 1242 0b3d e97a ef3c
00000230: 2f77 283d a852 abbd 721d cb3d 51c1 513c
00000240: fc86 823c cdb0 383c 6e64 813e bca6 063d
00000250: 8f56 2e3e 6965 78be 5adf cf3c 0a3c 5fbe
00000260: 6bf6 65bb 6837 d5bd 1d63 013e 61f6 2fbe
00000270: f5ca 543c f892 7fbc 4ee7 c93d 2b49 c1bd
00000280: 38d2 8a3e 3208 d2bb 552e bebb 0cdc 59be
00000290: b8b4 f1bb 4581 f63b 1dfd 47bb b50c 813e
000002a0: cc09 ed3c d4d3 09bd 8e42 d2bc d7ad 5e3c
000002b0: a29f 2d3e d686 98bc 9064 4fbd f7b6 d3bb
000002c0: f976 8bbe 0fd6 883c ebb5 f03d 2ec8 d6bd
000002d0: 763d 153b cedb a73c 8fbf 063c e7b6 b2bc
000002e0: ef0f 8f3c dfdc 323e b24a 853b eca3 55bd
000002f0: e2c6 883c 9f1c 093d f909 143c 313f 893c
00000300: 03e4 d63d 63f3 3b3e 8909 50bd 9219 77bb
00000310: ea7d 16bc 8a0f 25bc ea10 383d 1304 6c3d
00000320: e4bd 17be b934 33be 923a a13d 6bca ae3d
00000330: d392 3bbd 0186 7abe f76c 3ebe b802 f6bd
00000340: fd25 b0bc e1c8 883d d482 123e 6ed7 ce3d
00000350: 60a1 11be 0d19 8cbd eb3f 77bc 8b09 573e
00000360: dc03 be3d 0310 c1ba fcdc 163d fccb 19bb
00000370: 2e54 67be 3a0e 553e 1cbd 923b 5158 79bd
00000380: 5b7d bdbe 0fd3 b83d 473a 973d a4ac 253d
00000390: dde8 76bd 2e21 f2bd b69e c9bd 1453 713d
000003a0: 733e 553d f1e2 0f3e 6b59 073e 949b f63b
000003b0: fdc0 c13d 92db 1bbe b0c4 f1bd fe11 30be
000003c0: c653 a03d 74b5 2cbd 3020 e8ba 8f11 cdbc
000003d0: 613d 8d3d d6ad 33be 019c 8cbd ecbe b63d
000003e0: 6aff 34bd 0756 e33c 61e3 e9bb 3ac7 7dbe
000003f0: 0956 ebbc 0b17 17be 7163 21bc f008 afbd

backbone.0.conv3x3.bias f4 [48]
-0.17787138 -0.1487663 0.03825075 0.107456595 -0.09475108 0.021538377 0.0055062366 0.057055112
-0.10731024 0.110544495 0.12942946 -0.13336423 0.0010260587 -0.0035724614 0.06577621 0.17314908
0.058003962 -0.04429949 0.17026529 -0.07890874 -0.0567591 0.014635564 -0.14366888 0.023495873
-0.12943257 0.018261548 0.021766322 0.02019902 -0.15862276 -0.1762456 0.0921964 0.16655572
-0.17433898 0.071770474 -0.13998903 0.0112914415 0.17347248 0.14800805 -0.14051145 0.124163814
0.09602023 0.0005966954 0.19351314 -0.07988519 -0.04319259 -0.09441558 0.02271612 0.050235756
00000000: ea23 36be 3156 18be d2ac 1c3d 3412 dc3d
00000010: db0c c2bd 4071 b03c a96d b43b 9fb2 693d
00000020: 79c5 dbbd 2765 e23d 2889 043e a290 08be
00000030: d17c 863a f51f 6abb adb5 863d fe4d 313e
00000040: 9095 6d3d 6273 35bd 065a 2e3e e89a a1bd
00000050: 3b7c 68bd 01ca 6f3c ef1d 13be 6b7a c03c
00000060: f989 04be 3e99 953c 494f b23c 6a78 a53c
00000070: 016e 22be ba79 34be 77d1 bc3d 958d 2a3e
00000080: eb85 32be 66fc 923d 4959 0fbe bdff 383c
00000090: c5a2 313e 6c8f 173e 3ce2 0fbe 9949 fe3d
000000a0: 41a6 c43d 8d6b 1c3a 4f28 463e d99a a3bd
000000b0: b7ea 30bd f55c c1bd 2817 ba3c 02c4 4d3d

backbone.0.bn.weight f4 [48]
0.8674566 0.94414693 0.97876453 1.242565 1.0319811 0.8788274 1.0083486 0.88716453
1.0332211 1.063616 1.1003627 0.8991825 1.110516 0.88230133 0.9237256 1.1318184
0.83795965 0.88453573 0.95637625 0.89946836 0.91362494 0.9517072 1.1143389 1.1438605
0.7720595 0.9570625 0.84219694 0.9660021 1.0944724 0.95816237 0.79363066 1.001043
0.9081272 1.0584751 1.0924833 0.8697321 0.89462966 1.2147722 1.0387524 0.9771052
0.8812513 1.0133814 0.93880916 0.9217089 0.9323706 0.8915917 0.9966233 0.95438206
00000000: a311 5e3f 9db3 713f 5090 7a3f 5f0c 9f3f
00000010: f517 843f d5fa 603f 9111 813f 371d 633f
00000020: 9740 843f 9224 883f afd8 8c3f d330 663f
00000030: 6325 8e3f 80de 613f 4879 6c3f 6ddf 903f
00000040: 8684 563f ef70 623f 13d5 743f 8f43 663f
00000050: 53e3 693f 15a3 733f a8a2 8e3f 056a 923f
00000060: b1a5 453f 0c02 753f 389a 573f ea4b 773f
00000070: ac17 8c3f 214a 753f 612b 4b3f 2d22 803f
00000080: 067b 683f 1d7c 873f 7ed6 8b3f c3a6 5e3f
00000090: 7306 653f a87d 9b3f d7f5 843f 9123 7a3f
000000a0: af99 613f 7bb6 813f cc55 703f 1df5 6b3f
000000b0: d7af 6e3f 5b3f 643f b422 7f3f 6252 743f

backbone.0.bn.bias f4 [48]
0.668166 0.0427576 0.4756471 0.089054905 0.012794665 0.847111 0.9594696 0.13840654
0.07077983 -0.15798487 -0.11040335 -0.067688495 -0.13834137 0.099372126 -0.028140904 -0.2412453
0.56009537 0.22162329 1.3239796 0.45506072 -0.2006317 0.2673697 -0.06841962 -0.2620358
-0.13688199 -0.00926504 0.64646816 0.117023826 -0.0036201382 -0.04215527 0.102471344 -0.109518126
0.025448954 -0.13857435 -0.11403674 0.024854587 -0.120886736 -0.03745444 -0.08909203 0.008624434
-0.008342416 -0.044904344 0.5459861 0.15930848 0.020149756 0.26414928 1.2478529 -0.023698611
00000000: ed0c 2b3f 9822 2f3d 0488 f33e 6b62 b63d
00000010: b7a0 513c 44dc 583f cd9f 753f 72ba 0d3e
00000020: 04f5 903d c9c6 21be 271b e2bd 44a0 8abd
00000030: 5ca9 0dbe 9d83 cb3d c187 e6bc 0209 77be
00000040: 6962 0f3f 37f1 623e 2a78 a93f b8fd e83e
00000050: 6572 4dbe aee4 883e 961f 8cbd 8e29 86be
00000060: cb2a 0cbe 65cc 17bc f07e 253f 30aa ef3d
00000070: d73f 6dbb 01ab 2cbd 7fdc d13d 0a4b e0bd
00000080: 537a d03c 6fe6 0dbe 188c e9bd d99b cb3c
00000090: 7793 f7bd d469 19bd e275 b6bd 7f4d 0d3c
000000a0: a1ae 08bc 9eed 37bd bfc5 0b3f c321 233e
000000b0: 1a11 a53c 933e 873e a5b9 9f3f 9723 c2bc

backbone.0.bn.running_mean f4 [48]
-0.16175307 -0.061069895 0.037306823 -0.010738813 -0.2863968 0.03631792 0.009677486 0.0087676095
-0.19090137 0.007318502 0.07623463 -0.09638823 -0.09457202 -0.009400652 0.14390166 0.0665102
0.06186909 -0.032956444 0.18569529 -0.07228262 0.03364179 0.01842966 -0.31498498 -0.039792225
-0.08112484 -0.049747214 0.02310439 0.10608402 -0.2634966 -0.25344554 0.10395883 0.11533764
-0.14673465 -0.030401267 -0.28723073 -0.030917237 0.20678993 -0.002622576 -0.28138563 0.07854974
0.13892008 -0.105517775 0.17461911 -0.028953359 -0.04818567 -0.08687417 0.039564736 0.09305343
00000000: 99a2 25be 6d24 7abd 0acf 183d d9f1 2fbc
00000010: 9aa2 92be 19c2 143d 518e 1e3c 05a6 0f3c
00000020: a67b 43be 0bd0 ef3b e720 9c3d 3167 c5bd
00000030: faae c1bd 3105 1abc f55a 133e 8036 883d
00000040: 716a 7d3d 56fd 06bd e826 3e3e e908 94bd
00000050: f9cb 093d ccf9 963c b645 a1be 2cfd 22bd
00000060: c824 a6bd bcc3 4bbd 6b45 bd3c 9442 d93d
00000070: 07e9 86be 9dc3 81be 5ee8 d43d 2436 ec3d
00000080: 9c41 16be 140c f9bc e80f 93be 2546 fdbc
00000090: bdc0 533e 86df 2bbb c711 90be b0de a03d
000000a0: 1141 0e3e b419 d8bd 5acf 323e 982f edbc
000000b0: 565e 45bd 16eb b1bd a20e 223d cc92 be3d

backbone.0.bn.running_var f4 [48]
0.00075532944 0.0026468115 0.00060526544 0.0067964066 0.013045095 0.0007861004 0.00046525133 0.0012330342
0.004402815 0.004990851 0.0021557303 0.0016164152 0.005684718 0.00074499584 0.002548585 0.003683367
0.0014605903 0.0009496112 0.0006364294 0.0006722295 0.0040699556 0.0036066638 0.013235103 0.0030823143
0.0018007349 0.0016590466 0.0008608489 0.002681046 0.0045293015 0.002328955 0.0010373525 0.002357653
0.00087052415 0.004343713 0.011563671 0.0009942431 0.0019964671 0.010165778 0.008612632 0.001655366
0.002262228 0.0046710805 0.00076883705 0.0011365413 0.0028370835 0.0011540399 0.0006159727 0.0035718658
00000000: 4d01 463a 2176 2d3b adaa 1e3a 64b4 de3b
00000010: 18bb 553c 4e12 4e3a faec f339 c39d a13a
00000020: 7d45 903b 4b8a a33b 2747 0d3b e5dd d33a
00000030: df46 ba3b d34b 433a 2906 273b a564 713b
00000040: 4771 bf3a 54ef 783a 0ed6 263a 8f38 303a
00000050: 435d 853b c75d 6c3b 0cd8 583c a700 4a3b
00000060: a306 ec3a 5e74 d93a 97aa 613a 7db4 2f3b
00000070: 896a 943b 62a1 183b c6f7 873a db82 1a3b
00000080: e333 643a b555 8e3b 8d75 3d3c 4351 823a
00000090: 29d7 023b 5d8e 263c ff1b 0d3c def8 d83a
000000a0: e341 143b dd0f 993b c88b 493a fff7 943a
000000b0: 5dee 393b 2743 973a 3a79 213a f715 6a3b

backbone.1.conv3x3.weight f4 [48, 48, 3, 3]
0.007199583 -0.036847256 -0.025981773 -0.085745014 0.07246413 -0.022635562 -0.06559751 -0.09647601
0.08450428 -0.077849545 0.074250065 0.012811622 -0.0230628 0.059798583 -0.02118872 -0.012186227
-0.14427212 0.021658402 -0.04486688 0.022331608 0.039475884 -0.06021854 0.017421618 -0.021145009
-0.018769877 0.03762645 0.007963436 0.030110007 -0.02504827 -0.08236592 0.08219827 -0.11869634
0.028676713 0.0133947125 0.09642424 -0.03636377 0.011421146 -0.042810682 -0.033770144 -0.053778496
0.0526678 0.0044319285 0.01916409 0.010386879 -0.014301122 -0.05359081 -0.014628794 0.0072234534
0.02013952 0.015665142 0.022752976 0.02251904 0.029921833 0.0011139538 0.027288789 0.027744452
-0.051300786 -0.025621863 -0.0030941914 0.032345437 0.013862359 -0.025774911 -0.003806523 -0.04310884
-0.08813217 -0.024054345 -0.03857834 0.025422312 -0.00095501874 -0.060809538 -0.053444747 -0.0420368
-0.036288716 -0.030428614 -0.07892054 -0.023786483 -0.1011486 -0.0431161 -0.01696195 0.018058736
0.020332588 -0.14794217 -0.003558093 0.019715736 0.06704417 -0.038541287 -0.001510299 -0.03936315
0.010295537 0.019435389 0.0415865 0.046227828 -0.008745909 0.053267166 0.0021924784 -0.01722014
-0.022315422 -0.02077592 -0.00019677123 -0.06820317 -0.035254218 0.013556335 0.1120214 0.012790338
-0.053386066 0.0012398567 0.05677079 -0.031224255 -0.017749486 0.057455484 -0.029779281 -0.050866395
0.045280628 -0.0044157165 -0.039712965 -0.021948164 -0.0514374 -0.02500927 0.03671331 -0.06504737
0.008998834 -0.027821075 0.07613399 0.060844146 0.06540427 0.026819235 0.033353947 -0.040014584
-0.101787776 -0.05542041 0.0065721227 0.07934097 -0.020262279 0.012781205 0.03557316 -0.0064024413
-0.091848016 -0.031558365 -0.09308156 -0.101203494 -0.07020816 -0.023706296 -0.014991248 -0.026881868
0.016338456 -0.026559692 -0.020220904 -0.02053263 0.077271655 -0.0044295685 -0.03863795 -0.007657223
-0.030545572 -0.089549534 -0.0010748535 -0.00946411 -0.030414406 0.0140768755 0.06844523 0.06794505
0.12737961 0.032380115 -0.036918644 -0.03419391 -0.05797148 0.0017108078 -0.033788133 -0.06220803
0.073337145 0.056978215 -0.03784136 -0.04997569 0.0061763152 -0.07219338 -0.006429894 -0.032643702
0.04413529 -0.0059947805 0.023123642 0.028494764 0.01800605 -0.02431284 0.031063873 0.06538357
-0.031643853 -0.047024723 0.034720067 0.0716753 -0.0015543778 -0.06593083 0.032902 0.00023170478
0.089004874 0.03944151 0.009896407 -0.02233725 -0.048651442 -0.011213601 -0.03454873 0.043025162
-0.029042846 0.014924727 0.06557135 0.015796786 -0.055279203 -0.1075612 -0.08243633 -0.004205492
0.06145923 -0.021996379 0.046797443 0.049249995 0.038850933 -0.033228386 -0.043505367 -0.020587686
-0.015995547 -0.0012524859 -0.014120534 -0.013222428 -0.0057439385 0.018530503 -0.05078465 0.019218326
-0.022287266 -0.030449208 0.0035476738 0.009352334 0.020916048 -0.014802088 -0.008609495 -0.0017249287
-0.043727085 0.019993875 -0.06490068 0.029068952 -0.008078171 -0.05377775 -0.02352934 0.096474886
0.01985524 0.051834717 -0.03148044 -0.044895012 0.0173264 -0.03764096 -0.04444729 -0.03407793
0.027667994 -0.011563895 -0.014089019 0.036963653 -0.055864353 -0.09628628 -0.08995072 -0.033275604
00000000: 7bea eb3b 26ed 16bd bad7 d4bc 159b afbd
00000010: 1368 943d 376e b9bc fd57 86bd 3795 c5bd
00000020: 9410 ad3d 956f 9fbd 6b10 983d d6e7 513c
00000030: 32ee bcbc 5cef 743d f793 adbc bea8 47bc
00000040: 12bc 13be f66c b13c 55c6 37bd c7f0 b63c
00000050: 77b1 213d b7a7 76bd c8b7 8e3c 4c38 adbc
00000060: 49c3 99bc 311e 1a3d 1279 023c 43a9 f63c
00000070: 0832 cdbc 77af a8bd 9157 a83d 1117 f3bd
00000080: 6deb ea3c 7f75 5b3c 127a c53d 2df2 14bd
00000090: c21f 3b3c 415a 2fbd 9052 0abd d746 5cbd
000000a0: 31ba 573d b639 913b 02fe 9c3c ba2d 2a3c
000000b0: 414f 6abc 0a82 5bbd 9cad 6fbc b8b2 ec3b
000000c0: a2fb a43c 2f54 803c 7364 ba3c da79 b83c
000000d0: a21e f53c 1602 923a bd8c df3c 5548 e33c
000000e0: c620 52bd f1e4 d1bc ebc7 4abb a67c 043d
000000f0: f31e 633c e825 d3bc dc76 79bb e592 30bd
00000100: a47e b4bd 9e0d c5bc 5204 1ebd 7442 d03c
00000110: 395a 7aba 6c13 79bd e1e8 5abd c82e 2cbd
00000120: 7aa3 14bd 6e45 f9bc 18a1 a1bd dfdb c2bc
00000130: ff26 cfbd 829a 30bd caf3 8abc eaef 933c
00000140: 8790 a63c 277e 17be e52e 69bb e582 a13c
00000150: 744e 893d 78dd 1dbd 3af5 c5ba 413b 21bd
00000160: 9dae 283c f736 9f3c 9b56 2a3d 6459 3d3d
00000170: 004b 0fbc ac2e 5a3d afaf 0f3b 4011 8dbc
00000180: d5ce b6bc 4332 aabc 6054 4eb9 1bae 8bbd
00000190: ba66 10bd 641b 5e3c 7a6b e53d 918e 513c
000001a0: 59ab 5abd b082 a23a 7d88 683d 02ca ffbc
000001b0: 5f67 91bc 7156 6b3d aef3 f3bc 4859 50bd
000001c0: 2e78 393d b7b1 90bb 10aa 22bd a3cc b3bc
000001d0: 06b0 52bd 3ee0 ccbc b260 163d 8e37 85bd
000001e0: d86f 133c 06e9 e3bc 23ec 9b3d b637 793d
000001f0: adf2 853d 03b4 db3c 269e 083d 55e6 23bd
00000200: 1c76 d0bd 8300 63bd f65a d73b 857d a23d
00000210: 14fd a5bc 4268 513c 29b5 113d 92cb d1bb
00000220: d01a bcbd 5843 01bd 8ca1 bebd c743 cfbd
00000230: 4cc9 8fbd b533 c2bc da9d 75bc 5d37 dcbc
00000240: 3ad8 853c b693 d9bc 4fa6 a5bc 0c34 a8bc
00000250: 9a40 9e3d ea25 91bb d442 1ebd 71e9 fabb
00000260: b53a fabc bf65 b7bd 19e2 8cba 5b0f 1bbc
00000270: a227 f9bc b2a2 663c 032d 8c3d c626 8b3d
00000280: cd6f 023e 03a1 043d 0138 17bd ea0e 0cbd
00000290: 8173 6dbd 2f3d e03a 6d65 0abd d9cd 7ebd
000002a0: c931 963d fd61 693d 8bff 1abd 4fb3 4cbd
000002b0: b062 ca3b 1fda 93bd dcb1 d2bb 67b5 05bd
000002c0: 35c7 343d dd6f c4bb cb6d bd3c da6d e93c
000002d0: 6c81 933c b92b c7bc aa79 fe3c d2e7 853d
000002e0: fc9c 01bd ff9c 40bd a136 0e3d 80ca 923d
000002f0: 44bc cbba be06 87bd 3fc4 063d c7f5 7239
00000300: 3048 b63d 6c8d 213d 8a24 223c 9cfc b6bc
00000310: bc46 47bd 40b9 37bc f882 0dbd 273b 303d
00000320: 43eb edbc d886 743c 464a 863d 4368 813c
00000330: 726c 62bd 0c49 dcbd 61d4 a8bd 39ce 89bb
00000340: acbc 7b3d c031 b4bc adae 3f3d 5dba 493d
00000350: 2822 1f3d 7d1a 08bd af32 32bd 82a7 a8bc
00000360: 1809 83bc 742a a4ba d059 67bc e2a2 58bc
00000370: a637 bcbb 48cd 973c 9103 50bd c06f 9d3c
00000380: c993 b6bc 9e70 f9bc 1780 683b 883a 193c
00000390: 2258 ab3c 7584 72bc d70e 0dbc 0117 e2ba
000003a0: 2c1b 33bd 32ca a33c a6ea 84bd 0322 ee3c
000003b0: 4e5a 04bc 0f46 5cbd 9ac0 c0bc a094 c53d
000003c0: 75a7 a23c a450 543d a2f1 00bd d5e3 37bd
000003d0: 18f0 8d3c 682d 1abd 5d0e 36bd 4d95 0bbd
000003e0: fda7 e23c 7e76 3dbc a1d5 66bc 3367 173d
000003f0: 05d2 64bd be31 c5bd 1538 b8bd 004c 08bd

backbone.1.conv3x3.bias f4 [48]
-0.04289187 -0.037159808 -0.03991722 -0.013087228 0.011981785 -0.017303208 -0.012033225 -0.023224378
-0.018943219 -0.043727286 0.003205284 0.015246818 -0.017958628 0.0033172083 0.040755033 0.03107623
-0.046434272 -0.038022175 0.020395456 -0.0016768102 0.039092235 0.03440293 -0.034259614 -0.041114464
0.008027057 0.014920855 -0.010955738 0.031584207 0.046625234 -0.005726112 0.01622286 -0.045301992
-0.0056389933 -0.03819819 0.038969852 0.015032753 0.025416804 -0.018677516 0.021048555 0.01781003
-0.021569924 -0.008713329 0.026572647 0.011951165 -0.002093515 -0.000489131 -0.03313753 -0.007165721
00000000: 63af 2fbd e234 18bd 3d80 23bd d06b 56bc
00000010: 404f 443c 75bf 8dbc 0127 45bc 0d41 bebc
00000020: cf2e 9bbc 621b 33bd be0f 523b cacd 793c
00000030: f91d 93bc 8565 593b c0ee 263d 9493 fe3c
00000040: dd31 3ebd 24bd 1bbd 5f14 a73c 6ac8 dbba
00000050: 2e1f 203d 16ea 0c3d cf53 0cbd a467 28bd
00000060: eb83 033c 9a76 743c b27f 33bc 715e 013d
00000070: 1afa 3e3d 1ca2 bbbb cee5 843c 958e 39bd
00000080: 4ec7 b8bb b575 1cbd da9e 1f3d f04b 763c
00000090: e736 d03c 9701 99bc 056e ac3c 57e6 913c
000000a0: 69b3 b0bc 5ac2 0ebc e1ae d93c d2ce 433c
000000b0: 5a33 09bb 0739 00ba 38bb 07bd 6dce eabb

backbone.1.bn.weight f4 [48]
0.9189052 0.9667982 1.0529114 1.0595608 1.0361325 0.97535235 0.9500626 1.2770512
0.9347608 0.99550873 1.2847272 1.016222 0.8948601 0.99702394 0.9338934 0.9366987
0.9311571 0.9955916 0.8599133 0.9390481 0.9298056 0.91190284 1.0495421 0.9354787
0.946448 0.94631666 0.8991572 0.9761047 0.9829611 0.91714597 0.91082656 0.9440474
0.9227939 0.9966774 0.9467538 0.8543649 0.9479498 1.1130066 0.93376213 1.0567375
1.06539 0.87441456 0.9398893 0.9142388 0.9097693 1.0058275 1.006041 1.0725156
00000000: 5f3d 6b3f 1680 773f cdc5 863f b09f 873f
00000010: fd9f 843f b1b0 793f 4d37 733f 6a76 a33f
00000020: 7c4c 6f3f a9d9 7e3f f171 a43f 9013 823f
00000030: 8d15 653f f63c 7f3f a313 6f3f 7ccb 6f3f
00000040: 5060 6e3f 17df 7e3f 4723 5c3f 7565 703f
00000050: bd07 6e3f 7772 693f 6557 863f 887b 6f3f
00000060: 6b4a 723f cf41 723f 2b2f 663f ffe1 793f
00000070: 57a3 7b3f 14ca 6a3f ee2b 693f 17ad 713f
00000080: 393c 6c3f 4026 7f3f 755e 723f a8b7 5a3f
00000090: d7ac 723f 0077 8e3f 090b 6f3f 2d43 873f
000000a0: b35e 883f a2d9 5f3f 969c 703f 8e0b 6a3f
000000b0: a4e6 683f f5be 803f f4c5 803f 3148 893f

backbone.1.bn.bias f4 [48]
-0.10014646 -0.07134044 0.14064446 -0.21927531 -0.15107532 -0.017693229 -0.033877663 -0.31549767
-0.08372485 -0.112388484 -0.26602077 -0.030853972 0.009079533 0.102823116 -0.15028785 -0.07828957
-0.06613954 0.037193585 -0.2153117 0.049593914 -0.01675103 -0.26163483 -0.124140225 -0.113861546
0.018119566 -0.09736468 -0.35440934 0.035647143 -0.024426572 -0.23704833 -0.019472202 -0.10531214
-0.09682306 -0.06181996 -0.024476722 -0.04124696 -0.01915417 0.056693826 -0.053693675 -0.07023277
-0.05362423 -0.09598907 0.032036446 -0.08037764 -0.14804149 -0.16982189 0.06499453 -0.25878963
00000000: 9619 cdbd f01a 92bd 1a05 103e b589 60be
00000010: 7db3 1abe 64f1 90bc 4ec3 0abd e988 a1be
00000020: ef77 abbd ef2b e6bd e033 88be 78c1 fcbc
00000030: 52c2 143c ed94 d23d 0fe5 19be 4856 a0bd
00000040: 2b74 87bd 4d58 183d ac7a 5cbe fd22 4b3d
00000050: 7539 89bc 00f5 85be 3b3d febd 3e30 e9bd
00000060: 7c6f 943c 2267 c7bd 2475 b5be bd02 123d
00000070: 3c1a c8bc ccbc 72be 2b84 9fbc e4ad d7bd
00000080: 2b4b c6bd ed36 7dbd 6883 c8bc 93f2 28bd
00000090: 35e9 9cbc c937 683d e6ed 5bbd 33d6 8fbd
000000a0: 15a5 5bbd eb95 c4bd a638 033d 089d a4bd
000000b0: 3098 17be cae5 2dbe da1b 853d 1380 84be

backbone.1.bn.running_mean f4 [48]
-1.6310453 -0.07769911 -2.5925035 -0.092818536 -0.0756125 -2.7058108 -2.533513 -0.08181407
-0.38414595 1.2805672 0.38890406 -0.8449443 -0.1947793 -2.874336 0.41633448 -1.0025105
-1.3527054 -1.9460416 -0.077630356 -3.7493317 -1.2943157 2.468685 -0.24099639 -0.14173554
-0.7082439 0.16213907 0.5911787 -1.7385194 -0.05382258 1.1148691 -2.7075953 -2.47562
-1.8563635 -0.31653187 -0.5114851 -1.6912551 -3.8409169 0.07815044 -1.294331 -0.57275105
-0.6582809 -0.97350776 -1.1964486 -1.5187619 2.3751314 -0.55131733 -2.5094807 -0.14107274
00000000: 18c6 d0bf b620 9fbd 94eb 25c0 a517 bebd
00000010: bada 9abd 012c 2dc0 1425 22c0 238e a7bd
00000020: c7ae c4be a0e9 a33f 6f1e c73e 454e 58bf
00000030: 3a74 47be 1ff5 37c0 cb29 d53e 4452 80bf
00000040: 7325 adbf e417 f9bf aafc 9ebd 0df5 6fc0
00000050: 23ac a5bf effe 1d40 c2c7 76be 1f23 11be
00000060: 794f 35bf c907 263e 7d57 173f ce87 debf
00000070: 1175 5cbd 08b4 8e3f 3e49 2dc0 8f70 1ec0
00000080: 529d edbf 7710 a2be b0f0 02bf 0c7b d8bf
00000090: 95d1 75c0 560d a03d a3ac a5bf d09f 12bf
000000a0: 1985 28bf ce37 79bf 3a25 99bf ca66 c2bf
000000b0: 2702 1840 2223 0dbf 559b 20c0 5f75 10be

backbone.1.bn.running_var f4 [48]
2.3344405 1.8191553 4.239827 1.1117595 1.415865 1.9636406 3.832277 1.1183025
1.3707925 1.3515003 1.1681707 2.13668 0.545989 3.4644742 1.2334597 1.5271249
1.2303233 2.1067278 0.42253405 2.438261 2.1493158 1.5637618 1.5462635 0.93206835
0.78028417 0.96888024 1.398759 4.1539545 0.8169528 1.3640764 3.5765584 6.475383
2.508501 0.9431714 2.1030183 2.143417 9.313113 4.743034 5.4799266 2.239306
0.94750255 0.896613 0.719511 6.425074 5.6911526 0.90216035 10.202659 1.288997
00000000: 7967 1540 15da e83f aaac 8740 234e 8e3f
00000010: 103b b53f 9358 fb3f 0744 7540 8924 8f3f
00000020: 2176 af3f f6fd ac3f 9e86 953f 5dbf 0840
00000030: efc5 0b3f f2b9 5d40 02e2 9d3f d478 c33f
00000040: 3c7b 9d3f a1d4 0640 6256 d83e 780c 1c40
00000050: 648e 0940 5929 c83f f6eb c53f 089c 6e3f
00000060: b4c0 473f 8908 783f 890a b33f 32ed 8440
00000070: d223 513f 0e9a ae3f 55e6 6440 5636 cf40
00000080: 488b 2040 ae73 713f da97 0640 be2d 0940
00000090: 8302 1541 efc6 9740 8f5b af40 ca50 0f40
000000a0: 878f 723f 6e88 653f df31 383f 359a cd40
000000b0: ec1d b640 fbf3 663f 173e 2341 dbfd a43f

backbone.2.conv3x3.weight f4 [48, 48, 3, 3]
-0.12752856 -0.006902906 -0.047660746 0.020983296 -0.028457781 0.038132522 0.034782615 -0.04247149
-0.0073414147 0.03981465 -0.006084818 0.02749407 0.06291486 0.030176302 0.004968063 0.05548908
0.0072027566 0.05080918 -0.025484208 0.009831973 -0.036982123 -0.05586645 -0.03922209 -0.045859408
-0.055375177 -0.098753795 -0.08008007 -0.046243764 0.021570075 0.044267625 -0.02400131 -0.044319533
-0.045795474 0.04299232 -0.0006304135 0.024780445 -0.050740946 -0.034814566 -0.024212334 0.03525613
0.0052925767 0.040458128 -0.009023291 -0.030587677 0.010187909 -0.07450796 -0.04617733 -0.07441649
0.0013435972 0.08859671 -0.019187067 -0.07362068 0.067411065 4.4783068e-05 -0.06012551 -0.060953766
-0.044097416 -0.023550708 -0.041776024 -0.01507546 -0.0143011175 0.007615351 -0.005921375 0.13600114
-0.023176836 0.0253977 -0.009229709 0.0032291547 -0.27571088 -0.07315279 -0.003904955 -0.047039796
0.03410388 0.037115775 -0.010641505 0.06685889 -0.086229384 -0.009703869 0.11268974 -0.049868133
0.048378788 0.075611554 0.030110823 0.07825304 0.0461895 0.018106097 0.009501782 -0.013634579
0.05331403 0.034256835 0.18287168 -0.0012918646 0.007313346 -0.00068831537 0.008268973 -0.27825865
-0.04292574 0.008372979 -0.042751096 0.00048108387 -0.010957558 -0.06039268 0.105285786 -0.035576493
0.0704152 -0.0223872 -0.033286884 -0.055719294 0.013265601 -0.0321585 0.013928506 0.0028554336
0.05746294 0.020231416 -0.0069575864 -0.007035824 0.04705972 0.008268171 -0.019191094 0.094381325
0.050270345 -0.008357643 0.02639644 -0.025443275 0.016594108 0.013651745 -0.024552625 0.01140097
0.021055799 -0.089848444 0.012825627 -0.079086 0.047043823 0.007814073 0.03606659 -0.005461022
0.001126846 0.044761356 0.0038714965 0.010736427 -0.011769504 -0.0049700304 -0.007383368 0.0010047123
-0.015493497 0.03303163 0.0044792774 -0.04104382 -0.06801108 -0.015746344 -0.026712762 -0.03813579
-0.013806067 -0.10916131 -0.050721087 -0.005807113 -0.051607653 -0.026132867 -0.031291224 -0.013789061
-0.07322035 -0.026604943 0.011520731 0.0091299 -0.02503909 0.05227687 0.013934001 -0.030242344
-0.0091519635 0.0066596814 -0.09150178 -0.00094825076 -0.008952172 -0.04678027 -0.079817355 -0.027588652
-0.04571452 0.016924333 -0.027153572 -0.023703786 -0.020621868 -0.04636948 0.016841672 0.05082437
-0.03579806 0.023778569 0.00059867697 -0.020130448 -0.012150023 0.02055991 -0.0017814176 0.03796095
-0.021684116 -0.012519663 0.0015614247 0.020082487 -0.005637779 -0.015778173 -0.00331941 -0.020290054
0.019786347 -0.02368292 0.061494946 -0.01237464 -0.03232783 -0.07645158 -0.051828288 0.017964322
0.0447341 -0.038261373 0.032997046 -0.007259781 0.0034537804 0.010664213 0.028722608 0.008289094
0.07044925 0.046406817 0.14629458 0.047112983 0.022834195 0.06561566 0.023867162 0.029338073
0.014098941 0.028588094 0.01367838 -0.038302507 -0.008838029 0.034510575 0.040559858 0.06937221
-0.017886302 -0.015892293 0.043556105 -0.06328594 0.012277562 -0.03478153 0.003930506 -0.025481628
-0.017605882 0.013793219 0.01910068 0.037553847 -0.019403983 -0.04279847 0.0050771106 -0.003290029
0.003085194 -0.006310666 0.03251619 -0.028713616 0.012441153 -0.02855475 -0.011110694 -0.011396694
00000000: d996 02be c631 e2bb ea37 43bd 29e5 ab3c
00000010: 4b20 e9bc d930 1c3d 3778 0e3d 96f6 2dbd
00000020: 4090 f0bb b014 233d 2763 c7bb 3e3b e13c
00000030: 82d9 803d 4b34 f73c 22cb a23b 8448 633d
00000040: 1a05 ec3b 491d 503d 42c4 d0bc 4916 213c
00000050: 917a 17bd 38d4 64bd 58a7 20bd 13d7 3bbd
00000060: 15d1 62bd 6e3f cabd 0501 a4bd 1a6a 3dbd
00000070: bab3 b03c f851 353d 659e c4bc 6688 35bd
00000080: 0994 3bbd b718 303d 5542 25ba 5c00 cb3c
00000090: bdd5 4fbd b899 0ebd f258 c6bc bb68 103d
000000a0: 5a6d ad3b 6cb7 253d 6dd6 13bc 0293 fabc
000000b0: 30eb 263c a197 98bd 7124 3dbd ac67 98bd
000000c0: a41b b03a 3172 b53d 322e 9dbc 70c6 96bd
000000d0: d00e 8a3d 74d5 3b38 2b46 76bd a8aa 79bd
000000e0: 7e9f 34bd 6aed c0bc 561d 2bbd 10ff 76bc
000000f0: 3c4f 6abc 328a f93b 1808 c2bb e243 0b3e
00000100: 59dd bdbc d60e d03c 3538 17bc 3aa0 533b
00000110: fa29 8dbe 21d1 95bd 46ea 7fbb cdac 40bd
00000120: 83b0 0b3d b606 183d b559 2ebc 50ed 883d
00000130: 0899 b0bd fafc 1ebc e1c9 e63d 8742 4cbd
00000140: d628 463d 3bda 9a3d f9aa f63c 2143 a03d
00000150: 3331 3d3d 3d53 943c 5dad 1b3c 9263 5fbc
00000160: d05f 5a3d e550 0c3d b742 3b3e c853 a9ba
00000170: cba4 ef3b 1070 34ba 967a 073c eb77 8ebe
00000180: e7d2 2fbd d22e 093c c61b 2fbd fc39 fc39
00000190: 5487 33bc 515e 77bd 13a0 d73d a8b8 11bd
000001a0: d835 903d 5c65 b7bc d457 08bd ea39 64bd
000001b0: f757 593c a2b8 03bd 6334 643c 3a22 3b3b
000001c0: 435e 6b3d 5bbc a53c 77fc e3bb c58c e6bb
000001d0: b1c1 403d 3977 073c a436 9dbc ff4a c13d
000001e0: 47e8 4d3d 7fee 08bc 593d d83c 6a6e d0bc
000001f0: 5ef0 873c 92ab 5f3c 9622 c9bc 22cb 3a3c
00000200: 367d ac3c 7602 b8bd 9422 523c d7f7 a1bd
00000210: 06b1 403d 9906 003c 90ba 133d 5ff2 b2bb
00000220: adb2 933a af57 373d efb8 7d3b d7e7 2f3c
00000230: e1d4 40bc a3db a2bb 2ef0 f1bb 8db0 833a
00000240: 70d8 7dbc 2d4c 073d e7c6 923b 911d 28bd
00000250: 6549 8bbd 7afe 80bc b9d4 dabc 4634 1cbd
00000260: d832 62bc f78f dfbd eac0 4fbd 9849 bebb
00000270: 8c62 53bd 9814 d6bc 3a2b 00bd 84eb 61bc
00000280: 8df4 95bd 9cf2 d9bc 73c1 3c3c 9395 153c
00000290: c71e cdbc 4520 563d 704b 643c cbbe f7bc
000002a0: 1ef2 15bc 7539 da3b 4965 bbbd 0894 78ba
000002b0: 21ac 12bc ab9c 3fbd 4877 a3bd 9901 e2bc
000002c0: 263f 3bbd e6a4 8a3c 2b71 debc 712e c2bc
000002d0: 31ef a8bc eded 3dbd 8cf7 893c 372d 503d
000002e0: fda0 12bd 46cb c23c 88f0 1c3a 9ce8 a4bc
000002f0: e410 47bc 426d a83c 757e e9ba f17c 1b3d
00000300: e3a2 b1bc 461f 4dbc b8a8 cc3a 0784 a43c
00000310: 1ebd b8bb 3a41 81bc 758a 59bb 5437 a6bc
00000320: fa16 a23c af02 c2bc 20e2 7b3d 01bf 4abc
00000330: 306a 04bd a592 9cbd e649 54bd ea29 933c
00000340: 1b3b 373d f5b7 1cbd e927 073d 75e3 edbb
00000350: d258 623b f4b8 2e3c ad4b eb3c fbce 073c
00000360: b247 903d 1315 3e3d 3fce 153e 8bf9 403d
00000370: c70e bb3c 8161 863d 1185 c33c 6656 f03c
00000380: 3fff 663c 9431 ea3c 491b 603c 17e3 1cbd
00000390: 61cd 10bc f65a 0d3d 1822 263d 0413 8e3d
000003a0: 4b86 92bc 8e30 82bc e367 323d 0f9c 81bd
000003b0: d427 493c 1477 0ebd 79cb 803b d9be d0bc
000003c0: 363a 90bc f4fc 613c 0779 9c3c 10d2 193d
000003d0: 1af5 9ebc 734d 2fbd e45d a63b 879d 57bb
000003e0: f730 4a3b b4c9 cebb b22f 053d d138 ebbc
000003f0: fad5 4b3c a7eb e9bc a109 36bc 33b9 3abc

backbone.2.conv3x3.bias f4 [48]
0.022834817 -0.04425081 0.045187082 0.015945692 -0.016110405 0.041386846 -0.0003504982 0.036274068
-0.009277905 -0.007874033 -0.04068951 0.0017995894 0.005094848 -0.048145425 0.01561593 0.046594296
0.021818265 0.017777773 0.016693935 0.005491911 0.0023318883 0.008415974 0.01898061 -0.045714058
-0.041184597 -0.008276813 0.03996868 -0.027320838 0.009409829 -0.04139867 -0.032315996 0.032707136
0.016924208 0.0059460583 -0.0059184255 0.03605452 -0.005908783 0.010528275 0.0064732227 0.046230666
0.016362246 0.020571932 0.035888862 0.04408385 0.013394606 0.012025858 -0.022270624 0.0054395352
00000000: 1510 bb3c 5640 35bd 1716 393d 8aa0 823c
00000010: f8f9 83bc 4185 293d 12c3 b7b9 1e94 143d
00000020: 5b02 18bc 1702 01bc 0baa 26bd 33e0 eb3a
00000030: aff2 a63b 2334 45bd f5d9 7f3c a9d9 3e3d
00000040: 38bc b23c b1a2 913c b8c1 883c 7df5 b33b
00000050: 98d2 183b 27e3 093c 397d 9b3c aa3e 3bbd
00000060: 2eb1 28bd 789b 07bc 33b6 233d f3cf dfbc
00000070: af2b 1a3c a791 29bd c75d 04bd ebf7 053d
00000080: a3a4 8a3c 27d7 c23b 5aef c1bb e8ad 133d
00000090: 779e c1bb c97e 2c3c 541d d43b 5e5c 3d3d
000000a0: 1e0a 863c 7886 a83c 3300 133d 4491 343d
000000b0: 0d75 5b3c 1b08 453c e270 b6bc 213e b23b

backbone.2.bn.weight f4 [48]
1.0070338 0.94591224 0.96389467 1.033237 0.9807623 0.9143762 0.94883066 0.9878115
0.92739505 1.0849253 1.1088716 1.2881145 1.0322614 1.0077256 1.1882857 1.0085437
0.9629501 0.9780107 0.9308253 0.9459687 1.1169173 1.008224 0.9572343 1.0922464
0.9376931 0.9829942 0.9644894 1.1114169 0.9372147 0.9106802 0.9646069 0.9295343
1.0004058 0.8872197 1.0045131 0.9306353 0.9976983 0.96900517 0.9825237 0.9973251
1.0030891 0.94084024 0.9210066 1.08437 0.9029659 0.92723817 0.9756797 0.8990326
00000000: 7ce6 803f 4e27 723f cdc1 763f 1c41 843f
00000010: 3d13 7b3f 8f14 6a3f 91e6 723f 37e1 7c3f
00000020: c369 6d3f d5de 8a3f 81ef 8d3f f0e0 a43f
00000030: 2421 843f 27fd 803f bf19 983f f617 813f
00000040: e683 763f e95e 7a3f 914a 6e3f 012b 723f
00000050: 25f7 8e3f 7c0d 813f 4f0d 753f bbce 8b3f
00000060: a80c 703f 82a5 7b3f c7e8 763f e942 8e3f
00000070: 4ded 6f3f 5622 693f 7af0 763f f6f5 6d3f
00000080: 4c0d 803f d520 633f e393 803f 1d3e 6e3f
00000090: 2869 7f3f b910 783f ac86 7b3f b350 7f3f
000000a0: 3965 803f e8da 703f 17c7 6b3f a3cc 8a3f
000000b0: c628 673f 7b5f 6d3f 25c6 793f 0027 663f

backbone.2.bn.bias f4 [48]
-0.14444922 -0.2456089 -0.022822335 0.15309586 -0.19044043 -0.084496155 -0.36571863 -0.0037964457
-0.14568278 -0.22825946 -0.39878574 -0.116314515 -0.2974582 -0.38458356 -0.04874371 0.009323036
-0.083590165 -0.37856558 -0.09048443 -0.12741585 -0.35895655 0.051162228 -0.071297005 -0.2946254
-0.076478936 -0.066374496 -0.14264426 -0.21419305 -0.15550125 -0.051675458 -0.08503996 -0.049595583
0.0175047 -0.15605278 -0.13618612 -0.13942897 -0.268045 -0.052441537 -0.27401376 -0.3016206
-0.10705956 -0.101408355 -0.39496407 -0.1831626 -0.085044146 -0.08185527 -0.19653507 -0.09943893
00000000: 7fea 13be e680 7bbe e8f5 babc 29c5 1c3e
00000010: d102 43be 520c adbd 793f bbbe cacd 78bb
00000020: de2d 15be d9bc 69be a52d ccbe 4e36 eebd
00000030: 714c 98be 23e8 c4be 7ca7 47bd a6bf 183c
00000040: 5231 abbd 59d3 c1be e74f b9bd 4d79 02be
00000050: 27c9 b7be 7c8f 513d 2a04 92bd 24d9 96be
00000060: fda0 9cbd 5aef 87bd 5611 12be 6c55 5bbe
00000070: b83b 1fbe a5a9 53bd 6e29 aebd bd24 4bbd
00000080: 0466 8f3c 4dcc 1fbe 6074 0bbe 78c6 0ebe
00000090: 323d 89be f0cc 56bd 884b 8cbe 046e 9abe
000000a0: 0b42 dbbd 2faf cfbd bb38 cabe fa8e 3bbe
000000b0: a02b aebd bca3 a7bd 7d40 49be a3a6 cbbd

backbone.2.bn.running_mean f4 [48]
-0.48919398 0.81925327 -1.4048593 -1.878522 -1.0398369 0.9121973 2.2174556 -2.5037758
-0.21474665 -0.6529893 -0.33089137 -0.564163 -0.90169996 0.27462837 -0.9524421 -1.6727521
-2.1976964 2.270287 -1.7176442 -0.5673925 -0.2173807 -2.947067 1.9021373 -0.87437356
-1.669308 0.81752044 0.6010423 -0.29029402 0.15613358 -2.5134287 -1.2108593 -0.6840589
-2.2362232 -1.3411726 0.23685917 -0.90802497 0.979838 -0.87116945 0.836683 -0.4625217
-1.5411445 -0.053279094 0.810175 -0.63161236 -0.008651305 -0.29265818 -1.3337433 -1.4533336
00000000: a277 fabe 95ba 513f 6ed2 b3bf 6973 f0bf
00000010: 6019 85bf c385 693f cbea 0d40 dd3d 20c0
00000020: 8ce6 5bbe 4f2a 27bf 986a a9be fd6c 10bf
00000030: cfd5 66bf 179c 8c3e 3fd3 73bf be1c d6bf
00000040: 0fa7 0cc0 624c 1140 c4db dbbf a340 11bf
00000050: 0c99 5ebe bf9c 3cc0 3c79 f33f f2d6 5fbf
00000060: e2ab d5bf 0549 513f e8dd 193f 6ba1 94be
00000070: 7be1 1f3e 04dc 20c0 70fd 9abf 7c1e 2fbf
00000080: 481e 0fc0 8bab abbf 368b 723e 5374 68bf
00000090: aad6 7a3f f604 5fbf db30 563f a5cf ecbe
000000a0: 3944 c5bf 2e3b 5abd a167 4f3f 59b1 21bf
000000b0: 34be 0dbc 4bd7 95be 1ab8 aabf d606 babf

backbone.2.bn.running_var f4 [48]
0.503562 0.84240794 0.6644049 1.3178014 0.7089423 1.2005204 0.5460869 0.60539496
1.4189311 0.63720995 0.47924754 0.5564715 0.8342036 0.64884627 1.2515659 0.8734671
0.62030786 0.5488316 0.77715516 2.2907853 0.36220917 1.4233063 1.171722 0.6000277
1.4658927 1.8528719 1.4626551 0.47366497 0.70690817 0.9114799 1.7697479 0.5864069
1.0274293 1.2571034 0.64646125 0.7127681 0.56091475 0.358822 0.49197638 0.82986706
0.29861528 1.2459587 0.40427247 0.5708515 0.52664524 2.3929756 0.45705268 2.2620935
00000000: 70e9 003f 0ca8 573f 7116 2a3f b7ad a83f
00000010: 3e7d 353f a7aa 993f 5acc 0b3f 2afb 1a3f
00000020: 899f b53f 3120 233f ef5f f53e eb74 0e3f
00000030: 5e8e 553f ca1a 263f 5033 a03f 8a9b 5f3f
00000040: 7fcc 1e3f 3a80 0c3f a4f3 463f 3a9c 1240
00000050: 7b73 b93e e72e b63f fdfa 953f 6a9b 193f
00000060: 5fa2 bb3f e82a ed3f 4838 bb3f 3784 f23e
00000070: eff7 343f bf56 693f 1987 e23f c31e 163f
00000080: ce82 833f c4e8 a03f 7c7e 253f f877 363f
00000090: 1c98 0f3f 84b7 b73e 54e4 fb3e 2b72 543f
000000a0: 1ae4 983e 937b 9f3f cdfc ce3e 5323 123f
000000b0: 39d2 063f 8326 1940 cf02 ea3e 24c6 1040

backbone.3.conv3x3.weight f4 [48, 48, 3, 3]
-0.04545574 0.005389711 0.042943355 0.039549127 0.08087712 -0.0093498165 0.028081665 0.0025052112
-0.0439111 0.013650713 0.043094147 0.059328023 -0.06865789 -0.057840187 -0.10211478 -0.01375378
0.02831685 -0.0034883104 -0.027155453 -0.009229993 0.008497384 0.009525419 0.0066464352 -0.013777945
-0.009115999 -0.0028562944 0.0034777385 -0.088285334 -0.06215452 -0.03935971 -0.04588048 -0.041082356
-0.07482223 -0.061220054 -0.07100439 -0.049560383 -0.028393392 0.024448318 0.011908966 -0.032012414
0.14204113 -0.0064687044 0.044098273 0.0059388396 -0.056455452 0.035588052 0.018825551 -0.064986594
0.046000708 -0.043702845 -0.010745851 0.01239275 -0.041239623 -0.047511637 -0.026907964 -0.031238034
-0.07628803 -0.0016494686 0.017429277 0.028742034 -0.038816627 0.054964814 -0.010615828 0.044225413
0.007989365 -0.0011476474 -0.0054001966 0.07983029 0.03537907 0.0031686022 0.010840585 0.033153772
-0.0015351296 0.024325551 0.023741864 0.000123301 0.025592288 -0.013354732 0.0011022369 0.012065387
-0.028367793 0.04484962 0.04897478 -0.0040881457 0.059042126 -0.06291178 0.049805667 -0.053983167
-0.0033869664 0.027241612 -0.0021496075 -0.0948346 -0.029689388 0.004354454 0.06293273 0.061854064
-0.11402694 -0.056767438 0.0034346643 0.03334175 0.044170227 0.07932973 -0.07124954 0.17211005
-0.0020435734 0.045255985 0.050552268 0.02754714 0.029951962 0.036197748 0.15489142 -0.030925604
0.029484028 0.08364433 0.010624827 0.049124096 0.09646304 -0.084853776 0.04425059 0.055685367
-0.0154042635 0.022007976 0.022419842 0.01609166 0.07248134 -0.025739847 0.06678768 0.046524294
0.070857465 0.099910766 0.024380006 0.16773988 0.18748586 0.01922267 0.013121268 0.013334864
0.051603287 0.011114587 -0.03946444 -0.0015364494 -0.04084304 -0.0527048 0.011315859 -0.03543378
0.015596269 0.061281715 0.0794513 0.016408727 0.058052894 -0.006641592 0.06477346 0.028286232
0.012967688 -0.018058266 -0.079247795 -0.03251034 -0.05936602 0.034562204 -0.016984211 -0.0527519
-0.060402825 -0.0572993 0.034151893 0.03376805 0.024017364 -0.044382337 -0.03878502 0.0055629206
-0.00032241683 0.003345243 -0.019761104 -0.016246328 -0.012267743 0.043573696 0.017456012 -0.002098657
0.033977762 0.013069821 0.010788201 -0.015763372 -0.005489013 0.05309955 0.008313112 0.09559001
-0.028084347 0.06016527 0.027900381 -0.008283906 0.013847359 -0.030927664 0.02841342 0.023267532
0.043412555 -0.039731003 0.03177359 0.056238163 0.020879181 0.04977969 0.011803262 -0.014074666
-0.019196883 -0.013615119 -0.012562526 0.0014114331 -0.065836534 -0.0043298816 -0.0047645285 0.059331954
0.065374255 0.08821347 0.015630396 -0.018759133 -0.011684594 -0.0010259055 0.029744983 0.05171227
0.014699899 0.010452626 -0.055383082 0.027765121 0.016637601 0.030704977 -0.011990174 0.017926423
-0.00627155 0.0048583886 -0.048118275 0.05371261 0.009945792 -0.012352246 0.0344293 -0.019575927
0.03824179 -0.0017715689 0.02238081 -0.016625647 0.015885303 0.010752355 -0.008492174 0.0047657457
-0.012464454 0.0447171 -0.025358051 -0.0028679639 0.063498065 -0.034153517 -0.027885731 0.06206628
-0.09508458 -0.029110288 0.0026425098 0.07713332 -0.03357395 -0.027285637 -0.048349716 -0.057602964
00000000: cc2f 3abd 2c9c b03b 5fe5 2f3d 44fe 213d
00000010: e7a2 a53d f92f 19bc 850b e63c 782e 243b
00000020: 20dc 33bd 3da7 5f3c 7d83 303d f101 733d
00000030: 829c 8cbd d5e9 6cbd 8e21 d1bd 8957 61bc
00000040: bdf8 e73c 239c 64bb 1d75 debc 6639 17bc
00000050: 9d38 0b3c 8110 1c3c 57ca d93b e4bc 61bc
00000060: 455b 15bc ab30 3bbb c5ea 633b f1ce b4bd
00000070: bd95 7ebd a637 21bd 2ced 3bbd f945 28bd
00000080: 663c 99bd e1c1 7abd c06a 91bd d4ff 4abd
00000090: 4299 e8bc d747 c83c d31d 433c 731f 03bd
000000a0: 3b73 113e 6df7 d3bb 64a0 343d 999a c23b
000000b0: d53d 67bd c7c4 113d 0b38 9a3c b117 85bd
000000c0: 3d6b 3c3d c101 33bd 5e0f 30bc f60a 4b3c
000000d0: e1ea 28bd 909b 42bd 176e dcbc e8e6 ffbc
000000e0: e63c 9cbd fb32 d8ba d8c7 8e3c 6a74 eb3c
000000f0: 2ffe 1ebd c922 613d 03ee 2dbc b525 353d
00000100: d3e5 023c a86c 96ba 22f4 b0bb 107e a33d
00000110: a5e9 103d 53a8 4f3b b69c 313c 40cc 073d
00000120: 6736 c9ba 6146 c73c 4c7e c23c 5c4a 0139
00000130: eba6 d13c cecd 5abc ef78 903a e7ad 453c
00000140: 9363 e8bc 3cb4 373d c799 483d daf5 85bb
00000150: 28d6 713d e4d7 80bd 0701 4c3d 741d 5dbd
00000160: def7 5dbb cd29 df3c 6ee0 0cbb a538 c2bd
00000170: 2937 f3bc cfaf 8e3b e0e2 803d b05a 7d3d
00000180: f586 e9bd f984 68bd 1b18 613b 5c91 083d
00000190: d7eb 343d a077 a23d 47eb 91bd 9e3d 303e
000001a0: 79ed 05bb 575e 393d e50f 4f3d 8aaa e13c
000001b0: d15d f53c 1744 143d db9b 1e3e b157 fdbc
000001c0: 7d88 f13c b84d ab3d c113 2e3c 5936 493d
000001d0: 6a8e c53d d1c7 adbd 1b40 353d 5716 643d
000001e0: 2a62 7cbc 124a b43c d1a9 b73c a8d2 833c
000001f0: 1971 943d 5fdc d2bc fbc7 883d 4290 3e3d
00000200: b81d 913d 049e cc3d 94b8 c73c 01c4 2b3e
00000210: 4bfc 3f3e dc78 9d3c 96fa 563c 797a 5a3c
00000220: f85d 533d f519 363c 77a5 21bd b062 c9ba
00000230: 084b 27bd fde0 57bd 2766 393c 0323 11bd
00000240: 7e87 7f3c 8902 7b3d 5db7 a23d 986b 863c
00000250: dfc8 6d3d b6a1 d9bb f3a7 843d 87b8 e73c
00000260: 6d76 543c eeee 93bc ab4c a2bd 9029 05bd
00000270: c929 73bd 1991 0d3d 7922 8bbc 6012 58bd
00000280: f468 77bd acb2 6abd dbe2 0b3d 5e50 0a3d
00000290: 10c0 c43c 41ca 35bd 0bdd 1ebd 2949 b63b
000002a0: 0e0a a9b9 dd3b 5b3b 0ae2 a1bc 0517 85bc
000002b0: a5fe 48bc 557a 323d e9ff 8e3c 9f89 09bb
000002c0: 442c 0b3d cd22 563c ffc0 303c 3022 81bc
000002d0: 2edd b3bb ea7e 593d b833 083c b2c4 c33d
000002e0: 2511 e6bc dc6f 763d 578f e43c 38b9 07bc
000002f0: 09e0 623c 035c fdbc 43c3 e83c 8d9b be3c
00000300: 5dd1 313d fabc 22bd 0625 023d fd59 663d
00000310: d10a ab3c cae5 4b3d 7862 413c 6e99 66bc
00000320: c842 9dbc f311 5fbc 0ed3 4dbc d6ff b83a
00000330: 4ed5 86bd aee1 8dbb c31f 9cbb 1006 733d
00000340: f0e2 853d 44a9 b43d 510b 803c c1ac 99bc
00000350: bd70 3fbc ad77 86ba c0ab f33c 3fd0 533d
00000360: d8d7 703c 7e41 2b3c 5fd9 62bd ae73 e33c
00000370: 944b 883c 0189 fb3c 6f72 44bc 6fda 923c
00000380: 9381 cdbb 1e33 9f3b ab17 45bd c101 5c3d
00000390: adf3 223c 1361 4abc bd05 0d3d b25d a0bc
000003a0: 6ca3 1c3d fd33 e8ba f657 b73c 8232 88bc
000003b0: e521 823c a52a 303c c222 0bbc f929 9c3b
000003c0: b637 4cbc 4729 373d b0bb cfbc 73f4 3bbb
000003d0: 460b 823d 8fe4 0bbd 9e70 e4bc 3639 7e3d
000003e0: b4bb c2bd b378 eebc f52d 2d3b 13f8 9d3d
000003f0: d784 09bd 2186 dfbc 5a0a 46bd 16f1 6bbd

backbone.3.conv3x3.bias f4 [48]
-0.04814411 -0.044044018 -0.019051915 0.0359765 0.00042774394 -0.034041304 -0.035899505 -0.030159714
-0.03501892 -0.020028621 0.024928417 -0.0023784263 -0.04558612 -0.04197514 -0.043331556 0.047052827
0.040612876 0.044369273 0.026021805 -0.03256423 -0.02109657 -0.012863825 0.016448893 -0.0047590714
-0.00910836 0.038777795 0.011005547 0.0009333614 -0.010573182 0.035983868 0.006057567 0.034189086
-0.030383574 -0.0065070335 0.041177172 0.03357518 0.04613691 -0.014579285 0.024464222 0.025810476
0.024799908 0.021459969 -0.008760755 0.03855402 0.003822821 -0.010687064 0.0106203575 0.013601029
00000000: c232 45bd 8067 34bd c312 9cbc 185c 133d
00000010: d242 e039 e56e 0bbd 5c0b 13bd 8111 f7bc
00000020: 0070 0fbd 1013 a4bc ae36 cc3c 5fdf 1bbb
00000030: 83b8 3abd 20ee 2bbd 6e7c 31bd 77ba 403d
00000040: b059 263d 8ebc 353d ae2b d53c 1262 05bd
00000050: b7d2 acbc cbc2 52bc d4bf 863c fcf1 9bbb
00000060: 3b3b 15bc 77d5 1e3d 9c50 343c d3ac 743a
00000070: 243b 2dbc d263 133d 8e7e c63b db09 0c3d
00000080: f9e6 f8bc f438 d5bb 65a9 283d 2186 093d
00000090: 0efa 3c3d f4dd 6ebc 3169 c83c 7e70 d33c
000000a0: 2d29 cb3c d1cc af3c 4589 0fbc d2ea 1d3d
000000b0: 4b88 7a3b cc18 2fbc 0201 2e3c dad6 5e3c

backbone.3.bn.weight f4 [48]
0.9299387 0.9941197 0.8969778 1.0460776 0.93534374 1.1007003 1.0082444 0.9202925
0.8653693 0.93925786 0.9551771 1.026243 0.98020005 0.97365797 0.99949956 0.9408595
0.9603184 1.1146001 0.9333016 0.9607626 0.99323267 0.95611364 0.95508033 1.1866502
0.9339353 0.9940896 1.1056662 0.90930355 0.92782784 0.993596 0.9505668 1.1141522
0.9734927 1.0085566 0.97677815 0.968902 0.91931325 0.9124413 1.0906711 0.9149704
1.0732414 0.9521945 0.98285335 0.97663003 1.0596583 0.9412419 0.9958467 0.9746957
00000000: 7610 6e3f a17e 7e3f 56a0 653f dfe5 853f
00000010: b072 6f3f bfe3 8c3f 270e 813f 4a98 6b3f
00000020: d888 5d3f 3473 703f 7d86 743f ee5b 833f
00000030: 64ee 7a3f a641 793f 34df 7f3f 2bdc 703f
00000040: 6dd7 753f 37ab 8e3f dbec 6e3f 8af4 753f
00000050: 7f44 7e3f ddc3 743f 2580 743f 27e4 973f
00000060: 6216 6f3f a87c 7e3f 7886 8d3f 1ec8 683f
00000070: 2086 6d3f 4f5c 7e3f 5958 733f 8a9c 8e3f
00000080: d136 793f 6218 813f 220e 7a3f f609 783f
00000090: 1d58 6b3f c195 693f 1c9b 8b3f 803b 6a3f
000000a0: f95f 893f 05c3 733f 479c 7b3f 6d04 7a3f
000000b0: e2a2 873f 3bf5 703f cfef 7e3f a885 793f

backbone.3.bn.bias f4 [48]
-0.19827656 -0.022699323 -0.08675867 -0.33440664 -0.08412891 -0.25811344 0.027786227 -0.14377241
-0.18728343 -0.106043994 -0.08895664 -0.16509546 -0.05491108 -0.05515248 -0.08932873 -0.09063306
-0.35149264 -0.28336188 -0.16552697 -0.05508469 -0.26218495 -0.10566848 -0.18579566 -0.2720569
-0.10383404 -0.057427876 -0.37698832 -0.20112057 -0.11070892 0.0039222324 -0.03055941 -0.3531901
-0.1631695 -0.24400312 -0.14896692 -0.07295237 -0.09294879 -0.100832745 -0.08277168 -0.09995315
-0.33943674 -0.2137171 -0.14508557 -0.02290995 -0.059954453 -0.09425772 -0.03140948 -0.024031304
00000000: 0309 4bbe eef3 b9bc 88ae b1bd 5937 abbe
00000010: c74b acbd 7227 84be f19f e33c 1339 13be
00000020: 3ac7 3fbe 982d d9bd e62e b6bd c90e 29be
00000030: 71ea 60bd 91e7 61bd fbf1 b6bd d39d b9bd
00000040: d8f6 b3be cf14 91be e77f 29be 7ca0 61bd
00000050: 1b3d 86be b768 d8bd 3841 3ebe 0b4b 8bbe
00000060: f1a6 d4bd 7e39 6bbd 9d04 c1be 8df2 4dbe
00000070: 5cbb e2bd 1286 803b ba57 fabc 55d5 b4be
00000080: e815 27be f4db 79be c98a 18be 0d68 95bd
00000090: ef5b bebd 6681 cebd 3384 a9bd 3db4 ccbd
000000a0: a7ca adbe a8d8 5abe 5091 14be a6ad bbbc
000000b0: cd92 75bd 310a c1bd 3aa7 00bd 4cdd c4bc

backbone.3.bn.running_mean f4 [48]
-0.29164243 -0.7446954 -1.4577466 -0.59129405 -0.04932789 -0.29824418 -1.0229368 0.07861228
-0.039571658 0.8490085 -1.5933592 -0.8198122 -1.1294537 0.3007135 -0.16758865 -1.6404693
-0.4625886 -0.7438728 0.081248276 -0.96175027 -0.37304676 0.089805074 -0.5158587 -0.20925759
-1.5622935 0.23115163 -0.15470633 -0.4992051 -1.3474158 -0.44039416 -1.5156001 0.11491095
-0.22361027 -1.2421229 0.096281625 0.2958178 0.2897141 0.19154923 -0.053968173 -0.017486373
0.1698686 -0.67938215 -0.6641961 -0.70413226 -0.9852551 -0.60407346 -0.8339595 -1.4374882
00000000: 2852 95be 5ca4 3ebf 7197 babf 0c5f 17bf
00000010: 0b0c 4abd 76b3 98be 98ef 82bf 7aff a03d
00000020: e415 22bd 9f58 593f 32f3 cbbf 36df 51bf
00000030: f091 90bf 1ff7 993e 5c9c 2bbe e6fa d1bf
00000040: 6ad8 ecbe 736e 3ebf 7f65 a63d 4435 76bf
00000050: fcff bebe b9eb b73d 510f 04bf 9f47 56be
00000060: 3cf9 c7bf 03b3 6c3e 566b 1ebe d097 ffbe
00000070: 1f78 acbf 587b e1be 2fff c1bf 6f56 eb3d
00000080: 17fa 64be e2fd 9ebf 4d2f c53d 6e75 973e
00000090: 6855 943e 7b25 443e bb0d 5dbd 953f 8fbc
000000a0: 09f2 2d3e fdeb 2dbf c108 2abf 0342 34bf
000000b0: ae39 7cbf 8fa4 1abf 5f7e 55bf 9dff b7bf

backbone.3.bn.running_var f4 [48]
0.66098 1.6883525 0.8183368 1.0797385 1.0970361 0.70982695 0.5211 0.8234025
1.1395856 2.0220335 0.95735484 0.67179966 0.4738108 0.788131 0.48455223 0.8784648
0.5340326 1.0433649 0.774669 0.7661221 0.6293364 0.2663356 0.3916282 0.9835777
1.7195617 0.29217422 0.71117544 0.8464748 0.9327785 2.819629 1.5814029 0.61236453
0.70260924 0.8757983 0.44733822 0.57664055 0.7652533 0.87330467 0.73446655 0.6859812
0.4653046 0.49812633 0.28938693 0.8049549 1.0460562 2.0874145 0.7440235 0.48828867
00000000: fc35 293f ef1b d83f 857e 513f df34 8a3f
00000010: ae6b 8c3f 38b7 353f cf66 053f 82ca 523f
00000020: f1dd 913f ff68 0140 3515 753f 10fb 2b3f
00000030: 5497 f23e f4c2 493f 3b17 f83e 12e3 603f
00000040: 5cb6 083f fb8c 853f b550 463f 9420 443f
00000050: 311c 213f 245d 883e 7e83 c83e c0cb 7b3f
00000060: 991a dc3f dc97 953e 980f 363f 93b2 583f
00000070: 92ca 6e3f cd74 3440 696b ca3f ecc3 1c3f
00000080: 33de 333f 5134 603f 8409 e53e b79e 133f
00000090: a4e7 433f e590 5f3f 0006 3c3f 779c 2f3f
000000a0: 683c ee3e 6a0a ff3e 862a 943e 8611 4e3f
000000b0: 2be5 853f 3398 0540 5378 3e3f f900 fa3e
