models/ch64_best_epoch.pt (torch, 766891 bytes, 38 tensors)

backbone.0.conv3x3.weight f4 [64, 3, 3, 3]
0.12207761 0.12402142 -0.14553867 0.20475346 -0.035964504 -0.050158918 -0.08370392 0.07762014
0.085762314 -0.21580373 0.24566466 -0.00039192266 0.10042501 0.04830973 0.06884677 -0.04614131
0.15120198 -0.021241173 -0.13731788 0.06969482 -0.065924294 0.046865623 -0.18509945 0.09529443
-0.12047524 -0.037481345 -0.040552266 -0.021412484 0.070521764 -0.14509559 0.08479934 -0.14904283
0.27721223 0.0057816748 -0.15607075 0.033408403 -0.038620822 -0.0063736495 -0.027484272 -0.018958205
0.14200845 -0.10509397 -0.012793827 0.31829616 0.024356274 -0.0072748754 0.10466014 0.047993295
0.0273893 -0.07911674 -0.20348224 -0.0069887624 -0.22379881 0.12106618 -0.0015419006 0.04151297
0.10475089 -0.05688465 0.22378317 -0.107640676 -0.0025168897 -0.18185809 0.0036754697 -0.08348607
0.021156225 0.0007434168 0.19499695 -0.16844569 -0.048372623 -0.12991773 0.1551651 0.042887427
0.18734883 -0.13720477 -0.13198501 -0.15590541 -0.10409714 0.17872845 0.03031757 0.20210542
-0.0734479 0.0055211675 0.12580132 -0.018048676 0.1078698 0.0549858 0.056449305 -0.0562815
-0.004220868 0.02642186 0.0008260928 0.023594772 0.062083393 0.13955821 -0.19156252 -0.07033238
0.1634698 -0.020838484 0.006614544 -0.5532359 -0.028051646 -0.00022930787 0.028731 -0.09088782
0.006264889 -0.07132964 0.03525517 0.025029575 -0.03024968 -0.5182934 0.13395652 0.0557687
0.067047015 0.004679277 0.034916997 0.005368625 -0.018545832 -0.07968057 -0.1230135 -0.045704793
0.050056815 -0.06636649 -0.070536435 0.046488907 -0.0041729854 -0.10209323 0.066092186 -0.26731035
0.15679157 0.009902651 0.19851111 0.06295092 -0.045935903 0.06947908 -0.00043561007 -0.0498932
-0.18334049 -0.2222419 0.064499296 -0.021432413 0.078701936 -0.17076784 0.14725082 -0.06657172
0.023867205 0.10609161 0.16335186 0.08069459 0.16288443 -0.17239171 0.07338388 -0.13966148
0.013579848 -0.17594078 0.1284973 -0.12011674 0.12131804 0.083695844 0.10928323 -0.111200355
0.18471497 0.043277938 0.01464746 -0.24086517 0.009225043 0.0633192 0.0032667094 0.20212132
0.003078718 -0.111088865 -0.01557255 0.035218596 0.06122819 -0.03299988 -0.16458684 -0.051556636
-0.22133261 0.072216965 0.1302288 -0.19252512 0.006705214 0.09997382 0.03222534 -0.021902824
0.056500938 0.11485722 -0.016045155 -0.05882116 0.03758516 -0.0020064884 -0.096393526 -0.0007101742
0.08757851 0.14991428 -0.10672531 -0.039628375 0.0016101813 0.086569116 0.07966142 0.10366556
-0.1743905 -0.17138873 0.10586859 0.17993398 0.0073664114 -0.11889855 -0.1366908 -0.15570731
-0.044036083 0.14285734 0.17334911 0.005502524 -0.13473347 -0.079894304 0.0018665211 0.12998492
0.04563209 0.045806907 0.012193143 -0.06453638 -0.19209833 0.31958067 -0.004129122 0.023552705
-0.2442642 0.047856353 0.054528862 0.07638953 0.031087022 0.015196905 -0.08497506 0.06690888
0.07793645 0.21143425 0.076140806 0.012272062 0.008554314 -0.06285596 -0.15028656 -0.3199973
0.010619505 0.07888019 -0.1602492 0.025122019 -0.0692257 -0.117248856 0.05079991 0.016502654
-0.023842404 0.04825413 0.02294398 -0.026593165 -0.023805715 -0.19615182 0.080403976 -0.28971344
00000000: d303 fa3d f1fe fd3d 1708 15be e4aa 513e
00000010: 844f 13bd 7073 4dbd f66c abbd 4ff7 9e3d
00000020: 27a4 af3d a7fb 5cbe 848f 7b3e f87a cdb9
00000030: a1ab cd3d 6ce0 453d 89ff 8c3d acfe 3cbd
00000040: b1d4 1a3e f801 aebc 0f9d 0cbe 28bc 8e3d
00000050: 5103 87bd 2bf6 3f3d b68a 3dbe ba29 c33d
00000060: b9bb f6bd 0a86 19bd 221a 26bd 3c69 afbc
00000070: b76d 903d f093 14be 47ab ad3d af9e 18be
00000080: c3ee 8d3e 3474 bd3b 03d1 1fbe 40d7 083d
00000090: de30 1ebd 0cda d0bb b226 e1bc 3d4e 9bbc
000000a0: aa6a 113e 823b d7bd 339d 51bc b7f7 a23e
000000b0: cf86 c73c 1462 eebb 0e58 d63d 9e94 443d
000000c0: 865f e03c f507 a2bd a65d 50be fd01 e5bb
000000d0: 842b 65be 8cf1 f73d 9919 caba 8109 2a3d
000000e0: a287 d63d e1ff 68bd 6a27 653e b772 dcbd
000000f0: 67f2 24bb 0239 3abe 26e0 703b bffa aabd
00000100: d24f ad3c dbe1 423a 48ad 473e 077d 2cbe
00000110: 5f22 46bd 2709 05be 9ae3 1e3e baaa 2f3d
00000120: 5fd8 3f3e 687f 0cbe 1427 07be aba5 1fbe
00000130: e230 d5bd 9704 373e 8d5c f83c b9f4 4e3e
00000140: da6b 96bd e9ea b43b 10d2 003e d1da 93bc
00000150: d7ea dc3d ca38 613d 6337 673d 6e87 66bd
00000160: 354f 8abb a872 d83c 268e 583a d349 c13c
00000170: 284b 7e3d 59e8 0e3e f728 44be 6c0a 90bd
00000180: a164 273e 78b5 aabc d1be d83b dea0 0dbf
00000190: 91cc e5bc 5d72 70b9 465d eb3c 6523 babd
000001a0: b349 cd3b 4615 92bd ba67 103d d30a cd3c
000001b0: 2dce f7bc e0ae 04bf e62b 093e b86d 643d
000001c0: f24f 893d 9f54 993b 2005 0f3d 4aeb af3b
000001d0: 6eed 97bc 912f a3bd 80ee fbbd f334 3bbd
000001e0: 6008 4d3d 28eb 87bd 6875 90bd 276b 3e3d
000001f0: 8abd 88bb 4116 d1bd 575b 873d e7dc 88be
00000200: f88d 203e bb3e 223c 7f46 4b3e 69ec 803d
00000210: 4927 3cbd 0c4b 8e3d 9862 e4b9 d05c 4cbd
00000220: 9cbd 3bbe 6193 63be 3518 843d 0793 afbc
00000230: 7b2e a13d c4dd 2ebe ebc8 163e c156 88bd
00000240: 2885 c33c 8f46 d93d b645 273e 3543 a53d
00000250: 2dcb 263e 7487 30be 4a4a 963d 6b03 0fbe
00000260: 037e 5e3c d229 34be cc94 033e c4ff f5bd
00000270: 9875 f83d ba68 ab3d e3cf df3d 03bd e3bd
00000280: ec25 3d3e 3544 313d e6fb 6f3c 5ca5 76be
00000290: a224 173c 7fad 813d 4a16 563b e4f8 4e3e
000002a0: 51c4 493b 8f82 e3bd 0224 7fbc 6041 103d
000002b0: 69ca 7a3d e22a 07bd 7489 28be 0d2d 53bd
000002c0: 04a5 62be 7de6 933d b35a 053e 4e25 45be
000002d0: 69b7 db3b 13bf cc3d b8fe 033d 8d6d b3bc
000002e0: 876d 673d 433a eb3d 2171 83bc 75ee 70bd
000002f0: e6f2 193d 4a7f 03bb f869 c5bd fc2a 3aba
00000300: 5d5c b33d 2183 193e cd92 dabd 5d51 22bd
00000310: b80c d33a 264b b13d 8725 a33d 9c4e d43d
00000320: 6c93 32be 8780 2fbe a2d1 d83d 9d40 383e
00000330: f061 f13b 1581 f3bd acf8 0bbe bd71 1fbe
00000340: 2e5f 34bd 3249 123e 6e82 313e 844e b43b
00000350: 92f7 09be a09f a3bd 0ea6 f43a c41a 053e
00000360: b7e8 3a3d 06a0 3b3d c0c5 473c a62b 84bd
00000370: 6db5 44be 14a0 a33e 964d 87bb 9af1 c03c
00000380: 6520 7abe 0605 443d a859 5f3d 1d72 9c3d
00000390: 36aa fe3c 70fc 783c 6707 aebd 8607 893d
000003a0: 259d 9f3d 3882 583e b6ef 9b3d c210 493c
000003b0: 6527 0c3c a0ba 80bd b8e4 19be b0d6 a3be
000003c0: 6ffd 2d3c f08b a13d 5e18 24be b1cc cd3c
000003d0: 34c6 8dbd 2b20 f0bd 9113 503d 9330 873c
000003e0: 2551 c3bc 1fa6 453d 03f5 bb3c e9d9 d9bc
000003f0: 3404 c3bc 06dc 48be d7aa a43d 5255 94be

backbone.0.conv3x3.bias f4 [64]
0.02813348 -0.092429586 -0.078107506 0.16480672 0.09502107 -0.05412826 0.028875845 0.04203258
0.053676613 -0.06537909 -0.11313041 0.12252169 0.029001128 0.07250027 -0.06366539 0.090835154
0.13941549 0.10775215 0.059278313 0.166263 -0.00094889273 0.042824432 0.19938362 0.1854006
-0.08111077 0.18410492 0.066475116 -0.01013288 0.16671154 -0.09406623 0.11424334 0.1920358
-0.12071509 -0.092391625 -0.18807785 -0.03197657 -0.17965825 -0.06315581 0.060463157 0.13978016
0.10853036 0.101430036 0.08319991 -0.1273784 -0.14837483 0.0089088045 0.18661839 0.008939009
-0.015087706 -0.13315172 -0.10825674 -0.14499548 0.16704085 -0.03710586 -0.17355213 0.013585329
0.012008093 -0.02657364 0.07800253 0.10554924 -0.20332937 -0.1564926 -0.014067939 -0.17371082
00000000: 2f78 e63c b94b bdbd d4f6 9fbd 18c3 283e
00000010: 689a c23d 98b5 5dbd 098d ec3c 5b2a 2c3d
00000020: 02dc 5b3d 79e5 85bd ebb0 e7bd a7ec fa3d
00000030: c693 ed3c 067b 943d 0063 82bd c807 ba3d
00000040: efc2 0e3e 29ad dc3d d1cd 723d d940 2a3e
00000050: 1dbf 78ba ac68 2f3d 382b 4c3e a8d9 3d3e
00000060: 671d a6bd 0086 3c3e 1b24 883d 6104 26bc
00000070: 6eb6 2a3e cca5 c0bd 6af8 e93d 08a5 443e
00000080: 7939 f7bd d237 bdbd 7b97 40be ddf9 02bd
00000090: 55f8 37be d557 81bd 37a8 773d 8822 0f3e
000000a0: 2a45 de3d 8dba cf3d b764 aa3d 7c6f 02be
000000b0: 92ef 17be 3cf6 113c e418 3f3e ec74 123c
000000c0: 6d32 77bc ed58 08be b6b5 ddbd b279 14be
000000d0: c20c 2b3e 50fc 17bd a6b7 31be 0095 5e3c
000000e0: 98bd 443c f6b0 d9bc cabf 9f3d 332a d83d
000000f0: 9335 50be 993f 20be 367d 66bc 40e1 31be

backbone.0.bn.weight f4 [64]
0.9119143 1.0216204 0.9427103 1.1646692 1.1178067 1.0184293 1.0220703 0.92161727
1.0121572 1.0169926 1.1341014 1.0429906 1.0801191 0.98910517 1.0295993 1.1817722
0.93050593 1.0685543 1.0245553 0.9538922 0.85401404 0.82577825 0.9740196 1.1379306
0.9034422 0.92029226 0.90023476 0.99346054 1.1526113 0.8943779 0.86113894 1.0894477
0.89659137 1.0278969 1.0933436 0.8256088 0.93538 1.2845162 0.8504889 1.0296705
1.0392241 0.86692774 0.9540293 1.0390525 1.0883046 0.94744074 1.1197209 1.0029366
1.0480399 1.1455663 1.0206435 0.9522751 0.95038176 0.966954 1.0047853 0.90448403
0.9039265 0.920696 1.0808877 0.9645624 0.96639514 0.93346715 0.9899794 0.9920057
00000000: 3773 693f 75c4 823f 7655 713f e113 953f
00000010: 4a14 8f3f e45b 823f 33d3 823f 1cef 6b3f
00000020: 5e8e 813f d02c 823f 3c2a 913f b780 853f
00000030: 5841 8a3f ff35 7d3f e9c9 833f 5044 973f
00000040: a335 6e3f 63c6 883f a124 833f 4732 743f
00000050: aaa0 5a3f 3466 533f 5959 793f b6a7 913f
00000060: fd47 673f 4698 6b3f c975 663f 6e53 7e3f
00000070: c488 933f f3f5 643f 9a73 5c3f 0673 8b3f
00000080: 0387 653f 2092 833f aff2 8b3f 195b 533f
00000090: 1075 6f3f 076b a43f a4b9 593f 3ecc 833f
000000a0: 4c05 853f faee 5d3f 443b 743f acff 843f
000000b0: 914d 8b3f 7a8b 723f 0453 8f3f 3a60 803f
000000c0: 2c26 863f eba1 923f 72a4 823f 4dc8 733f
000000d0: 384c 733f 4c8a 773f ce9c 803f 448c 673f
000000e0: ba67 673f bcb2 6b3f 875a 8a3f 90ed 763f
000000f0: ac65 773f b4f7 6e3f 4a6f 7d3f 16f4 7d3f

backbone.0.bn.bias f4 [64]
-0.089660615 0.027056789 0.3647792 -0.07605001 -0.06886582 0.074379236 0.09593896 0.64911693
-0.07882588 -0.07895918 -0.0050514005 -0.06691089 -0.07100702 0.1874501 -0.14012045 -0.13046587
0.49035788 0.000929796 -0.09917441 0.5312879 0.10001286 0.41379997 -0.041890014 -0.09397184
-0.016749749 -0.11172115 0.17915457 0.047862083 -0.13279404 -0.03651436 -0.1487239 -0.19943322
-0.052004263 -0.02802146 0.04178086 -0.16774397 0.45626974 0.027498681 -0.15830907 0.13284679
-0.13829303 -0.0016695767 0.7238858 0.10815304 0.06422881 0.36439165 1.0661017 -0.055413112
-0.040565938 -0.06779902 0.15302102 0.17547724 0.10230401 0.7440611 -0.0001938296 0.33618304
-0.031205868 -0.26241684 0.46909836 0.047060054 0.082765125 0.05082627 -0.047922213 0.4812585
00000000: fc9f b7bd 33a6 dd3c 57c4 ba3e 1cc0 9bbd
00000010: 8609 8dbd 2454 983d a57b c43d 872c 263f
00000020: 776f a1bd 5ab5 a1bd 3886 a5bb 9408 89bd
00000030: 216c 91bd ebf2 3f3e bc7b 0fbe d898 05be
00000040: 3010 fb3e 8ebd 733a f41b cbbd 7c02 083f
00000050: 8bd3 cc3d 97dd d33e dd94 2bbd 4f74 c0bd
00000060: c536 89bc 0fce e4bd 4c74 373e 080b 443d
00000070: 29fb 07be 1590 15bd 144b 18be 3938 4cbe
00000080: 6c02 55bd 438d e5bc 6822 2b3d 13c5 2bbe
00000090: 309c e93e ea44 e13c c61b 22be fd08 083e
000000a0: b09c 0dbe b3d5 daba 9450 393f 577f dd3d
000000b0: 658a 833d 8b91 ba3e 0576 883f dcf8 62bd
000000c0: 7828 26bd 36da 8abd 8bb1 1c3e 4eb0 333e
000000d0: c484 d13d ca7a 3e3f bd3e 4bb9 2f20 ac3e
000000e0: 73a3 ffbc 805b 86be a92d f03e 0bc2 403d
000000f0: c380 a93d 352f 503d 154a 44bd 8467 f63e

backbone.0.bn.running_mean f4 [64]
0.11137706 -0.06596936 -0.07292789 0.10638873 -0.03615669 0.0017439083 -0.040875804 0.039806344
0.052854706 -0.14005148 -0.2583853 -0.04094143 -0.14095631 0.11180547 -0.16767345 -0.03801964
0.14454399 0.008535772 0.030675791 0.18458925 0.0195777 0.06306051 0.11872769 -0.084478736
-0.053570785 0.15507907 -0.00400373 -0.012813458 0.08761616 -0.045592643 0.16526112 0.13594066
-0.091072075 -0.19438776 -0.19025849 -0.074019656 -0.18433821 -0.1611151 0.098874874 0.24437322
-0.02856385 0.17365585 0.07872691 -0.20204246 -0.31652826 0.02092324 0.203018 -0.15073104
-0.030121326 -0.38297012 -0.1546614 -0.145112 0.18424079 -0.042515244 -0.22074343 0.008821838
0.076055855 0.03404272 0.06872598 0.058293216 -0.16471437 -0.20881365 0.009660329 -0.14856283
00000000: a819 e43d f21a 87bd 385b 95bd 56e2 d93d
00000010: 0a19 14bd da93 e43a 636d 27bd fa0b 233d
00000020: 2d7e 583d a869 0fbe 144b 84be 33b2 27bd
00000030: da56 10be 44fa e43d 97b2 2bbe 7bba 1bbd
00000040: 5703 143e 9fd9 0b3c cc4b fb3c f704 3d3e
00000050: 6a61 a03c de25 813d 8127 f33d 3003 adbd
00000060: 0a6d 5bbd 0ccd 1e3e b931 83bb 8aef 51bc
00000070: 1a70 b33d 5abf 3abd 363a 293e 0734 0b3e
00000080: ff83 babd 960d 47be 1fd3 42be 9e97 97bd
00000090: 28c3 3cbe 5bfb 24be e97e ca3d f93c 7a3e
000000a0: bcfe e9bc d7d2 313e 933b a13d 38e4 4ebe
000000b0: fe0f a2be 3767 ab3c f3e3 4f3e 3d59 1abe
000000c0: 00c1 f6bc a914 c4be 8f5f 1ebe 3d98 14be
000000d0: 9ea9 3c3e 7724 2ebd 910a 62be 7889 103c
000000e0: 2cc3 9b3d 6170 0b3d 35c0 8c3d dec4 6e3d
000000f0: e2aa 28be 3fd3 55be 5b46 1e3c db20 18be

backbone.0.bn.running_var f4 [64]
0.0027237562 0.00081499136 0.00063975906 0.002643582 0.0067718206 0.0018699039 0.0017603158 0.00057727756
0.0012707623 0.0025948766 0.008244056 0.011004131 0.012210647 0.0015244089 0.004093987 0.0072919745
0.0012456218 0.006947364 0.0011694955 0.00080258225 0.0011339344 0.0013826599 0.003814195 0.02695587
0.0014248271 0.0008496296 0.0026863534 0.00071626913 0.00413617 0.0023607458 0.00151445 0.002785324
0.0011175108 0.0040348065 0.0015220237 0.0009667937 0.00081105076 0.0052655777 0.0012709261 0.0029303604
0.0073784976 0.002408173 0.00076290173 0.0027562778 0.010709601 0.0007863444 0.0006539405 0.009586401
0.0009612474 0.0265025 0.0010190043 0.0033281643 0.0022733212 0.00066197425 0.001650853 0.0009460506
0.0017062643 0.0037182495 0.0003968077 0.0024580169 0.0014046016 0.001462422 0.0023145587 0.00085672823
00000000: 0c81 323b 25a5 553a 81b5 273a f23f 2d3b
00000010: 26e6 dd3b 9017 f53a 66ba e63a 7154 173a
00000020: b58f a63a ce0e 2a3b 1412 073c ac4a 343c
00000030: 2a0f 483c adce c73a da26 863b 84f1 ee3b
00000040: 2244 a33a b7a6 e33b c249 993a 6264 523a
00000050: 86a0 943a 5e3a b53a 93f7 793b 8fd2 dc3c
00000060: 44c1 ba3a adb9 5e3a 880d 303b 02c4 3b3a
00000070: b588 873b beb6 1a3b 8280 c63a fb89 363b
00000080: 7179 923a 6936 843b a47e c73a 6d70 7d3a
00000090: b29c 543a de8a ac3b 3495 a63a 4a0b 403b
000000a0: 53c7 f13b 70d2 1d3b 78fd 473a aba2 343b
000000b0: 5377 2f3c ae22 4e3a 346d 2b3a 4810 1d3c
000000c0: 39fc 7b3a c51b d93c 1c90 853a 551d 5a3b
000000d0: 00fc 143b 5788 2d3a 6f61 d83a 6200 783a
000000e0: bba4 df3a e0ad 733b a10a d039 ae16 213b
000000f0: 9c1a b83a bdae bf3a daaf 173b 0f96 603a

backbone.1.conv3x3.weight f4 [64, 64, 3, 3]
-0.052705236 0.021968663 -0.03442978 -0.014637584 -0.0652248 -0.08057725 -0.013061362 -0.0033013816
-0.086969696 -0.009436242 0.027097378 -0.009421372 -0.02635639 -0.010370893 -0.008177083 0.001815704
0.012826548 -0.012466482 0.0066495812 0.006344644 0.008718449 0.0598999 0.014883006 0.035191897
-0.0033013779 0.011909401 -0.014411317 0.015809894 -0.0017786893 -0.036348306 0.06991315 0.018665003
0.07475723 0.030034613 0.19448757 -0.009001338 -0.08642941 0.00042750416 -0.052592613 -0.036345266
0.023362765 -0.055018015 0.19858469 0.027129807 0.0008873787 -0.030534254 -7.565961e-05 -0.049198944
-0.06408578 -0.022801304 -0.0014464019 -0.034262627 -0.063104324 -0.021738015 0.013868487 -0.017288884
0.011350228 -0.019459281 0.044265788 -0.0025767959 -0.010440753 -0.010757051 -0.00899283 0.02459961
-0.0075211176 -0.010457297 -0.063630134 -0.009925127 0.029422546 -0.032306075 0.0010800528 0.051983077
-0.016466489 0.03337429 0.026075982 0.052864898 0.059206452 0.025311118 -0.0023619966 0.010250246
0.028636646 -0.021888085 -0.07327237 0.006560961 -0.049211547 0.037971653 0.0013869138 0.020901488
0.015045852 -0.011120383 0.034305602 -0.0027320292 0.02065323 -0.042421598 0.08269098 -0.0219037
0.11273104 0.0024554785 0.01322988 0.074968874 0.025476519 0.016776506 0.014521881 0.064754784
0.052648887 0.037408944 0.08066119 -0.050389856 -0.05611366 -0.060668413 -0.0489697 0.0012539215
0.22846945 0.017030332 -0.046358455 0.071845084 -0.05932152 -0.004221812 -0.0402724 0.011235722
-0.009759319 -0.0061411564 -0.018797038 -0.0044109584 0.019931234 -0.00791072 -0.005170733 0.01952899
-0.03788969 0.036073033 0.14332263 0.048291225 0.011541064 0.1217939 -0.026709557 -0.1432413
-0.026190491 -0.06485183 0.0565702 0.011323291 -0.06870247 0.11104122 -0.054462858 -0.014152536
-0.0145662865 -0.08798287 0.017771956 -0.030705892 -0.044244092 -0.045211293 -0.0068890895 -0.040141355
-0.0048788614 0.12006917 0.050832503 -0.015189838 0.1125137 0.002177335 0.09181704 -0.019467693
0.028015975 -0.029489798 0.07958934 0.054740176 0.0385449 0.039052267 0.08857233 0.059168905
-0.060880456 0.020432528 0.04342639 -0.017438821 -0.004809548 -0.0021163658 0.009632963 0.026099758
0.018388959 0.0039247638 0.025925236 0.010559069 -0.011371659 -0.012801965 -0.031788778 -0.04910345
-0.04073235 -0.02019141 0.031402193 0.022815477 -0.0176316 -0.013925003 -0.0308216 0.0057304674
0.036520343 0.018493408 0.009571126 0.0012294303 0.030277852 -0.023381755 -0.062722124 0.047401477
-0.019906703 0.0172681 0.007092332 -0.0030130113 -0.007875589 0.05753646 -0.01684505 -0.014571669
-0.06198964 -0.10768469 0.03966803 -0.03405541 -0.042766385 -0.04831786 -0.013080693 -0.08140122
-0.028823594 -0.029848078 0.0060998546 -0.0036380992 0.003355426 -0.034219418 -0.012179345 -0.018938545
0.019074641 -0.03527855 -0.020188292 0.030720778 -0.0004190004 0.043960843 0.03604929 -0.023611277
0.010139447 -0.03377927 -0.0333791 0.0026438239 -0.0010892582 -0.020186923 0.06889026 0.015465277
-0.032897647 -0.019174587 -0.0029585487 0.054709297 0.032062646 0.042886812 0.029050054 0.07305881
0.045149975 -0.02207831 -0.04663874 0.013166552 -0.01659068 -0.011477634 0.00686434 0.053317998
00000000: 72e1 57bd a0f7 b33c 3e06 0dbd 7ad2 6fbc
00000010: 9494 85bd af05 a5bd 53ff 55bc fe5b 58bb
00000020: 2b1d b2bd 789a 1abc 52fb dd3c 195c 1abc
00000030: 5be9 d7bc aeea 29bc 2cf9 05bc ebfc ed3a
00000040: 7126 523c 3740 4cbc bbe4 d93b bbe6 cf3b
00000050: d3d7 0e3c 9959 753d dad7 733c 6125 103d
00000060: ee5b 58bb a61f 433c 721d 6cbc c083 813c
00000070: e922 e9ba f6e1 14bd a02e 8f3d 59e7 983c
00000080: 521a 993d 260b f63c c027 473e 597a 13bc
00000090: e701 b1bd a322 e039 5a6b 57bd c6de 14bd
000000a0: 4563 bf3c 925a 61bd c959 4b3e 543f de3c
000000b0: fa9e 683a f922 fabc 72ab 9eb8 d584 49bd
000000c0: 683f 83bd cdc9 babc 3295 bdba f856 0cbd
000000d0: d73c 81bd ec13 b2bc a738 633c 6ba1 8dbc
000000e0: 4ff6 393c 1269 9fbc 0b50 353d 76df 28bb
000000f0: b10f 2bbc 583e 30bc aa56 13bc 1f85 c93c
00000100: b573 f6bb 1555 2bbc 8450 82bd 009d 22bc
00000110: 8d07 f13c 6053 04bd 8f90 8d3a 35ec 543d
00000120: bbe4 86bc 7bb3 083d 4c9d d53c dd88 583d
00000130: 7782 723d 4359 cf3c bacb 1abb a6f0 273c
00000140: 6697 ea3c a44e b3bc d30f 96bd 54fd d63b
00000150: 0c92 49bd 2a88 1b3d 1bc9 b53a 9939 ab3c
00000160: e182 763c 4432 36bc 0884 0c3d d80b 33bb
00000170: f630 a93c 45c2 2dbd e359 a93d 636f b3bc
00000180: 88df e63d 18ec 203b 23c2 583c 4889 993d
00000190: 22b4 d03c e26e 893c 2fed 6d3c 289e 843d
000001a0: 5ca6 573d 1f3a 193d b231 a53d 9865 4ebd
000001b0: 70d7 65bd 717f 78bd 7494 48bd a05a a43a
000001c0: e5f3 693e 3283 8b3c 5de2 3dbd 8423 933d
000001d0: 1ffb 72bd 2057 8abb acf4 24bd 0916 383c
000001e0: 8de5 1fbc c13b c9bb 3ffc 99bc cd89 90bb
000001f0: d446 a33c f79b 01bc 416f a9bb 43fb 9f3c
00000200: 3832 1bbd 51c1 133d 2bc3 123e 05cd 453d
00000210: bb16 3d3c 156f f93d 00ce dabc d9ad 12be
00000220: 718d d6bc 09d1 84bd 27b6 673d 5385 393c
00000230: e1b3 8cbd 9469 e33d 7214 5fbd 0ae0 67bc
00000240: 6fa7 6ebc 5d30 b4bd 7e96 913c ec8a fbbc
00000250: 4b39 35bd 7a2f 39bd dfbd e1bb 436b 24bd
00000260: dbde 9fbb d3e6 f53d be35 503d ccde 78bc
00000270: 956d e63d 9fb1 0e3b 930a bc3d b67a 9fbc
00000280: c281 e53c 9794 f1bc bcff a23d 3c37 603d
00000290: 42e1 1d3d 45f5 1f3d 6965 b53d 185b 723d
000002a0: c95d 79bd 1e62 a73c dfdf 313d dcdb 8ebc
000002b0: 6a99 9dbb bab2 0abb 93d3 1d3c 29cf d53c
000002c0: 71a4 963c 4e9b 803b 2961 d43c f2ff 2c3c
000002d0: 3250 3abc 55bf 51bc f334 02bd b320 49bd
000002e0: f7d6 26bd 7568 a5bc 969f 003d 86e7 ba3c
000002f0: 2570 90bc b225 64bc 957d fcbc a5c6 bb3b
00000300: 5b96 153d 7d7f 973c 36d0 1c3c d624 a13a
00000310: 4209 f83c 188b bfbc 7574 80bd 0d28 423d
00000320: 6213 a3bc d575 8d3c cb66 e83b f175 45bb
00000330: 9d08 01bc 5aab 6b3d a1fe 89bc 02be 6ebc
00000340: d9e8 7dbd ca89 dcbd f27a 223d b07d 0bbd
00000350: ce2b 2fbd f3e8 45bd 6750 56bc afb5 a6bd
00000360: 751f ecbc f583 f4bc 4ae1 c73b 2d6d 6ebb
00000370: b5e6 5b3b a929 0cbd e08b 47bc 0225 9bbc
00000380: 6c42 9c3c 3e80 10bd eb61 a5bc 24aa fb3c
00000390: 48ad dbb9 4910 343d 6ca8 133d 706c c1bc
000003a0: ec1f 263c 225c 0abd 86b8 08bd 0144 2d3b
000003b0: 71c5 8eba 0c5f a5bc 5616 8d3d 1362 7d3c
000003c0: afbf 06bd 0614 9dbc 36e4 41bb db16 603d
000003d0: 1f54 033d 15aa 2f3d 61fa ed3c db9f 953d
000003e0: 2eef 383d 92dd b4bc 4308 3fbd 86b8 573c
000003f0: 2ee9 87bc b00c 3cbc 42ee e03b f963 5a3d

backbone.1.conv3x3.bias f4 [64]
-0.010737282 0.010419446 -0.015400393 -0.020084457 0.004275817 0.004697717 -0.038206633 -0.02051496
-0.016437149 -0.0011410576 0.03653532 -0.02825546 -0.023823813 0.039753944 0.0070060696 -0.017892435
0.003441876 -0.01979372 0.0008184332 -0.020630252 0.0028242813 0.0040668366 0.0389939 0.022054063
0.0053952234 0.032909203 0.03991139 -0.02203757 -0.031123469 0.00077069626 -0.015792266 0.015425405
0.03390956 0.0068386393 -0.0051360424 0.016588874 -0.032661412 0.021688124 -0.014616287 -0.029497318
-0.00682973 0.0399439 -0.017331643 -0.030312888 0.02643624 -0.00328311 -0.011110991 0.02648866
0.018461185 0.013866267 0.040048745 -0.037748307 -0.014528327 0.02878086 -0.03510457 -0.006188838
0.014233001 0.0037665227 0.008558772 -0.023341777 0.013074219 -0.027249457 0.006455557 -0.006862123
00000000: 6deb 2fbc 53b6 2a3c ee51 7cbc 2988 a4bc
00000010: 271c 8c3b 4eef 993b 8f7e 1cbd fd0e a8bc
00000020: 33a7 86bc 8a8f 95ba 0fa6 153d ff77 e7bc
00000030: 282a c3bc 08d5 223d 2c93 e53b 2893 92bc
00000040: 1991 613b 7126 a2bc 1f8c 563a c600 a9bc
00000050: 9417 393b 1943 853b 11b8 1f3d b9aa b43c
00000060: 6aca b03b cdcb 063d 207a 233d 2288 b4bc
00000070: a5f6 febc 8d08 4a3a c85e 81bc d7ba 7c3c
00000080: c0e4 0a3d aa16 e03b 3f4c a8bb 64e5 873c
00000090: f9c7 05bd 4bab b13c 2779 6fbc 5ca4 f1bc
000000a0: edcb dfbb 379c 233d 17fb 8dbc bc52 f8bc
000000b0: d090 d83c 7229 57bb e00a 36bc bffe d83c
000000c0: e93b 973c 572f 633c 270a 243d f89d 1abd
000000d0: 3808 6ebc d7c5 eb3c cfc9 0fbd bccb cabb
000000e0: 8831 693c c4d7 763b 173a 0c3c 4137 bfbc
000000f0: 4035 563c 413a dfbc 2389 d33b a9db e0bb

backbone.1.bn.weight f4 [64]
1.0005243 0.9364508 0.9299203 0.93732864 0.987452 0.86639225 0.9231572 0.8790334
0.92848754 0.9812061 0.9179732 0.88942885 0.937749 0.86600363 0.96246064 1.0145588
0.94662595 0.95795673 1.0794692 1.0362654 0.87398523 0.94603693 1.0595558 0.9142367
0.9611701 0.917798 1.3032506 0.8966218 1.0342059 0.92690724 1.1635481 0.9748611
0.8968815 1.2662226 0.9219429 0.9646092 1.0272194 1.0732198 1.002951 0.9413689
0.84701264 0.91344124 0.98834866 0.89603704 1.0140824 0.98705316 0.92933667 0.9830002
0.9455362 0.92993426 0.9676729 0.9373796 0.9244456 0.9886475 1.0690256 0.8649937
1.0195101 0.9100625 0.91979825 0.9812954 0.910536 1.0422637 0.9893912 0.92804486
00000000: 2e11 803f 3dbb 6f3f 420f 6e3f c5f4 6f3f
00000010: a7c9 7c3f e2cb 5d3f 0854 6c3f 5508 613f
00000020: 5cb1 6d3f 5330 7b3f 4b00 6b3f 9cb1 633f
00000030: 5210 703f 6ab2 5d3f d263 763f 10dd 813f
00000040: 1456 723f a73c 753f 0c2c 8a3f 58a4 843f
00000050: 7fbd 5f3f 7a2f 723f 869f 873f 6b0b 6a3f
00000060: 3e0f 763f cff4 6a3f ead0 a63f 0289 653f
00000070: dc60 843f cb49 6d3f 25ef 943f 7f90 793f
00000080: 079a 653f 9513 a23f 7304 6c3f a1f0 763f
00000090: ed7b 833f 445f 893f b360 803f 8dfd 703f
000000a0: d2d5 583f 49d7 693f 6b04 7d3f af62 653f
000000b0: 74cd 813f 84af 7c3f 02e9 6d3f e7a5 7b3f
000000c0: a90e 723f 2c10 6e3f 69b9 773f 1cf8 6f3f
000000d0: 78a8 6c3f 0118 7d3f d5d5 883f 3a70 5d3f
000000e0: 4f7f 823f dbf9 683f e677 6b3f 2d36 7b3f
000000f0: e318 693f e668 853f be48 7d3f 5994 6d3f

backbone.1.bn.bias f4 [64]
-0.10095258 -0.018600052 0.057658564 -0.046427425 -0.023455136 -0.12080172 -0.016116612 -0.07504881
-0.037268784 0.0118223205 -0.052862685 -0.09055025 -0.02976812 -0.10795799 -0.004269978 -0.07180052
-0.08520896 -0.016569281 -0.03819468 -0.09457615 -0.11962353 -0.090063944 -0.011274565 -0.08506245
-0.10936641 -0.1384036 -0.3054156 -0.085141994 -0.13316028 -0.048653644 -0.20985556 -0.12148761
-0.13543907 -0.1855165 -0.15084787 -0.10696784 -0.24992892 -0.20404103 -0.23438135 -0.0638992
-0.11962946 0.0123889735 0.10295969 -0.05115898 -0.11840694 -0.034418683 -0.031526197 -0.12933347
-0.038515743 -0.04956314 -0.05175344 -0.042351425 -0.07180395 -0.014360796 -0.08144469 -0.09069662
-0.0023975554 -0.087348305 -0.17480868 -0.125234 -0.135408 0.029510625 0.017789599 -0.09366146
00000000: 3ac0 cebd 235f 98bc 632b 6c3d af2a 3ebd
00000010: fc24 c0bc e466 f7bd fc06 84bc 31b3 99bd
00000020: 27a7 18bd 68b2 413c 8b86 58bd 6972 b9bd
00000030: 46dc f3bc 1419 ddbd 2ceb 8bbb 270c 93bd
00000040: 0982 aebd 4dbc 87bc 0672 1cbd 24b1 c1bd
00000050: 2efd f4bd 7273 b8bd f4b8 38bc 3935 aebd
00000060: 7ffb dfbd acb9 0dbe 6f5f 9cbe ed5e aebd
00000070: 2b5b 08be 0b49 47bd 60e4 56be 7fce f8bd
00000080: 8ab0 0abe 0af8 3dbe dd77 1abe f411 dbbd
00000090: 5eed 7fbe 22f0 50be aa01 70be 95dd 82bd
000000a0: 4a00 f5bd 1ffb 4a3c 88dc d23d 148c 51bd
000000b0: 567f f2bd 9bfa 0cbd 9d21 01bd fe6f 04be
000000c0: afc2 1dbd b802 4bbd 6afb 53bd b078 2dbd
000000d0: f30d 93bd 8b49 6bbc 79cc a6bd 26bf b9bd
000000e0: 4e20 1dbb abe3 b2bd 0c01 33be 573d 00be
000000f0: 65a8 0abe 44c0 f13c 7ebb 913c 94d1 bfbd

backbone.1.bn.running_mean f4 [64]
0.32506117 -6.852388 -4.776055 -4.5374484 -0.13386847 -0.6286955 -4.2179317 -5.2650733
-1.9257244 -5.6032534 -3.4321184 -2.3288362 -1.3138853 -3.2975342 -1.7456865 -1.2763121
-2.6240053 -1.9168011 -0.76954186 -1.4718548 -3.9871738 -2.3672988 -0.7782295 -2.9106696
-2.2328942 -1.6551033 -0.3273586 -4.6633825 -2.422082 -3.1895366 0.011030564 1.5359724
0.5679365 0.10316818 -1.666227 -2.921108 0.37113094 0.081541665 6.8007236 -2.9446495
-5.616898 -4.149242 -1.311724 -1.3972899 0.012806506 -1.3665248 -4.605005 -1.5267739
-3.884186 -2.8691943 -2.5601397 -3.651435 -2.992848 -0.32792628 -1.2215593 -3.2754219
-3.325014 -3.0338945 -1.6027188 -1.3577204 -4.059054 -0.96514505 -1.1526155 -0.33396602
00000000: 6b6e a63e c346 dbc0 71d5 98c0 c732 91c0
00000010: d114 09be 30f2 20bf 4cf9 86c0 7b7b a8c0
00000020: 237e f6bf da4d b3c0 d4a7 5bc0 a70b 15c0
00000030: 652d a8bf cd0a 53c0 a872 dfbf 325e a3bf
00000040: b4ef 27c0 bd59 f5bf b200 45bf bd65 bcbf
00000050: db2d 7fc0 d381 17c0 0c3a 47bf 6948 3ac0
00000060: bde7 0ec0 6dda d3bf 8c9b a7be 6e3a 95c0
00000070: 6403 1bc0 5e21 4cc0 8ab9 343c be9a c43f
00000080: 4964 113f d749 d33d ed46 d5bf 6ff3 3ac0
00000090: e004 be3e 51ff a63d 879f d940 2375 3cc0
000000a0: a1bd b3c0 97c6 84c0 92e6 a7bf 65da b2bf
000000b0: 61d2 513c 49ea aebf 335c 93c0 546d c3bf
000000c0: 8196 78c0 e1a0 37c0 54d9 23c0 1cb1 69c0
000000d0: d28a 3fc0 f4e5 a7be 0e5c 9cbf 83a0 51c0
000000e0: 08cd 54c0 542b 42c0 e425 cdbf c8c9 adbf
000000f0: c5e3 81c0 bf13 77bf e888 93bf 98fd aabe

backbone.1.bn.running_var f4 [64]
4.5595365 18.212368 18.891464 7.5305486 5.5129004 8.1804905 7.2261305 14.3938875
3.9451466 19.492971 5.255713 7.2130284 16.440361 11.7423315 4.6367946 1.3571706
7.21076 2.8943505 1.7241417 3.524411 16.756678 3.6845999 1.683935 4.475131
2.0920448 10.090243 2.966192 11.563911 17.885166 7.8730674 1.9142996 5.4469576
1.3624822 2.014247 3.650401 20.03463 2.0021453 1.7925496 17.283777 5.513242
11.137389 11.385987 11.2013 1.8327303 2.7992423 1.976803 14.444106 1.4153677
15.408042 19.007227 4.225148 5.316998 7.3985 0.95193905 1.4086317 4.088212
5.7228436 8.617044 3.9248137 2.0302188 21.100845 5.6523523 8.078882 7.726251
00000000: b9e7 9140 eeb2 9141 b821 9741 41fa f040
00000010: ae69 b040 4ae3 0241 763c e740 5d4d 6641
00000020: 487d 7c40 9bf1 9b41 cd2e a840 21d1 e640
00000030: dc85 8341 97e0 3b41 9f60 9440 c4b7 ad3f
00000040: 8cbe e640 0a3d 3940 adb0 dc3f f38f 6140
00000050: ad0d 8641 7cd0 6b40 2f8b d73f 4634 8f40
00000060: 10e4 0540 a371 2141 17d6 3d40 c805 3941
00000070: d214 8f41 2bf0 fb40 c507 f53f 7a4d ae40
00000080: d165 ae3f 6ce9 0040 2ca0 6940 ec46 a041
00000090: 2623 0040 4472 e53f 2d45 8a41 7a6c b040
000000a0: bf32 3241 012d 3641 8638 3341 e896 ea3f
000000b0: c926 3340 e107 fd3f 0f1b 6741 c52a b53f
000000c0: 5787 7641 cd0e 9841 6a34 8740 d924 aa40
000000d0: 83c0 ec40 47b2 733f 0b4e b43f a2d2 8240
000000e0: 8921 b740 6adf 0941 2630 7b40 1bef 0140
000000f0: 88ce a841 12e0 b440 1a43 0141 733d f740

backbone.2.conv3x3.weight f4 [64, 64, 3, 3]
0.020890824 -0.041404244 -0.04992249 0.025859987 0.046716932 0.0103607485 0.01240893 0.007009525
0.040978983 0.024169397 0.036099836 0.07094383 0.028778939 0.08983594 0.05742742 0.11974147
0.060453214 0.09281367 -0.054341543 -0.02646778 0.009159266 0.015607162 -0.04996466 -0.049383797
0.0121852625 0.02223202 0.030917972 -0.054600246 -0.0706959 0.019452175 0.018763717 -0.03200647
-0.041787975 0.03441925 0.00057056156 -0.029457647 -0.010929403 -0.009411382 0.025822356 0.041101437
0.03859306 0.07798932 0.043810062 -0.01692149 0.039215825 0.018668702 0.054721605 0.07430802
0.012714054 0.005575504 0.08068773 -0.00048415962 0.053188108 0.06857432 0.019906053 0.018833838
-0.020921957 0.018169038 -0.055753198 -0.014943792 -0.02401469 -0.044672094 0.011841104 -0.0072069257
-0.011985258 -0.05747184 0.007974504 0.013482829 -0.0027054595 0.120657526 0.042996403 0.011168668
0.043873455 0.026198832 0.08488412 0.09993956 0.09592426 0.100884095 0.08376749 0.043942217
0.0702982 -0.0026634478 0.08642005 -0.017566908 0.035751965 0.022053264 -0.002693851 0.13669708
0.041611772 0.031759746 0.009318765 0.025401888 0.017632307 -0.01619281 0.033769008 0.007176861
0.08812499 0.08022167 0.07484418 -0.037642494 -0.03490486 -0.05055238 -0.008802856 -0.013966509
-0.021332145 -0.08301922 -0.06695057 -0.00917696 0.033771183 -0.033100847 -0.013151904 0.03571162
0.043892413 -0.014500198 0.0153063 0.04470164 -0.029801855 0.07062548 0.008711813 0.056454066
0.055805676 0.05535424 0.0722407 0.05776858 0.028113013 0.025765795 0.08081448 0.051017143
0.0073320144 0.017263172 0.078966625 0.04947274 0.0018219551 0.035908654 0.0032429714 0.08720139
0.033236664 -0.0020534336 0.03275839 -0.03065184 -0.036412723 0.07012252 0.056293737 0.105042845
-0.006865406 -0.061443187 -0.021186259 -0.039689746 -0.048498716 -0.031059077 -0.073781885 -0.10113694
-0.055317324 0.008914158 0.07838679 0.033320818 0.02104723 -0.01826228 0.0134632755 0.056095313
0.07179345 0.04154342 0.0622481 0.053571563 -0.004355527 -0.04832617 -0.16379151 -0.13667734
0.113591574 0.022618439 -5.0058203e-05 0.018497298 0.059729196 0.032387026 -0.085683815 0.016667653
-0.06453399 -0.27583644 -0.22767551 -0.17045568 -0.037809614 0.0065128696 0.0016678356 -0.03462504
0.0007080182 -0.011441112 0.0046303296 0.016819276 0.0073082102 0.004977973 0.01406911 0.020829968
0.00054470083 0.004291727 -0.003598272 0.084543 0.054087613 0.05567593 -0.03560193 -0.004728217
0.0050489567 -0.21079084 -0.018802973 0.024803227 -0.08589173 -0.105719745 -0.046339948 0.03372265
-0.037568767 -0.034368023 0.002274905 -0.023405721 0.014522278 0.024275776 -0.051632192 -0.03249476
0.031174446 0.00020431088 0.04327494 0.04621695 -0.006641583 0.07873123 0.039587475 0.0017644701
0.02677874 0.021645578 0.0131842205 0.027658533 0.011005303 -0.027623767 -0.024996784 -0.06575293
0.031805336 -0.004294871 0.018347638 -0.02775036 0.050569486 -0.053531747 -0.017060949 -0.036742352
0.024406083 0.0073419185 -0.0057435017 -0.0486225 -0.03239656 -0.0026203704 -0.018116523 0.012910403
-0.0052764434 0.13499483 0.09244202 0.103736274 0.0013995714 -0.01847009 0.054836445 -0.013586753
00000000: 3c23 ab3c 7f97 29bd 867b 4cbd 53d8 d33c
00000010: 415a 3f3d 21c0 293c d34e 4b3c 28b0 e53b
00000020: 94d9 273d e6fe c53c 6cdd 133d 004b 913d
00000030: cfc1 eb3c e8fb b73d 0439 6b3d 043b f53d
00000040: ca9d 773d 1815 be3d 3d95 5ebd f5d2 d8bc
00000050: bf10 163c 2fb5 7f3c bea7 4cbd aa46 4abd
00000060: b2a4 473c ed1f b63c b047 fd3c 82a4 5fbd
00000070: 03c9 90bd 2b5a 9f3c 5eb6 993c 3719 03bd
00000080: de29 2bbd 33fb 0c3d bd91 153a 2a51 f1bc
00000090: 3d11 33bc 3232 1abc 6889 d33c fb59 283d
000000a0: c213 1e3d ddb8 9f3d 2e72 333d f09e 8abc
000000b0: c6a0 203d 1bef 983c c323 603d ce2e 983d
000000c0: 9c4e 503c b8b2 b63b 9c3f a53d ced6 fdb9
000000d0: c6db 593d b170 8c3d 0512 a33c 6c49 9a3c
000000e0: 8664 abbc 3cd7 943c 775d 64bd ced6 74bc
000000f0: 75ba c4bc 16fa 36bd 3101 423c 1328 ecbb
00000100: d15d 44bc 9867 6bbd 7ea7 023c 15e7 5c3c
00000110: 144e 31bb 4b1b f73d ff1c 303d cafc 363c
00000120: a7b4 333d ef9e d63c bad7 ad3d 1dad cc3d
00000130: f073 c43d 529c ce3d 4a8e ab3d c1fc 333d
00000140: 81f8 8f3d 3d8d 2ebb fffc b03d 7ae8 8fbc
00000150: a770 123d 0ca9 b43c 528b 30bb 52fa 0b3e
00000160: 1b71 2a3d 8216 023d bcad 183c 9f17 d03c
00000170: a171 903c c9a6 84bc 5f51 0a3d e02b eb3b
00000180: e07a b43d 424b a43d e847 993d 042f 1abd
00000190: 66f8 0ebd 0310 4fbd db39 10bc c9d3 64bc
000001a0: c0c0 aebc fb05 aabd 611d 89bd f65a 16bc
000001b0: a753 0a3d c194 07bd 157b 57bc 5946 123d
000001c0: 88c8 333d 3d92 6dbc 46c7 7a3c 1119 373d
000001d0: 0523 f4bc 17a4 903d febb 0e3c 613c 673d
000001e0: 7e94 643d 21bb 623d eff2 933d bf9e 6c3d
000001f0: 434d e63c ca12 d33c 1082 a53d 5af7 503d
00000200: 6541 f03b 7f6b 8d3c 41b9 a13d eea3 4a3d
00000210: abce ee3a f414 133d 0888 543b a496 b23d
00000220: 2b23 083d e692 06bb a92d 063d 9119 fbbc
00000230: 8225 15bd 659c 8f3d 4394 663d b420 d73d
00000240: 33f7 e0bb daab 7bbd ce8e adbc b791 22bd
00000250: 97a6 46bd 9b6f febc f51a 97bd e220 cfbd
00000260: 6b94 62bd b00c 123c 4189 a03d 697b 083d
00000270: 3e6b ac3c c79a 95bc 1295 5c3c 33c4 653d
00000280: 7208 933d 6f29 2a3d ddf7 7e3d db6d 5b3d
00000290: cfb8 8ebb a9f1 45bd f6b8 27be 25f5 0bbe
000002a0: b3a2 e83d 4e4a b93c 96f5 51b8 a587 973c
000002b0: 9aa6 743d 42a8 043d ff7a afbd 9a8a 883c
000002c0: 662a 84bd 6f3a 8dbe c523 69be ef8b 2ebe
000002d0: 41de 1abd e969 d53b 479b da3a fcd2 0dbd
000002e0: 4c9a 393a 8073 3bbc 05ba 973b 94c8 893c
000002f0: b679 ef3b 441e a33b 2082 663c 9ca3 aa3c
00000300: 41ca 0e3a 9ea1 8c3b fdd0 6bbb e124 ad3d
00000310: f98a 5d3d 720c 643d 54d3 11bd 29ef 9abb
00000320: b871 a53b 8ed9 57be b108 9abc 2330 cb3c
00000330: 01e8 afbd 9883 d8bd f5ce 3dbd c320 0a3d
00000340: b5e1 19bd 7cc5 0cbd 9316 153b 5bbd bfbc
00000350: d9ee 6d3c fedd c63c 477c 53bd 3a19 05bd
00000360: 8d61 ff3c 493c 5639 1041 313d fc4d 3d3d
00000370: a3a1 d9bb d73d a13d 7a26 223d cb45 e73a
00000380: 175f db3c 1152 b13c a102 583c 2694 e23c
00000390: 964f 343c 3d4b e2bc 0ec6 ccbc 79a9 86bd
000003a0: 5046 023d fdbb 8cbb c94d 963c b954 e3bc
000003b0: f321 4f3d 1b44 5bbd 67c3 8bbc 267f 16bd
000003c0: 44ef c73c 7a94 f03b fc33 bcbb 6328 47bd
000003d0: 41b2 04bd 85ba 2bbb 1a69 94bc 2886 533c
000003e0: 04e6 acbb 163c 0a3e 3e52 bd3d af73 d43d
000003f0: d371 b73a 964e 97bc 2e9c 603d f99a 5ebc

backbone.2.conv3x3.bias f4 [64]
0.013566116 -0.004782031 0.008440053 0.0047347313 0.015534875 0.033786435 -0.013049432 0.0319098
-0.024922922 0.039966013 -0.018108645 0.0048453845 0.005911603 0.036486216 0.028361704 0.018115815
0.016375538 -0.019347975 0.014646308 -0.009827533 0.017348126 -0.0093407435 0.026452817 0.018128736
-0.021768864 -0.014995017 0.00887751 -0.025351074 -0.027336884 0.011265106 0.031305153 -0.025875999
-0.0085970415 -0.014927583 0.037289187 0.017430369 -0.039259817 -0.039529383 0.03362826 0.0259193
-0.02394729 -0.03272742 -0.013973733 -0.027337836 0.03698398 -0.034816492 0.023292592 0.005934342
-0.0026041232 -0.0042473944 0.00922649 -0.039740037 -0.013295416 -0.007278274 0.029670496 0.028797021
-0.03346684 0.01623698 -0.020202719 -0.022746913 0.028114563 0.02685493 -0.029618885 0.034817655
00000000: 6a44 5e3c 95b2 9cbb 2648 0a3c ce25 9b3b
00000010: fd85 7e3c a563 0a3d 49cd 55bc dab3 023d
00000020: 282b ccbc 67b3 233d 9558 94bc 08c6 9e3b
00000030: 1fb6 c13b 9272 153d ce56 e83c 9e67 943c
00000040: fe25 863c a57f 9ebc 11f7 6f3c a903 21bc
00000050: a81d 8e3c eb09 19bc 94b3 d83c b782 943c
00000060: 9e54 b2bc a9ad 75bc fa72 113c 0ead cfbc
00000070: 9af1 dfbc 4791 383c d539 003d e7f9 d3bc
00000080: 9bda 0cbc d292 74bc 8cbc 183d 22ca 8e3c
00000090: e7ce 20bd 90e9 21bd c9bd 093d b654 d43c
000000a0: 1b2d c4bc 300d 06bd 16f2 64bc 99f3 dfbc
000000b0: 847c 173d bd9b 0ebd 1bd0 be3c de74 c23b
000000c0: f0a9 2abb ba2d 8bbb b42a 173c 73c6 22bd
000000d0: 04d5 59bc 967e eebb 8a0f f33c bbe7 eb3c
000000e0: 8614 09bd 6a03 853c 2c80 a5bc bc57 babc
000000f0: 8350 e63c dffe db3c 4ea3 f2bc f59c 0e3d

backbone.2.bn.weight f4 [64]
0.9828648 0.88402593 1.1484185 0.9436692 0.93036324 0.9749567 1.3417022 1.0628632
1.0058844 0.9468548 1.3724555 1.0296142 0.90891093 0.9532544 0.9794356 1.0831664
0.93486786 1.0000913 0.8539318 0.9188264 0.88902044 0.898112 0.9609787 0.9919575
0.90986085 1.2245001 0.94251883 0.9239501 0.92947304 1.0083058 1.0045453 0.9149308
0.98048407 0.9930732 0.91441673 0.9150317 1.0453558 1.042709 0.91192424 0.9095
0.91061604 0.9762174 0.85967726 1.1440449 0.9619235 0.95876646 0.862099 1.1536582
0.94562554 0.9611043 1.0350899 1.0015938 1.0091118 1.0187877 0.99086183 0.99850696
0.8840475 0.9821893 0.90839255 0.9390052 0.9200881 1.0434948 0.9655394 0.9840284
00000000: 079d 7b3f 864f 623f 61ff 923f 4e94 713f
00000010: 492c 6e3f c396 793f e6bc ab3f e70b 883f
00000020: d2c0 803f 1465 723f 9fac af3f 66ca 833f
00000030: 63ae 683f 7b08 743f 4bbc 7a3f 32a5 8a3f
00000040: 8053 6f3f fe02 803f 469b 5a3f 3538 6b3f
00000050: d896 633f abea 653f b302 763f edf0 7d3f
00000060: a4ec 683f 6bbc 9c3f ea48 713f fe87 6c3f
00000070: f2f1 6d3f 2a10 813f f194 803f e838 6a3f
00000080: 0101 7b3f 0c3a 7e3f 3717 6a3f 843f 6a3f
00000090: 38ce 853f 7d77 853f de73 693f fed4 683f
000000a0: 221e 693f 62e9 793f cf13 5c3f 1070 923f
000000b0: 9e40 763f b871 753f 85b2 5c3f 12ab 933f
000000c0: 8414 723f ee0a 763f d37d 843f 3a34 803f
000000d0: 932a 813f a367 823f 1fa9 7d3f 279e 7f3f
000000e0: f050 623f c270 7b3f 6a8c 683f a562 703f
000000f0: e58a 6b3f 3d91 853f 972d 773f 49e9 7b3f

backbone.2.bn.bias f4 [64]
-0.057344213 -0.0994314 -0.4450947 -0.19696493 -0.22229601 -0.036457077 -0.30744287 -0.0991256
-0.063735306 -0.28814766 -0.13930023 -0.22438021 -0.11427564 -0.02102711 -0.20208894 -0.27369726
-0.2927809 -0.031137865 -0.17294873 -0.14787935 -0.08133294 -0.116575144 -0.29211807 -0.3723377
-0.24768007 -0.14309339 -0.15320887 -0.14208892 -0.09230013 -0.033194486 -0.31078145 -0.11143154
-0.19440624 0.009680373 -0.086294554 -0.16172907 -0.34273186 0.005743348 -0.26494893 -0.24806717
-0.097564936 -0.049225263 -0.20311043 -0.059214722 -0.0428843 -0.042520504 -0.12820438 -0.26799896
-0.14359431 -0.19968325 -0.29222566 -0.26829222 -0.22835328 -0.26327193 0.0070506404 -0.2252152
-0.13112639 -0.11706308 -0.23361339 0.0036809652 -0.27722523 -0.23439959 -0.094122455 -0.04594884
00000000: c4e1 6abd b1a2 cbbd 74e3 e3be 2db1 49be
00000010: 91a1 63be 0454 15bd 2769 9dbe 5d02 cbbd
00000020: a887 82bd 1788 93be b8a4 0ebe edc3 65be
00000030: 5909 eabd 0c41 acbc 67f0 4ebe 0c22 8cbe
00000040: 61e7 95be d614 ffbc 7919 31be af6d 17be
00000050: e291 a6bd f3be eebd 8090 95be 0ca3 bebe
00000060: d89f 7dbe 1387 12be c9e2 1cbe c27f 11be
00000070: da07 bdbd f1f6 07bd bf1e 9fbe 3836 e4bd
00000080: 6e12 47be 6d9a 1e3c 33bb b0bd 4e9c 25be
00000090: 8d7a afbe b232 bc3b 63a7 87be 5205 7ebe
000000a0: 20d0 c7bd 6ea0 49bd 2efc 4fbe 238b 72bd
000000b0: 73a7 2fbd fb29 2ebd 0248 03be 2937 89be
000000c0: 630a 13be c479 4cbe 9a9e 95be 995d 89be
000000d0: 71d5 69be 94cb 86be 0f09 e73b d09e 66be
000000e0: ff45 06be c5be efbd 5938 6fbe 593c 713b
000000f0: 77f0 8dbe 7206 70be 46c3 c0bd da34 3cbd

backbone.2.bn.running_mean f4 [64]
0.97820175 -1.2348452 -0.68283445 0.94585466 0.36076447 -4.010807 -1.0009252 -1.2334564
-0.63194716 1.1515754 -0.8456932 -0.8508833 -0.79678255 -3.8575206 -1.0352603 -2.367545
-1.0935353 -1.6441574 -1.9099244 -2.4850168 -2.709031 -1.826718 2.5835752 -1.3420451
-0.6687162 -0.3289711 -2.963465 -2.6065412 1.7408977 0.0554843 0.08413014 -0.302421
-0.39553046 -1.4361616 -0.34196916 0.4001973 -0.5022494 -4.338584 -1.1274723 -0.77179265
-1.4921714 -3.6854029 -0.002003435 -0.9080485 -2.0606532 -3.6225035 1.0165838 -0.6001989
1.6846772 -1.0563478 -0.18728948 -1.5102313 -0.2944393 0.45614588 -4.596834 -1.165081
-2.1945214 -2.1736526 -0.2566337 1.5117674 -0.10493837 0.9611792 -0.50658876 -1.7465719
00000000: 6e6b 7a3f 680f 9ebf 3dce 2ebf 8823 723f
00000010: 1fb6 b83e 8858 80c0 511e 80bf e6e1 9dbf
00000020: 4ac7 21bf d366 933f 597f 58bf 7dd3 59bf
00000030: f1f9 4bbf 9ee1 76c0 6983 84bf db85 17c0
00000040: f7f8 8bbf c073 d2bf 6778 f4bf 840a 1fc0
00000050: c460 2dc0 e5d1 e9bf 4c59 2540 22c8 abbf
00000060: fc30 2bbf e66e a8be 69a9 3dc0 92d1 26c0
00000070: bcd5 de3f 8143 633d 6c4c ac3d edd6 9abe
00000080: f882 cabe 25d4 b7bf 9516 afbe a9e6 cc3e
00000090: 6b93 00bf aed5 8ac0 0351 90bf 3494 45bf
000000a0: 79ff bebf a4dd 6bc0 104c 03bb de75 68bf
000000b0: bee1 03c0 19d7 67c0 6b1f 823f a3a6 19bf
000000c0: 81a3 d73f 6836 87bf d0c8 3fbe 424f c1bf
000000d0: bfc0 96be f48b e93e 4419 93c0 6021 95bf
000000e0: 0a73 0cc0 201d 0bc0 7e65 83be 9881 c13f
000000f0: eee9 d6bd d70f 763f cdaf 01bf ab8f dfbf

backbone.2.bn.running_var f4 [64]
0.8551549 3.7197015 0.5465152 2.5029166 2.3657954 2.494661 1.3540148 1.3472117
1.2302824 0.7358853 0.82272345 1.4170897 2.7705786 1.1837878 0.63621813 0.9738659
0.95238364 1.1684068 1.1617056 0.87587553 2.142548 1.4948703 0.93431205 2.4852989
4.1556187 0.83678275 2.709296 2.2860065 2.3396068 0.68151504 1.0994829 0.85033554
2.7537808 1.711978 2.490093 2.1499474 0.94658786 1.8038641 2.2542477 2.0058208
1.5439425 0.7641787 3.7746396 0.67749184 1.2201133 1.3619269 6.6101623 1.2841651
1.1230109 2.9672432 1.2209886 0.9310454 4.3883224 2.4933941 1.9334035 1.1456393
2.14911 1.4514644 0.956334 4.234461 0.783649 0.9735524 1.6665392 1.3478886
00000000: 6eeb 5a3f 970f 6e40 6ce8 0b3f c92f 2040
00000010: 3169 1740 87a8 1f40 5b50 ad3f 6f71 ac3f
00000020: e579 9d3f fb62 3c3f 019e 523f 3263 b53f
00000030: 2951 3140 5c86 973f 31df 223f 474f 793f
00000040: 6acf 733f 5b8e 953f c5b2 943f 6139 603f
00000050: 821f 0940 e957 bf3f 132f 6f3f 230f 1f40
00000060: d4fa 8440 6537 563f 1b65 2d40 ee4d 1240
00000070: 1ebc 1540 c577 2e3f dbbb 8c3f 97af 593f
00000080: f23d 3040 1822 db3f af5d 1f40 bd98 0940
00000090: 9553 723f 05e5 e63f 9845 1040 5e5f 0040
000000a0: e89f c53f 37a1 433f b293 7140 1b70 2d3f
000000b0: ac2c 9c3f 9f53 ae3f 7386 d340 865f a43f
000000c0: d2be 8f3f 50e7 3d40 5b49 9c3f fe58 6e3f
000000d0: 236d 8c40 c593 1f40 c479 f73f 4fa4 923f
000000e0: 058b 0940 96c9 b93f 4ed2 743f b480 8740
000000f0: 399d 483f bb3a 793f 2851 d53f 9d87 ac3f

backbone.3.conv3x3.weight f4 [64, 64, 3, 3]
-0.032417398 -0.09098678 -0.07229109 -0.0636595 -0.10900148 -0.068104215 -0.054870505 -0.06373228
-0.043445673 -0.023714894 -0.060194686 -0.025709592 -0.024726905 -0.071306266 -0.034662507 -0.012997417
-0.014786135 -0.04117564 -0.08897712 -0.05246932 -0.013401338 -0.035666265 0.034181368 -0.0014395855
-0.050279718 -0.03611489 -0.110214435 -0.077089265 -0.012462877 -0.016519751 -0.09996151 -0.09600633
-0.05084751 -0.05598477 -0.067827344 0.02311621 -0.07788371 0.013612247 -0.05615277 -0.02787281
-0.067853436 -0.014136773 -0.08113086 -0.0257491 -0.028815225 -0.037505213 0.014215449 -0.008382975
-0.034727395 -0.016778473 -0.0775911 0.0014742997 -0.023114534 -0.02185101 -0.08134993 0.0020812568
0.004548707 0.020058224 -0.035640825 -0.03938191 -0.010327994 -0.020553244 0.028903775 -0.0069061127
0.033058725 -0.024389818 0.05117609 0.015135746 0.015168297 -0.0009840996 0.06073634 -0.021291971
0.075801246 0.097156875 0.058087334 0.011037789 0.033492014 0.038944665 0.037271142 0.002583691
0.053747486 -0.06359427 -0.021921542 0.0070340885 -0.0406698 -0.022892015 -0.05864185 -0.0001172693
0.0053509315 -0.04532244 0.09921616 0.09747911 -0.005327843 0.046366535 0.035224363 0.040754493
0.10689772 0.056150533 0.0342013 -0.008116371 -0.020594677 -0.018849252 -0.062839404 -0.008340401
-0.014822067 -0.011309604 0.017359631 -0.06051002 -0.05372058 -0.043284994 -0.016303765 -0.074130565
-0.052607547 -0.014966046 0.016043298 -0.01581636 -0.041897006 -0.0015440005 0.02475914 -0.02935478
-0.036866333 -0.047589358 0.014044639 0.008198112 0.020379847 -0.05671041 -0.042897485 -0.012949799
-0.03416068 -0.07678412 -0.022077251 -0.044098616 -0.0759689 -0.046312183 -0.054833822 0.042283062
0.07134518 -0.009442537 -0.054725565 0.045114033 0.008711187 0.022240777 0.102920756 -0.0075286883
-0.030834373 -0.042292032 -0.05006061 0.0133710345 0.002934154 -0.00074901374 0.0034302534 0.05069939
0.03205154 0.0078877285 0.009865998 0.03829756 0.041371316 0.0041278005 -0.03708904 0.053226165
-0.011413828 0.027268479 -0.036720373 0.044611648 -0.034275044 -0.04494457 0.0090130465 -0.053505525
0.025341501 -0.009136231 -0.03456727 0.022587156 0.038170215 0.02322056 0.0027211807 0.040236127
0.022180852 -0.04531651 0.033063162 0.014148337 0.004760785 0.005406278 0.02405078 0.0044966266
0.022151373 -0.019995892 0.012588329 -0.055226672 -0.022926886 0.015510919 0.038674254 0.05352538
-0.003852424 0.07762832 0.050909854 -0.0035094568 0.02805451 0.03254192 -0.07185349 -0.09038848
-0.073269635 -0.06303812 -0.08882215 -0.0846158 -0.12599474 -0.027106484 -0.049577236 -0.037030853
-0.050120678 -0.06489124 -0.042940523 -0.022287348 0.00083555817 -0.08651633 -0.022145392 0.018188069
-0.08371394 -0.023806458 -0.03839367 -0.027095465 -0.069945514 -0.012916974 -0.02416669 0.015390025
-0.035876304 -0.06900319 -0.02017581 -0.058197517 -0.0820024 -0.02607618 -0.10733373 0.006383031
-0.03581128 -0.07967 -0.015834592 0.032829143 -0.009328534 0.0097817015 0.027959898 -0.008528284
-0.02367948 0.013059337 0.007379232 -0.035417628 -0.047997426 -0.031883053 0.026698904 -0.055431694
-0.018453548 0.005473085 0.007247873 -0.058975402 0.034870766 0.048622128 0.02210055 -0.030501308
00000000: 1bc8 04bd 4757 babd 5a0d 94bd e95f 82bd
00000010: 2b3c dfbd 397a 8bbd e5bf 60bd 1286 82bd
00000020: 17f4 31bd bd45 c2bc b48e 76bd ec9c d2bc
00000030: 1490 cabc 0509 92bd 46fa 0dbd 1ef3 54bc
00000040: 8c41 72bc caa7 28bd a339 b6bd 12ea 56bd
00000050: 4991 5bbc ca16 12bd c301 0c3d 79b0 bcba
00000060: 1bf2 4dbd 35ed 13bd 1bb8 e1bd fae0 9dbd
00000070: 1831 4cbc 6e54 87bc 9fb8 ccbd f79e c4bd
00000080: 7b45 50bd 4950 65bd 10e9 8abd 355e bd3c
00000090: 7f81 9fbd e705 5f3c 7200 66bd 8555 e4bc
000000a0: bef6 8abd ec9d 67bc f027 a6bd c7ef d2bc
000000b0: e80d ecbc 119f 19bd eae7 683c bf58 09bc
000000c0: 503e 0ebd 0273 89bc 15e8 9ebd 4a3d c13a
000000d0: b15a bdbc e400 b3bc cb9a a6bd b265 083b
000000e0: 520d 953b 2551 a43c 1dfc 11bd ed4e 21bd
000000f0: bf36 29bc 475f a8bc 9cc7 ec3c ac4c e2bb
00000100: 9668 073d 28cd c7bc 059e 513d ecfb 773c
00000110: 7384 783c e7fc 80ba abc6 783d 806c aebc
00000120: af3d 9b3d 2ffa c63d fcec 6d3d d8d7 343c
00000130: ec2e 093d 7184 1f3d a0a9 183d 2453 293b
00000140: 5326 5c3d b63d 82bd ce94 b3bc 367e e63b
00000150: 6095 26bd 0988 bbbc 7032 70bd 7aee f5b8
00000160: de56 af3b 06a4 39bd d831 cb3d 21a3 c73d
00000170: 3095 aebb d6ea 3d3d 6c47 103d 2fee 263d
00000180: 31ed da3d 1afe 653d aa16 0c3d 87fa 04bc
00000190: 2bb6 a8bc bf69 9abc f2b1 80bd 2da6 08bc
000001a0: 41d8 72bc eb4b 39bc c935 8e3c 5bd9 77bd
000001b0: 1c0a 5cbd 9b4b 31bd 798f 85bc c4d1 97bd
000001c0: 037b 57bd 2634 75bc 3c6d 833c 5091 81bc
000001d0: 329c 2bbd 0f60 caba aed3 ca3c 7079 f0bc
000001e0: 2701 17bd 0fed 42bd 7c1b 663c 6051 063c
000001f0: a3f3 a63c 2d49 68bd 46b5 2fbd 652b 54bc
00000200: 12ec 0bbd fe40 9dbd 5adb b4bc c0a0 34bd
00000210: 9595 9bbd d8b1 3dbd 6e99 60bd 0131 2d3d
00000220: 6c1d 923d dfb4 1abc ea27 60bd 7ec9 383d
00000230: 5eb9 0e3c 4a32 b63c 1ec8 d23d 37b3 f6bb
00000240: 5e98 fcbc 693a 2dbd 5b0c 4dbd 2f12 5b3c
00000250: ef4a 403b 7659 44ba 1ace 603b 2aaa 4f3d
00000260: 7a48 033d 883b 013c ffa4 213c e7dd 1c3d
00000270: f874 293d 8042 873b adea 17bd ae03 5a3d
00000280: 1001 3bbc 2562 df3c 1a68 16bd b4ba 363d
00000290: fd63 0cbd cc17 38bd 75ab 133c 9c28 5bbd
000002a0: fb98 cf3c 21b0 15bc 6996 0dbd b308 b93c
000002b0: 5f58 1c3d 0b39 be3c d655 323b a3ce 243d
000002c0: 9eb4 b53c ce9d 39bd 3d6d 073d 6dce 673c
000002d0: 5c00 9c3b 2627 b13b 2406 c53c 7058 933b
000002e0: cc76 b53c 6dce a3bc 473f 4e3c 5d35 62bd
000002f0: 2ad1 bbbc 8221 7e3c e568 1e3d 6e3d 5b3d
00000300: f378 7cbb 99fb 9e3d da86 503d eafe 65bb
00000310: 92d2 e53c ad4a 053d ec27 93bd 981d b9bd
00000320: 640e 96bd 211a 81bd 63e8 b5bd 0c4b adbd
00000330: c404 01be 6b0e debc 8011 4bbd aaad 17bd
00000340: 574b 4dbd b3e5 84bd 67e2 2fbd f593 b6bc
00000350: 5c09 5b3a 792f b1bd 416a b5bc 25ff 943c
00000360: 3772 abbd c305 c3bc ae42 1dbd 4ff7 ddbc
00000370: 983f 8fbd b7a1 53bc 39f9 c5bc 7226 7c3c
00000380: 08f3 12bd 8b51 8dbd be47 a5bc 8560 6ebd
00000390: e0f0 a7bd b79d d5bc c9d1 dbbd bf28 d13b
000003a0: d9ae 12bd 062a a3bd 8cb7 81bc da77 063d
000003b0: b5d6 18bc 6e43 203c 280c e53c 37ba 0bbc
000003c0: 78fb c1bc d4f6 553c 7ccd f13b 1312 11bd
000003d0: f398 44bd ce97 02bd a9b7 da3c 580c 63bd
000003e0: e52b 97bc 9157 b33b 917f ed3b 3190 71bd
000003f0: a6d4 0e3d ff27 473d 360c b53c e1dd f9bc

backbone.3.conv3x3.bias f4 [64]
-0.0227915 0.006832499 0.020730142 0.025594322 -0.003344381 -0.015261299 -0.041720938 -0.03860464
0.00159765 0.042408668 -0.010361578 -0.035723854 0.026826698 0.042455602 -0.020606551 -0.009228793
0.013122879 -0.027462956 -0.013646678 0.036570292 0.021478798 0.0394655 0.041278657 0.0074908477
-0.021823749 -0.016113998 -0.008840323 0.015394831 -0.029850528 -0.017903669 0.009507665 -0.007444264
0.021873506 -0.030904366 0.0055214 0.036690835 -0.017121045 -0.007035986 -0.0034581772 0.0037231538
0.04223864 0.0022342065 -0.006848894 -0.009244449 -0.032689814 0.035233732 0.019970821 -0.024826916
-0.00077545375 0.008536461 0.024287792 0.018634342 -0.015239283 0.0024352504 -0.02832817 -0.027139777
0.028023023 -0.029440789 0.0048799766 -0.014980009 0.020153457 -0.020350859 -0.020111926 -0.040580336
00000000: 3db5 babc 28e3 df3b 42d2 a93c 2fab d13c
00000010: 672d 5bbb 870a 7abc 93e3 2abd e61f 1ebd
00000020: 3d68 d13a b6b4 2d3d 9cc3 29bc 2d53 12bd
00000030: aac3 db3c ede5 2d3d 12cf a8bc 5d34 17bc
00000040: 5801 573c fef9 e0bc 5196 5fbc bbca 153d
00000050: 4ef4 af3c 93a6 213d cf13 293d c975 f53b
00000060: b8c7 b2bc 8101 84bc 01d7 10bc 9a3a 7c3c
00000070: 1889 f4bc b7aa 92bc 0ac6 1b3c 03ef f3bb
00000080: 1130 b33c 272b fdbc dcec b43b 2149 163d
00000090: 6f41 8cbc 218e e6bb 96a2 62bb 2800 743b
000000a0: 6d02 2d3d c46b 123b b06c e0bb 0876 17bc
000000b0: c1e5 05bd 3f51 103d d999 a33c d161 cbbc
000000c0: d247 4bba 83dc 0b3c 31f7 c63c 0ca7 983c
000000d0: 30ae 79bc b998 1f3b 7a10 e8bc 3d54 debc
000000e0: 8a90 e53c cf2d f1bc 36e8 9f3b b66e 75bc
000000f0: dd18 a53c d8b6 a6bc c4c1 a4bc 9137 26bd
