models/gelu_best_epoch.pt (torch, 206379 bytes, 38 tensors)

backbone.0.conv3x3.weight f4 [32, 3, 3, 3]
0	0x3cf7e4da	0.030260492
1	0x3e1bb503	0.15205769
2	0xbd35f8fb	-0.0444269
3	0x3e4357a7	0.19076405
4	0xbdd8026e	-0.105473384
5	0xbcd60ce1	-0.026129188
6	0xbc2d498a	-0.010576615
7	0x3ddcef17	0.1078779
8	0x3dafef06	0.08590512
9	0xbe33bd49	-0.17552675
10	0x3e14cb18	0.14530599
11	0x3dcff506	0.101541564
12	0x3e48879f	0.19582985
13	0x3ddf8a17	0.109150104
14	0x3d2c3564	0.042043105
15	0xbc5dce9c	-0.013538029
16	0x3dd8a190	0.105776906
17	0xbd5c55a8	-0.053792626
18	0xbe2aa29c	-0.16663593
19	0x3d7efcf0	0.06225294
20	0xbde52289	-0.11188228
21	0x3dadad00	0.08480263
22	0xbe5af3f5	-0.21382125
23	0x3d9e4dde	0.07729696
24	0xbd8b6b7b	-0.0680761
25	0xbdc64078	-0.09680265
26	0xbdc75bb0	-0.09734285
27	0xbe243b18	-0.16038167
28	0x3e000944	0.12503535
29	0xbdb2ae54	-0.08724657
30	0x3d82ef72	0.06393327
31	0xbe523a46	-0.20530042
32	0x3da0068e	0.0781375
33	0x3d5116fd	0.051047314
34	0xbe053c06	-0.13011178
35	0x3d74d4af	0.059773143
36	0x3cc556d1	0.024089249
37	0x3e44944d	0.19197197
38	0x3dd9aee1	0.10629059
39	0x3e0a6132	0.1351364
40	0x3e43b139	0.19110574
41	0xbd548901	-0.05188847
42	0x3d0f687b	0.03501175
43	0x3d8e82fe	0.069585785
44	0x3ded93de	0.11600469
45	0xbd8cde4e	-0.06878339
46	0x3df046c3	0.11732247
47	0x3d25b15e	0.040452354
48	0x3db38718	0.087660015
49	0xbe28537b	-0.16438095
50	0xbe9229c4	-0.2854749
51	0xbc19ca86	-0.009386664
52	0xbe081a9a	-0.13291398
53	0x3dbecd4d	0.09316502
54	0x3c8d734c	0.017266892
55	0x3c5d1238	0.013493113
56	0x3c3dc7c2	0.0115832705
57	0xbab846cb	-0.0014059184
58	0x3e64b52e	0.2233474
59	0xbc1b9f76	-0.009498468
60	0xbbaa417f	-0.005195796
61	0xbea5138f	-0.32241485
62	0x3c8aecb9	0.016958581
63	0xbd9cba99	-0.07652778
64	0xbc27bc23	-0.010237726
65	0x3c34f3f7	0.011044494
66	0x3e2e0659	0.16994609
67	0xbe5507f6	-0.20803818
68	0xbba3ec61	-0.005002544
69	0xbd7db0c5	-0.06193616
70	0x3e90c09a	0.28271943
71	0xbbd2d354	-0.0064338837
72	0x3d962c71	0.07332695
73	0xbd74cee8	-0.059767634
74	0x3c4c2d55	0.01246198
75	0xbdea8787	-0.11451631
76	0xbdd7403b	-0.10510298
77	0x3c7f1626	0.015569245
78	0xbb9def31	-0.0048197736
79	0x3e552109	0.20813383
80	0xbd4ef4ee	-0.050526552
81	0x3bca0614	0.0061652754
82	0x3de0b7a5	0.109725274
83	0x3c7606d2	0.0150162745
84	0x3e036b63	0.12833934
85	0xbeb39aec	-0.35079134
86	0x3dfad0a7	0.122468285
87	0xbcf5784f	-0.029964594
88	0x3bb4f6cc	0.0055225845
89	0xbaf4f022	-0.0018687288
90	0x3c8dfb0b	0.01733162
91	0x3b72dece	0.0037059071
92	0x3cf72f8a	0.030174036
93	0x3dd8e9c5	0.10591463
94	0xbee348a1	-0.4439135
95	0xbbd82cc9	-0.0065971357
96	0x3b43ae48	0.0029858518
97	0x3cec1557	0.02881877
98	0xbd1c463e	-0.038152926
99	0xbcbf1174	-0.023323752
100	0xbd1174cc	-0.035511777
101	0x3d991189	0.07474048
102	0x3ced5d08	0.028975025
103	0xbee01338	-0.43764663
104	0x3c26ba04	0.0101761855
105	0xbd2d299d	-0.042276014
106	0xbc78691b	-0.015161778
107	0xbbd5a6a7	-0.0065201106
108	0xbe9a43de	-0.30129904
109	0xbd8d38f3	-0.06895628
110	0x3e769964	0.24081951
111	0xbd8a39c6	-0.06749301
112	0xbe3588e2	-0.17727998
113	0xbd117c97	-0.03551921
114	0xbd7e710c	-0.06211953
115	0xbc635f48	-0.013877697
116	0x3c6cfc81	0.0144644985
117	0xbe7ebeac	-0.24877423
118	0x3c4aaf3e	0.012370883
119	0xbce66280	-0.02812314
120	0xbd721e20	-0.05911076
121	0xbe3d9d35	-0.18517001
122	0xbb349878	-0.0027556699
123	0xbd4f176b	-0.050559442
124	0x3caec9ff	0.021336554
125	0x3d33a0e6	0.043854617
126	0xbe0164ef	-0.1263616
127	0xbd7b2827	-0.06131759
128	0x3e57b5be	0.21065423
129	0x3ce854cc	0.028360747
130	0x3e5453e1	0.20735122
131	0x3e07a52a	0.13246599
132	0xbe0288ca	-0.12747493
133	0x3d6a94bb	0.057270747
134	0x3d11f6cb	0.03563575
135	0xbc53bda2	-0.01292363
136	0xbed2553c	-0.41080654
137	0xbce329c8	-0.027729884
138	0x3a4c1a3b	0.0007785891
139	0xbd92a69a	-0.07160683
140	0xbcae7452	-0.0212957
141	0xbcb14e52	-0.021643791
142	0x3db0b331	0.08627928
143	0xbb959127	-0.0045644226
144	0x3d2f3b7b	0.042781334
145	0x3da20973	0.079119585
146	0x3dfa0718	0.12208384
147	0x3d3c9cf4	0.04604812
148	0x3dfadb6a	0.12248881
149	0xbe2f4c13	-0.17118864
150	0xbb134884	-0.0022473643
151	0xbe4c873d	-0.19973464
152	0x3d27d6a3	0.040976178
153	0xbe43cadc	-0.19120353
154	0x3e36a3f4	0.1783598
155	0xbdaedea6	-0.085385606
156	0x3be81dde	0.0070836386
157	0x3cd2aa18	0.025715873
158	0x3c14fc04	0.009093288
159	0xbdd7f9ad	-0.10545669
160	0x3e6a8cd7	0.22905289
161	0xba872d17	-0.001031312
162	0x3bc63a51	0.0060494323
163	0xbe26736e	-0.1625497
164	0x3c052779	0.008127087
165	0x3c1ca3a1	0.009560497
166	0x3bdbc918	0.006707322
167	0x3e88cc0f	0.26718184
168	0x3c5a85f9	0.013337606
169	0xbdb15343	-0.08658459
170	0xbb1ff983	-0.0024410195
171	0x3bf396b5	0.007433737
172	0x3ded39d0	0.115832925
173	0xbaa832f6	-0.001283257
174	0xbb84db77	-0.0040544826
175	0x3c1f534d	0.00972445
176	0xbeba4958	-0.36384082
177	0xbc1fbe46	-0.009749955
178	0x3e032196	0.12805781
179	0xbce69771	-0.028148385
180	0xbc168d98	-0.009189032
181	0x3c41061f	0.011781245
182	0xbb82a621	-0.0039870893
183	0xbca39d38	-0.019972429
184	0x3c3784bc	0.01120108
185	0x3e1f43c4	0.15553194
186	0xbbfe4dab	-0.0077607236
187	0xbcc95f43	-0.024581557
188	0xbc943174	-0.018089987
189	0x3c3055a2	0.010762604
190	0xbca1dbab	-0.019758066
191	0x3c279f6e	0.010230882
192	0x3daeaafc	0.085287064
193	0x3e78ffd6	0.24316344
194	0xbd5a1ea2	-0.05325187
195	0xbd11e74e	-0.03562098
196	0xba954488	-0.0011388222
197	0xbd82bf17	-0.06384104
198	0x3c262953	0.010141688
199	0x3d3d0799	0.046149824
200	0xbdb98c9a	-0.09060021
201	0xbd1a00e5	-0.03759851
202	0x3e418424	0.18898064
203	0xbca52df3	-0.020163512
204	0xbcf6bcc0	-0.0301193
205	0xbe186af7	-0.14884554
206	0xbe37cb0f	-0.17948554
207	0xbd4ee527	-0.050511505
208	0xbc4a2e13	-0.0123400865
209	0x3cd2bcfe	0.025724884
210	0x3d417b91	0.047236983
211	0x3e2d8067	0.16943513
212	0xbe62d9ab	-0.22153346
213	0xbd3ccb4c	-0.046092317
214	0xbca196bd	-0.019725198
215	0x3e783d28	0.2424208
216	0x3af438ef	0.001863269
217	0x3c94a851	0.018146666
218	0x3d3b8f26	0.045790814
219	0xbc271ac0	-0.010199249
220	0x3da37328	0.07980949
221	0x3e6b0294	0.22950202
222	0xbc6439ae	-0.0139297675
223	0x3cac4b24	0.021031924
224	0xbeade8d7	-0.33966705
225	0x3843c624	4.6676156e-05
226	0x3c87bce0	0.016569555
227	0x3d3c5496	0.045979105
228	0xbc71778e	-0.014737977
229	0xbe72c99a	-0.23709717
230	0xbe83aa34	-0.25715792
231	0xbb2248ff	-0.0024762747
232	0x3d6600a4	0.056152955
233	0x3e6c143e	0.23054597
234	0x3c4543f9	0.012040132
235	0x3be38ab7	0.0069440263
236	0x3ca04071	0.019561978
237	0xbc13491d	-0.0089895995
238	0xbb6064da	-0.00342398
239	0xbe5a2c52	-0.2130597
240	0x3bd06449	0.006359611
241	0xbc330879	-0.010927313
242	0x3c900236	0.01757918
243	0x3cdf2b87	0.027242435
244	0xbd07e8fb	-0.033181172
245	0xbf34ebfc	-0.70672584
246	0xbc3c9af9	-0.011511558
247	0x3d181cee	0.037136964
248	0xbd47940f	-0.048725184
249	0xbbab082c	-0.00521948
250	0xbd0a0ade	-0.03370177
251	0xbd4b46f6	-0.04962822
252	0x3cbac1d0	0.022797495
253	0xbccaf80f	-0.024776487
254	0xbec7e3fd	-0.3904113
255	0x3c9c9a3a	0.01911651

backbone.0.conv3x3.bias f4 [32]
0	0xbdc2938f	-0.09500801
1	0x3e244b4c	0.16044348
2	0x3e1cf4c9	0.15327753
3	0x3d895628	0.06705886
4	0x3c9475d4	0.018122591
5	0xbe2f5e8e	-0.17125914
6	0xbd04f347	-0.03245857
7	0x3e3f8730	0.18703914
8	0x3d5d6d86	0.054059528
9	0x3cb16297	0.021653457
10	0xbd34a3f7	-0.04410168
11	0xbd841676	-0.064495966
12	0x3da48349	0.08032853
13	0x3b604984	0.0034223506
14	0x3e020e4b	0.12700765
15	0xbd17b0c1	-0.0370338
16	0x3da9eaad	0.08296714
17	0x3d9b44a1	0.07581449
18	0x3d0ac60b	0.033880275
19	0x3dfd8ea6	0.12380724
20	0x3df53aff	0.11974143
21	0x3e235264	0.15949398
22	0x3e1048ec	0.14090317
23	0xbd43a31b	-0.04776297
24	0xbe34af93	-0.17645101
25	0x3d0027b8	0.03128788
26	0xbc79753e	-0.015225707
27	0xbd596218	-0.053072065
28	0xbcede5bf	-0.029040216
29	0x3c330026	0.010925328
30	0x3e1cdc1e	0.15318343
31	0x3d655dd8	0.0559977

backbone.0.bn.weight f4 [32]
0	0x3f606913	0.8766033
1	0x3f5b2c0b	0.8561408
2	0x3f81f606	1.0153205
3	0x3f92da66	1.14729
4	0x3f71534f	0.94267744
5	0x3f8bc5f1	1.0919782
6	0x3f73c829	0.95227295
7	0x3f761cb0	0.96137524
8	0x3f87f296	1.0620906
9	0x3f8aa58d	1.0831772
10	0x3f887d24	1.066319
11	0x3f649f11	0.89305216
12	0x3f9d1185	1.2270972
13	0x3f4d6cfa	0.8024441
14	0x3f872cfd	1.0560604
15	0x3f92d651	1.1471654
16	0x3f763ddc	0.9618814
17	0x3f82d261	1.0220453
18	0x3f89a41e	1.075321
19	0x3f5e0ca7	0.86738056
20	0x3f6791f5	0.9045709
21	0x3f57335a	0.8406273
22	0x3f8926fc	1.0715022
23	0x3f8b9c63	1.09071
24	0x3f57b7ea	0.84265006
25	0x3f54eaa3	0.8317053
26	0x3f55e236	0.83548295
27	0x3f7ca382	0.98686993
28	0x3f8b67f9	1.0891105
29	0x3f772dbe	0.9655417
30	0x3f974009	1.1816417
31	0x3f4797ec	0.7796619

backbone.0.bn.bias f4 [32]
0	0xbe195005	-0.14971931
1	0xbd93dba3	-0.07219627
2	0x3f63def9	0.89012104
3	0x3e5e565a	0.21712628
4	0x3ddb7d05	0.10717205
5	0xbe8a3f8b	-0.27001604
6	0x3f9bebec	1.2181373
7	0x3e764516	0.24049792
8	0x39389568	0.00017603266
9	0xbd3f61e5	-0.04672422
10	0xbe1ef5af	-0.15523408
11	0xbdb2ba57	-0.08726948
12	0xbd816aad	-0.06319175
13	0x3f149707	0.5804295
14	0xbb5d59d6	-0.003377547
15	0xbddf5b8a	-0.109061316
16	0x3ed9305a	0.42419702
17	0x3dc9b9db	0.09849902
18	0x3fdd4ee6	1.7289703
19	0x3f588ccd	0.84589845
20	0xbe51919d	-0.20465703
21	0x3f8fb4a9	1.1227008
22	0xbe5ad9bb	-0.2137212
23	0xbd4446d8	-0.047919124
24	0xbe057612	-0.13033321
25	0xbe21313e	-0.1574144
26	0x3f8d5fc6	1.1044853
27	0xbe062a09	-0.13101973
28	0xbda93599	-0.08262176
29	0xbcff5ef3	-0.031173205
30	0xbdb04051	-0.086060174
31	0x3e5893ba	0.21150103

backbone.0.bn.running_mean f4 [32]
0	0x3c2b5167	0.01045642
1	0x3e8ad34d	0.27114335
2	0x3e249b98	0.1607498
3	0xbe1a0dac	-0.15044278
4	0xbe2f8b0c	-0.17142886
5	0xbe86392d	-0.26215497
6	0xbd11f29a	-0.035631754
7	0x3e45273d	0.1925325
8	0xbd12e125	-0.035859246
9	0xbe6f4560	-0.23366308
10	0xbddc5723	-0.107588075
11	0x3d1322c7	0.035921838
12	0xbdc668b8	-0.09687942
13	0xbc625c54	-0.013815958
14	0xbc5558a1	-0.013021619
15	0xbe3431d0	-0.17597127
16	0x3dcea79c	0.10090563
17	0xbd8fdc82	-0.070244804
18	0x3d4e4733	0.05036087
19	0x3e015f1e	0.1263394
20	0x3e3d52a6	0.18488559
21	0x3e35fcd0	0.17772222
22	0x3b90e01b	0.0044212467
23	0xbe8af447	-0.27139494
24	0xbe1a2458	-0.15052927
25	0x3d8a75ac	0.067607254
26	0x3b496f05	0.0030736339
27	0xbdaf0688	-0.085461676
28	0xbe1c981d	-0.15292402
29	0xbda376d9	-0.07981653
30	0x3da60a22	0.081074014
31	0x3d867d2a	0.06566842

backbone.0.bn.running_var f4 [32]
0	0x3b7c911f	0.0038538647
1	0x3b66b978	0.0035205763
2	0x3a239d61	0.0006241408
3	0x3c8dfd3f	0.017332671
4	0x3c6aabd3	0.014323193
5	0x3b82c512	0.003990778
6	0x39ef97d9	0.00045698768
7	0x3a850df2	0.0010151251
8	0x3b5d05b2	0.0033725318
9	0x3ce8b5cb	0.028406998
10	0x3b3f9e15	0.0029238511
11	0x3b838836	0.0040140403
12	0x3c6e699a	0.014551545
13	0x3a3ccf91	0.00072025607
14	0x3bfbb229	0.0076811505
15	0x3bec888b	0.0072184256
16	0x3b0130ca	0.0019712918
17	0x3c441641	0.011968196
18	0x39f2e9f8	0.00046332157
19	0x3a2f9515	0.0006697935
20	0x3b5e33dc	0.0033905422
21	0x3a43276b	0.00074445334
22	0x3c1b8c9a	0.009493971
23	0x3c7d3ffb	0.015457149
24	0x3adaa5c0	0.0016681477
25	0x3b15abdd	0.0022838034
26	0x3a5a26e1	0.00083218334
27	0x3ab45c44	0.0013760407
28	0x3ba4953f	0.0050226743
29	0x3b644c19	0.0034835397
30	0x3b53170d	0.0032209784
31	0x3aef1fcb	0.0018243728

backbone.1.conv3x3.weight f4 [32, 32, 3, 3]
0	0x3a525122	0.0008022954
1	0xbd0b24ba	-0.033970572
2	0x3b5f5bce	0.003408182
3	0xbca4ae57	-0.020102663
4	0x3da8fb1b	0.082510196
5	0xbd9018f0	-0.070360065
6	0xbb8fc970	-0.004388027
7	0x3b95b14d	0.004568255
8	0xbc9324cf	-0.017961888
9	0xbcadc26e	-0.021210875
10	0xbd75a08a	-0.059967555
11	0xbc1a239d	-0.009407905
12	0xbc860e57	-0.01636426
13	0xbcd3bb93	-0.025846278
14	0xbce8e52d	-0.028429592
15	0x3d069518	0.03285703
16	0x3cf4b9a6	0.02987368
17	0xbc98435c	-0.018586807
18	0x3bd6745b	0.0065446324
19	0xbde19a1e	-0.11015724
20	0xbc092b21	-0.008372099
21	0x3cc37ec4	0.023864157
22	0xbd239bb1	-0.0399434
23	0x3adad651	0.0016695951
24	0x3bce8f14	0.0063036773
25	0xbc908282	-0.017640356
26	0xbca560d2	-0.02018777
27	0xbce3d428	-0.027811125
28	0x3bf73a36	0.007544781
29	0x3c3630a6	0.011119997
30	0x3d511d7d	0.051053513
31	0xbca0683e	-0.019580957
32	0x3d0c5a28	0.034265667
33	0x3d1cc582	0.038274296
34	0x3dedb301	0.11606408
35	0xbc22b964	-0.009931896
36	0x3cf191c0	0.029488444
37	0xbd094061	-0.033508662
38	0xbd855531	-0.065103896
39	0xbca2e8e4	-0.019886442
40	0xbd3327e8	-0.04373923
41	0x3dc6d598	0.097087085
42	0xbc15e4f5	-0.009148826
43	0xbd41c0f8	-0.04730317
44	0xbce248b7	-0.027622564
45	0xbb940751	-0.0045174737
46	0x3c42214d	0.01184876
47	0xba20461d	-0.00061139633
48	0x3d26e223	0.040743005
49	0x3e220b0c	0.15824527
50	0xbc121d7a	-0.008918161
51	0x3c8522c2	0.016251925
52	0xbcd07050	-0.02544418
53	0x3ca09096	0.019600194
54	0x3a1c010f	0.00059510855
55	0xbcef1c42	-0.029188279
56	0xbae01368	-0.0017095627
57	0xbda7f479	-0.08200926
58	0x3dafc69c	0.085828036
59	0x3c3c4c15	0.011492749
60	0xbd2d625f	-0.042330142
61	0xbcf4c31b	-0.02987819
62	0x3b9ad351	0.004724898
63	0xbb9b2ef8	-0.0047358237
64	0xbd7bc26f	-0.061464723
65	0xbc4b0c55	-0.012393077
66	0xbd4e0619	-0.050298784
67	0xbcc9e9b5	-0.024647573
68	0xbd37c3ef	-0.04486459
69	0x3c752f6e	0.014964921
70	0x3d144ce3	0.036206137
71	0x3c1479a2	0.009062203
72	0xbe204589	-0.15651526
73	0xbc90ebab	-0.0176905
74	0xbc2565ee	-0.010095103
75	0x3c75ee15	0.015010376
76	0xbd101e07	-0.035184886
77	0x3c0c7751	0.008573369
78	0x3d621b56	0.05520185
79	0xbb92170e	-0.0044583147
80	0xbc84c69d	-0.016207987
81	0xbcb92eb1	-0.022605272
82	0x3ce242ae	0.027619686
83	0x3d26c5b1	0.040715877
84	0x3e3bf72b	0.18356006
85	0x3c5f5bd6	0.013632735
86	0x3c8ab08f	0.016929893
87	0xbd09cd23	-0.0336429
88	0xbd0e967e	-0.03481149
89	0x3a248a45	0.0006276707
90	0xbdc4dab3	-0.09612026
91	0xbdd00213	-0.101566456
92	0xbc95326c	-0.01821252
93	0xbbc34bc6	-0.0059599606
94	0x3c034e22	0.008014234
95	0xbcfcf3e6	-0.030878019
96	0x3c7afc99	0.015319013
97	0x3b806a78	0.003918942
98	0x3d043609	0.032278094
99	0xbccefb27	-0.025266243
100	0x3d302d04	0.04301168
101	0xbb4c9069	-0.0031214005
102	0x3ceb4c77	0.028722985
103	0x3c1bff2e	0.009521289
104	0x3baf639c	0.0053524505
105	0xbd4a3c50	-0.049373925
106	0xbd519ad3	-0.051173043
107	0xbca13937	-0.019680602
108	0xbb5c4e16	-0.0033615879
109	0xbd2ca2a7	-0.042147305
110	0x3e2a736a	0.1664559
111	0x3d036b30	0.032084644
112	0xbcbcd594	-0.02305106
113	0xba49b3ff	-0.0007694363
114	0xbbce6c54	-0.006299535
115	0xbca02f9e	-0.019553956
116	0xbc3e9718	-0.011632703
117	0x3c27f4c9	0.010251232
118	0xbd03ed44	-0.032208696
119	0x3c30f335	0.010800173
120	0xbc72aff7	-0.014812461
121	0x3c47c903	0.012193921
122	0xbcbd9a41	-0.023144843
123	0xbca29fb0	-0.019851536
124	0xbd44c047	-0.048034932
125	0xbcd7dacd	-0.02634945
126	0x3c7b6c12	0.01534559
127	0x3b64f6eb	0.0034937214
128	0xb9ba8a76	-0.00035579846
129	0x3c0b4935	0.008501341
130	0x3e0adb07	0.13560115
131	0xbe55ab9d	-0.20866247
132	0x3d5721bc	0.052522406
133	0xbd6d9737	-0.058005538
134	0xbc07db7a	-0.008292073
135	0x3cbe7715	0.023250142
136	0xbe08d1b2	-0.13361242
137	0xbbf607cb	-0.007508253
138	0x3c908518	0.017641589
139	0x3e8fa6cd	0.28056946
140	0x3ddc0999	0.10744018
141	0xbcb6c356	-0.02230994
142	0xbd61b3c7	-0.05510309
143	0x3ce1f6e5	0.027583549
144	0xbb29ccb6	-0.002590937
145	0x3c3a7d84	0.011382464
146	0xbc0b79fc	-0.00851297
147	0x3bad3488	0.005285803
148	0xbce85304	-0.028359897
149	0xbc2d7371	-0.010586605
150	0xbd3ee77e	-0.046607487
151	0x3c2be418	0.0104913935
152	0x3c887f6d	0.016662324
153	0x3ceb436a	0.028718669
154	0x3dea5404	0.11441806
155	0xbdaaf82b	-0.083481155
156	0xbd0687b3	-0.032844257
157	0xbd806a39	-0.0627026
158	0x3d262139	0.040559027
159	0x3d9a65d2	0.07538952
160	0xbcb261eb	-0.021775207
161	0xbb55f32f	-0.003264617
162	0x3cb8bd19	0.022551106
163	0x3c9f0466	0.019411277
164	0x3c99dbb3	0.018781519
165	0xbee474fe	-0.44620508
166	0x3d991bb0	0.07475984
167	0x3bc7e026	0.0060997186
168	0x3bdf21d2	0.0068094516
169	0x3cfa5b8b	0.03056123
170	0x3c2c3e14	0.010512847
171	0xbc74d2c1	-0.014942826
172	0x3c77ff28	0.015136518
173	0x3d1a786c	0.0377125
174	0x3bebd9bf	0.007197588
175	0x3b983e1c	0.004646076
176	0x3adc7e67	0.0016822339
177	0xbc0c861a	-0.008576894
178	0xbd1dbef1	-0.038512174
179	0x3a11f9eb	0.0005568552
180	0xbc884ea7	-0.016639067
181	0x3cc649d1	0.02420512
182	0x3c4e7114	0.012600202
183	0x3c9f3333	0.019433593
184	0x3da0113c	0.07815787
185	0x3ca68045	0.020324836
186	0x3ca432ca	0.02004375
187	0x3d247b8e	0.040156893
188	0x3cf6de8d	0.030135417
189	0x3d8b4327	0.06799918
190	0x3dfa17b3	0.122115515
191	0x3c9d4776	0.019199114
192	0x3b8eb188	0.0043546595
193	0xbd8ad795	-0.067794
194	0x3d1818e9	0.03713313
195	0x3c84d17f	0.016213177
196	0x3c66db7e	0.014090417
197	0x3c6659ce	0.014059497
198	0x3d302485	0.043003578
199	0xbcce4cf7	-0.025183184
200	0xbcc424c9	-0.023943322
201	0x3d1b92d5	0.037981827
202	0x3e178928	0.14798415
203	0xbba5c74b	-0.005059158
204	0xbb82b72d	-0.0039891214
205	0x3d132e87	0.035933044
206	0x3cd78889	0.026310222
207	0xbb9381f4	-0.0045015756
208	0xbdcab415	-0.09897629
209	0xbcba2d1d	-0.02272659
210	0xbb6a424a	-0.0035745078
211	0x3da0ae30	0.07845724
212	0xbd0a0be3	-0.033702742
213	0xbc899eb2	-0.016799305
214	0xbdba1c57	-0.09087437
215	0x3d287ec7	0.04113653
216	0x3d511370	0.051043928
217	0xbc7dc318	-0.0154884085
218	0xbc0ab5a5	-0.008466159
219	0xbcf86d33	-0.030325508
220	0xbd83ac27	-0.0642932
221	0x3b91840b	0.0044407896
222	0xbc439201	-0.0119366655
223	0x3d0233ea	0.03178779
224	0xbce4315d	-0.02785557
225	0xbcd3b28c	-0.025841974
226	0x3da24818	0.07923907
227	0x3d92ad4c	0.0716196
228	0x3ae072cb	0.0017124055
229	0xbd98636f	-0.074408405
230	0x3d93171d	0.07182143
231	0xbc9d92f6	-0.019235115
232	0xb997ddae	-0.0002896613
233	0x3c54a9ec	0.012979966
234	0x3c70c1b0	0.014694616
235	0x3cfcec6a	0.03087445
236	0x3cf0ece9	0.029409843
237	0xbc02336a	-0.007946828
238	0x3dad65d8	0.08466691
239	0xbd5e5201	-0.054277424
240	0xbc2080bf	-0.00979632
241	0xbd182ea7	-0.037153866
242	0xbd1fe81b	-0.039039712
243	0x3c85ebdd	0.01634782
244	0xbd38efc8	-0.04515055
245	0xbc5c7a7c	-0.013456937
246	0x3d273e39	0.040830825
247	0xbdafb411	-0.08579267
248	0xbc2de05e	-0.010612575
249	0xbba41d5c	-0.0050083827
250	0xbd06d1ed	-0.032915045
251	0xbb6ac9c6	-0.0035825833
252	0x3d17f172	0.037095495
253	0x3d127ecf	0.035765465
254	0xbe4618c6	-0.19345388
255	0xbdddfc46	-0.10839133

backbone.1.conv3x3.bias f4 [32]
0	0xbd5856f2	-0.052817293
1	0x3d6c93b4	0.05775805
2	0x3d2b41db	0.04181085
3	0xbd3ad868	-0.045616537
4	0x3d3befc6	0.045882963
5	0xbd613fc4	-0.054992452
6	0x3d20a210	0.039217055
7	0x3d28d97d	0.041223038
8	0x3d16c540	0.036809206
9	0x3cd2e8ab	0.02574571
10	0xbd165492	-0.036701746
11	0xbcd1cfdd	-0.025611812
12	0x3c4fbebc	0.012679752
13	0x3cbd3295	0.023095408
14	0x3d533be8	0.051570803
15	0x3b2b803e	0.0026168968
16	0x3cc87f70	0.02447483
17	0xbd36e597	-0.044652548
18	0xbc49aecd	-0.012309742
19	0x3d0ea8aa	0.03482882
20	0x3bb919d6	0.005648832
21	0x3d3e612f	0.0464794
22	0xbd403999	-0.04692993
23	0xbd23633c	-0.03988956
24	0x3c9ac63e	0.018893357
25	0xbb29f241	-0.0025931748
26	0xbd4d17ea	-0.050071634
27	0x3ccab57f	0.024744747
28	0x3b2c7a96	0.0026318184
29	0x3c7307eb	0.014833431
30	0x3c4e2e0f	0.012584223
31	0xbd2588cc	-0.040413663

backbone.1.bn.weight f4 [32]
0	0x3f9d1398	1.2271605
1	0x3f7ef38b	0.9959037
2	0x3f84ae05	1.0365607
3	0x3f787e33	0.97067565
4	0x3f970b2e	1.1800287
5	0x3f6f9f15	0.93602115
6	0x3f5b033f	0.8555183
7	0x3fad0480	1.3516998
8	0x3faa96b8	1.3327246
9	0x3fb6b617	1.427432
10	0x3fbc7e3c	1.4726024
11	0x3f4b5652	0.7942859
12	0x3f881d62	1.0633967
13	0x3f736683	0.95078295
14	0x3f79b856	0.975469
15	0x3f816261	1.0108148
16	0x3fb3e2ed	1.4053627
17	0x3f5e0321	0.86723524
18	0x3f76bad9	0.96378857
19	0x3f748157	0.95509857
20	0x3f7315f1	0.94955355
21	0x3f6a879a	0.9161316
22	0x3f77ed0d	0.96846086
23	0x3f84ea67	1.0384034
24	0x3f737ac9	0.9510923
25	0x3f55b708	0.8348241
26	0x3f6a0455	0.9141286
27	0x3f73d9c6	0.9525417
28	0x3f6caf03	0.92454547
29	0x3f8333ad	1.0250145
30	0x3f8995a0	1.0748787
31	0x3f6c7760	0.9236965

backbone.1.bn.bias f4 [32]
0	0xbe3e565f	-0.18587635
1	0xbde39166	-0.11111717
2	0xbf0b11c4	-0.54323983
3	0x3d6a2fee	0.057174616
4	0xbdb2bc8d	-0.087273695
5	0xbdf1ae8c	-0.1180087
6	0xbe0f13e5	-0.13972433
7	0xbe7d75c3	-0.24751954
8	0xbe91e07d	-0.28491583
9	0xbe3a36b6	-0.18184933
10	0xbec937d6	-0.39300412
11	0x3ca73fcd	0.020416165
12	0xbecba333	-0.3977295
13	0xbe55dca9	-0.20884956
14	0xbda166f5	-0.078809656
15	0x3e0e202f	0.13879465
16	0xbec333fb	-0.38125595
17	0xbd78c4c0	-0.06073451
18	0x3dbf42d6	0.0933892
19	0xbe5a522c	-0.21320409
20	0xbdcc28a8	-0.09968692
21	0xbdc20919	-0.094743915
22	0xbebc2cf6	-0.36753052
23	0xbb94ed7e	-0.004544913
24	0xbc310e45	-0.010806625
25	0xbebdc46e	-0.37063926
26	0xbd55724a	-0.052110948
27	0xbeaee87f	-0.34161755
28	0x3cc45a01	0.023968698
29	0xbe3a1ecc	-0.1817581
30	0xbe3dadba	-0.18523303
31	0xbe395c41	-0.18101598

backbone.1.bn.running_mean f4 [32]
0	0xbf281f11	-0.65672404
1	0x3d535dcd	0.051603127
2	0x3f01813b	0.50587815
3	0xbf2b8ac7	-0.6700863
4	0xbf123163	-0.5710661
5	0xbf903492	-1.1266043
6	0x3ed7c9dd	0.42146197
7	0xbe8c8cb9	-0.27451113
8	0xbef53819	-0.47894362
9	0x3e647b8b	0.22312753
10	0xbf23bfe9	-0.63964707
11	0xbf2a0742	-0.66417325
12	0xbd078992	-0.03309018
13	0x3e81d182	0.25355154
14	0xbf6a116b	-0.9143283
15	0xc000902b	-2.0087993
16	0xbe9c8d9a	-0.30576783
17	0xbfd02ec6	-1.6264274
18	0xbfe9b860	-1.8259392
19	0xbe9d0c9b	-0.3067368
20	0x3f8ad139	1.08451
21	0x3ee3d9bb	0.44502053
22	0x3f5c5b24	0.8607657
23	0xbda92082	-0.082581535
24	0xbf5897b6	-0.8460649
25	0x3ff33695	1.9001032
26	0xbf967aec	-1.1756263
27	0x3ff3b22f	1.9038752
28	0xbff5a8ac	-1.91921
29	0xbe964979	-0.2935293
30	0x3f14dbaa	0.5814768
31	0xbfa0ea4d	-1.2571503

backbone.1.bn.running_var f4 [32]
0	0x3ea39a9f	0.31953904
1	0x3dfaaf94	0.1224052
2	0x3e21769c	0.15767902
3	0x3f870a3e	1.0550001
4	0x3edf090e	0.43561596
5	0x3f6c94e8	0.9241471
6	0x3e9e63a3	0.30935392
7	0x3e9d601f	0.30737397
8	0x3ecc6b52	0.3992563
9	0x3f1ea597	0.6197142
10	0x3f2692ec	0.65067935
11	0x3f06f93d	0.5272406
12	0x3e81d8b2	0.25360638
13	0x3e21d714	0.15804702
14	0x40188f2a	2.383738
15	0x3fa9d09d	1.3266789
16	0x3eb077d6	0.34466428
17	0x3f042bfa	0.516296
18	0x3f4ace52	0.7922107
19	0x3e82933e	0.25502962
20	0x3ef68707	0.48149893
21	0x3fc8654f	1.5655917
22	0x3fb4fc01	1.4139405
23	0x3e2411f3	0.16022472
24	0x3f1357e9	0.57556015
25	0x3f8c4fd4	1.0961862
26	0x3f50d91e	0.81581295
27	0x40002223	2.0020835
28	0x4058ec95	3.3894398
29	0x3f4158c0	0.75526047
30	0x3e8c985b	0.27459988
31	0x3ec6fa8d	0.3886303

backbone.2.conv3x3.weight f4 [32, 32, 3, 3]
0	0x3a2c2cc4	0.000656795
1	0x3d337736	0.04381486
2	0x3cbbc3b9	0.022920476
3	0x3bf3a722	0.0074356953
4	0x3d4066d4	0.046973065
5	0xbbb38ef2	-0.005479687
6	0x3cc1f6be	0.023677226
7	0x3dde0701	0.1084118
8	0x3c0c3f06	0.008559948
9	0x3bc55c60	0.006022975
10	0x3d32ffb0	0.043700874
11	0x3b797a48	0.003806727
12	0x3cacdf83	0.021102672
13	0x3bf643d7	0.0075154114
14	0x3d5aa54d	0.0533803
15	0xbcb9da60	-0.022687137
16	0xbd4261e5	-0.04745664
17	0x3b6d3372	0.0036193994
18	0xbcd3ba69	-0.025845723
19	0x3d87d07d	0.06631563
20	0xbd5b480d	-0.05353551
21	0xbd15c661	-0.036566142
22	0x3de707b2	0.11280765
23	0x3d6d1a1c	0.057886228
24	0x3ca93311	0.020654233
25	0xbd0ea7b2	-0.034827895
26	0xbd41f75b	-0.047355037
27	0x3d97a93b	0.07405325
28	0xbce6d723	-0.028178757
29	0x3c96e839	0.01842128
30	0x3d7fafcb	0.06242351
31	0x3d9dd6f9	0.077070184
32	0x3d4a2f50	0.049361527
33	0xbd2020f6	-0.039093934
34	0xbc8a6dd8	-0.01689808
35	0xbc94f610	-0.018183738
36	0xba8181f3	-0.0009880647
37	0x3d762b6f	0.060100015
38	0x3d92d4e7	0.07169514
39	0x3d0d3ceb	0.034481924
40	0xbd1590b5	-0.036514957
41	0xbcd56c66	-0.026052665
42	0x3b407298	0.0029365178
43	0xbc8b0606	-0.016970646
44	0x3d4cc035	0.04998799
45	0xbd349c03	-0.044094097
46	0xbc44ba11	-0.012007252
47	0x3c94f828	0.018184736
48	0xbd2736f3	-0.040823888
49	0xbd57625a	-0.05258403
50	0xbcfe3d48	-0.03103508
51	0x3d2e7208	0.042589217
52	0xbc1eba8c	-0.009688031
53	0xbc66fdd7	-0.014098606
54	0xbcb9747f	-0.022638557
55	0x3c4c394d	0.012464833
56	0xbba577f1	-0.0050496985
57	0xbb0bf094	-0.0021353113
58	0x3d802a8e	0.06258117
59	0x3d58f06e	0.052963667
60	0xbd4a6617	-0.049413767
61	0xbc9f2f65	-0.01943178
62	0xbc54d002	-0.012989046
63	0xbbfa7273	-0.007643038
64	0xbbd76988	-0.0065738596
65	0x3b26d8d1	0.0025458822
66	0xbc696c75	-0.01424705
67	0x3c603a98	0.013685845
68	0xbc1d8daf	-0.0096162995
69	0xbcd020fe	-0.025406357
70	0x3e2bcbcf	0.16776966
71	0x3c919b1a	0.017774154
72	0xbaf18467	-0.00184263
73	0xbc9e49f9	-0.019322382
74	0x3b8a7e58	0.004226487
75	0x3e372802	0.17886356
76	0x3db5b51b	0.08872434
77	0x3c0ca9f6	0.008585444
78	0x3cc419ea	0.023938138
79	0xbcd6ce19	-0.026221322
80	0xbc082cb1	-0.0083114365
81	0x3c9d151f	0.01917511
82	0xbcd8fd2f	-0.026487915
83	0xbd1e8229	-0.03869835
84	0xbd43f018	-0.047836393
85	0x3e25e54b	0.1620075
86	0x3d8c270b	0.06843384
87	0xbc860848	-0.01636137
88	0xbc3c04c7	-0.011475748
89	0xbd0ff6bb	-0.03514741
90	0xbce7aac0	-0.028279662
91	0xbda0f3dd	-0.07859013
92	0xbc9d3956	-0.019192379
93	0x3eaaf8e8	0.33393025
94	0x3dc81906	0.09770398
95	0xbcac5aee	-0.021039452
96	0xbcde04de	-0.02710193
97	0xbcc9ba13	-0.02462486
98	0xbc7e1bc1	-0.015509547
99	0xbc5e1c2d	-0.013556522
100	0x3a2a75ed	0.00065025577
101	0xbc5d7f64	-0.013519142
102	0x3c48fb81	0.012266994
103	0xbc8c0335	-0.017091373
104	0x3d34a111	0.044098917
105	0x3af22648	0.0018474543
106	0xb920bf62	-0.00015330085
107	0xbc3b35cb	-0.011426399
108	0x3bf4bf00	0.007469058
109	0x3e01943c	0.12654203
110	0x3d943a1c	0.07237646
111	0x3c37dacf	0.011221602
112	0x3c3bc03d	0.011459407
113	0xbcd1491c	-0.025547557
114	0x3c6ba424	0.014382396
115	0x3aa3025b	0.0012436615
116	0xbc1aaccf	-0.009440615
117	0xbc947b30	-0.018125147
118	0xbb001a54	-0.0019546943
119	0xbd0941ed	-0.033510137
120	0x3b918a6a	0.004441549
121	0x3dcb7741	0.09934855
122	0xbc8aba87	-0.016934646
123	0x3c10a230	0.008827731
124	0x3c809d55	0.015700022
125	0xbd77109b	-0.06031857
126	0x3d16f2b8	0.03685257
127	0xbbe4ed9f	-0.0069863345
128	0xbd25bc87	-0.040462997
129	0x3d9b4f1b	0.075834475
130	0x3d93dc79	0.07219786
131	0x3e00deba	0.12584963
132	0x3d1d3e8e	0.038389735
133	0x3d3d2963	0.046182048
134	0x3b9a281d	0.004704489
135	0x3ddc4156	0.10754649
136	0x3d5bf43f	0.053699728
137	0x3de7b5ac	0.11313948
138	0x3de751b4	0.112948805
139	0x3dc034ea	0.093850926
140	0x3e217668	0.15767825
141	0xbd1c64d3	-0.03818209
142	0xbb65ec42	-0.0035083448
143	0xbc829dda	-0.01594441
144	0x3c20280b	0.009775172
145	0xbb9164e1	-0.0044370745
146	0xbca3ba21	-0.019986214
147	0x3c6f34d4	0.014599998
148	0xbc986d24	-0.01860673
149	0x3e05515c	0.13019317
150	0x3c558866	0.013033008
151	0x3c21ec80	0.009883046
152	0xbb922731	-0.0044602384
153	0xb854815a	-5.0665207e-05
154	0x3c4fbdb3	0.012679505
155	0x3d61107f	0.054947373
156	0x3b261508	0.0025342125
157	0xbbc65f9f	-0.0060538794
158	0x3bf63ab3	0.0075143217
159	0x3d3930ae	0.04521244
160	0xbccf4303	-0.025300508
161	0xbce3cab1	-0.027806612
162	0xbcd53715	-0.026027242
163	0xbd2e5529	-0.042561684
164	0xbcde37e7	-0.027126266
165	0xbd07e413	-0.033176493
166	0xbd287cf8	-0.041134804
167	0xbc6cd5ce	-0.014455272
168	0xbcf93c53	-0.030424273
169	0xbc94dda4	-0.018172093
170	0x3cf8673f	0.03032267
171	0xbb8641f4	-0.0040972177
172	0xbbf3bcf5	-0.007438297
173	0x3ce20a7a	0.027592886
174	0x3cc97059	0.024589704
175	0xbaaa7293	-0.0013004116
176	0x3d00082b	0.03125779
177	0x3cd862ff	0.026414393
178	0x39802ced	0.00024447535
179	0x3c6479ee	0.013945086
180	0xbce657d3	-0.02811805
181	0xba47e239	-0.00076249574
182	0x3c7d9e2c	0.015479606
183	0x3cc5886c	0.024112903
184	0x3d77f928	0.06054035
185	0x3d199fc2	0.037505873
186	0xbd3786cd	-0.04480629
187	0x3dc891ca	0.09793432
188	0x3cbe1260	0.023202121
189	0x3cfc7302	0.030816559
190	0x3b4eaf32	0.003153753
191	0x3ca1b6e0	0.019740522
192	0xbd2f3ef8	-0.04278466
193	0x3d10bbf0	0.03533548
194	0x3d9feba2	0.07808615
195	0x3c336edd	0.010951725
196	0x3da1d691	0.079022534
197	0x3b6cc7e3	0.0036129884
198	0x3d9cd77f	0.0765829
199	0x3e012b26	0.12614116
200	0x392126c0	0.00015368592
201	0x3d32d140	0.043656588
202	0x3e40b1e4	0.1881786
203	0x3d83b137	0.064302854
204	0xbd1da98d	-0.038491774
205	0x3d21c3a6	0.039493226
206	0xbda8e00f	-0.08245861
207	0xbc0592ea	-0.008152703
208	0x3cc112b0	0.023568481
209	0x3d1426b4	0.036169723
210	0xbcc47dd1	-0.023985775
211	0x3cef1f76	0.029189806
212	0x3d304c4e	0.04304152
213	0xbc59f14d	-0.0133021595
214	0xbb8b6537	-0.004254009
215	0x36e05adb	6.686297e-06
216	0xbccd5f17	-0.025069756
217	0x3c45910a	0.012058506
218	0x3c6fe09c	0.014640953
219	0x3cd1823c	0.025574796
220	0x3dae7d6a	0.085200146
221	0xbd994777	-0.07484334
222	0xbcef4927	-0.029209686
223	0x3dde9dde	0.108699545
224	0xbce4db0d	-0.027936483
225	0x3cb61035	0.022224525
226	0x3ceb17e8	0.028697923
227	0x3c682853	0.01416977
228	0xbd612d1f	-0.05497467
229	0x3c892edc	0.016745977
230	0x3d062c63	0.032757174
231	0xbcb9cf2f	-0.0226818
232	0x3c31bbc3	0.010847989
233	0x3cd7b7ec	0.026332818
234	0x3d14e323	0.036349427
235	0x3d216f11	0.03941256
236	0xbd6b7d7e	-0.057492726
237	0xbdb35941	-0.08757258
238	0xbbb75a74	-0.0055954996
239	0x3cf45c19	0.029829072
240	0x3c6879ff	0.014189242
241	0xbc6dabd5	-0.0145063
242	0x3cd18e89	0.025580661
243	0x3cfaeb58	0.030629799
244	0x3d7c503d	0.06159996
245	0xbcbe827d	-0.023255581
246	0x3d4f6b08	0.050639182
247	0x3d7b9b6c	0.06142752
248	0xbd3437a7	-0.043998387
249	0x3cf48176	0.029846888
250	0x3db42601	0.08796311
251	0xbcc5dbc2	-0.02415264
252	0x3b2489f6	0.0025106645
253	0xbc391548	-0.011296578
254	0xbc5621e4	-0.013069604
255	0x3cc1d5f2	0.023661587

backbone.2.conv3x3.bias f4 [32]
0	0xbd32919a	-0.043595888
1	0x3ce9b3d3	0.02852813
2	0xbd325cda	-0.04354558
3	0xbd395c98	-0.04525432
4	0xbd2eb5c0	-0.0426538
5	0xbd44058a	-0.047856845
6	0x3d394a20	0.045236707
7	0xbcd89b82	-0.02644134
8	0x3d142e0e	0.036176734
9	0xbc850560	-0.016237915
10	0xbc8fcb55	-0.017553011
11	0xbc7ff52c	-0.015622418
12	0xbd43e2f9	-0.04782388
13	0x3c89987f	0.016796349
14	0xbcc25234	-0.023720838
15	0x3c900bf7	0.01758383
16	0xbd4ddfbf	-0.05026221
17	0x3c10b54b	0.008832286
18	0x3d463b23	0.04839624
19	0xbc922d80	-0.017843962
20	0x3c5072ca	0.01272268
21	0xbd709bc9	-0.05874232
22	0xbcc49672	-0.02399752
23	0x3d4743c1	0.0486486
24	0x3cbed2f0	0.023293942
25	0x3cb436c9	0.02199878
26	0x3cd369e0	0.025807321
27	0xbc4662e4	-0.012108538
28	0xbcccb2fa	-0.024987686
29	0x3d623c7d	0.055233467
30	0xbcafb3b8	-0.021448001
31	0xbb9a600f	-0.004711158

backbone.2.bn.weight f4 [32]
0	0x3f6cf48e	0.9256066
1	0x3f87de6c	1.0614753
2	0x3fa474b3	1.2848114
3	0x3f68a632	0.90878594
4	0x3f6d363e	0.9266089
5	0x3f7fd093	0.99927634
6	0x3f78dd92	0.9721309
7	0x3f9063fa	1.128051
8	0x3f83d623	1.0299724
9	0x3f7c8063	0.986334
10	0x3f6e6893	0.9312832
11	0x3f6c4c71	0.9230414
12	0x3f67921b	0.90457314
13	0x3f77af59	0.96751934
14	0x3f75b42b	0.9597804
15	0x3fb515a4	1.4147229
16	0x3f5fb431	0.87384325
17	0x3f7d126e	0.98856246
18	0x3f6ba6c3	0.92051333
19	0x3f95ba36	1.1697452
20	0x3f6254d7	0.88410705
21	0x3f81d3da	1.0142777
22	0x3f5f3c95	0.87201816
23	0x3f72bda8	0.9482064
24	0x3f5dd865	0.86658317
25	0x3f69f1f6	0.9138483
26	0x3f6e62f1	0.9311972
27	0x3f67a526	0.9048637
28	0x3f8eb9f7	1.1150502
29	0x3f6f7598	0.9353881
30	0x3f801d41	1.0008928
31	0x3f6d3277	0.9265513

backbone.2.bn.bias f4 [32]
0	0xbee030af	-0.43787143
1	0xbc1d7b91	-0.00961198
2	0xbe88cad1	-0.26717237
3	0x3c6cc262	0.014450641
4	0xbefd8f6f	-0.49523494
5	0x3c080fc8	0.008304544
6	0x3c97383c	0.018459432
7	0x3d9e32bf	0.07724523
8	0x3c8f31e5	0.017479846
9	0xbea11197	-0.31458732
10	0xbdd24aca	-0.10268171
11	0x3dbb4373	0.09143724
12	0xbea5325c	-0.32264984
13	0xbe443ef1	-0.19164635
14	0xbec9aa04	-0.39387524
15	0xbea01eee	-0.31273597
16	0xbebec068	-0.3725617
17	0xbcf2f48e	-0.029657628
18	0xbf00c4f3	-0.5030052
19	0xbe8b3fc2	-0.2719708
20	0xbecf7629	-0.40519837
21	0xbc96b948	-0.018398896
22	0xbddedc95	-0.108819164
23	0xbecdb279	-0.40175226
24	0xbd7118bd	-0.058861483
25	0xbe4e9125	-0.20172556
26	0xbec2b61b	-0.3802956
27	0xbe8352e6	-0.25649184
28	0xbe8fcb86	-0.28084964
29	0xbe386eaf	-0.18010972
30	0x3d09f473	0.03368039
31	0xbd76254d	-0.060094167

backbone.2.bn.running_mean f4 [32]
0	0x3f149b37	0.5804934
1	0x3c868ae8	0.016423658
2	0xbab0efb4	-0.0013499171
3	0xbf59c919	-0.85072476
4	0xbc281e8e	-0.010261191
5	0xbe516c9d	-0.20451589
6	0xbf3f7619	-0.7478958
7	0xbe1c55f4	-0.15267164
8	0xbf3b8084	-0.73242974
9	0xbf05e8fd	-0.52308637
10	0xbf0a2c9d	-0.53974324
11	0xbf1d7520	-0.61506844
12	0x3d9aa518	0.075510204
13	0x3d746232	0.05966396
14	0x3db8b168	0.090182126
15	0xbe24c326	-0.16090068
16	0x3ea9cf8d	0.3316616
17	0xbe483f6f	-0.19555448
18	0x3ecfc937	0.40583202
19	0xbe365ab5	-0.1780804
20	0xbe321b80	-0.17393303
21	0x3d992b2f	0.0747894
22	0x3e083581	0.1330166
23	0x3ef3678a	0.47539932
24	0x3d6b3ece	0.057432942
25	0x3e5dee22	0.21672872
26	0xbd8cf209	-0.06882102
27	0x3efa236c	0.4885515
28	0x3e1ce6b7	0.15322386
29	0xbed4a38c	-0.41531026
30	0xbf4dfa3d	-0.8045996
31	0xbf23a26b	-0.63919705

backbone.2.bn.running_var f4 [32]
0	0x3f61fe6a	0.8827883
1	0x3f8183e1	1.0118371
2	0x3f705d54	0.9389241
3	0x3f6307f8	0.88684034
4	0x3f02fcfb	0.5116727
5	0x3e6cdeb4	0.2313183
6	0x3fbf7616	1.4957912
7	0x3f46058c	0.77352214
8	0x400284a8	2.0393467
9	0x3fb4f301	1.4136659
10	0x3f94ff04	1.1640325
11	0x3f0c534a	0.5481459
12	0x3f182b49	0.5944105
13	0x3f7e0b68	0.99236155
14	0x3f1e8ad5	0.6193059
15	0x3eb5f5ac	0.35538995
16	0x3f2a9067	0.6662659
17	0x3f8072b5	1.0035006
18	0x3f075fd5	0.52880603
19	0x3f26571d	0.64976674
20	0x3f9f0b55	1.2425333
21	0x3f5b206a	0.85596335
22	0x3ee219a1	0.44160178
23	0x3e9f9c19	0.3117378
24	0x3f0c1970	0.54726315
25	0x3f3c5c50	0.7357836
26	0x3f699c57	0.9125418
27	0x3f434aa4	0.7628577
28	0x3f23784b	0.6385543
29	0x3f9a8bfd	1.2073971
30	0x3fdbf3d7	1.7183789
31	0x3f73ecd7	0.95283264

backbone.3.conv3x3.weight f4 [32, 32, 3, 3]
0	0xbd2747b3	-0.040839862
1	0x3d1c46cc	0.038153455
2	0x3d424758	0.04743132
3	0x3c8206b5	0.015872339
4	0x3ced1e11	0.028945
5	0xbcb603ae	-0.022218551
6	0xbd777f6d	-0.060424257
7	0x3d878c9b	0.06618615
8	0x3d7fcb44	0.06244971
9	0x3cf0f8f3	0.029415583
10	0x3ac4dea6	0.0015019968
11	0x3dd51cf9	0.10405917
12	0x3cb43718	0.021998927
13	0xbde9048a	-0.11377819
14	0xbd57f320	-0.052722096
15	0xbe01da9f	-0.12681054
16	0xbdc1ea3b	-0.09468504
17	0xbd02fd15	-0.03197964
18	0x3adbba24	0.0016763848
19	0x3bbe6665	0.005810546
20	0x3d0a589e	0.03377592
21	0xbc1fa6b6	-0.009744337
22	0xbcb7dcfd	-0.022444243
23	0xbd7219f6	-0.05910679
24	0xbd0aa1d8	-0.033845752
25	0x3d8ff49f	0.0702908
26	0xbd348fd6	-0.044082485
27	0xbc51b0da	-0.012798512
28	0xbba78403	-0.0051121726
29	0x3de02ea9	0.109464
30	0xbd0398ae	-0.03212803
31	0x3e116572	0.14198855
32	0x3dac3ee6	0.084104344
33	0x3d665a9a	0.056238748
34	0x3dbf9bf3	0.09355917
35	0x3d554ab1	0.052073184
36	0x3cdde9e3	0.027089065
37	0x3c03b22c	0.008038085
38	0x3d9a8e88	0.07546717
39	0xbbddd6bc	-0.006769983
40	0xbd66703a	-0.05625937
41	0x3e11daa4	0.14243561
42	0x3c4714dc	0.012150969
43	0x3d996708	0.07490355
44	0xbc1ffc12	-0.009764688
45	0xbe01600f	-0.126343
46	0xbb5eca41	-0.0033995064
47	0xba811592	-0.0009848347
48	0xbdc8173e	-0.09770058
49	0x3c829efa	0.015944947
50	0x3c551b45	0.01300699
51	0x3bdacdea	0.006677379
52	0x3a975966	0.0011547029
53	0xbd23fa2b	-0.0400335
54	0x3d8359b3	0.06413593
55	0x3d34824d	0.044069577
56	0xbca21375	-0.019784668
57	0x3d49b3c0	0.04924369
58	0xbd508729	-0.05091015
59	0xbdafd51a	-0.08585568
60	0xbd6774b8	-0.056507796
61	0xbe302bc6	-0.17204198
62	0xbe087d7d	-0.1332912
63	0xbd5af52e	-0.053456478
64	0x3dc84eea	0.09780677
65	0xba96eafb	-0.0011514121
66	0x3d0f95d3	0.035054993
67	0xbde04c39	-0.10952038
68	0x3c91a001	0.017776491
69	0x3cdc4d17	0.026892228
70	0x3aba5f0f	0.0014219003
71	0xbbe29d96	-0.0069157584
72	0xbd1dd1ce	-0.038530163
73	0xbd6eff48	-0.058348924
74	0x3c038332	0.008026885
75	0x3ca7cc40	0.020483136
76	0xbdbf1ec5	-0.09332041
77	0x3bc77029	0.0060863686
78	0xbcba053a	-0.02270757
79	0xbd944c61	-0.072411306
80	0xbb555e65	-0.0032557484
81	0x3cd902f0	0.026490659
82	0x3d7fd869	0.062462244
83	0xbc296127	-0.010338104
84	0x3d499adf	0.049219962
85	0x3cc2dcff	0.02378702
86	0xbcaca08c	-0.021072648
87	0x3cd8013b	0.026367774
88	0xbb118246	-0.0022202893
89	0x3c00ff95	0.0078734355
90	0x3d07b4b6	0.033131324
91	0x3bfedfcc	0.0077781435
92	0xbc542417	-0.012948058
93	0x3d5b7a06	0.053583167
94	0xbd4657bb	-0.04842351
95	0x3e09caa6	0.1345621
96	0x3c9222c4	0.017838843
97	0x3d939c20	0.07207513
98	0xbcf882fd	-0.030335898
99	0xbc4325a2	-0.011910828
100	0x3cceaca8	0.025228813
101	0xbb739365	-0.0037166711
102	0x3c5e13ed	0.013554555
103	0xbb0d9b74	-0.002160755
104	0x3d3e7720	0.046500325
105	0xbc73b637	-0.014874986
106	0x3cac936d	0.021066392
107	0xbcd43cbb	-0.025907865
108	0xbd308784	-0.043097988
109	0x3c8d4728	0.017245844
110	0xbb45a0b1	-0.0030155594
111	0x3c115cc2	0.008872213
112	0x3c9d6244	0.019211896
113	0x3c0e477a	0.0086840335
114	0x3d749fce	0.059722714
115	0xb977f009	-0.00023645176
116	0xbc87a646	-0.016558778
117	0xbdfe30fc	-0.12411687
118	0x3da7ebab	0.08199247
119	0xbe184a3c	-0.14872068
120	0xbb23d0be	-0.0024996246
121	0xbda38e8c	-0.07986173
122	0x3c90b630	0.017664999
123	0x3d9e53d5	0.077308334
124	0xbc3b6023	-0.011436495
125	0xbcaaac84	-0.020834215
126	0x3c2f3292	0.010693209
127	0x3d1ffc6e	0.039059095
128	0x3d1a38c7	0.037651803
129	0x3d9eacd5	0.07747809
130	0x3d41083e	0.047127
131	0x3df51312	0.11966528
132	0x3c954162	0.018219654
133	0x3ca5235d	0.020158464
134	0x3cfbba90	0.030728608
135	0xbce216c5	-0.027598748
136	0x3e191a29	0.14951386
137	0x3d6b00cd	0.05737381
138	0x3ddfaac2	0.10921241
139	0x3cd4a1b2	0.025956009
140	0xbd2e2848	-0.042518884
141	0x3b6c6f55	0.0036077101
142	0x3e2095bf	0.15682124
143	0xbd3ad6c2	-0.045614965
144	0xba42237b	-0.00074057997
145	0xbcd31183	-0.025765186
146	0xbd763edc	-0.06011854
147	0xbc409ff8	-0.0117568895
148	0xbdcbd12b	-0.09952005
149	0x3d308610	0.043096602
150	0x3d1a2676	0.037634335
151	0xbb477df7	-0.003044007
152	0xbcb85363	-0.0225007
153	0xbc14783c	-0.009061869
154	0xbc1aafb1	-0.009441302
155	0xb9086ec5	-0.00013011236
156	0xbcf84675	-0.030307034
157	0x3cf3a0f4	0.029739834
158	0xbd3a5262	-0.045488723
159	0x3d06751c	0.032826528
160	0xbc1e909b	-0.009678031
161	0x3cd8bc9b	0.026457122
162	0x3d3e0d21	0.04639924
163	0x3c9690b5	0.018379549
164	0xbd8048ed	-0.062639095
165	0xbc29b3b7	-0.010357789
166	0x3d54f9e6	0.051996134
167	0xbd2a43ed	-0.041568685
168	0x3cef9d93	0.029249942
169	0x3d847f29	0.064695664
170	0x3c79e9f7	0.0152535355
171	0x3cd597da	0.026073385
172	0xbcc5f0cf	-0.024162678
173	0x3d3de834	0.046364024
174	0xbd544f79	-0.051833604
175	0xbcfa51b2	-0.030556533
176	0x3dcefca9	0.10106785
177	0x3d8b6c41	0.06807757
178	0x3b12565d	0.0022329309
179	0xbcdda5f6	-0.027056675
180	0x3d4340d8	0.04766926
181	0x3bbb21f2	0.0057108337
182	0xbd1ca082	-0.03823901
183	0xbc746a88	-0.014917977
184	0x3d1e5031	0.038650695
185	0xbbcba995	-0.006215284
186	0xbd8f6b88	-0.07002932
187	0xbd373674	-0.044729665
188	0x3c6764d3	0.014123159
189	0xbd18f017	-0.037338343
190	0x3d8f10f2	0.06985654
191	0x3d093b89	0.033504043
192	0x3d9d0a30	0.07667959
193	0x3c17ecd8	0.009272777
194	0x3dbdf590	0.09275353
195	0x3d70bc43	0.05877329
196	0xba940864	-0.0011294005
197	0xbccf42f7	-0.025300486
198	0x3a2aafdb	0.000651119
199	0xbc2f5df4	-0.0107035525
200	0x3b22f1d5	0.0024863381
201	0xbd7bc99f	-0.061471578
202	0xbd94ced4	-0.07266012
203	0x3ce11090	0.027473718
204	0xbd527054	-0.051376656
205	0xbd26301c	-0.040573224
206	0xbda5cc09	-0.08095557
207	0xbc2869f6	-0.010279169
208	0x3d598780	0.05310774
209	0x3ab0d553	0.001349131
210	0xbc3be247	-0.011467523
211	0x3d26d08e	0.040726237
212	0x3ced30c6	0.028953921
213	0xbcd2ae76	-0.025717955
214	0xbc7a9801	-0.01529503
215	0xbcc2a850	-0.023761898
216	0x3d321d49	0.04348496
217	0x3d04dfcd	0.032439996
218	0xbcbd824b	-0.023133418
219	0x3cccdfc3	0.025009042
220	0x3c58d70a	0.013234863
221	0x3b86fcf0	0.004119508
222	0x3bf27872	0.007399612
223	0xbd41553b	-0.047200423
224	0xbc3360ba	-0.010948354
225	0xbc59cd4b	-0.013293575
226	0x39b33a80	0.00034185126
227	0x3d9dab58	0.07698697
228	0x3d49356d	0.049123216
229	0x3d242184	0.040071025
230	0xbce42d7d	-0.027853722
231	0x3b0a0eb2	0.0021065888
232	0x3c96a50e	0.018389251
233	0x3d1ee664	0.038793936
234	0xbc87cf38	-0.016578302
235	0xbd59aaa8	-0.053141266
236	0xbd7f0e27	-0.062269356
237	0x3d881dc6	0.06646304
238	0x3d83f6e6	0.064435765
239	0x3d8bd954	0.068285614
240	0x3c7ca389	0.015419849
241	0x3d276b05	0.040873546
242	0x3ce2427d	0.027619595
243	0x3d187adf	0.037226554
244	0xbca11a72	-0.01966593
245	0xbc95420c	-0.01821997
246	0x3c4173ad	0.011807364
247	0xbd597565	-0.05309047
248	0x3d68e977	0.056863274
249	0x3cd0d11d	0.025490338
250	0xbd037c7d	-0.032101143
251	0x3c4831ee	0.012218935
252	0xbbe93d9b	-0.0071179396
253	0x3e2991fc	0.16559595
254	0xbd0dedf4	-0.034650758
255	0xbc857af1	-0.016293975

backbone.3.conv3x3.bias f4 [32]
0	0x3d13978c	0.0360332
1	0x3b9478da	0.004531008
2	0xbcb35de0	-0.021895349
3	0x3beae150	0.0071679726
4	0xbc977db9	-0.018492566
5	0xbd3fc1c2	-0.04681564
6	0xbc1fe0b8	-0.009758167
7	0xbd712216	-0.058870398
8	0xbc9d210e	-0.0191808
9	0x3c9f11a4	0.019417591
10	0xbd3d60ca	-0.046234883
11	0x3cb3483c	0.02188503
12	0x3d70c4ea	0.058781542
13	0x3c6c9ee0	0.014442176
14	0xbd240dd8	-0.040052265
15	0xbca417b9	-0.020030843
16	0xbc79a053	-0.015235978
17	0xbba044ff	-0.0048910375
18	0xbd2ee7e7	-0.042701628
19	0xbc7cb699	-0.015424394
20	0x3c8e4cf1	0.017370673
21	0xbd5dc12b	-0.054139297
22	0xbd32ac82	-0.043621548
23	0x3ce440ba	0.027862895
24	0xbc552bbe	-0.013010917
25	0xbd02896d	-0.03186934
26	0x3a42cc76	0.000743098
27	0x3d027be1	0.03185642
28	0x3cf56a61	0.029957952
29	0xbc1b5e10	-0.0094828755
30	0xbbf26925	-0.007397788
31	0x3ce514c2	0.027964

backbone.3.bn.weight f4 [32]
0	0x3f69903a	0.912357
1	0x3f8e7667	1.1129884
2	0x3f83be80	1.0292511
3	0x3f844576	1.0333698
4	0x3f748182	0.95510113
5	0x3f809f26	1.0048568
6	0x3f8c5eca	1.0966427
7	0x3f858df9	1.0433952
8	0x3f68957d	0.908531
9	0x3f74880c	0.9552009
10	0x3f8f9e16	1.1220119
11	0x3f8858f1	1.0652143
12	0x3f812525	1.0089461
13	0x3f8745fb	1.0568231
14	0x3f77a2f1	0.96733004
15	0x3f85b7cc	1.0446715
16	0x3f8bdc6c	1.0926642
17	0x3f8433c5	1.0328299
18	0x3f71044d	0.9414719
19	0x3f7a51b2	0.9778091
20	0x3f90016d	1.1250435
21	0x3f6b4183	0.9189684
22	0x3f8f34cb	1.1187986
23	0x3f74ea5a	0.9567009
24	0x3f8516e6	1.0397613
25	0x3f9024da	1.1261246
26	0x3f7ed491	0.995431
27	0x3f742bbe	0.95379245
28	0x3f82c889	1.0217448
29	0x3f697bf7	0.9120478
30	0x3f8e462b	1.1115164
31	0x3f5d71d7	0.8650183

backbone.3.bn.bias f4 [32]
0	0xbe463ad6	-0.19358382
1	0xbe848f6d	-0.25890675
2	0xbe9a6dbc	-0.30161846
3	0xbe1ca437	-0.15297018
4	0xbd17ac41	-0.03702951
5	0xbeb6f6d9	-0.35735205
6	0xbeaa3af0	-0.3324809
7	0xbe0c5ee8	-0.13708079
8	0xbcf8ae04	-0.030356415
9	0xbe31b2d8	-0.1735338
10	0xbe4f3bbe	-0.20237634
11	0x3d20d325	0.039263863
12	0xbda52ad2	-0.08064808
13	0xbda4b688	-0.080426276
14	0xbe176909	-0.14786161
15	0xbe5c56b7	-0.21517454
16	0xbe8a7532	-0.27042538
17	0xbe451233	-0.19245224
18	0xbe54f47a	-0.20796385
19	0xbea69e2a	-0.32542545
20	0x3e1b0853	0.15139894
21	0xbde32afa	-0.110921815
22	0xbcc41535	-0.023935894
23	0x3e7ba695	0.24575265
24	0xbe93d980	-0.28876877
25	0x3d33ee54	0.04392846
26	0xbeaac896	-0.3335616
27	0xbe1bea07	-0.15225993
28	0xbe9df80e	-0.30853313
29	0xbe163f42	-0.14672568
30	0x3df374e6	0.11887531
31	0xbd3d8799	-0.046271894

backbone.3.bn.running_mean f4 [32]
0	0x3cccf811	0.025020631
1	0x3d5a80b7	0.05334541
2	0x3e24fea7	0.16112767
3	0x3dd14160	0.102175474
4	0xbe3870c5	-0.18011768
5	0x3dfd34a4	0.12363556
6	0xbdf902eb	-0.1215876
7	0x3db8a926	0.090166375
8	0xbcef3d74	-0.029204108
9	0x3e366466	0.17811736
10	0xbe80a4c8	-0.25125718
11	0xbe43f990	-0.1913817
12	0x3e79940a	0.24372879
13	0xbe445b79	-0.19175519
14	0xbebd4c5f	-0.3697233
15	0xbec3312e	-0.3812346
16	0xbd01cd28	-0.031689793
17	0x3d655fae	0.05599945
18	0x3c63c522	0.013901981
19	0x3e5235bb	0.20528309
20	0xbe806c34	-0.25082552
21	0x3dbdfc18	0.09276599
22	0xbd96830c	-0.07349214
23	0xbe45bf1e	-0.19311187
24	0xbd840b96	-0.06447522
25	0xbeba3d05	-0.3637468
26	0x3e26bb4f	0.1628239
27	0xbed36449	-0.4128745
28	0xbe688eab	-0.22710674
29	0x3e9e3c3e	0.30905336
30	0xbe63fe08	-0.22264874
31	0xbeaf6c2d	-0.3426222

backbone.3.bn.running_var f4 [32]
0	0x3eb2d62a	0.3492902
1	0x3ed637fd	0.4183959
2	0x3ee4656c	0.4460863
3	0x3e94a73f	0.2903385
4	0x3eb2132e	0.34780258
5	0x3eaf0ba6	0.34188575
6	0x3f034449	0.5127607
7	0x3e819905	0.25312057
8	0x3e91e9cf	0.28498694
9	0x3ef3de25	0.4763042
10	0x3ec0bac5	0.37642494
11	0x3f1a12fa	0.60185206
12	0x3ef99b19	0.48751143
13	0x3e98fe50	0.29881525
14	0x3e9c4607	0.30522177
15	0x3f0ed7b9	0.55797917
16	0x3ec38fc2	0.38195616
17	0x3e9725fe	0.29521173
18	0x3f123e0c	0.57125926
19	0x3ef58158	0.47950244
20	0x3f3f5499	0.7473846
21	0x3eb6bd6f	0.356914
22	0x3ebe1053	0.3712183
23	0x3efcfdca	0.49412376
24	0x3eaa89a1	0.33308128
25	0x3f05499e	0.52065456
26	0x3efee069	0.49780586
27	0x3edef607	0.4354708
28	0x3ec2f2dd	0.38075915
29	0x3f66ed5d	0.9020594
30	0x3f0155e3	0.5052168
31	0x3ed74519	0.42044905
