models/gelu_best_epoch.pt (torch, 206379 bytes, 38 tensors)

backbone.0.conv3x3.weight f4 [32, 3, 3, 3]
000000 0d b3 85 3d 64 0d d0 3d a4 a6 3d bd a2 7c 3c 3e
       0.06528292 0.10158804 -0.0463015 0.18406919
000010 98 f0 77 bd 19 1d 99 3d 64 f4 ec bc b1 0f 0a 3e
       -0.060532182 0.07476253 -0.028925128 0.13482548
000020 e7 e5 ff 3d 25 23 ac bd 90 c0 c0 3d 23 e5 e8 3d
       0.12495022 -0.08405141 0.094117284 0.11371829
000030 92 8d 1d 3e be 30 ec 3c d4 5f bc 3d f6 42 52 bd
       0.15386036 0.028831836 0.09197965 -0.05133339
000040 e3 62 01 3e 2b 2e 72 bd b9 f5 1a be 22 88 58 3d
       0.12635379 -0.05912606 -0.15132798 0.0528642
000050 05 71 30 be 5e 19 31 3c fb d2 4b be f8 43 17 3e
       -0.17230614 0.010809271 -0.19904701 0.14772022
000060 3d 3f 02 be 65 ab 09 be 69 48 b2 bd e8 0f c2 bd
       -0.12719436 -0.13444288 -0.087052174 -0.0947569
000070 50 41 c1 3d 08 a8 fa bd b3 82 b6 3d 40 e8 4f be
       0.094362855 -0.12239081 0.08911648 -0.2030344
000080 28 27 8f 3d 96 37 07 3d 79 81 21 be c4 99 b1 3d
       0.0698989 0.033011995 -0.15772046 0.086719066
000090 98 a2 92 3c a2 33 11 3e db b3 95 3d ed bc 11 3d
       0.017899796 0.14179853 0.07309695 0.035580564
0000a0 2f 7a 34 3e d6 59 38 3d 8f 85 23 3d 38 67 0a 3e
       0.17624734 0.04500755 0.039922293 0.13515937
0000b0 c3 75 06 3e c0 b0 80 bd 0c 7e ac 3d d4 d4 82 ba
       0.1313086 -0.062837124 0.08422479 -0.0009981641
0000c0 77 8f 02 3e 6a cc 39 be 47 36 a0 be b5 fd 11 bd
       0.1275004 -0.18144384 -0.3129141 -0.035642345
0000d0 42 56 78 bd e8 46 1c 3e 3f 23 34 3b 81 c8 ad 3b
       -0.060629137 0.15261424 0.0027486829 0.005303443
0000e0 b9 34 4c 3d 59 75 1e bb d7 c1 80 3e f0 87 4d bd
       0.049854968 -0.0024178831 0.25147888 -0.05017847
0000f0 4b fa 8e ba 68 d7 a4 be ee 69 29 3d 84 82 a9 bd
       -0.0010908333 -0.32195592 0.041360788 -0.08276847
000100 1e 27 69 3b fc 6d ef 3b 8d 8c 1a 3e 83 2b 41 be
       0.0035576294 0.0073068123 0.15092678 -0.18864255
000110 e5 3d af bc 8d ee 63 bd b6 6e 79 3e 59 32 6b bb
       -0.021391818 -0.05564742 0.24358639 -0.0035888164
000120 3e b1 d1 3d 9f 90 90 bd f5 76 0d bd f4 f1 e2 bd
       0.102388844 -0.07058834 -0.034537274 -0.11081305
000130 e2 ae f9 bd b0 44 93 3d f6 af 4b bb 04 9f 5a 3e
       -0.121915594 0.071908355 -0.0031080223 0.21349722
000140 35 43 80 bd e8 30 4a 3c 05 90 6e bc 2e 85 3b 3b
       -0.06262819 0.012340762 -0.014560704 0.0028613317
000150 3d b3 31 3e 27 d8 e8 be 95 b9 45 3d f4 a3 8f bb
       0.1735353 -0.4547741 0.048272688 -0.0043835584
000160 3c c5 b0 bc d1 84 13 3d 70 72 34 3d 3b a3 23 bb
       -0.021578424 0.036015335 0.04405445 -0.002496912
000170 eb 1a 0c 3d bb f5 05 3e df 98 d2 be c4 2e 19 bd
       0.03420536 0.1308202 -0.41132256 -0.037398115
000180 15 51 78 3d 99 ba ec bb a3 30 98 bb fe 4e a4 bb
       0.0606242 -0.0072243926 -0.00464447 -0.0050142994
000190 2c 2b 06 be 03 f8 49 3d 96 8a 1d 3d d0 38 5d be
       -0.13102406 0.049308788 0.038462244 -0.21603703
0001a0 4a 4d 5e bc 4b c9 78 bc ff c3 29 3d 43 3a 69 bc
       -0.013568232 -0.015184711 0.041446682 -0.014235082
0001b0 06 6d e2 be bd ec 21 be 1f 31 82 3e 0f 14 70 3c
       -0.44223803 -0.15812965 0.254281 0.01465322
0001c0 ef 79 2d be de 56 0f be 1e 48 61 3b be 23 96 bd
       -0.16941045 -0.13997981 0.003437526 -0.07331036
0001d0 af 5a 8f 3d d2 45 16 be f5 f9 30 ba de b9 ed 3a
       0.069997184 -0.14675072 -0.00067511137 0.0018137058
0001e0 8b 19 af bc 02 a5 35 be 7c 49 4b bd e5 09 4a bd
       -0.021374485 -0.17738727 -0.049630627 -0.049325842
0001f0 b0 f8 bf bd ec 4c e3 3c 26 02 08 be f8 d3 0c be
       -0.09373605 0.02774664 -0.1328207 -0.13752735
000200 f9 71 d0 3d 7b 00 49 3d d4 d0 0f 3e 71 f0 77 3a
       0.101779886 0.049072724 0.14044505 0.0009458131
000210 f1 3a 06 3c 6d 85 c2 3d 04 0a 36 3c 8b 4c 30 3b
       0.008192764 0.09498105 0.011110786 0.0026901092
000220 ac b4 91 be 0c 41 3b be 61 75 a5 3d 06 62 08 bd
       -0.28458154 -0.18286532 0.08079029 -0.033296607
000230 9f 3d a0 3c 4b b2 d3 bc d6 51 fb 3d 94 43 b4 bc
       0.019560633 -0.025841853 0.12271468 -0.02200488
000240 23 7f 5e 3c 4e 32 b1 3d e2 e7 20 3e 96 54 45 3d
       0.013580116 0.08652173 0.15713456 0.04817637
000250 dd 61 45 3e bf e3 52 be 56 bb 53 bb 9d a8 75 be
       0.19275613 -0.2059469 -0.0032307706 -0.23990102
000260 e9 61 24 3d 18 9e 13 be a8 37 18 3e 8f df c4 bd
       0.040132437 -0.14415777 0.14864981 -0.09612953
000270 9f 21 bc 39 94 9f 05 3d 97 e7 e6 3c c2 2d 12 be
       0.00035883204 0.03262289 0.028186603 -0.14275268
000280 ba 36 39 3e b7 ac ec bc 73 b3 42 3c de 48 2d be
       0.18087283 -0.02889095 0.011883604 -0.16922328
000290 54 f1 e7 3b be 93 2d 3c c5 67 2e 3b 48 6c 92 3e
       0.007078329 0.0105943065 0.0026612144 0.28598237
0002a0 df 1c 62 3c 27 9f 9c bd 4d c1 04 bb 0b b2 0a bb
       0.013800829 -0.076475434 -0.0020256818 -0.002116325
0002b0 21 cf f5 3d 1e a6 b6 bb d0 35 fa bc 34 75 2a bb
       0.12002397 -0.005574002 -0.030543238 -0.00260098
0002c0 ff 15 a6 be cc e1 e3 bb 60 e4 16 3e 77 76 a3 bd
       -0.32438657 -0.0069544073 0.14735556 -0.0798158
0002d0 d9 21 02 bb 7b 88 52 3c 8b db 4f 3b dd 8c ec bc
       -0.00198566 0.012849922 0.0031716551 -0.028875763
0002e0 d2 11 a2 3c f4 a1 14 3e 4f 2d 15 bb 26 06 67 bc
       0.019783888 0.14514905 -0.0022762602 -0.014100587
0002f0 df 1b 71 bc 8b 19 48 3b 40 37 9d bc 72 b7 5c 3b
       -0.014716118 0.0030532803 -0.019191384 0.0033678678
000300 8c 3a fa 3d ff eb 84 3e 5b a7 59 bd 9c ac 3b bd
       0.12218198 0.259613 -0.05313812 -0.04581891
000310 3f 17 4e 3a 3f 78 71 bd bf 41 fc 3b b6 80 75 3d
       0.00078617403 -0.058952566 0.007698267 0.0599372
000320 25 6c ec bd 94 7a 7a bd 16 13 34 3e a5 77 42 3c
       -0.115440644 -0.061152056 0.17585406 0.011869346
000330 ac e5 e7 bc 53 8a fb bd 52 81 2b be f9 0e b9 bd
       -0.028307758 -0.122822426 -0.1674855 -0.09036059
000340 7e 67 a5 bc 60 a9 b8 3c db 64 b0 3d 1f d8 17 3e
       -0.02019095 0.022541702 0.08612987 0.14828537
000350 f9 f0 5e be b4 08 4f bd 84 24 02 bd 72 14 5e 3e
       -0.21771611 -0.05054541 -0.031773105 0.21687487
000360 2d 79 83 bc d4 50 3f 3d 4d a9 70 3d 10 f9 96 bb
       -0.016048992 0.046707943 0.058755208 -0.0046073273
000370 3a 1b aa bb aa 02 16 3e e7 c5 ed bc c6 4f 6c 3c
       -0.005191234 0.14649454 -0.029025031 0.014423316
000380 0e 8c f7 be 7c 0f e8 3a 3a cd b1 3c e4 ad 22 3c
       -0.4834904 0.001770481 0.021704305 0.009929154
000390 fa 89 38 bc 26 45 c5 be f1 4c c4 bd 2d 5a e4 3c
       -0.011263365 -0.3852932 -0.09584988 0.02787503
0003a0 a4 9c c7 3d 9e 6c 57 3e 5c be 07 3c 95 b1 b2 3c
       0.09746674 0.21037528 0.008285131 0.021813193
0003b0 e5 71 c7 3c 45 dc ed 39 bf 33 f5 bd 90 3f c4 bd
       0.024346301 0.00045368276 -0.119727604 -0.09582436
0003c0 e2 06 15 3d 70 85 de bc 05 33 33 bb 6f 1f a1 3c
       0.036383517 -0.027163237 -0.0027343642 0.019668309
0003d0 29 0c da 3c a3 f3 90 be 5a db f3 bc 02 bf ca 3c
       0.026617127 -0.2831088 -0.02976768 0.024749283
0003e0 fa 9d 5c 3b 0d 96 20 3d e9 bf a3 bc a8 83 89 be
       0.0033663497 0.0392056 -0.01998897 -0.26858258
0003f0 a6 2d 4a 3d 2d 55 03 bd 9a 4e 8d be 39 08 16 bc
       0.04935994 -0.03206365 -0.2759903 -0.009157234

backbone.0.conv3x3.bias f4 [32]
000000 d7 ac b6 bd 5a c2 32 3e 2b eb 1d 3e c7 9e 67 3d
       -0.08919685 0.17456952 0.1542174 0.056547906
000010 89 4a 86 3c 85 b4 26 be 83 50 3c bc 94 22 2c 3e
       0.016392963 -0.162798 -0.011493805 0.16810066
000020 e1 0b 46 3d 70 22 6e 3c af c5 2d bd 89 a8 90 bd
       0.048351172 0.014534578 -0.042424854 -0.070633955
000030 49 1a f2 3d b9 b0 1e 3c f7 a6 03 3e a1 15 1b bd
       0.1182142 0.009685689 0.12856661 -0.037862424
000040 7b 4b b1 3d 9c 4d a5 3d 14 13 86 3b c1 de 03 3e
       0.08656975 0.080714434 0.0040916298 0.12877943
000050 cd a3 f0 3d d0 2e 3a 3e 93 10 16 3e 3f 47 42 bd
       0.117499925 0.1818192 0.1465476 -0.047431227
000060 b2 13 28 be 74 51 07 3d 50 71 96 3b 01 ad 64 bd
       -0.16413763 0.033036664 0.0045911446 -0.055829052
000070 7c 82 ef bc dc 54 22 3c e1 62 15 3e 59 cd 73 3d
       -0.029237024 0.009907927 0.145885 0.059522007

backbone.0.bn.weight f4 [32]
000000 38 07 58 3f e3 72 60 3f 9c 24 81 3f f3 63 99 3f
       0.84386015 0.87675303 1.0089297 1.1983627
000010 35 3a 89 3f 0d ee 6f 3f 30 3e 67 3f 9b 07 59 3f
       1.0720888 0.9372261 0.90329266 0.8477723
000020 bb d7 92 3f 4f 57 78 3f 43 5b 80 3f 39 9e 76 3f
       1.1472086 0.9700822 1.0027851 0.9633518
000030 b7 e2 9a 3f d4 91 56 3f f0 97 71 3f 63 3c 85 3f
       1.2100438 0.83816266 0.94372463 1.0409054
000040 27 81 23 3f 85 33 75 3f 25 07 97 3f ac 61 6c 3f
       0.63868946 0.9578174 1.1799055 0.92336535
000050 7f cf 6a 3f 73 62 36 3f 69 20 83 3f 0f 72 8f 3f
       0.91722864 0.7124397 1.0244266 1.1206683
000060 37 7e 90 3f b3 88 5b 3f 00 24 34 3f c7 df 61 3f
       1.1288518 0.8575546 0.7036743 0.8823208
000070 da 62 93 3f e6 0f 66 3f 70 16 88 3f a6 f3 5b 3f
       1.1514542 0.8986801 1.0631847 0.85918653

backbone.0.bn.bias f4 [32]
000000 c6 fc 8f be 0e 3d da 3b ff a3 62 3e 6f f1 45 3d
       -0.28122538 0.0066601103 0.22132872 0.048325952
000010 b0 9f 3e be 78 da c7 bd 34 d3 6e 3f 6f 1d 91 3e
       -0.18615603 -0.097584665 0.9329102 0.2834277
000020 e5 b0 94 3d ce bd 13 be c1 df 66 bd b0 11 13 3c
       0.072603025 -0.14427873 -0.056365732 0.008976385
000030 b6 51 23 be 41 e6 ce 3e a6 f5 a0 bd cd a0 9b be
       -0.15949139 0.40410045 -0.07859354 -0.3039612
000040 e4 4b fc 3e 6c f3 e5 3b dc 0f 87 3f 5c e6 c1 bc
       0.4927665 0.0070175435 1.0551715 -0.023669414
000050 8f fe 33 be 3c 51 52 3f d6 2b 1a be d9 5a 77 bd
       -0.17577575 0.82155204 -0.15055785 -0.060389373
000060 8c 93 ae bd 60 23 35 be 06 67 82 3f a3 59 7e be
       -0.08524236 -0.17689276 1.018769 -0.24838881
000070 81 4c d7 bd f9 29 cb bd f8 fe 8c be b2 f2 90 bd
       -0.10512639 -0.09920115 -0.27538276 -0.070775405

backbone.0.bn.running_mean f4 [32]
000000 f1 70 70 3c 89 30 93 3e f7 6f 23 3e b5 ec 10 be
       0.014675365 0.28747967 0.1596068 -0.14152797
000010 49 dc 91 be 45 c7 6a be 04 a5 5a bc ce 54 2f 3e
       -0.28488377 -0.22927578 -0.013345007 0.17122194
000020 b9 cd df bd 08 d4 dc bd 4a 99 d6 bd 45 a6 8b 3a
       -0.1092791 -0.10782629 -0.10478456 0.001065441
000030 cb 25 0a bd 78 58 41 3c 6d 59 17 3d 93 9f 14 be
       -0.03372745 0.011800878 0.036950517 -0.14513998
000040 01 48 c3 3d 65 94 a4 3c e4 bc e5 3c ee 4e 02 3e
       0.09535218 0.020090291 0.028044172 0.12725422
000050 3e e0 1e 3e 00 7a 4e 3e 73 c0 aa bd 7b 22 5e be
       0.15515229 0.20163727 -0.08337488 -0.21692841
000060 fb 11 a3 be 58 7d d4 3d 47 14 e3 3c 89 9a ae bd
       -0.31849656 0.1037547 0.02771963 -0.08525569
000070 fd 3b 3a be 8b 67 ed bd c8 a6 fe 3d d6 a5 82 ba
       -0.18186946 -0.11592015 0.12434155 -0.0009967636

backbone.0.bn.running_var f4 [32]
000000 50 6d 84 3b 7b b1 70 3b f7 3c 24 3a 65 42 74 3c
       0.0040413514 0.003672688 0.0006265188 0.014908408
000010 dd f1 00 3d 11 f2 25 3b f7 05 f2 39 f4 1d 84 3a
       0.03148066 0.0025321285 0.0004616228 0.0010079728
000020 4c d3 1b 3c f3 58 05 3c 1c 95 30 3b cb dc 2e 3b
       0.009510826 0.008138883 0.0026944345 0.0026681896
000030 b9 6b 3c 3c f1 7e 58 3a e7 1d 88 3b f1 98 89 3b
       0.011500292 0.0008258662 0.0041539553 0.0041991402
000040 06 11 ca 3a 9b 12 8b 3b 74 02 05 3a ec c1 27 3a
       0.001541645 0.0042441613 0.0005073913 0.0006399441
000050 09 b0 f2 3a 8c 9d 90 3a eb ab af 3c 11 e9 27 3c
       0.0018515597 0.0011033281 0.021444282 0.010248438
000060 f7 b2 0b 3c 7b 92 9d 3b 45 74 87 3a 40 ca b5 3a
       0.008526555 0.0048087216 0.0010334334 0.0013869479
000070 db 77 06 3c c0 9e d3 3b ed a6 ab 3a 3c ee 21 3b
       0.008207287 0.0064581335 0.0013096012 0.002470865

backbone.1.conv3x3.weight f4 [32, 32, 3, 3]
000000 34 cf 53 3c 75 57 6e bd f9 40 75 bd 90 3e a8 3c
       0.012927819 -0.058188874 -0.059876416 0.020537645
000010 1f 40 60 3d 1c 58 9c bd 49 1d 4c 3d 2e 7b 25 3d
       0.05474865 -0.07633993 0.049832616 0.040400676
000020 18 39 31 3d e4 99 16 bd 5c 68 f5 bc 44 31 fa ba
       0.04326734 -0.036767855 -0.029956989 -0.0019088169
000030 a6 57 0e 3d 7b 92 d8 bc 36 11 f8 bc 79 af f0 3c
       0.034751557 -0.026437035 -0.030281644 0.029380547
000040 cc a6 cc 3c 9b 6b ec 3b 57 ba 15 3c 3d a5 88 bd
       0.024981879 0.007214976 0.009138665 -0.06672142
000050 c3 61 63 bb fb 9c 9e bc ed 1d 5b bd 1b 71 b6 3b
       -0.0034695722 -0.019361963 -0.053495336 0.0055676824
000060 32 21 18 bc 0b 4f ad bb e2 ed 3e bb 43 30 01 bd
       -0.009285258 -0.0052889637 -0.0029133488 -0.031540167
000070 69 98 4f 3d 24 62 11 bd 3c 1e 86 bb e1 2f a0 bb
       0.05068246 -0.035493985 -0.0040929597 -0.00488852
000080 38 ff dd 3a ff 5c bf 3a 40 46 a3 3d 0c 35 b7 bc
       0.0016937023 0.0014599859 0.079723835 -0.022364162
000090 8a 5c 2b bd 26 0d 26 bc 44 9c 16 bc f8 5f f6 bc
       -0.0418363 -0.010134971 -0.00919253 -0.030075058
0000a0 1d 73 29 3c 3e 33 11 3e 44 39 e1 3b 8a 7b 7d bd
       0.010342387 0.14179704 0.0068732817 -0.061885394
0000b0 d1 cb fb 3b 68 07 90 bc d2 28 88 3c b6 de 4a bc
       0.007684209 -0.017581657 0.016621027 -0.0123822
0000c0 5e 01 4a 3d 7e fb 16 3e 09 57 9a bd 43 36 bf 38
       0.04931771 0.14744374 -0.07536132 9.117697e-05
0000d0 e3 09 f9 3c 06 c7 95 3b 0a 2e f3 bb 60 17 e4 bc
       0.030400222 0.0045708446 -0.00742126 -0.027843177
0000e0 bb c2 83 3a e0 75 73 bd 7d e1 e4 3d 62 61 1e 3b
       0.0010052541 -0.059438586 0.11175821 0.0024166931
0000f0 7e f0 25 bd 82 6e 52 bc 76 a2 83 3b c9 8c 04 3d
       -0.040512554 -0.01284373 0.0040171696 0.032360826
000100 3b 5b 7b bd be 62 db bc 63 af 47 bd e9 85 0c bd
       -0.0613663 -0.026780482 -0.048751246 -0.034307394
000110 6a 32 bf bd 7a 32 e4 3c 04 dc 9c 3c 85 18 0e 3d
       -0.093357876 0.0278561 0.01914788 0.034691352
000120 c0 2c 5a bd a6 6c c7 bd 24 b7 93 bc b1 71 b8 bc
       -0.053265333 -0.0973752 -0.018031664 -0.02251515
000130 c3 aa 8e bc 04 10 f9 3b 85 aa 59 3d b2 ae ce 37
       -0.01741541 0.007600786 0.053141136 2.4638462e-05
000140 0b 08 95 bc d3 c0 ec bc 2c 21 49 3d 15 ce 0e 3d
       -0.018192312 -0.02890054 0.0491039 0.034864504
000150 90 ec 04 3c eb 74 b5 bc 98 89 22 3d 90 68 ad bb
       0.0081130415 -0.022150477 0.039682 -0.005292006
000160 97 f8 94 bc b2 19 9b bc 8c 7e 0e bd 86 f2 c4 bd
       -0.018184943 -0.01893315 -0.034788653 -0.0961657
000170 91 1b 7d bd 8b f3 44 3d dd ad bb 3c 13 26 9d bd
       -0.061793867 0.048083823 0.022910053 -0.07673278
000180 ad 4d f7 3c f8 06 b3 bc cc aa cb 3c ae e6 c0 bc
       0.030188406 -0.021853909 0.024861716 -0.023547497
000190 35 27 41 3d 38 9a b3 bb 10 37 c8 3c 31 7d 46 bc
       0.04715653 -0.005481031 0.024440318 -0.012114809
0001a0 a1 ce de bb c7 02 39 bd a1 6d 97 bd b8 06 3f bb
       -0.0067995344 -0.045168664 -0.07393957 -0.0029148292
0001b0 c1 5b 86 bc 60 ff 6e bd c1 34 3e 3e 29 77 6c bc
       -0.016401174 -0.058349013 0.18574812 -0.014432707
0001c0 f0 ce 51 bd dc e1 5f 3c 0d 01 40 3c ff 46 3f bc
       -0.05122274 0.013664689 0.0117190005 -0.011674642
0001d0 96 c5 1c 3b 59 bd f0 3c a2 f4 94 bc 5d 78 46 3c
       0.0023921481 0.029387163 -0.018183056 0.012113658
0001e0 28 e5 c8 bb 57 60 ac 3b 4b 6a 1f ba 2c fe 17 3c
       -0.006130833 0.005260508 -0.00060812075 0.009276908
0001f0 29 39 13 bd e5 36 19 bd e6 ad 45 3c 70 86 f4 bc
       -0.035943184 -0.037405867 0.012065386 -0.029849261
000200 51 55 76 bc 87 cb 40 bd 09 0d ce 3d 42 cd 83 be
       -0.015034989 -0.0470691 0.1006108 -0.25742537
000210 91 d3 82 ba 3f 26 00 3a 28 fc f9 3c 06 47 45 bb
       -0.0009981265 0.00048885116 0.030515745 -0.0030102148
000220 36 2f d0 bd df f6 4c 3c e8 45 ef bc 18 ae 64 3e
       -0.10165255 0.0125100305 -0.029208139 0.22332036
000230 c7 8f ee 3d 75 c3 83 bc a5 43 ac bc 1b a9 21 bb
       0.11648517 -0.016084412 -0.02102835 -0.0024667445
000240 4f a5 55 3c 7f 05 e2 3a b4 ce a5 3b 89 5e 4d 3c
       0.013039901 0.001724407 0.0050600413 0.012534746
000250 86 01 cf bd aa 97 40 3d e4 b1 29 bd 70 35 26 3d
       -0.101077124 0.047019638 -0.041429415 0.040578306
000260 c8 64 90 bb e5 16 87 3c 7e f2 f7 3d 5b 64 dd bc
       -0.0044065453 0.01649041 0.121067986 -0.027025392
000270 a7 31 0e bd 44 cc 20 bd 00 a4 b9 3c cf a5 50 3d
       -0.03471532 -0.039257303 0.02266121 0.050939377
000280 d7 d8 69 bb 94 9e 42 bc 00 9d a3 3c 14 47 4e 3c
       -0.0035682225 -0.011878628 0.019972324 0.0125901885
000290 f0 43 74 3c c8 15 e6 be a6 0e ca 3d c0 c7 59 3c
       0.014908776 -0.44938493 0.09866075 0.013292253
0002a0 c4 d9 81 3d c8 45 81 3d cb e3 c4 3c 80 48 71 bb
       0.063403636 0.06312138 0.024034401 -0.0036816895
0002b0 32 dc 93 3b af 79 11 bc 87 11 ed 3b 0b bc 0d 3c
       0.0045123333 -0.008879109 0.0072347554 0.00865079
0002c0 45 9e 00 bc 9b d0 56 bc 94 bd dc bc f6 94 4c 3a
       -0.007850234 -0.013111259 -0.026945867 0.00078041793
0002d0 ae 85 93 bb 3a eb 97 bc 55 24 e0 3b 24 84 13 3d
       -0.00450202 -0.018544782 0.0068402686 0.03601469
0002e0 fd 7c 78 3d f0 27 1e bc 4d 40 5b 3c 59 d8 99 3a
       0.060666073 -0.0096530765 0.01338203 0.001173745
0002f0 5c 2a 0f 3d 1e 05 6a 3d 56 ad cf 3c 65 3f c7 3c
       0.034952506 0.057133786 0.025351208 0.024322221
000300 5e bb f7 3b d1 1a 7c bd 31 c0 30 3d df 0e 63 3c
       0.0075601777 -0.06154901 0.043152038 0.013858526
000310 74 37 43 bb ef ac ae 3b d6 b1 a5 3d 5e 59 e2 bc
       -0.0029787691 0.005330674 0.0809056 -0.027630504
000320 03 ac 04 bd 28 2b 96 3d fe 22 13 3e 20 42 c2 3d
       -0.032390606 0.0733245 0.14368817 0.094852686
000330 68 27 5a bb 9f cd e7 3c 2a 5e df 3a 95 99 1e bb
       -0.0033287648 0.02829629 0.0017041613 -0.0024200429
000340 1e 40 8d bd b3 aa 08 3b d6 af 86 bc b8 6f b6 3b
       -0.06896995 0.0020853698 -0.016441267 0.005567517
000350 be b3 3a bd 7f 31 b7 3c a8 f2 7d bc 2b 61 a2 3a
       -0.04558157 0.022362469 -0.015499748 0.0012388577
000360 15 aa bf bc 2d 66 06 bd 02 38 b9 bc a8 6e aa bc
       -0.023396531 -0.032812286 -0.022609714 -0.020804718
000370 08 1b 29 bd c5 2b a9 3c 72 2d 7a 3d d3 01 6a 3a
       -0.041285545 0.020650754 0.061078496 0.00089266634
000380 4b f1 35 3d 9b f3 d4 bc 82 d5 17 3d 23 59 d5 3c
       0.044419568 -0.025995066 0.03706885 0.02604348
000390 03 7a de 3c cc 12 a7 bd 1a 58 99 3d 54 e6 ac 3c
       0.02715779 -0.08157882 0.07487507 0.021105923
0003a0 52 81 38 bc 72 8b 61 3b bb 55 9b 39 b3 16 92 3c
       -0.011261301 0.0034415391 0.00029627778 0.01783309
0003b0 31 a2 0b 3d 0d ef 85 bc 45 b6 fa 3d a7 17 f8 3b
       0.034090225 -0.01634934 0.122417964 0.007571179
0003c0 e1 a5 5a 3b 15 7d 24 bd d5 de a0 bd dc 62 af 3b
       0.0033363032 -0.04015835 -0.07855002 0.005352361
0003d0 02 1f db bc 56 c0 72 3c c2 6a a6 3d 6c 47 e9 bd
       -0.026748184 0.014816364 0.08125831 -0.11390576
0003e0 d5 5d 76 3c aa 79 a9 3c 2e 29 be bc d3 28 f1 bc
       0.01503702 0.020687897 -0.023212995 -0.029438412
0003f0 d5 fb 03 3d aa 54 24 3d 29 72 1f be da 6a 6d bd
       0.032222588 0.040119804 -0.15570892 -0.05796323

backbone.1.conv3x3.bias f4 [32]
000000 3b 48 57 bd 50 23 68 3d 29 d9 27 3d de 73 3b bd
       -0.05255912 0.0566743 0.040978584 -0.045764796
000010 0f d8 3c 3d 96 96 61 bd e9 c6 1f 3d 20 c8 26 3d
       0.046104487 -0.05507525 0.039008055 0.040718198
000020 df 09 17 3d 96 a2 cd 3c 09 81 10 bd 27 41 cf bc
       0.03687465 0.025101941 -0.035279308 -0.025299622
000030 e8 86 4b 3c e5 57 c0 3c 58 1f 55 3d 71 c2 38 3b
       0.012422301 0.023479411 0.052031845 0.0028192068
000040 9c 60 c7 3c f4 77 36 bd 99 e1 44 bc 64 76 0f 3d
       0.02433806 -0.04454799 -0.012016677 0.035025015
000050 d6 67 8f 3b c4 69 3d 3d 3c c0 3f bd 25 d6 21 bd
       0.004376392 0.046243444 -0.04681419 -0.039510865
000060 6c 9d 99 3c db 53 22 bb 00 7b 4d bd f4 9a cb 3c
       0.018751822 -0.002476922 -0.05016613 0.02485416
000070 37 7b 33 3b 7a 25 68 3c 5e 8c 55 3c 64 26 27 bd
       0.0027386674 0.014169091 0.013033954 -0.040808097

backbone.1.bn.weight f4 [32]
000000 ac fd 91 3f 70 72 65 3f a6 63 74 3f ad 80 83 3f
       1.140554 0.8962774 0.9546455 1.0273644
000010 77 33 82 3f 7e 74 78 3f 45 8d 66 3f 0c 3b 92 3f
       1.0171956 0.9705275 0.9005931 1.142427
000020 78 fb 8f 3f 58 32 96 3f 5e 3b af 3f c2 95 89 3f
       1.1248617 1.1734114 1.3689992 1.0748827
000030 33 0b 8a 3f 89 5d 61 3f ad 2d 75 3f 5f a4 80 3f
       1.0784668 0.8803335 0.9577282 1.0050162
000040 a1 4b 77 3f af 8f 7a 3f 6f a5 8c 3f 3d 91 72 3f
       0.96599776 0.97875494 1.0987986 0.94752866
000050 22 8b 44 3f 7f 83 96 3f 8f cf 7f 3f 74 29 7b 3f
       0.767748 1.175888 0.99926084 0.9811013
000060 fa d1 78 3f 2d 9d 77 3f c7 28 4f 3f e5 81 61 3f
       0.971954 0.96724206 0.80921596 0.8808883
000070 16 37 6e 3f 05 29 81 3f 51 c8 70 3f 28 28 4f 3f
       0.93052804 1.0090643 0.9405566 0.8092065

backbone.1.bn.bias f4 [32]
000000 fe ee 07 be bb aa 67 be c7 a3 d4 be a7 2e 27 3d
       -0.13274762 -0.22623722 -0.41531202 0.040815976
000010 64 0e c8 bd b5 d7 aa bc 55 9d 85 be be 81 8e be
       -0.0976837 -0.02085481 -0.26096597 -0.2783336
000020 33 34 84 be 08 2e 1b be 70 02 9a be 60 71 af 3c
       -0.25821075 -0.15154278 -0.30079985 0.021416366
000030 dc 9a 33 be da d1 90 be 5e 6b 0a be 11 ee d1 3d
       -0.17539543 -0.28285104 -0.1351752 0.10250486
000040 45 f9 f9 bd e0 4f 16 be e4 7f 0f 3e 6d 40 68 be
       -0.122057475 -0.14678907 0.1401363 -0.22680826
000050 bc d2 46 be 18 05 58 3d 8c 54 0c bf 8d 1b 50 3c
       -0.19416326 0.052739233 -0.5481651 0.012701881
000060 e8 2c 8a bd a6 a7 fe bd e2 30 c3 be 31 e8 9d be
       -0.067468464 -0.1243432 -0.38123232 -0.3084121
000070 02 a3 98 3c f0 2c 21 be e4 d9 77 bd 3a fa 81 be
       0.018632416 -0.15739799 -0.06051053 -0.2538622

backbone.1.bn.running_mean f4 [32]
000000 d9 f9 b5 be 6a 74 b8 3e 8c 1c d0 3e 8d 41 25 bf
       -0.3554218 0.36026317 0.4064678 -0.6455315
000010 69 e1 3b bf 7c 17 b7 bf a7 ad 15 3f a4 77 2a 3e
       -0.73390824 -1.4304042 0.584681 0.16647202
000020 bd e7 de be 85 f8 f2 3e 1c b3 54 be b9 af 14 bf
       -0.43536177 0.4745523 -0.2077145 -0.5808063
000030 b7 65 75 be 60 ad 1a 3f d2 05 4a 3f 59 a4 9f bf
       -0.23964582 0.604208 0.7891513 -1.247203
000040 46 7b eb bd bf 51 0a bf 0c e0 83 bf 7e 38 95 be
       -0.11498122 -0.54030985 -1.0302749 -0.29144663
000050 71 39 4a 3f 9e 93 18 be be 71 a9 3f 23 85 86 bf
       0.789939 -0.14900061 1.3237836 -1.050938
000060 d8 dd 7a bf 3a e8 0c be bf be 28 3f fa d2 b8 3f
       -0.97994757 -0.13760462 0.65916055 1.4439385
000070 4a d1 7c bf 2a 67 eb be 43 bb 7d 3e d1 68 30 3f
       -0.9875685 -0.45977145 0.24778466 0.6890994

backbone.1.bn.running_var f4 [32]
000000 5a 32 9d 3e 40 1d 23 3e 6d f6 5b 3e 64 ac d5 3e
       0.30702478 0.15929127 0.21480723 0.41733086
000010 40 bf 93 3e ca 3f 8f 3f f6 a8 9c 3f e2 61 95 3e
       0.2885685 1.1191342 1.2239063 0.2917624
000020 23 7b aa 3e 54 d1 ff 3e 65 91 dd 3e 5d 07 ea 3e
       0.3329707 0.49964392 0.4327499 0.45708743
000030 7b fb a9 3e 79 9b 14 3e 70 e7 4b 3f 04 ab b4 3f
       0.33199677 0.14512433 0.7965002 1.411469
000040 6e 06 1e 3f 2e 1e bc 3e 0c 22 34 3f 31 40 ab 3e
       0.6172856 0.36741775 0.7036445 0.33447412
000050 c2 10 9c 3e ba 3c 79 3f 79 73 2c 3f b3 15 ca 3e
       0.30481535 0.97358286 0.673637 0.3946968
000060 30 0c 02 3f 93 3c 38 3f 55 77 a2 3e eb 7f 66 3f
       0.50799847 0.7196743 0.31731668 0.9003894
000070 48 1f 89 3f 50 db 47 3f 32 e1 c8 3e 76 c4 2d 3f
       1.0712671 0.7806902 0.3923431 0.678779

backbone.2.conv3x3.weight f4 [32, 32, 3, 3]
000000 73 7d 2c bc 3c a5 ef 3b 31 28 ee 3c fc 1b 10 3d
       -0.010527956 0.0073133986 0.0290719 0.035182938
000010 4f b5 86 3d fa 42 1f 3d 76 31 da 3c 89 70 90 3d
       0.065775506 0.038882233 0.026634913 0.070527144
000020 eb 03 9d bb 0b 11 45 bc a6 7a 62 3c e1 e0 8e 3b
       -0.004791727 -0.012027989 0.013823187 0.0043603037
000030 91 d2 09 bc 0c 91 4a b4 69 90 2e 3c b8 26 82 bd
       -0.008412019 -1.8865484e-07 0.010654547 -0.06355041
000040 82 2e 88 bd bc 71 22 bd fa da f9 bc a7 f6 97 3c
       -0.06649496 -0.039659247 -0.030499924 0.01855023
000050 6f bb 45 bd 1d 4c 17 bd 66 c6 20 3e 26 b7 a7 3c
       -0.048274454 -0.03693782 0.15700683 0.020473074
000060 0e 47 25 3c fb 77 a0 bd d8 8f bc bc 19 4c cd 3d
       0.010087742 -0.078353845 -0.023017809 0.1002428
000070 ce ef 11 be c5 4d a0 3c 73 9c 37 bb 9f 73 da 3d
       -0.14251634 0.019568333 -0.0028016835 0.10666584
000080 47 7d d7 3c 9b 92 43 bd c3 21 06 bd 06 d1 82 3c
       0.026304854 -0.047747236 -0.03274704 0.01596881
000090 53 69 bb bc 00 09 92 3d 3b e5 80 3c 17 5d 1c bd
       -0.022877371 0.07130623 0.015734306 -0.038174715
0000a0 78 cf 32 bd 4b 30 11 bd a7 1e 75 bd 54 a8 2f bd
       -0.04365489 -0.035446446 -0.059843685 -0.04288514
0000b0 02 ba cf bc 1d a4 b7 bd e1 95 ec 3b d8 b4 18 bb
       -0.02535725 -0.08966849 0.0072200154 -0.002330115
0000c0 a4 d3 2c bd 98 e4 24 bd a2 f6 92 3c c8 97 da 3c
       -0.042194024 -0.040257066 0.01793987 0.026683703
0000d0 af a5 10 3d ca 50 ab 3c 9b 59 df bc 6a b5 ce 3c
       0.03531426 0.020912547 -0.027264407 0.02523299
0000e0 c7 80 ea bc 12 60 e7 bb 65 8e b3 3d 1a c2 20 3a
       -0.028625859 -0.007061013 0.08767394 0.0006132439
0000f0 25 6e e8 bc 80 6b 21 3c 08 94 9c 3c 0a 80 1e 3c
       -0.028372834 0.00985229 0.019113556 0.009674082
000100 42 89 99 bc 95 57 15 3c 4d 81 6b 3b e9 cc bf 3c
       -0.018742207 0.009115119 0.0035935224 0.023413138
000110 92 60 46 3d 31 19 bb 3b 42 73 43 3e 74 c3 a5 bc
       0.04843194 0.00570979 0.19086936 -0.0202348
000120 4c 0d a7 bc d7 d0 97 bc 54 7a 8f 3a 60 51 46 3e
       -0.020392083 -0.0185322 0.0010946491 0.1936698
000130 2a 50 c2 3c dd cd 57 3c d1 70 16 3d 6b 11 93 ba
       0.023719866 0.01317164 0.036728684 -0.0011220401
000140 c8 84 4f 3c 3d 89 a0 3a d2 66 fa bc c7 1c 44 bd
       0.012665935 0.0012247931 -0.030566607 -0.047879007
000150 85 e9 81 bd 13 57 79 3e bb 60 34 3c 66 ef 84 bc
       -0.063433684 0.24349622 0.0110093905 -0.016227435
000160 b2 42 91 bc 0f c0 ff bb 42 61 6f bb b3 74 b5 bc
       -0.017731998 -0.0078048776 -0.0036526476 -0.022150373
000170 62 9f 17 3b 79 b5 d5 3e 24 06 0a 3d b0 77 3c b9
       0.002313577 0.41740015 0.033697262 -0.00017973664
000180 d3 46 dc bc 90 a0 df bc 1b 78 f0 bb 3a 14 96 bd
       -0.02688924 -0.027298242 -0.0073385364 -0.07328077
000190 d5 b0 a1 ba 0d ee ca 3c 0a de 00 3c b2 ef c7 bd
       -0.0012336025 0.024771715 0.007865438 -0.09762515
0001a0 a3 2a 33 bb 6e fd 01 bc 7e 0e 79 3b 79 8f cf bc
       -0.0027338646 -0.0079339575 0.0038003023 -0.025336968
0001b0 72 81 e0 3c b2 04 ce 3d 7c 0f bf 3c 3a 8f 80 3c
       0.027405474 0.10059489 0.023322813 0.015693296
0001c0 af 73 30 3d aa d8 1c 3c 0a 6e cb 3b 46 2a bb 3c
       0.043079074 0.009573141 0.006208186 0.022847306
0001d0 3c 0e 61 3b 32 87 4e bd f9 f3 a8 bb 41 39 0e bd
       0.003434076 -0.0504219 -0.005156037 -0.03472257
0001e0 cf 7d d9 bc d5 c0 d0 3d 48 0f da bc 51 4d ee 3b
       -0.026549248 0.1019303 -0.026618615 0.0072724004
0001f0 4b 90 c0 3b e2 d4 04 bd 10 7a 3b 3c 3e fe b7 bb
       0.005876576 -0.032429583 0.011442676 -0.005615025
000200 40 11 af bc 55 3c 6e 3d b3 52 ff 3c 2c fe 80 3d
       -0.02137053 0.058163006 0.031167364 0.062984794
000210 3b 5d 95 3c a8 62 1b 3d 63 1e a3 3c be c2 14 3d
       0.018232932 0.037935883 0.01991195 0.036318533
000220 4f fe 40 3d 46 8a 13 3c bd 3b b5 3d 94 bd a4 3c
       0.047117528 0.009005135 0.08849285 0.02010993
000230 c2 7c 18 3d a2 8d 71 bc 2c 1e 83 bb 36 00 1e 3c
       0.037228353 -0.014743241 -0.0040013995 0.009643605
000240 9d 5b b9 bb 43 b6 c8 ba cf d5 e7 bc 72 8d 85 3c
       -0.005656673 -0.0015313107 -0.028300194 0.016302798
000250 4c d4 a5 bd 6d 77 de bc 69 b1 ce bc 43 b8 f6 bb
       -0.08097133 -0.027156556 -0.02523108 -0.00752929
000260 7e 84 3c 3c c8 8f 4f 3b 39 9a d1 3a b6 6e 11 3d
       0.011506198 0.0031671394 0.0015991397 0.035505973
000270 4f 23 c8 bc 48 48 5c bd 03 53 03 bc 07 50 5b 3d
       -0.024430899 -0.05377987 -0.008015397 0.053543117
000280 8e d4 8d bb a8 a6 82 bb b5 37 89 3d 21 a1 20 3b
       -0.004328317 -0.003987152 0.067000784 0.0024510103
000290 c2 58 1a bd 74 fd e3 3c 45 b3 1c 3e 3f 1b 4d 3d
       -0.037682302 0.027830817 0.15302761 0.050074812
0002a0 16 24 28 3d 8e 5d f9 3d fd 1c c5 3d 3f 2b fa 3b
       0.04105004 0.12176047 0.0962467 0.00763455
0002b0 81 2a 8a 3b 91 05 68 3c 60 14 0f 3d f8 0b 4d bd
       0.0042164926 0.014161483 0.03493154 -0.050060242
0002c0 86 1c f1 3c 51 29 80 3c 32 90 c0 3c 8d 97 31 3d
       0.029432546 0.015644701 0.023506258 0.04335742
0002d0 10 85 9e 3b f6 2e 08 bd b9 d0 07 3d 78 7c ac 3c
       0.0048376396 -0.03324791 0.033158038 0.021055445
0002e0 a3 21 e8 3c 89 c1 69 3c 67 69 18 bd 98 eb d2 3d
       0.028336352 0.014267334 -0.037209895 0.10298842
0002f0 d0 ed 06 3c 07 58 a5 bc 80 82 63 bc 89 e0 64 bc
       0.00823541 -0.020183576 -0.013886094 -0.013969549
000300 57 b5 b8 bd 24 75 54 3e 52 8a df 3c 7a 4c 07 bd
       -0.09018963 0.2074781 0.027287636 -0.033031918
000310 45 39 5a bb 35 96 89 bd c4 07 d8 3c a0 68 5b 3d
       -0.0033298295 -0.06718103 0.02637089 0.053566575
000320 12 cf 0d 3c b9 7e 1a bc 95 0f 32 3e c4 1a 80 bb
       0.008655326 -0.009429627 0.17388757 -0.0039094407
000330 7c cc 17 bd d0 68 7d 3c 4c 29 08 bd 68 26 a5 3c
       -0.037060246 0.015466884 -0.03324251 0.020159915
000340 10 b7 84 3d ce 12 9e 3c e1 0f e9 3c d9 2e fa 3c
       0.06480229 0.019296076 0.028449954 0.030539917
000350 19 f3 7b 3c 89 d8 b4 3c 8e d3 26 3c 1a ba 92 3c
       0.015377783 0.022075908 0.0101822745 0.017911006
000360 15 09 63 bd c9 6f 00 bd 8e f7 96 bd 46 2d 1b bd
       -0.055428583 -0.031356607 -0.07371436 -0.037884973
000370 7c 18 17 3d 93 55 b3 bd 94 88 59 bd d8 f9 be bc
       0.036888584 -0.08756556 -0.053108767 -0.023312494
000380 2e 46 50 bd b6 a5 8b 3c ce d1 bc 3d f8 47 af 3c
       -0.05084818 0.01704679 0.092197046 0.021396622
000390 3c 2e 06 bd 1c da 02 3d f2 e2 f4 bc 4a ec 7e bd
       -0.032758936 0.031946287 -0.029893372 -0.06223706
0003a0 9c 5f 1e 3c 24 09 2f 3d 76 c5 99 3c 66 57 b8 3c
       0.00966635 0.042733327 0.018770915 0.022502612
0003b0 0f cd 2f bd 9c 97 4e bd f8 79 4f bb 46 f9 7e 3d
       -0.04292017 -0.050437555 -0.0031658392 0.062249444
0003c0 b7 1d c3 3c d0 58 20 bd 70 cf db ba 75 f2 86 3c
       0.02381788 -0.0391472 -0.0016770195 0.016473034
0003d0 d6 6c cc 3c de e3 f4 bc 55 5d 34 bc 08 f6 9b 3c
       0.02495424 -0.029893812 -0.01100858 0.019038215
0003e0 e4 81 84 bd 16 81 27 3c 80 17 56 3d 57 61 98 bc
       -0.06470087 0.010223648 0.052268505 -0.018601103
0003f0 06 b1 a8 bc bd c2 2a bd cc fb 3d bd 2a 37 59 bd
       -0.020592224 -0.041689623 -0.04638271 -0.053031124

backbone.2.conv3x3.bias f4 [32]
000000 22 38 34 bd 8d 1c e9 3c 58 68 30 bd 78 6d 3a bd
       -0.043998845 0.028455997 -0.04306826 -0.045514554
000010 e5 2b 30 bd 6a 10 42 bd 6a d2 3a 3d 59 42 cf bc
       -0.04301061 -0.047378935 0.045610823 -0.025300192
000020 9e bb 14 3d 5b ea 84 bc e7 c5 91 bc d5 ac 84 bc
       0.03631174 -0.01622503 -0.017794563 -0.016195694
000030 e8 05 43 bd c1 92 8a 3c 25 d6 be bc 43 99 8e 3c
       -0.047613055 0.01691568 -0.023295471 0.017407065
000040 7d c8 4c bd fd d5 17 3c 84 12 43 3d 8c cc 97 bc
       -0.049995888 0.009267327 0.04762508 -0.018530153
000050 e1 5a 4a 3c 52 a8 6d bd 46 d2 c4 bc d1 79 47 3d
       0.012350769 -0.05802185 -0.024026047 0.048700158
000060 c9 8a bf 3c cd 4c b3 3c 6f 1f d2 3c 57 60 44 bc
       0.023381608 0.021887207 0.025649754 -0.01198586
000070 0c d7 cb bc 4b 7c 63 3d 64 a1 b1 bc 50 ea 9a bb
       -0.024882816 0.055538457 -0.021683402 -0.0047276393

backbone.2.bn.weight f4 [32]
000000 d0 ae 82 3f fc 17 88 3f 0b d8 93 3f 1e 27 6e 3f
       1.0209599 1.063232 1.1550306 0.9302844
000010 1f c7 74 3f 38 68 78 3f 18 96 78 3f 43 fc 83 3f
       0.95616335 0.97034025 0.97104025 1.0311359
000020 d4 6c 81 3f 6e 52 6d 3f 7f 1e 62 3f 6f 45 81 3f
       1.0111337 0.927039 0.88327783 1.0099314
000030 d4 7f 5f 3f 6e 39 85 3f 46 6b 6c 3f 2f 94 af 3f
       0.87304425 1.0408151 0.92351186 1.3717097
000040 c9 ef 64 3f e8 ef 80 3f 52 69 85 3f 3b 51 8e 3f
       0.89428383 1.0073214 1.0422766 1.111854
000050 a4 85 71 3f 9a 5e 83 3f 2f d8 55 3f a3 04 89 3f
       0.94344544 1.0263245 0.83532995 1.070454
000060 44 9b 5d 3f 0b f4 78 3f 22 e3 7e 3f 81 5f 76 3f
       0.8656504 0.9724738 0.9956533 0.9623948
000070 56 87 8b 3f 0d fb 76 3f 6b 85 84 3f f2 dc 77 3f
       1.0900676 0.96476823 1.0353216 0.9682151

backbone.2.bn.bias f4 [32]
000000 12 d2 e8 be 54 4a 47 be 60 e0 04 be 9d cc db bd
       -0.4547277 -0.19461948 -0.12976217 -0.10732386
000010 af 9b bf be 76 32 df bd 8e 6e ce 3d c7 10 04 be
       -0.37423465 -0.108982965 0.100796804 -0.12897025
000020 e4 23 2c bc 00 0c 91 be 4a b8 b9 be 2f 6d a2 3b
       -0.010506604 -0.28329468 -0.36273414 0.0049568634
000030 41 8a 8e be 68 e3 2a be 5e df 3c be 4c bd a4 be
       -0.27839854 -0.16688311 -0.18444583 -0.32175672
000040 54 d4 38 be 8a 4b 9e be 22 68 a7 be f3 89 a4 be
       -0.18049747 -0.30917007 -0.32696635 -0.32136497
000050 9f a3 82 be 91 2c c6 bd e8 d5 3c be 4f fb 61 be
       -0.25515458 -0.09676469 -0.18440974 -0.22068523
000060 d6 01 41 be 6d 84 95 be 85 a7 8e be 52 12 65 be
       -0.18848357 -0.29202595 -0.27862182 -0.2237027
000070 a7 83 92 be 9c 6b 48 bd 4f 19 8c 3d 27 b2 ee bd
       -0.28616068 -0.04893075 0.06840765 -0.116550736

backbone.2.bn.running_mean f4 [32]
000000 b2 20 0d 3f a3 3e bb be 24 4b 1f bf 33 19 3d bf
       0.55128014 -0.36571226 -0.6222403 -0.73866576
000010 29 fb 0f 3d 75 13 2c bf 4f b7 a9 bf 65 98 02 bf
       0.035151634 -0.6721719 -1.3259066 -0.51013786
000020 94 7f 79 bf 06 e8 0f 3f 4f 58 bc be 87 d3 a0 bf
       -0.97460294 0.56213415 -0.36786124 -1.2564553
000030 b2 6e 51 3f 4b 35 06 bf 58 c4 60 bf db bc 84 bd
       0.8180953 -0.5242507 -0.87799597 -0.06481334
000040 0a 10 33 bd 67 f1 ba be 17 f0 28 bd de c4 f9 be
       -0.043716468 -0.365123 -0.041244593 -0.4878301
000050 14 eb e1 3e 73 31 3d be d9 d4 5b 3e 9b 6c 9c 3d
       0.44124663 -0.18475895 0.21467914 0.07637902
000060 ac 27 9d 3f 1c 7a 39 bf 4b f9 96 bd ab c0 c7 be
       1.2277732 -0.7245195 -0.073717676 -0.39014181
000070 03 a3 23 bf f9 29 3f bf f9 a7 a8 bf c0 4b 48 bf
       -0.6392061 -0.7467342 -1.3176261 -0.78240585

backbone.2.bn.running_var f4 [32]
000000 f6 48 0a 3f fe 49 cd 3e bb a0 c1 3e e6 fd 4b 3f
       0.5401758 0.40095514 0.3781794 0.79684293
000010 7b f2 da 3e 6c 28 9c 3e 21 de 17 3f 9c 38 00 3f
       0.42763123 0.3049959 0.59323317 0.5008638
000020 af 36 50 3f 8c ce 4c 3f 6f 42 fc 3e d0 f8 a1 3e
       0.8133344 0.80002666 0.49269435 0.3163514
000030 b7 11 ad 3e 09 96 e2 3e f9 0d 6d 3f 90 21 8b 3e
       0.33802578 0.44255093 0.92599446 0.27174044
000040 be 9e a7 3e 85 ba 08 3f 42 66 ea 3e a2 a2 b6 3e
       0.32738298 0.53409606 0.45781142 0.35670954
000050 9c 85 e4 3e fa ac 19 3f 80 e6 87 3e 92 2a 24 3f
       0.44633186 0.60029566 0.26543045 0.6412746
000060 e1 db d1 3f 90 1c c9 3e 71 54 0f 3f 62 3b d2 3e
       1.6395227 0.39279604 0.5598822 0.4106093
000070 68 0d 09 3f e8 92 d1 3e 77 24 85 3f 8d 99 b1 3e
       0.5353608 0.40932393 1.0401753 0.34687462

backbone.3.conv3x3.weight f4 [32, 32, 3, 3]
000000 8e db c2 bc 67 01 80 bd 16 4d a6 3c f7 3a 3b bc
       -0.023786332 -0.062502675 0.02030043 -0.0114276325
000010 b5 67 96 3d bf b7 08 3c 5f 17 ba bd 41 14 83 3c
       0.07343999 0.00834459 -0.09086489 0.016000869
000020 54 38 34 3d 3d a6 c7 3c 83 70 8a bb a4 d9 d8 3c
       0.04399903 0.02437126 -0.004224838 0.026470967
000030 2b 00 55 3d fd 3d cf bc 9c 0e 61 bd 29 e5 0e 3d
       0.052002113 -0.025298113 -0.054945573 0.034886513
000040 c6 7d 7f 3a b5 94 53 bd 21 71 32 bd fe e5 21 bb
       0.000974622 -0.05165549 -0.04356492 -0.0024703736
000050 2f bb 98 3c c4 e9 34 3b ec 78 6f bc 32 d2 be bd
       0.018643944 0.0027605155 -0.014616232 -0.09317435
000060 bd 0b 86 3b 23 7e 64 3d e2 82 31 bd a9 6f aa bc
       0.004090755 0.055784356 -0.04333771 -0.020805197
000070 f3 02 51 3c 1c 82 bb 3c 3d 31 23 3c ce 90 cc 3b
       0.012757051 0.02288919 0.00996047 0.006242848
000080 46 64 9a 3d 24 a6 5c 3d c2 f0 4d 3d 82 da b7 bc
       0.07538657 0.05386938 0.050278433 -0.02244306
000090 42 f2 85 bc 5a a7 a8 bb fc 6b 1e bc 23 2e 8b bd
       -0.01635087 -0.005146903 -0.0096693 -0.06795909
0000a0 2b 73 0a bd d1 22 9a 3d 65 8d 78 bc a9 ff 4c 3d
       -0.03380124 0.07526172 -0.01517043 0.050048504
0000b0 e2 00 f5 bc 0c b6 0d be 59 a3 de 3c 74 c6 de bb
       -0.029907648 -0.13838977 0.0271775 -0.00679856
0000c0 56 e6 5d bc c7 92 57 3d ba 09 8b 3d b6 bb e9 bc
       -0.013543686 0.052630212 0.067889646 -0.02853189
0000d0 a3 da d7 3d 59 1a e6 3c 20 a6 a9 bc 2c 7b 1a bd
       0.105397485 0.028088735 -0.020709097 -0.037715122
0000e0 0f 16 30 bd 2d 81 ec ba 11 7a 4e 3d b6 f8 d3 bd
       -0.042989787 -0.0018043868 0.05040938 -0.10350172
0000f0 e4 fb f9 bb 2d cd bd bd 62 95 04 bd b8 71 c1 bc
       -0.0076289047 -0.0926765 -0.032369025 -0.023613796
000100 2d 7c ad 3d bd 79 02 bc 98 75 bc 3d be 0a 8c bd
       0.0847095 -0.007963595 0.09202117 -0.068379864
000110 58 51 ad bc 58 ba 0d 3b 96 b2 5c 3d 21 d0 85 bd
       -0.021156952 0.0021625962 0.05388125 -0.06533838
000120 08 b6 8a bd 4b f3 c7 bb 4f ce 88 bb 99 85 ae 3d
       -0.06773001 -0.006102001 -0.0041749845 0.085215755
000130 46 93 bb bd d0 4a 44 bc 7b b4 f2 3b 71 ec 08 bd
       -0.091589496 -0.011980727 0.007406769 -0.033428613
000140 67 38 9c bc a7 21 fa 3b ca 3c 3b 3d 5c 9c bf 3b
       -0.019069863 0.007633406 0.04571227 0.005847497
000150 39 78 8a 3d 4e 55 6e 3d f0 2a 82 bc d1 34 8c 3c
       0.06761212 0.05818682 -0.015889615 0.017115029
000160 c3 27 ed bc 7d d5 02 3c ca ed 7a 3d 41 35 91 bc
       -0.028949624 0.00798547 0.06126193 -0.017725589
000170 cb 89 e8 bc 6e 1b fa 3c 5d 58 30 bd a2 96 05 3e
       -0.028386017 0.030530658 -0.04305302 0.13045743
000180 62 4e cd 3c 2e bb 1e 3d d9 37 03 bd d7 a6 e4 bd
       0.02506179 0.038752727 -0.032035682 -0.11164635
000190 bc 0a 1d 3b 89 da 75 bc ed 7f 1a bd b5 42 b2 bd
       0.0023962697 -0.015005716 -0.037719656 -0.087041296
0001a0 30 68 a3 bd 8f 0b eb bd 92 f8 ab bc f9 fb 63 bd
       -0.079788566 -0.11476814 -0.020992551 -0.05566022
0001b0 87 91 6a b8 9e 86 4b 3d bf 63 27 ba 75 ba ae 3d
       -5.592548e-05 0.049688928 -0.0006385408 0.085316576
0001c0 0f b0 58 3d f8 6b 54 3d d5 ba 97 3c 42 00 2b bd
       0.052902278 0.05186078 0.018521706 -0.041748293
0001d0 06 41 73 3a 59 b2 a4 bc 16 d2 55 3d c5 fb e7 bc
       0.00092794036 -0.020104574 0.052202307 -0.028318295
0001e0 9b 17 14 3d 03 47 49 bd 12 8c 5c 3d 94 e3 8e 3d
       0.036155324 -0.049139988 0.05384452 0.06977001
0001f0 9b 96 57 bc 8d 56 39 3d 33 14 48 3b 4d 32 7d 3d
       -0.013158466 0.045248557 0.0030529618 0.06181555
000200 0a 37 6c 3d b2 e3 c5 3d f8 19 44 3d 0f ec bc 3d
       0.057669677 0.0966257 0.04787633 0.09224712
000210 ee 00 09 3d d9 2b bf 3c a3 ca d9 3c 55 d6 db 3c
       0.033448152 0.023336338 0.026585883 0.0268356
000220 3d 37 ec 3d 3e 57 3b bc f4 7c 11 3e bb 99 50 3d
       0.11533973 -0.011434374 0.14207822 0.05092786
000230 cb 93 6b 3d 85 21 f7 3a d2 2b 1a 3e 15 d3 2e bc
       0.057513993 0.0018854594 0.15055779 -0.010670443
000240 c3 73 86 bd 20 b5 60 bd 1d 39 0c bd d2 c0 23 be
       -0.065650485 -0.054860234 -0.034234155 -0.15991524
000250 72 a2 0b be fd 1b f0 3a e2 a9 9d 3a f2 9f b4 bd
       -0.13636187 0.0018318888 0.0012028778 -0.0881957
000260 36 fd 3a 3c 2a 5e 17 bc 32 05 80 3d 9f 65 3a 3b
       0.011412909 -0.009238759 0.06250991 0.0028441919
000270 4d 6e 2a bd 1c b4 c8 3b a6 90 11 3b d9 7e e4 3c
       -0.041609097 0.0061249863 0.0022211461 0.027892517
000280 71 67 78 3d 00 3b c2 3b fc 34 5d 3d 64 93 2b 3c
       0.060645524 0.0059274435 0.054005608 0.010472152
000290 5c 1b 10 bc f2 17 33 be b8 59 d2 3d ca 4f 8e bc
       -0.0087955855 -0.17489603 0.10271019 -0.01737203
0002a0 a3 aa e3 bc 3c 6a 7b 3d 4c 74 2b 3d 01 ad 03 3c
       -0.027791327 0.06138061 0.041858956 0.008036853
0002b0 5f 84 25 bd 66 9e fe bb 08 6e f2 bd a9 6b 04 be
       -0.040409442 -0.0077703474 -0.11837393 -0.12931694
0002c0 b2 02 d8 3d b5 11 e5 bb 57 eb 1d 3d 56 47 c1 3c
       0.10547389 -0.0069906362 0.038554516 0.023593586
0002d0 4c 34 38 3d 92 e2 81 bc 51 8b 1a bd e3 32 9a 3d
       0.04497175 -0.015855107 -0.03773052 0.07529237
0002e0 23 73 f6 37 f6 74 73 bc 06 4a ab bc cd 47 cf bc
       2.93791e-05 -0.014859429 -0.02090932 -0.025302792
0002f0 75 0e 05 3c dd 28 9c bb 96 a7 b4 3c 9b c7 66 3c
       0.008121123 -0.0047656135 0.022052567 0.014085676
000300 7e f4 23 3d 9d 5d db bc 73 6f 50 3d 50 12 a4 3d
       0.040028088 -0.026778037 0.050887536 0.08011305
000310 a5 4f 9e 3d 19 76 71 3a ca c5 a4 3a f4 7c 39 bd
       0.07730035 0.00092110183 0.0012571153 -0.04528518
000320 4f a1 e0 3c 1d 84 29 bd 9a 60 3a bd 64 08 23 3b
       0.027420668 -0.04138576 -0.045502283 0.0024876827
000330 50 02 f7 bb 1c 7d ee 3c 0d 23 11 bd f7 60 f0 bb
       -0.0075381175 0.029112391 -0.035433818 -0.007335778
000340 90 32 29 3e 2e 35 35 3d e0 24 ba 3d 71 13 fb 3c
       0.16523194 0.04424017 0.090890646 0.030648919
000350 60 6d 22 bd bc 8c 94 3c 06 ef b4 3c 79 42 05 bd
       -0.03965509 0.018133514 0.022086632 -0.032534096
000360 7a df 99 3c 3e f7 1c 3d bc 23 1d bd 49 a7 de bc
       0.01878332 0.038321726 -0.038364157 -0.027179377
000370 ee 44 89 bb 32 ce 90 3c 0b 6d f9 39 b1 54 3d bd
       -0.0041891253 0.017676447 0.00047574224 -0.046223346
000380 83 50 35 bc 48 a8 ba 3c 2e ea af 3c 51 96 44 3d
       -0.011066559 0.02278532 0.02147397 0.047994915
000390 42 b2 33 3d f6 d3 29 3d 61 9c 4f 3b 11 fe 72 3c
       0.04387117 0.041461907 0.0031678902 0.014831082
0003a0 8d 08 14 bb f7 e7 d1 bc 7e a7 4e 3d 6f c9 a1 bc
       -0.0022588104 -0.025623305 0.0504527 -0.019749371
0003b0 78 c6 2a bd 82 7f 1c 3d c4 30 76 3c 0e c2 62 3d
       -0.04169318 0.03820754 0.015026275 0.055360846
0003c0 66 35 2a 3d 34 8f 1a 3d 77 d8 9f 3d 96 23 df 3c
       0.04155483 0.037734225 0.07804959 0.027238648
0003d0 ce 47 90 bb be ec 1c 3d 6b 36 76 3d c0 c5 83 3d
       -0.004403091 0.038311712 0.06011049 0.06434202
0003e0 b6 e4 e8 3d 07 83 45 3c a7 37 fa 3c 74 de 12 3d
       0.11371748 0.012055165 0.030544115 0.03585668
0003f0 fc 02 7e 3b 69 1b ad 3d 7b d4 61 3c 4c 26 35 bc
       0.0038759103 0.08452494 0.013783569 -0.011056494

backbone.3.conv3x3.bias f4 [32]
000000 b4 83 12 3d 66 51 a6 3b 9f ef b4 bc a9 b4 01 3c
       0.035770133 0.0050756214 -0.022086916 0.007916608
000010 3a bb 98 bc 8b dd 3d bd ad 8d 24 bc 9c 02 70 bd
       -0.018643964 -0.046353858 -0.010043544 -0.05859624
000020 b3 0c 9b bc ec 65 9e 3c 63 9b 3d bd 7d 90 b6 3c
       -0.018926954 0.01933571 -0.046290766 0.022285694
000030 83 5c 71 3d 84 d5 74 3c 81 c8 24 bd 40 95 a7 bc
       0.058926117 0.014943484 -0.040230278 -0.02045691
000040 11 39 7b bc 29 71 ae bb 30 50 2f bd 57 b1 7e bc
       -0.01533343 -0.0053235483 -0.042801082 -0.015545211
000050 93 d3 90 3c b9 0b 5e bd 6a 5e 30 bd a3 31 e5 3c
       0.017679011 -0.0542104 -0.04305879 0.02797777
000060 3d 1e 4f bc ee fd ff bc aa 35 f9 39 f8 1d 02 3d
       -0.012641487 -0.031249013 0.00047532964 0.03176686
000070 ae 55 f4 3c 4a 77 1a bc 33 69 f4 bb 8a 03 e8 3c
       0.029826012 -0.009427855 -0.00745883 0.028322

backbone.3.bn.weight f4 [32]
000000 e4 69 68 3f d3 14 76 3f eb ef 84 3f d0 5f 7b 3f
       0.90786576 0.96125525 1.0385717 0.98193073
000010 50 3a 70 3f be e4 87 3f f4 83 88 3f 87 db 86 3f
       0.9383898 1.0616682 1.0665269 1.0535744
000020 20 86 56 3f 93 92 6d 3f 37 3d 79 3f 3b 2e 80 3f
       0.8379841 0.9280178 0.9735903 1.0014108
000030 8b 57 79 3f 93 01 81 3f e0 e6 7f 3f 4e d2 8f 3f
       0.97399205 1.0078605 0.9996166 1.1236055
000040 eb 74 85 3f ec 59 86 3f 1f 80 6d 3f 6e f0 74 3f
       1.0426306 1.0496192 0.9277362 0.95679367
000050 68 82 86 3f f3 3e 5e 3f 76 74 80 3f ff 00 67 3f
       1.0508547 0.868148 1.0035541 0.90235895
000060 f3 9b 83 3f 77 59 8f 3f d7 43 65 3f f5 34 76 3f
       1.0281967 1.1199178 0.8955664 0.96174556
000070 12 d4 7b 3f fe 14 68 3f 42 66 95 3f 44 23 6e 3f
       0.9837047 0.9065703 1.1671832 0.9302256

backbone.3.bn.bias f4 [32]
000000 d0 97 bc be 12 c7 be be fa c6 89 be ee 4e 8e be
       -0.36834574 -0.37261254 -0.2690962 -0.27794594
000010 b9 24 c8 bd a4 6e b8 be 27 34 bc be 4e bc 42 be
       -0.09772629 -0.36021912 -0.3675854 -0.19017145
000020 79 50 ad bd 65 b9 6f be 69 0d 8d be 8a f6 4a bc
       -0.084626146 -0.23410566 -0.27549294 -0.012387881
000030 5c 06 26 bd db 00 43 be cb fc 43 be fc a5 91 be
       -0.04053341 -0.19043295 -0.19139402 -0.2844695
000040 18 c6 a0 be 5c de 8a be c3 eb 83 be 9b 01 af be
       -0.31401134 -0.27122772 -0.2576581 -0.34180912
000050 55 1e ad 3d 4b fb 45 be 91 a8 43 bd 99 d1 cb bd
       0.08453051 -0.19334142 -0.04776818 -0.09952087
000060 3f d7 cd be ca ec cb 3d 59 10 8c be 98 e6 83 be
       -0.40203282 0.09957273 -0.27356222 -0.25761867
000070 7a de b8 be fc fb 5e be 64 5f 5a 3e 4a 94 73 bd
       -0.36107236 -0.21775812 0.21325451 -0.05946759

backbone.3.bn.running_mean f4 [32]
000000 7a c4 ba 3e 5b c4 82 3e 43 fe 67 be d6 9d 9b 3e
       0.36478025 0.25540432 -0.22655587 0.30393857
000010 fb 37 2d bd 8a 8b 55 3e dd 6b 4b bd 1f a0 e2 3d
       -0.042289715 0.20854011 -0.049663413 0.11065697
000020 47 f6 ad bc 5f 6f 70 bd 37 df f3 bc 64 50 2b bf
       -0.021235598 -0.05869996 -0.029769523 -0.6691954
000030 ae 4c 49 3f 11 23 e4 bb 51 7b c6 bd a6 b8 4c be
       0.7863263 -0.006962188 -0.096914895 -0.19992313
000040 97 ed 33 bc fa 94 d6 3d f3 75 1b 3e b6 d3 a4 3e
       -0.010981939 0.10477634 0.15181713 0.32192773
000050 39 fd f4 be 40 15 39 3f 52 9b 9d bd 5e 7c 61 3f
       -0.47849444 0.7229805 -0.076956406 0.88080394
000060 30 9e 02 3c e4 fe be be 55 aa 00 3d fb 24 e7 bd
       0.007972285 -0.3730384 0.03141244 -0.1128635
000070 10 ce 11 3e 4b 1b 5e 3e 0f 9e 45 bf 05 15 ed 3e
       0.14238763 0.21690099 -0.77194303 0.463051

backbone.3.bn.running_var f4 [32]
000000 bd 07 33 3f 88 01 89 3f 92 14 6d 3f 0c 97 db 3e
       0.6993368 1.0703592 0.9260951 0.42888677
000010 60 2b e9 3e c7 46 1b 3f 79 e2 34 3f b2 3b 2d 3e
       0.45540905 0.6065487 0.7065807 0.16917303
000020 0c a4 07 3f cf f6 1a 3f 4d 5d 67 3f 8e 01 93 3e
       0.5298469 0.6053285 0.9037674 0.28712124
000030 c1 08 16 3f a2 0e c9 3e e8 5c 03 3f 5a f1 2c 3f
       0.5860711 0.39268976 0.5131364 0.67555773
000040 03 17 22 3f f1 81 11 3f 96 36 4c 3f f3 81 32 3f
       0.63316363 0.568389 0.7977079 0.69729537
000050 b5 90 bd 3f 6f 42 54 3f a0 b1 f0 3e 53 49 40 3f
       1.4809786 0.8291387 0.47010517 0.75111884
000060 fb 76 28 3f a6 ac 33 3f 86 bf 1f 3f 24 2b 2f 3f
       0.6580655 0.70185316 0.62401617 0.684252
000070 04 93 46 3f 53 b7 83 3f 8e 62 9d 3f 9c 80 42 3f
       0.7756808 1.0290321 1.2295702 0.7597749
