models/gelu_best_epoch.pt (torch, 206379 bytes, 38 tensors)

backbone.0.conv3x3.weight f4 [32, 3, 3, 3]
000000 7b 6c af 3d 10 ea 25 3e be fc 1f bd 83 07 2f 3e
       0.08565613 0.16202569 -0.039059393 0.17092709
000010 83 6e c7 bd 41 87 50 bc b4 65 95 bd d0 64 ee 3d
       -0.09737875 -0.01272756 -0.07294789 0.11640322
000020 2f 15 29 3e b9 71 23 be ba 73 18 3e 3a 6d c0 3d
       0.16511987 -0.1596135 0.14887896 0.09395833
000030 9e 55 0c 3e 7c 69 6a 3d 5c 47 e9 bb a1 73 36 bd
       0.13704535 0.057229504 -0.0071191024 -0.044543866
000040 18 24 fe 3d 58 a0 ef 3b ea 85 ce bd da 92 b5 3d
       0.12409228 0.0073128156 -0.10084136 0.088659
000050 09 78 ad bd 66 64 14 3d 64 79 25 be c9 a9 74 3d
       -0.084701605 0.03622856 -0.16159588 0.059732232
000060 18 bb ea bd b3 30 ec bd 37 f5 c4 bd 8a 12 aa bd
       -0.114614666 -0.11532726 -0.096170835 -0.08304317
000070 98 2f 9a 3d a2 ad 18 be be 73 41 3e 1f c5 3c be
       0.07528609 -0.14909986 0.18891808 -0.1843457
000080 0c ea 08 3e dc 9f 1b 3d b8 c8 a8 bd b3 ed 94 3d
       0.13370532 0.03799425 -0.08241409 0.072719
000090 19 19 93 3c 4d 2f 45 3e b2 9c 5d 3d c2 02 57 bd
       0.017956303 0.19256325 0.054104514 -0.052492864
0000a0 c8 07 d1 3d 69 cf 14 bd a6 2e 8c 3d 31 99 0c 3e
       0.10206562 -0.036330614 0.06844835 0.13730313
0000b0 ab ad d8 3d 49 e0 2f bd 62 84 11 3e 86 c0 47 3d
       0.105799995 -0.042938504 0.14210656 0.04876759
0000c0 27 37 c2 3d 3e 8c 04 be df eb 55 be 8a 4f 68 bd
       0.09483176 -0.12944123 -0.20890759 -0.05671648
0000d0 f9 26 30 be eb 4f 07 3e de 64 77 bb 07 fe 6c 3d
       -0.17202367 0.1321408 -0.003774933 0.057859447
0000e0 0e c3 99 3d 7e 69 0a 3b af 5f 2b 3e 66 f8 a8 bd
       0.07507907 0.0021120007 0.16735719 -0.08250503
0000f0 41 b8 d6 3b 41 11 6c be 2b e2 11 3d 43 73 ff bd
       0.0065527265 -0.23053457 0.03561608 -0.12473156
000100 21 5d 22 3d 13 d3 a1 3c da 37 2c 3e 56 16 1e be
       0.039639596 0.019753968 0.1681818 -0.15438208
000110 77 6a 2f bd 44 d2 ba bd 7f ab 37 3e 8b 62 c1 3c
       -0.042826142 -0.09122136 0.17936514 0.02360656
000120 8c 7d 19 3e 64 9f d0 bd 8b 9b c1 bd cc 7d 32 be
       0.14989299 -0.10186651 -0.094534956 -0.174308
000130 6e 69 b2 bd 74 91 e6 3d 56 3d 29 3d 8d 39 4c 3e
       -0.08711515 0.11258212 0.04131826 0.19943829
000140 70 46 7e bd be 72 b2 bd ff 1a c3 3d 4f d9 92 bc
       -0.062078893 -0.087132916 0.095266335 -0.017925886
000150 3f 8a 29 3e 41 b2 4d be 4e 7d 06 3e 10 bf a5 bd
       0.16556643 -0.2008753 0.13133737 -0.08093083
000160 d8 82 81 bc 17 e8 b4 3c a1 61 dd 3c ff ec d8 bc
       -0.015809461 0.022083325 0.027024092 -0.026480196
000170 d9 15 c6 3d 98 f2 0b 3e 44 1d 94 be bd d2 37 bd
       0.09672136 0.13666761 -0.28928578 -0.04487871
000180 37 aa a9 3d fd 12 13 bd e4 74 37 bd 38 0f 03 be
       0.08284419 -0.03590678 -0.04478921 -0.12798774
000190 a9 44 6a be f7 91 d3 3d 6e 0c 6a 3c 68 22 57 be
       -0.22877754 0.10330575 0.01428519 -0.21009219
0001a0 0a f0 9f 3b 6e 99 e0 bd ec 05 96 bc b3 33 04 bd
       0.00488091 -0.109667644 -0.01831337 -0.032275867
0001b0 18 cc 83 be ed 60 df bd 21 3e 4a 3e 00 45 1b 3d
       -0.2574165 -0.10907159 0.19750263 0.0379076
0001c0 a9 9a 1d 3d 84 89 42 bd f4 62 07 be b0 a1 40 bd
       0.038477574 -0.047494426 -0.13221341 -0.047029197
0001d0 c9 9a 97 3d b0 ee 1d be 34 9d 0e bd 7b f4 b7 bd
       0.0740257 -0.15423083 -0.03481789 -0.08982178
0001e0 cb 21 9b bc e8 f1 ad bd b2 08 9a 3d c2 2b 73 bd
       -0.018937012 -0.084934056 0.0752119 -0.059367903
0001f0 63 65 55 bd dc 01 f8 3c e4 63 e9 bd 48 6d 20 be
       -0.052098643 0.030274324 -0.11396006 -0.15666687
000200 61 15 57 3e 6a b2 7e bc 8e 24 23 3e 71 95 de 3d
       0.21004249 -0.015545467 0.15931913 0.108683474
000210 7e fe 45 be 4e 6f 33 3e a1 fe 6a 3c 28 16 f9 ba
       -0.19335362 0.17522928 0.014342935 -0.0019003795
000220 61 60 72 be 9a 96 ce bd 86 9e 42 3d 95 72 6b bd
       -0.23669578 -0.10087319 0.04751446 -0.05748232
000230 f5 f6 12 3d 30 af 53 bd 07 05 d5 3d cf 80 2b bd
       0.035880048 -0.051680744 0.104013495 -0.04187089
000240 88 24 23 3c 69 ed 10 3d 0e 9b 26 3e d6 f8 9d 3d
       0.00995744 0.035382662 0.16270086 0.07713477
000250 b2 c1 f7 3d f1 6c 4b be 77 c5 f4 3b e0 b0 40 be
       0.12097491 -0.19865777 0.0074698287 -0.18817472
000260 17 10 e0 3c d0 55 37 be 7c cd 43 3e 48 78 52 be
       0.027351422 -0.17903829 0.19121355 -0.20553696
000270 7d b6 53 3d bc 6b e6 3c 1b ec 84 3d c0 cf 06 be
       0.051687706 0.028127544 0.06490346 -0.13165188
000280 05 78 36 3e 62 bd 52 3b c3 9b e1 3c dc 04 66 be
       0.17819221 0.0032156338 0.027540093 -0.22462791
000290 55 4e 5c 3d 83 00 df 3c b9 35 b0 39 d7 e8 5c 3e
       0.05378564 0.027221924 0.00033609362 0.21573196
0002a0 be 94 20 3d 67 29 f6 bd f3 7a 76 bc 46 1d b0 3b
       0.03920435 -0.120196156 -0.015043962 0.0053745834
0002b0 d9 79 b8 3d 8e 5a cf bc 7f 0e 8d bd 02 55 ea bb
       0.090076156 -0.025311735 -0.068875305 -0.007151247
0002c0 16 1f 6f be ab 8f a0 3c 1b cb 23 3e e6 59 e4 bd
       -0.23351702 0.019599756 0.15995447 -0.11149959
0002d0 4e 34 05 3c d0 81 87 3d db dc 52 3c d3 71 3d bd
       0.008130146 0.06616557 0.012870039 -0.04625113
0002e0 1d 17 8f 3d 82 67 04 3e 8b 67 27 3a df 60 4e bd
       0.069868304 0.1293011 0.00063859735 -0.050385352
0002f0 98 08 34 3c dd c7 65 3c e2 e7 9d bc bc c5 cb bc
       0.010988377 0.014024702 -0.01927561 -0.02487456
000300 12 22 e3 3d 30 e7 4d 3e 6d 60 10 bd 17 ba 20 bd
       0.11090483 0.20107722 -0.03524821 -0.03923997
000310 1c dc c1 bb 03 81 0c bd 8b 5f ff 3c 6c 2b 14 3d
       -0.0059161317 -0.034302723 0.031173488 0.036174223
000320 37 46 18 be be 55 95 bd 8a 9a 3f 3e 97 bf 01 3d
       -0.14870535 -0.07291745 0.18711296 0.031676855
000330 35 c2 6f bc f7 46 db bd 3e d9 0f be 69 9f ff bd
       -0.014633705 -0.10706895 -0.14047715 -0.12481577
000340 18 37 ee bc 98 0e 2d 3d 98 d0 a5 3d 32 be 04 3e
       -0.029079005 0.042250246 0.08096427 0.12963179
000350 d1 ea 47 be 11 b5 96 bd 92 54 4a bb ca 9b 60 3e
       -0.19523169 -0.073587544 -0.0030873162 0.21934429
000360 05 a9 a2 3c e0 84 95 3b ef 8c 8e 3d 61 5d 80 bc
       0.019855985 0.004562959 0.06960475 -0.015669527
000370 75 9a 60 bd 38 2e 3b 3e ec 86 24 bd fd 36 e3 bb
       -0.0548348 0.1827935 -0.040167734 -0.0069340453
000380 da d3 9f be 8b 61 ac 3d 35 8a 8d 3d 57 ac 38 3d
       -0.31216317 0.08417042 0.069111265 0.04508623
000390 57 34 77 bd e9 37 57 be 9b 55 4f be f5 8c 95 3d
       -0.06035265 -0.21017422 -0.202475 0.07302276
0003a0 df b8 9d 3d 85 f4 3c 3e d2 69 8c 3d 73 3a b3 3c
       0.07701277 0.18452652 0.06856121 0.021878457
0003b0 2a eb 11 3d 94 04 2e bd 86 96 b5 bd a8 e1 71 be
       0.03562466 -0.042484835 -0.08866601 -0.23621237
0003c0 fb 6c a5 3d 81 57 f4 bc 70 25 d3 bc bf ec 0a bc
       0.08077427 -0.029826881 -0.025774688 -0.008479296
0003d0 b6 1d 58 bd de dd 80 be 2a cf 78 bd 31 5a a5 3d
       -0.05276271 -0.2516927 -0.060744442 0.08073843
0003e0 2c 6b 8d bd 20 dc cb 3d 8e 8a 35 bd 0c 1f 56 be
       -0.06905207 0.09954095 -0.04432159 -0.20910281
0003f0 c2 59 08 3c 54 5a e6 bd 3f 6b 4b be 13 32 03 be
       0.008322181 -0.112476975 -0.1986513 -0.1281207

backbone.0.conv3x3.bias f4 [32]
000000 fb 85 bb bd 86 e5 2a 3e c8 2b 21 3e 4e 3b 73 3d
       -0.09156414 0.16689119 0.15739357 0.05938273
000010 49 ad 52 3c 9d de 29 be 74 c8 f1 bc b5 14 3f 3e
       0.012858697 -0.16588826 -0.029514529 0.18660243
000020 58 6b 5d 3d 00 1d 95 3c f1 60 29 bd 21 d2 88 bd
       0.05405745 0.018202305 -0.041352216 -0.06680704
000030 8d af e9 3d fc dd 41 3c 55 4c 01 3e ad 59 0a bd
       0.11410437 0.01183271 0.12626775 -0.033776928
000040 bc f2 b6 3d 62 cd a2 3d 41 6a c7 3c 2e aa f1 3d
       0.08933017 0.0794933 0.024342658 0.11800037
000050 de c6 f8 3d a8 77 35 3e 11 5e 17 3e 27 57 51 bd
       0.12147306 0.17721426 0.14781977 -0.051108506
000060 a0 eb 26 be 01 81 0f 3d b2 da 85 bb d2 d8 4d bd
       -0.16300821 0.035035137 -0.0040849084 -0.050255604
000070 0e a4 ff bc 00 7e 23 3c 52 3a 13 3e 91 25 73 3d
       -0.031206157 0.009978771 0.14377716 0.059361998

backbone.0.bn.weight f4 [32]
000000 f0 a3 7e 3f e2 e7 71 3f 26 01 82 3f 59 47 84 3f
       0.994689 0.9449445 1.01566 1.0334274
000010 a3 5e 82 3f 73 5a 8c 3f 0d e7 82 3f c6 fc 7b 3f
       1.0185131 1.0965103 1.0226761 0.98432577
000020 7f 1f 89 3f 67 ee 80 3f ee 7b 84 3f f8 34 77 3f
       1.0712737 1.0072755 1.035032 0.965652
000030 c2 11 86 3f fb a6 83 3f e8 3d 85 3f 2b c1 85 3f
       1.0474169 1.0285333 1.0409517 1.0449575
000040 83 8e 88 3f 86 e7 7d 3f e4 d1 85 3f 0e ef 82 3f
       1.0668491 0.991814 1.0454679 1.0229204
000050 bb 88 7e 3f 64 59 80 3f 84 9c 80 3f 4f b0 84 3f
       0.99427384 1.002728 1.0047765 1.0366305
000060 27 4b 79 3f 7c f4 7c 3f e7 4f 74 3f 95 8d 83 3f
       0.973803 0.98810554 0.9543442 1.0277582
000070 ce 6e 86 3f 37 0f 7f 3f b0 88 8d 3f e8 ae 75 3f
       1.0502565 0.9963259 1.1057339 0.9597001

backbone.0.bn.bias f4 [32]
000000 cf 81 c8 bc d3 2a f4 bb e4 33 28 3e cb cc 27 3d
       -0.02447596 -0.007451394 0.16426045 0.04096679
000010 3c ee a6 3d a0 47 ba bc 37 12 5c 3e 25 c6 5b 3d
       0.08150908 -0.022739232 0.21491323 0.053655762
000020 b4 47 da 3d 96 7d e4 3b e1 08 8b bc 6e 3d 8c bc
       0.106582075 0.006972979 -0.016972007 -0.017119136
000030 24 32 00 3d 4f 06 45 3e fb 08 fa 3c 29 d6 f2 ba
       0.031297818 0.19240688 0.03052186 -0.001852696
000040 3d d0 29 3e 22 dd 8c 3d 1c 6d 96 3e 7e 0f 01 3e
       0.16583343 0.06878115 0.2938012 0.12603566
000050 94 c2 ea bc dc 69 66 3e 7b 62 1b 3b 23 dc 35 3c
       -0.028657235 0.2250132 0.0023709822 0.011099848
000060 10 28 17 3d f5 2b ca bc 2c 63 9e 3e 12 63 68 bc
       0.03690344 -0.024679163 0.30935037 -0.014183776
000070 e1 8c 54 3d 00 86 39 bc 72 2b 08 bd 54 2a ed 3c
       0.051892165 -0.011323452 -0.033244558 0.028950848

backbone.0.bn.running_mean f4 [32]
000000 4e f6 c5 3c e8 b7 9b 3e 3d 46 2a 3e c8 bd 0c be
       0.024165299 0.30413747 0.16628356 -0.13744271
000010 c4 ba 03 be e4 c0 6b be 2b 0e db bc 21 7a 3f 3e
       -0.12864214 -0.230228 -0.026740154 0.18698932
000020 bd 41 03 bd 26 cf 19 be a7 73 e2 bd e9 98 54 3d
       -0.032045115 -0.15020427 -0.11057215 0.05190364
000030 b5 07 22 bd 9d 9c 0c 3b 78 7e 68 3d 39 2d e2 bd
       -0.03955813 0.0021455653 0.056761235 -0.11043782
000040 f7 2e c1 3d 95 69 22 3d 8a ce 3d 3d b3 53 09 3e
       0.09432786 0.039651472 0.04633955 0.13410835
000050 f6 86 64 3e c5 b7 49 3e 3e 93 07 3d 28 c3 26 be
       0.22317109 0.19699009 0.033099405 -0.16285384
000060 08 14 a9 bd a8 5d 1b 3e 87 96 93 3c 31 c1 c2 bd
       -0.08255774 0.15172446 0.018016113 -0.095095046
000070 9a 29 ef bd 16 2e 90 bd d0 b7 32 3d 2d 61 c1 3c
       -0.11677857 -0.0704004 0.04363233 0.023605907

backbone.0.bn.running_var f4 [32]
000000 aa de 9b 3b 76 f3 bd 3b 78 43 16 3a 2c a6 6f 3c
       0.0047567682 0.005796845 0.00057320995 0.014627021
000010 a5 2e 13 3c ca 25 18 3b 0b 34 eb 39 15 ac 4f 3a
       0.008983289 0.0023215883 0.00044861468 0.00079220656
000020 a1 cf 83 3b 46 d9 4a 3c b5 ae 17 3b d7 cd b7 3b
       0.004022554 0.012380904 0.0023144905 0.005609255
000030 04 29 2c 3c 50 e7 26 3a 42 39 17 3b 90 aa 21 3b
       0.010507826 0.0006366866 0.00230749 0.0024668314
000040 55 c2 e2 3a 28 9f 45 3b bf 02 f0 39 8e fb 2b 3a
       0.0017300347 0.003015468 0.00045778413 0.0006560617
000050 e5 b8 a7 3b f0 c6 8f 3a 30 f0 c5 3b ce 00 9f 3b
       0.0051184767 0.0010969322 0.0060405955 0.004852391
000060 ff 9d 6e 3b b1 20 e2 3b 0f 9e 67 3a f9 cf e6 3a
       0.003641009 0.00690087 0.0008835503 0.0017609588
000070 86 a3 38 3b 05 4c 3b 3b ce f1 88 3b 67 ff 16 3b
       0.002817364 0.0028579247 0.004179216 0.0023040415

backbone.1.conv3x3.weight f4 [32, 32, 3, 3]
000000 a5 bf 12 3d 00 63 4d bc 1f a8 89 3c 59 60 21 bc
       0.035827298 -0.0125358105 0.0168038 -0.009849631
000010 62 f4 d2 3d 8c bc 9f bc 51 cc 2e 3d 15 04 5f bc
       0.103005186 -0.019499086 0.04267532 -0.013611813
000020 5b 4a 79 3c a9 0f 9e 3b ea 6c 3b bd 8d 98 0e bb
       0.015215482 0.004823644 -0.045758165 -0.0021758408
000030 20 e4 91 3a 9e 92 a9 bc 29 c2 be bc 65 8d c3 3c
       0.0011130609 -0.020699795 -0.023285942 0.023871133
000040 8a ab a7 3c 66 fb 92 bb c2 b4 10 3d f6 ea b9 bc
       0.020467538 -0.0044855354 0.035328634 -0.022695046
000050 b6 00 dd bb d5 ec b7 bb 44 85 5c bd 14 a7 b1 bb
       -0.0067444695 -0.0056129494 -0.05383803 -0.0054215286
000060 e9 83 89 bc df 62 be 3a 05 38 c6 bb 73 8e 20 3c
       -0.016786532 0.0014525315 -0.0060491585 0.009799588
000070 53 7d 0e 3d 8f 24 30 bd 5d 41 4a bc 10 04 9e 3c
       0.034787487 -0.043003615 -0.012344685 0.019289047
000080 02 bd 37 bc 3d 5d 87 bb 4a 54 95 3d 04 a0 0c bd
       -0.011214497 -0.004130988 0.072914675 -0.03433229
000090 c9 b0 15 bd db c9 32 bc 49 f9 be bc 3c 93 4f bc
       -0.03654555 -0.010912384 -0.023312228 -0.012669381
0000a0 12 4e bf bc 39 a9 91 3d 57 db f4 3b d3 34 19 bc
       -0.023352657 0.07112355 0.0074724364 -0.009350973
0000b0 b7 56 fc bc a8 b7 ca bb a1 d0 5e 3c 01 6d 8e bc
       -0.030803068 -0.0061864443 0.013599546 -0.017385961
0000c0 e2 38 6c bc 73 93 db 3d fd ba 2d bd 52 6c 12 bd
       -0.014417859 0.10721483 -0.042414654 -0.035747834
0000d0 48 6b 07 bc 9d c6 8f 3c 3b c6 f0 bc 46 ed a6 bc
       -0.008265324 0.01755076 -0.029391399 -0.020376813
0000e0 bc 7b 8a 3c 7b 0b f6 bc 0a eb ae 3d c3 59 e6 bc
       0.016904704 -0.030034771 0.08540924 -0.028118974
0000f0 7a 8d 88 bd ac c2 78 bd 8b b8 17 3d a2 21 9f bc
       -0.066676095 -0.06073253 0.03704123 -0.019425217
000100 83 8f 7c bd e0 02 7c bb d8 f6 54 bd eb c9 90 bb
       -0.0616603 -0.0038453862 -0.05199322 -0.0044186017
000110 bd 33 34 bd 02 23 ff 3c 40 7c bd 3c 6f 7e 29 bc
       -0.043994654 0.031144623 0.023130536 -0.0103450855
000120 de e1 58 bd 6a d6 0a bd 70 d5 08 3d dd c9 d7 bc
       -0.05294978 -0.033895887 0.033406675 -0.026341373
000130 14 b5 56 bc 6c b5 f4 39 2d 70 39 3d a2 af b8 bc
       -0.013104696 0.00046674476 0.045272995 -0.022544686
000140 42 3c 9f bc 73 92 dd 3c 75 a8 32 3d 83 f8 6f 3d
       -0.019437913 0.027047371 0.043617684 0.05858661
000150 7e f8 5d 3d d3 bb af 3c 4f 9c 54 3d f9 88 f0 3c
       0.05419206 0.021451866 0.05190688 0.029362189
000160 36 57 72 bd a4 e5 1c 3a 86 14 41 bd 08 c5 30 bd
       -0.059165202 0.0005985147 -0.047138713 -0.043156654
000170 ab 1e 29 bd ca b1 b1 bc df 01 09 3b d2 74 dc bc
       -0.041289013 -0.021691222 0.0020905656 -0.026911173
000180 18 29 bc bc 90 12 6c bd 04 bd 18 3d da 89 c6 bc
       -0.022968814 -0.05763489 0.037289634 -0.024235655
000190 e6 12 ba 3c 75 61 bc bb 3e 1b a9 3c 15 e5 97 bc
       0.02271409 -0.0057489225 0.020642873 -0.018541852
0001a0 ea ee 92 3c df 14 40 bd b4 79 05 bd f8 75 66 bb
       0.017936189 -0.046894904 -0.03258677 -0.003516553
0001b0 3a 66 f0 bc 0a 92 5c bc 46 ef c3 3b c7 fd b1 3c
       -0.02934562 -0.013462553 0.0059794514 0.021727456
0001c0 b0 13 01 3c 5a b2 79 3c 2f 91 4c 3c de 21 c0 bc
       0.007878229 0.015240276 0.012485786 -0.02345365
0001d0 fe 02 eb bc 9d 61 77 3c d1 b3 9a 3c de 36 84 3d
       -0.02868795 0.015098956 0.018884571 0.064557776
0001e0 6e 4c 31 bd 2f 2d 0d bd 72 af 86 bc b8 31 fe 3b
       -0.04328578 -0.03446692 -0.01644108 0.007757392
0001f0 7f 53 e4 bb cf 21 f5 bc 63 7c 96 bc e0 10 cc bc
       -0.0069679613 -0.029923348 -0.01836986 -0.02491039
000200 ec d2 61 bc 60 06 9e bc dd 33 40 3d a1 eb 04 be
       -0.013783198 -0.01929015 0.04692446 -0.1298051
000210 65 a5 a3 bb 44 df 40 bb e3 1c c7 3a c6 b4 b5 3b
       -0.004994082 -0.0029429952 0.0015191104 0.0055452315
000220 ce 8d 65 bd c7 11 3f bd 59 83 d3 3c 49 88 f9 3d
       -0.05604344 -0.046647813 0.025819467 0.121841975
000230 92 7e 68 3d 39 9d 52 3a 56 3b 79 bc 12 5d 3f bb
       0.05676133 0.0008034292 -0.015211901 -0.0029199761
000240 c3 5f fb bc e8 19 ec 3c 5a 32 dc 3c 85 88 1c 3c
       -0.030685311 0.028820947 0.026879478 0.009554033
000250 a1 ae af bd 8f 1c 7a bb 03 6a 9d bb 7e a3 28 3c
       -0.0857823 -0.0038163995 -0.0048038973 0.010292886
000260 63 4c 87 3c 48 fe 3a bc 48 bc 26 3d eb 07 bf bb
       0.016515916 -0.011413164 0.040706903 -0.0058298013
000270 22 1c 98 bd f2 1c 34 bd 46 85 0f 3d 20 f5 af 3c
       -0.07427241 -0.043972917 0.03503921 0.02147919
000280 1e e4 ef bb 1d 82 a9 bc 13 73 b0 3b f0 4d 4c 3c
       -0.007320895 -0.020691926 0.0053848117 0.012469754
000290 22 e7 12 bc 9b 9f a6 bd f8 9d a9 3d 20 86 d7 3b
       -0.008966239 -0.08135911 0.08282083 0.0065772682
0002a0 63 db 6e bd da 07 63 3c d4 42 a1 bc 53 ee 8d 3c
       -0.058314692 0.013856852 -0.019685186 0.017325556
0002b0 5f bf 16 3d cd 71 3a bc c6 3f 1a 3d 0b 42 0a 3d
       0.0368036 -0.011379671 0.037658475 0.03375439
0002c0 08 92 8c 3c 28 16 d2 bc 79 6b b1 bc d0 0f 80 bc
       0.017159477 -0.02564533 -0.021657692 -0.01563254
0002d0 5b 34 3e bc 25 57 ee 3c b0 23 07 bd ec fd 89 3c
       -0.011609162 0.029094288 -0.03299302 0.016844712
0002e0 6c d4 a5 bb dd 67 02 bc aa 47 12 bd 66 b1 0a bd
       -0.005060723 -0.007959333 -0.035712875 -0.033860587
0002f0 f2 f3 68 3c 3f 78 7d 3c d7 3f 5f 3d d3 22 1e bc
       0.014218317 0.015470563 0.05450424 -0.009651857
000300 be e4 a6 3c 99 94 42 bd 86 95 db 3c 82 20 4d bc
       0.020372745 -0.047504995 0.026804697 -0.0125199575
000310 79 03 42 bd 45 86 e4 3b 42 da dd 3c 44 5c 20 3c
       -0.047366593 0.006974014 0.027081612 0.009787623
000320 db 17 18 bd 10 2c 5b 3d c6 12 96 3d ed d5 62 3d
       -0.037132125 0.05350882 0.073277995 0.055379797
000330 fe 25 93 bc 48 de 00 3d 4f 9b 96 bc 0a 4b a5 3c
       -0.017962452 0.031461984 -0.018384604 0.020177383
000340 0f b1 cb bc a5 df d1 3c 78 ff 99 bc 0e 21 72 3d
       -0.024864702 0.025619337 -0.018798575 0.059113555
000350 78 8b 86 bc e8 42 2f 3b f5 af 25 bd bb 4c 25 bd
       -0.016423926 0.002674276 -0.04045101 -0.04035638
000360 a0 d9 bf bc 8d 08 6a 3d 6f db 51 bd 01 77 fa 3c
       -0.023419201 0.05713706 -0.05123466 0.030574324
000370 3a 52 15 bd f9 8d e1 3c cc 1a c4 3c 4e fe b2 3c
       -0.03645537 0.027533518 0.023938559 0.021849778
000380 93 53 1c bd 38 ad 72 bd 84 4c 4c 3c c3 a3 80 3a
       -0.03816564 -0.059247226 0.012469415 0.000981443
000390 37 05 02 3d 90 a3 4d bd 7a 55 6c 3d fb 4d 16 3d
       0.031743255 -0.050204813 0.057698704 0.03669546
0003a0 2d a9 af 3c b7 2e 24 3c fb a3 0b bc 64 d5 91 3c
       0.021442974 0.010020903 -0.008522983 0.017801948
0003b0 a0 7a 8d bc b0 c2 10 bd 24 60 96 3d 9f c6 fa bc
       -0.017270386 -0.03534192 0.07342556 -0.030612288
0003c0 ea 40 b0 3c d5 09 16 3c 3a 93 32 bd 68 a9 e3 bc
       0.021515328 0.009157618 -0.043597437 -0.02779074
0003d0 c4 24 ee bb 14 29 3c 3b f4 43 a3 3d ca ae d4 bd
       -0.0072675664 0.0028711008 0.079719454 -0.10384901
0003e0 86 e4 6b bc ff 7d c5 3c d5 e4 f9 bc 3a a7 d4 bc
       -0.014397746 0.024107931 -0.030504623 -0.025958646
0003f0 18 b1 41 3d 8f c3 b8 3c 62 85 c0 bd a8 2f a1 3b
       0.04728803 0.022554187 -0.09400441 0.004919011

backbone.1.conv3x3.bias f4 [32]
000000 81 1d 57 bd fb f8 6b 3d 2a 76 27 3d f5 f9 3b bd
       -0.05251837 0.057610493 0.040884174 -0.045892674
000010 37 41 3d 3d e4 8d 61 bd bd 8f 20 3d 69 7c 25 3d
       0.04620477 -0.055066958 0.03919958 0.04040185
000020 67 89 16 3d 73 56 cd 3c a4 33 15 bd 89 62 cf bc
       0.03675213 0.025065636 -0.0364262 -0.02531554
000030 b0 65 4b 3c 9e eb bc 3c 9e 37 54 3d 63 fd 27 3b
       0.012414381 0.02306157 0.051810853 0.0025633208
000040 ad e6 c3 3c 21 4e 37 bd 77 dc 4a bc 66 9d 0e 3d
       0.023913706 -0.044752244 -0.0123816645 0.034818076
000050 3b 3f a0 3b 94 24 3f 3d 33 0e 41 bd 23 aa 23 bd
       0.00489035 0.046665743 -0.047132682 -0.039957177
000060 1e 3c 97 3c 81 c3 2d bb 5a 6c 4d bd ac c4 cc 3c
       0.018461283 -0.0026514234 -0.05015216 0.024996124
000070 27 51 32 3b a3 7e 6a 3c 4d be 50 3c 7c 7e 25 bd
       0.0027209015 0.014312419 0.012740684 -0.040403828

backbone.1.bn.weight f4 [32]
000000 cb 3a 80 3f ed 7a 77 3f 2c a8 6e 3f 09 65 7b 3f
       1.0017942 0.96671945 0.9322536 0.9820104
000010 78 ea 80 3f 84 5e 79 3f 4a 13 79 3f fd ad 8a 3f
       1.0071554 0.97409844 0.9729506 1.0834347
000020 1e c9 89 3f 06 d1 8f 3f 86 6d 89 3f ad 2d 75 3f
       1.0764501 1.1235664 1.0736549 0.9577282
000030 ae 55 80 3f 56 9b 7c 3f fb 82 79 3f 13 16 76 3f
       1.0026147 0.98674524 0.97465485 0.9612743
000040 b6 e0 8b 3f df 50 76 3f 31 64 85 3f 2c 81 7b 3f
       1.0927951 0.9621715 1.0421201 0.98243976
000050 08 bf 77 3f 05 2e 7b 3f 86 cc 7d 3f 1f 01 85 3f
       0.96775866 0.98117095 0.99140203 1.0390967
000060 36 c3 7e 3f 6c 6e 75 3f 1c a8 73 3f 53 79 7d 3f
       0.9951662 0.95871615 0.9517839 0.9901325
000070 c0 ee 79 3f 61 a2 7e 3f 4d d9 82 3f 42 5f 7d 3f
       0.9762993 0.9946652 1.0222565 0.98973477

backbone.1.bn.bias f4 [32]
000000 3a e6 c7 bd dd 29 0f 3c 4a 8b 18 be 20 d9 29 3d
       -0.09760709 0.008738008 -0.14896885 0.041466832
000010 e0 a2 26 3a a4 87 e4 bc 73 ac 2b bd 42 3d 44 be
       0.0006356668 -0.02789671 -0.041912507 -0.19163993
000020 fa e4 5e be 60 3d cc bc da 06 34 be 7c af 8d 3d
       -0.21767035 -0.02493161 -0.17580739 0.069182366
000030 db 57 ee bd e1 10 30 bd 49 70 1d bd 1e cf 5f bc
       -0.11637851 -0.042984847 -0.03843716 -0.01366022
000040 f9 e6 37 be 42 a4 57 bd 59 e9 73 3d 66 86 1c be
       -0.17959203 -0.052646883 0.05954871 -0.15285644
000050 55 bb 53 bd 7c 70 e8 bc a3 ef b0 bd 49 7e 60 3c
       -0.051692326 -0.02837395 -0.08639457 0.013701984
000060 02 b5 3b 3c cf 72 6a bd 59 c1 18 3c 2d 37 08 be
       0.01145673 -0.057238396 0.009323441 -0.13302298
000070 87 99 9d 3c ed 76 8e bd 65 0a 82 bd 84 dd e1 bd
       0.019238247 -0.06956277 -0.06349639 -0.11028579

backbone.1.bn.running_mean f4 [32]
000000 95 2b 29 be 04 ab 8c 3d a8 ae a5 3e f5 6e 55 be
       -0.16520531 0.06868556 0.32359815 -0.20843108
000010 58 7b 98 bd 55 ad 65 be d9 3a cb 3e 50 ea b4 3d
       -0.07445401 -0.22429402 0.39693335 0.08833754
000020 fd bb 22 3d bd 56 e3 3c bb 13 21 be e0 bb 1c 3d
       0.03973006 0.027751321 -0.15730183 0.03826511
000030 cf 9a 06 be 19 6c 94 3e d9 47 22 be b5 e7 92 be
       -0.13144992 0.28988722 -0.1584772 -0.28692403
000040 e6 85 f4 bc 3b 31 07 be a9 80 b7 be e4 54 14 be
       -0.029849004 -0.13202374 -0.35840347 -0.14485508
000050 78 1b 62 3e c2 1f b7 3e aa df cc 3e d6 1a 62 be
       0.22080791 0.35766417 0.40014392 -0.2208055
000060 e7 0d 77 be 71 e1 d2 3e 6b 5d 05 be e0 b7 fe 3e
       -0.24126397 0.41187623 -0.13023917 0.4974966
000070 91 d6 76 3e 90 a8 21 bd 89 e1 bb bd 6b c3 e5 bd
       0.24105288 -0.039467394 -0.09173877 -0.11218914

backbone.1.bn.running_var f4 [32]
000000 21 52 c5 3d f1 3f a4 3d 81 d1 ce 3d 16 9e d0 3e
       0.096348055 0.08020008 0.100985534 0.4074561
000010 cd 2e 01 3e 68 4e 06 3f c8 51 1f 3f b3 a6 0c 3e
       0.1261551 0.5246339 0.62234163 0.13735466
000020 69 76 19 3e 30 f4 24 3e 08 2c 14 3e 91 3c 97 3e
       0.14986576 0.16108775 0.14469922 0.29538396
000030 9f 3e ed 3d 56 0c 35 3e 4d 0e 60 3f 3d f0 cf 3e
       0.1158421 0.17680487 0.8752182 0.40612975
000040 9c e3 f4 3d 8a 9d 97 3e 8d e8 94 3e ae 02 12 3e
       0.119574755 0.2961238 0.29083672 0.14258835
000050 ca 44 41 3e e6 c3 33 3e 2a e4 8e 3e fb 7f bf 3d
       0.18873897 0.17555198 0.2790845 0.09350582
000060 9c 17 91 3e e5 7b 8a 3e 3b 61 c0 3e ed 53 72 3e
       0.28338325 0.2704765 0.3757418 0.23664828
000070 42 1a 1c 3f 1b e7 82 3e 03 52 ef 3d 32 f0 26 3e
       0.60977566 0.25566944 0.11685564 0.16302565

backbone.2.conv3x3.weight f4 [32, 32, 3, 3]
000000 bf 51 ca b8 21 83 25 bb 80 33 3d 3d 2c 9e 8f bb
       -9.647337e-05 -0.002525516 0.046191692 -0.004382869
000010 a2 96 09 3d 46 35 59 bc ed 2e b7 3c f7 52 d4 3d
       0.03359092 -0.01325733 0.022361243 0.10367387
000020 57 00 30 3c ca f2 8c bc d0 18 26 3c 9e c4 08 3a
       0.0107422685 -0.017205615 0.010137752 0.00052172865
000030 e8 15 c6 3c 23 3c e1 bb dc 16 e9 3c b4 7c ac 3c
       0.024180368 -0.006873624 0.028453283 0.021055557
000040 fb b9 15 3b 9f 1b d0 bc 94 93 1e bc 02 99 3e 3d
       0.0022846449 -0.025403796 -0.00967874 0.04653264
000050 42 d5 df bb ba ab 75 bc e9 08 22 3d 87 fd aa 3c
       -0.0068308422 -0.014994556 0.03955928 0.020872844
000060 30 58 2d 3d d6 14 55 bc ad 5d e7 bc 8d 17 97 3d
       0.04232043 -0.013005456 -0.02824291 0.07377539
000070 1f 26 b0 38 08 a1 98 3c 2d b9 59 3d 6a 69 23 bb
       8.3994346e-05 0.018631473 0.053155113 -0.0024934658
000080 93 aa d9 3b 07 2d e4 bc d0 99 2a bc 53 9b 18 3c
       0.0066426485 -0.027853502 -0.010412648 0.009314376
000090 ca 66 ad bc 48 ab 13 3d 71 92 05 3d c0 53 a8 3a
       -0.021167178 0.03605202 0.03261036 0.0012842342
0000a0 7e e4 c8 bc 3b e4 6f bd 28 d9 f1 bc fa 63 20 bd
       -0.024523016 -0.058567267 -0.029522493 -0.039157845
0000b0 72 da bc 3c bb 43 23 bd f1 9b 21 bd 1f a2 a5 3c
       0.023053382 -0.039859515 -0.039455358 0.020218907
0000c0 52 53 0e bd 8f d8 1d bd 55 5f 25 bd d4 13 13 3d
       -0.03474743 -0.038536604 -0.04037412 0.03590758
0000d0 89 ef 20 3d 6c ef d5 3b 7a ae c6 bc 9f a6 44 3d
       0.03929094 0.0065287855 -0.024253119 0.048010465
0000e0 ea 03 3b 3d 9f 24 4d b8 86 33 4e 3d d5 74 0d 3d
       0.04565803 -4.8909915e-05 0.050342105 0.034535248
0000f0 af 55 37 bd 65 32 b3 bb 00 6d 58 bc 27 2d 45 bc
       -0.04475945 -0.005468654 -0.013209581 -0.012034691
000100 9f fe 06 bb d0 0d 7a bc 33 50 2f bc cf 86 8f 3b
       -0.0020598543 -0.015262082 -0.010700273 0.004380084
000110 56 92 9a 3c d5 81 a8 bc 02 8a d1 3d f4 8c d5 3c
       0.018868607 -0.020569721 0.10231401 0.026068188
000120 8e 6d 01 bd d9 d4 1e bd 6a 71 5f 39 5f 73 cd 3d
       -0.03159862 -0.038777206 0.00021309187 0.10031771
000130 2b ac 22 3d e4 a8 14 3a a6 30 f5 3c 72 a9 46 bd
       0.039714973 0.00056709186 0.029930424 -0.04850144
000140 6c 16 c0 3b 57 6e a2 3c d3 c7 07 bd 67 43 ae bc
       0.005862048 0.019828005 -0.03314955 -0.021272374
000150 18 5c 57 bd c8 2a af 3d d2 28 58 3d db 95 e5 bc
       -0.05257806 0.08553082 0.052773304 -0.028025558
000160 b6 77 9f 3a c6 55 a1 bc a8 77 97 bc 83 54 7f 3a
       0.0012166414 -0.01969422 -0.018489674 0.0009740071
000170 e4 95 0e 3d f6 8c 0e 3e c5 d7 99 3c 41 2f 60 bc
       0.034810916 0.1392096 0.018779645 -0.013683141
000180 1a 1c 21 bd e3 2d 35 bb 61 17 47 3c de ab 53 bc
       -0.03933344 -0.0027645759 0.01215157 -0.012919394
000190 ac f7 a4 bc cc 74 1b bd d2 8f 5d bc 52 88 28 bd
       -0.02013763 -0.037953183 -0.013523059 -0.04114563
0001a0 fe ad 64 3c 53 d6 02 bd f2 56 c2 bc 2e 52 19 bd
       0.013957499 -0.031942677 -0.0237231 -0.03743189
0001b0 e9 00 36 3d 91 d9 90 3d 31 2c b1 3d 01 81 46 3b
       0.04443446 0.070727475 0.08651007 0.0030289295
0001c0 99 1a 52 3c fc fb d4 bc ad ba a3 bc 4f b7 87 3c
       0.012823724 -0.025999062 -0.019986475 0.0165669
0001d0 c3 89 23 bd 83 a4 0b bd 3c 05 69 3c 69 65 55 bc
       -0.0399263 -0.034092437 0.014222439 -0.013024666
0001e0 48 32 d1 3b 53 bc b1 3d 63 10 b4 bc d5 ea d6 bb
       0.006384168 0.08678498 -0.02198047 -0.006558756
0001f0 96 a2 8e bb 62 82 3a bd 2c 4a ee 3b 37 6a 61 bc
       -0.004352878 -0.0455345 0.0072720256 -0.013758234
000200 09 c3 06 bc 1f d0 89 3d 47 e2 6a 3b 42 70 6d 3d
       -0.008225211 0.06729149 0.0035840438 0.057968386
000210 0c 71 19 3d 0d 97 35 3d d7 21 c2 3c 4f 46 39 3d
       0.037461326 0.044333506 0.023697777 0.045233067
000220 6c 4a ee ba 46 3f d3 3b 4b 84 50 bc b5 8e 19 bd
       -0.0018180138 0.0064467518 -0.012726854 -0.03748961
000230 67 e8 6a 3d 9e 13 62 bd fb 01 58 bc 1c c6 61 3b
       0.057350542 -0.05519449 -0.013184066 0.0034450358
000240 e6 18 2c bd f2 5a cd bc 6b 61 2d bd 76 34 24 3c
       -0.042015933 -0.02506778 -0.042329233 0.010022273
000250 a6 b9 1b bc 4d 02 c6 3d 26 c1 91 bc 85 d8 27 ba
       -0.009504711 0.096684076 -0.017792296 -0.00064028084
000260 3b e4 91 3c 55 ce 09 3d ec 20 0e 3c e6 d4 83 3d
       0.017809024 0.03364404 0.008674841 0.064370915
000270 6b 9b be bc 34 16 17 bd 78 7a 12 3c 7b e0 83 3d
       -0.023267468 -0.03688641 0.008940332 0.064393006
000280 3b f9 71 bc 9e 43 9e bc 52 19 25 3d 16 67 f7 bc
       -0.014768894 -0.019319352 0.04030735 -0.030200522
000290 f1 73 48 bd f5 74 11 bc ef 8f db bc 74 9a 16 bd
       -0.048938695 -0.008877982 -0.026802031 -0.03676839
0002a0 25 4c 5c bc fb 90 df 3c 8c ff 18 3d cc a2 c8 3c
       -0.013445889 0.027290812 0.037353083 0.02449169
0002b0 95 3b e1 bb a4 d5 c4 3c fd 1c 2b 3d 27 71 ab 3c
       -0.006873558 0.024027653 0.041775692 0.020927979
0002c0 83 9d 98 3d 97 2e a7 3c 60 60 f7 3b 96 a2 bf 3c
       0.07451918 0.020407958 0.0075493306 0.023392957
0002d0 4e 12 89 bc c1 b3 6d bc 0b f0 25 3d 49 c6 c1 3c
       -0.016732361 -0.014508189 0.040512126 0.02365412
0002e0 2b ec 77 3d 02 8b 15 3c 08 93 3b bd 92 b8 82 3d
       0.06052796 0.00912738 -0.045794517 0.0638286
0002f0 68 56 ea 3c e1 71 b7 3c f1 76 a0 bc 25 59 62 3c
       0.028605655 0.022393169 -0.019587966 0.013815199
000300 ef 06 2e bd 8e 2b 9d 3b 88 38 24 3d 38 ce 57 3c
       -0.04248708 0.004796452 0.040092975 0.013171725
000310 c1 7e af 3d 21 ea 23 3c 98 5b 5d 3d ef da 7c 3d
       0.08569098 0.010004551 0.05404243 0.06173223
000320 bd ff b1 bb 9c 66 ef 3b 42 f8 a2 3d 77 05 e4 bb
       -0.0054320977 0.007305933 0.07957508 -0.0069586593
000330 f7 8d 35 bd 75 32 31 3d a6 51 3e bd 5a ca 8e bc
       -0.04432484 0.04326101 -0.046464585 -0.017430473
000340 3c b2 0c 3a 9f d1 87 3d eb 41 a1 bc d5 d5 e8 3c
       0.0005367135 0.06631779 -0.019684752 0.028422276
000350 66 77 fb 3c fa ef 03 bb f4 ca 40 bc 6a 6b fd 3a
       0.030696582 -0.002013205 -0.011767138 0.001933438
000360 42 b2 10 bc 45 33 88 bc b6 d7 3e 37 2b 4a 13 3d
       -0.0088315625 -0.01662601 1.1375107e-05 0.035959404
000370 ce 7c 77 bc d0 55 78 bd 41 2d 66 3b f3 84 56 3d
       -0.015105439 -0.060628712 0.0035122188 0.052372884
000380 29 86 36 3c dd f2 6e 3d a7 85 0c 3d ea 75 0c 3d
       0.011140385 0.05833708 0.03430715 0.03429214
000390 00 08 c8 bc eb fe ed bb 5e 1f 9c bc fc 48 2f bc
       -0.024417877 -0.0072630546 -0.019057926 -0.010698553
0003a0 c7 9c ad bc 70 c9 ef 3c 6f 22 54 3c f4 68 fa 3c
       -0.021192921 0.029270858 0.012947663 0.030567624
0003b0 78 59 7b bd 9e 8b 70 bd b0 96 81 bc 42 e2 09 3d
       -0.06136462 -0.0587269 -0.015818924 0.033663042
0003c0 99 fa c2 3c 8e 85 30 bc 71 7a 06 3d df ab 9c 3b
       0.023801135 -0.010774029 0.032831613 0.004781231
0003d0 d1 f1 f8 3c 5a b6 75 bc 66 04 1d 3d 9b a5 ad 3c
       0.030388745 -0.014997089 0.038334273 0.02119713
0003e0 9e 72 ac bc 2f 58 82 3c e3 0c 16 3d 5a 3d 0f bb
       -0.021050747 0.01591119 0.036633383 -0.0021856637
0003f0 14 8f 05 bd 1a ac 56 bd 9f fa 12 bc e0 c1 cd bc
       -0.032607153 -0.052410223 -0.008970886 -0.02511686

backbone.2.conv3x3.bias f4 [32]
000000 fe 84 33 bd cb 80 ea 3c 17 c7 2d bd 70 c6 39 bd
       -0.043828003 0.028625866 -0.042426195 -0.04535526
000010 a4 76 2f bd 05 0f 43 bd da 36 3a 3d 29 88 d0 bc
       -0.042837754 -0.047621746 0.045462467 -0.025455551
000020 62 8d 14 3d 3f 2c 84 bc 24 77 8f bc fe e7 82 bc
       0.036267646 -0.01613438 -0.017512865 -0.015979763
000030 85 6b 44 bd 0c b7 88 3c 79 0d c3 bc 79 53 8b 3c
       -0.0479541 0.016688846 -0.023810135 0.017007576
000040 37 81 4d bd 6b 47 11 3c cf 79 45 3d aa 66 92 bc
       -0.050172057 0.008867125 0.04821187 -0.01787122
000050 f1 95 4e 3c 7c a7 6e bd 63 4c c4 bc a1 37 48 3d
       0.012608991 -0.058265194 -0.023962205 0.048881177
000060 e2 0d c0 3c 52 0b b1 3c 17 b6 d2 3c 70 54 46 bc
       0.02344412 0.021611843 0.025721593 -0.012105092
000070 e2 f4 cc bc 2b ba 62 3d 68 ac b0 bc f0 7b 99 bb
       -0.025019113 0.055353325 -0.021566585 -0.004683964

backbone.2.bn.weight f4 [32]
000000 d1 73 84 3f f4 f8 76 3f 05 64 83 3f 6c b0 78 3f
       1.0347844 0.9647362 1.0264899 0.971442
000010 99 32 80 3f 7e 71 79 3f e5 40 76 3f fe 39 7e 3f
       1.0015441 0.974388 0.9619277 0.9930724
000020 df b6 79 3f ce f4 81 3f 1e de 71 3f 51 cf 7c 3f
       0.97544664 1.0152833 0.9447955 0.9875384
000030 3a d4 7b 3f 24 20 74 3f 3e 1d 81 3f a6 8c 81 3f
       0.9837071 0.9536154 1.0087049 1.0121047
000040 22 d4 7f 3f 17 34 73 3f 44 98 84 3f 3f 6e 87 3f
       0.99933064 0.9500136 1.0358968 1.058052
000050 7a 8a 7a 3f fe fd 7c 3f 16 70 78 3f 04 82 7b 3f
       0.9786755 0.9882506 0.9704603 0.98245263
000060 d4 47 73 3f 08 82 7e 3f da 8f 7c 3f ee b3 7f 3f
       0.95031476 0.9941716 0.98657 0.99883926
000070 be 83 87 3f 47 07 75 3f 1c 58 7d 3f fd 24 6e 3f
       1.058708 0.9571423 0.9896257 0.9302519

backbone.2.bn.bias f4 [32]
000000 0a fb 21 be eb c6 0c bb e0 ee 12 be f1 7e 14 bc
       -0.1581842 -0.002148087 -0.14348936 -0.009063468
000010 96 c3 4a be 14 3d 1e bd 7e 00 be bc e5 f8 77 bd
       -0.19801173 -0.038632467 -0.023193594 -0.0605401
000020 23 5c 89 bc 14 e2 04 be ba c9 17 bd 9f f6 75 3c
       -0.016767567 -0.12976867 -0.037057616 0.015012412
000030 cb 55 10 be 21 d8 ed bd 69 d0 6e be 3d ef 29 be
       -0.14095227 -0.11613489 -0.2332169 -0.16595168
000040 f5 ca f9 bd 1a f2 59 bc 54 8d 2c be a6 76 42 be
       -0.12196914 -0.01330235 -0.16850787 -0.18990573
000050 2d 54 ea bd f3 4e ce bd 93 99 df bc 1d 6a 24 be
       -0.114418365 -0.10073652 -0.02729491 -0.16056104
000060 0d e2 0f bd c2 66 d2 bd 9b 41 1c be c4 61 a7 bd
       -0.03512769 -0.10273506 -0.15259402 -0.08172944
000070 fc 3d 63 be f8 93 a3 bc 3a 7a e6 bb af a0 57 bd
       -0.22191614 -0.019968018 -0.0070336135 -0.052643474

backbone.2.bn.running_mean f4 [32]
000000 e7 e9 3a 3e 2b ad 55 bd bc fb 5c 3d 38 52 9a be
       0.18253289 -0.0521671 0.05395101 -0.30140853
000010 6a 8e dc 3d 8b 9b 03 be 78 58 6e bd c3 98 e4 3d
       0.10769351 -0.12852304 -0.05818984 0.111619495
000020 3a 31 02 be 46 d8 3f 3d f8 57 7d be 44 b5 f4 be
       -0.12714091 0.046837114 -0.24740589 -0.47794545
000030 a7 91 7e 3d 4a 3a 40 3d f5 88 14 3e c0 32 72 bd
       0.062150624 0.04693059 0.1450537 -0.05913043
000040 66 d5 fd 3c 10 b5 99 3d 23 61 39 3e 56 9c ae 3d
       0.030985545 0.07505238 0.18103461 0.085259125
000050 8b a4 05 3c c7 10 74 3e 75 98 69 3e c4 e6 b2 3e
       0.008156906 0.23834525 0.22812064 0.34941685
000060 19 bf 1b 3e a0 4f 38 3e c3 70 0c 3e 7f 5b b2 3e
       0.15209617 0.17999125 0.1371489 0.3483543
000070 f7 1d ae 3d bb b1 e3 bd d2 f4 a3 be 27 cd 2e be
       0.08501809 -0.11117884 -0.3202272 -0.17070447

backbone.2.bn.running_var f4 [32]
000000 38 0f eb 3e c7 28 c4 3e 1f ed 24 3e e7 1e 24 3f
       0.45910048 0.3831236 0.1610608 0.64109653
000010 b9 2a 7d 3e 70 f0 4c 3e 07 c7 f4 3e d8 4e 31 3e
       0.24723329 0.20013595 0.47808096 0.17315233
000020 d4 5d 35 3f 2c 58 72 3e 83 86 36 3f 2b fa 1e 3f
       0.70846295 0.23666447 0.71299 0.62100476
000030 64 53 3a 3e 03 0e 32 3e ad f4 6f 3e 26 74 1e 3e
       0.18195873 0.17388158 0.2343318 0.15473995
000040 f3 36 7b 3e e0 aa d4 3e 42 ef 4f 3e 4f 25 1a 3e
       0.2453268 0.41536617 0.20306113 0.15053295
000050 34 c7 f2 3e 74 ff 94 3e 31 55 20 3f d0 51 78 3e
       0.47417605 0.29101145 0.6262999 0.24249959
000060 51 70 58 3f cf ba 5d 3e c1 4e 99 3e f5 f6 cb 3e
       0.8454638 0.21653293 0.29942897 0.3983685
000070 f1 0a 16 3e b9 b3 41 3f 9d f6 57 3f af 4a fd 3e
       0.14652611 0.7566486 0.84360677 0.49471042

backbone.3.conv3x3.weight f4 [32, 32, 3, 3]
000000 34 85 40 bd 64 45 50 3d da e1 4d 3c 81 60 a5 bb
       -0.047002032 0.050847426 0.012566054 -0.0050469046
000010 19 48 19 ba b9 77 93 3a 1b 58 7b bd a7 d6 44 3d
       -0.000584723 0.001125089 -0.06136332 0.04805627
000020 c3 a7 92 3d dc ec f6 bc fb 85 65 bd 8f 07 d3 3c
       0.07160904 -0.03014224 -0.056035977 0.02576044
000030 af d2 b0 bc 4e 55 27 bd ee 3f 25 3d 92 67 6b bc
       -0.021584837 -0.040852837 0.04034417 -0.014367955
000040 f4 18 85 3c a8 e1 90 3c 35 a0 90 bc 2c da e3 bc
       0.01624725 0.017685726 -0.017654518 -0.027813993
000050 7d ed 09 3d 14 a7 bf bc cc 47 9b bc 7a 06 ed bc
       0.033673752 -0.023395099 -0.018955134 -0.028933752
000060 6e 9c 0b bd e2 bc 17 3d 58 bb 09 bd e8 14 3d bd
       -0.03408473 0.037045367 -0.03362593 -0.046162516
000070 30 e9 0a bd 30 54 12 3d 46 7d 28 bd ef 81 07 3d
       -0.03391379 0.03572482 -0.041135095 0.0330829
000080 fa 27 72 3d 83 e4 65 3d c4 02 63 3d 86 95 0b 3c
       0.059120156 0.05612613 0.05542256 0.008519536
000090 da 1f 45 bd 5b 93 e7 3c 4a 77 35 3c fa 95 f1 bc
       -0.04812608 0.028268507 0.011075804 -0.02949046
0000a0 2d 90 65 bd 2e 64 ba 3d 76 1a c7 ba 81 ca 86 3d
       -0.0560457 0.09101139 -0.0015190381 0.06581593
0000b0 e6 ff cd bb a6 b5 74 bd e0 82 45 3d 78 f9 40 bd
       -0.006286609 -0.059743546 0.048220515 -0.047112912
0000c0 bf ac fb bc a3 f9 5a 3d af 04 c4 bc ce e2 a6 3c
       -0.03072202 0.05346073 -0.023928015 0.02037182
0000d0 8d 54 f1 3c 2b 7c 36 bb 08 b7 b6 3b 1b 1b da 3c
       0.029459262 -0.0027845006 0.0055760182 0.026624253
0000e0 bb 18 59 bc 0a a8 15 3d b5 51 a9 ba c8 b5 a6 bc
       -0.013250525 0.036537208 -0.0012918027 -0.020350352
0000f0 08 46 b6 bc a1 ea 88 bd 0d 80 ce bc f5 a2 11 bc
       -0.02225019 -0.06685377 -0.025207544 -0.00888895
000100 14 93 3c 3d 81 1f 20 bc 5b cc 44 3c f1 f6 b5 bd
       0.046038702 -0.009773136 0.012011613 -0.08884991
000110 f9 94 ea bc 42 13 02 3d 69 bf 04 3d b5 33 81 bb
       -0.028635489 0.031756647 0.032409105 -0.0039429315
000120 49 19 26 bd 4e 96 e3 bc 5f a4 58 bc 92 57 c3 3c
       -0.040551458 -0.027781632 -0.013222783 0.023845468
000130 0f 34 8b bd 7a 92 65 3c 33 fe d8 3c 11 fa 6d bd
       -0.06797039 0.0140119735 0.0264884 -0.05809981
000140 c9 e5 6f 3c bc bb 60 3c 5d 08 63 3d ce cc 37 bc
       0.014642187 0.013716634 0.055427898 -0.011218263
000150 88 f7 12 3d a9 c2 31 bc 34 b2 89 bc 77 a1 97 3c
       0.035880595 -0.010849633 -0.016808607 0.01850961
000160 4a 05 7b bb 26 cc 19 3d 82 0f 25 3c 5c 20 f9 bc
       -0.0038302713 0.037548207 0.010074498 -0.030410938
000170 00 bc 24 bd da 76 08 bb 68 b7 55 bd 35 b4 8c 3d
       -0.040218353 -0.0020822794 -0.052176863 0.06870309
000180 48 27 23 3d 6f c9 6e 3d 89 0a 68 bd 10 f2 56 bc
       0.039832383 0.05829757 -0.056650672 -0.013119236
000190 f4 5f 07 3d b5 3e ab 3b 6a 38 f7 ba ee 5d 99 bc
       0.033050492 0.005225981 -0.0018861417 -0.018721547
0001a0 8a 27 f2 bc 06 c6 8b bc 3f 55 8c 3c a2 bd bf bc
       -0.02955987 -0.017062198 0.017130492 -0.023405854
0001b0 30 ad 34 3c 23 20 21 3d 0e 13 df bc db 27 02 3d
       0.011027619 0.03933729 -0.027230766 0.03177629
0001c0 b1 09 5b 3d 57 dd 9b bb b0 08 ea 3c 71 34 80 bc
       0.05347604 -0.0047566104 0.028568596 -0.015650006
0001d0 32 ac 9c 3c 47 4d f6 bc 4c 57 9f 3d 7b 98 0b bd
       0.019125078 -0.030066146 0.077803224 -0.034080964
0001e0 c3 94 1a bd 83 67 c9 bc 4d cb 57 3d 78 df ea 3c
       -0.037739526 -0.024585491 0.052684117 0.028671011
0001f0 b8 52 13 bc b4 cc ba 3c 3f 4b 9c bc 33 25 0b 3c
       -0.00899189 0.022802688 -0.019078849 0.008492756
000200 05 5f c0 3c 11 7f d4 3c ea b9 b5 3a 58 f3 3e 3d
       0.023482809 0.025939496 0.0013864611 0.04661879
000210 43 78 5d 3b 93 94 ce 3c 32 ee cd 3a 78 d8 55 bc
       0.0033793605 0.02521733 0.0015711247 -0.013052098
000220 b3 ba 69 3d 21 ab b7 3c ed 31 ae 3d cd 9e 43 bd
       0.057062816 0.022420468 0.08505616 -0.047758866
000230 e2 da 5d bc eb 51 f1 bb ca 6f a8 3d a1 cf 9c bb
       -0.013540955 -0.0073645017 0.08224447 -0.0047854935
000240 5f 8e b9 bc ec b1 ca bc 79 2b 08 bd c0 ac f0 bc
       -0.022650896 -0.024743043 -0.033244584 -0.029379249
000250 02 82 6c bd 8a f9 06 3d 5d ba a5 3c 15 96 6b 3c
       -0.057741173 0.032952823 0.020230466 0.014379044
000260 f4 33 26 3d db 2d 81 bc 59 ef 18 3d f1 0a 3c bc
       0.04057689 -0.015768936 0.037337635 -0.011477218
000270 07 41 01 bd d0 bb 70 3b 98 64 82 bd 0a 7b a8 3c
       -0.031556156 0.0036733039 -0.06366843 0.020566482
000280 9b e1 cb ba 16 4c 68 3c 1a fc 47 3d 0d 64 36 3d
       -0.0015554907 0.014178297 0.048824407 0.04452901
000290 48 21 15 bc 5a 5e 65 bd 13 1d d8 3c 20 ba 02 bd
       -0.009102173 -0.055998184 0.026381051 -0.031915784
0002a0 c0 04 54 bb e0 59 12 3d dc db 76 3c e3 28 0e 3c
       -0.0032351464 0.035730243 0.015067067 0.00867674
0002b0 68 28 fa bc f6 58 ef 3b 1f 94 52 bd df 61 22 bd
       -0.030536845 0.007304306 -0.05141079 -0.03964412
0002c0 87 6c a8 3d 8d 0a b9 3b eb ac 5b 3d e3 84 c3 3b
       0.08223825 0.0056470097 0.053631704 0.005966769
0002d0 9b 7d 26 3d 6e 23 9f 3c 66 b1 32 bd 97 7e 80 3b
       0.04064713 0.019426074 -0.04362621 0.0039213407
0002e0 cf 1e bb 3b db 34 5e bc 1e ef 12 bd 31 0a cc bc
       0.00571046 -0.013562406 -0.03587257 -0.024907203
0002f0 e1 55 87 3c bb aa 00 bd 1f 5d 1c 3c 94 81 c5 bb
       0.016520442 -0.03141282 0.009543686 -0.00602741
000300 29 64 2b 3d 08 0a 39 3c d5 a4 82 3c 09 1b 23 3d
       0.041843567 0.011293896 0.015947739 0.039820705
000310 36 b0 bc 3c af 11 0b bd 20 3e a8 3c 2c 7b 3f bc
       0.023033243 -0.03395241 0.020537436 -0.011687081
000320 9b a2 3a 3d 61 7e 34 bd 1a 0c 06 bd 97 59 18 3d
       0.04556523 -0.044065837 -0.032726385 0.037194815
000330 9d 57 07 bd 00 c1 bf 3c 6a a3 26 bd 98 4e 4e bb
       -0.03304254 0.02340746 -0.040683188 -0.003147995
000340 a9 56 97 3d 79 36 1a bc 80 c9 73 3a 26 4d 0a 3c
       0.07389576 -0.009412401 0.000929974 0.008441245
000350 3d 09 af bc f9 0b 70 ba ea 18 1c bd d5 34 29 bd
       -0.02136671 -0.00091570575 -0.038109697 -0.04131015
000360 3b 97 6d bc 69 28 24 3d 6f 64 04 bd e3 44 64 bd
       -0.014501388 0.0400776 -0.032322343 -0.055729758
000370 e3 fd a3 bc 07 01 a8 3c bd 98 e7 bc b3 05 56 bd
       -0.020018524 0.020508302 -0.028271073 -0.05225153
000380 15 71 11 3c ee b2 a0 bc dc de 94 39 34 9b e7 3c
       0.0088770585 -0.01961657 0.00028394803 0.028272249
000390 07 92 09 3d 17 86 14 bc 70 ce 49 bd cb 83 a5 bc
       0.03358653 -0.009065173 -0.04926914 -0.020204445
0003a0 09 6c 59 3b 55 a3 42 bb 8b 18 56 3d 3d 1c ed bc
       0.0033175966 -0.0029699404 0.0522695 -0.02894413
0003b0 8a ad 27 bd 6b 2e f7 3c 8c 14 5d 3c d5 f0 24 3d
       -0.040936984 0.030173501 0.013493668 0.040268738
0003c0 be 96 7d 3d 98 88 c5 3c 27 e2 12 3d bd dd 14 bc
       0.061911337 0.024112985 0.035860207 -0.00908607
0003d0 4f 42 9f bc 90 cb 98 3a 86 cf 72 bc a9 4d 47 bd
       -0.019440798 0.0011657346 -0.014819985 -0.048658047
0003e0 92 6e 4e 3d e1 4a bf 3c b3 dc 51 bc 1c a6 21 3d
       0.050398417 0.023351135 -0.012808966 0.039465055
0003f0 59 6f e5 3c 4c 1c 99 3d 5d 6d 62 3c 39 36 b5 3c
       0.028007196 0.074761 0.01382002 0.022120582

backbone.3.conv3x3.bias f4 [32]
000000 fd 91 13 3d 08 4c 9d 3b ea dd b2 bc e1 68 ea 3b
       0.036027897 0.0048003234 -0.021834332 0.007153616
000010 d9 b0 96 bc cd 19 40 bd 14 f2 20 bc c5 bf 70 bd
       -0.018394874 -0.046899606 -0.009823341 -0.058776636
000020 f8 e7 9b bc 7e 54 9e 3c ef 17 3d bd ce fd b5 3c
       -0.01903151 0.019327398 -0.046165403 0.02221575
000030 e5 b6 71 3d e6 94 72 3c 30 5f 24 bd b9 fa a4 bc
       0.059012312 0.014806008 -0.04012984 -0.020139085
000040 b8 cd 7d bc 27 60 9d bb 0a 05 2f bd d4 53 7c bc
       -0.015490942 -0.004802722 -0.042729415 -0.015400846
000050 b6 5b 90 3c c6 92 5d bd 8b fc 30 bd 9c 38 e4 3c
       0.017621856 -0.054095052 -0.043209594 0.027859025
000060 70 4a 55 bc ba 8f fc bc 10 4e 25 3a 9e 31 02 3d
       -0.013018236 -0.030830253 0.00063058827 0.0317856
000070 e4 33 f5 3c 6d c6 1a bc 1f 98 e5 bb 44 66 e5 3c
       0.02993197 -0.009446722 -0.0070066596 0.028002866

backbone.3.bn.weight f4 [32]
000000 ce 6c 7a 3f a4 72 83 3f 96 d9 82 3f 64 54 78 3f
       0.9782227 1.026936 1.0222652 0.9700377
000010 d5 87 7a 3f d9 dc 80 3f f2 b7 87 3f 5f 82 68 3f
       0.97863513 1.0067397 1.0603011 0.9082393
000020 c4 06 75 3f 3f 8f 81 3f fc 55 88 3f 4a ad 7f 3f
       0.9571345 1.012184 1.065124 0.99873793
000030 3c 48 73 3f 1d 00 83 3f 7d 9b 78 3f 7c b5 83 3f
       0.95032096 1.023441 0.97112256 1.028976
000040 ed a0 85 3f 06 09 81 3f 80 48 7a 3f 3f 8a 80 3f
       1.0439736 1.0080879 0.97766876 1.0042189
000050 1a 5a 84 3f 62 00 76 3f 9f 37 77 3f ed 9c 74 3f
       1.0339997 0.96094334 0.96569246 0.9555195
000060 32 80 81 3f b0 28 77 3f ae 4f 81 3f f3 75 79 3f
       1.0117247 0.9654646 1.0102441 0.974456
000070 d7 aa 86 3f 3c 22 79 3f be 51 84 3f a6 e1 73 3f
       1.0520886 0.9731786 1.0337446 0.9526619

backbone.3.bn.bias f4 [32]
000000 30 1f ba bd fc ed 28 be 30 5c 11 be ed 1f 87 bd
       -0.0908798 -0.16497034 -0.14195323 -0.06597886
000010 2e 91 d9 bd dd 3d e4 bd 0a 9d 2b be e1 01 2a bd
       -0.10623394 -0.11144612 -0.16759124 -0.041505698
000020 dd 2b cb bd ec 79 e0 bd 50 5e 3c be 7c 43 85 3a
       -0.09920476 -0.10960755 -0.18395352 0.0010167207
000030 92 ad 8a bd 78 f2 0e be 8a bf ab bd 46 1d 3d be
       -0.06771387 -0.13959682 -0.083861426 -0.18468198
000040 12 23 06 be 05 31 14 be f8 27 a3 bd c6 a7 18 be
       -0.13099316 -0.14471824 -0.07966608 -0.1490775
000050 a9 a6 b4 3d 3d 4f 67 bd 75 eb fe bc 54 89 12 bd
       0.088208504 -0.056472052 -0.031118134 -0.035775498
000060 1c db e3 bd bb c8 f9 bb e2 f4 ff bd d2 33 8d bd
       -0.11125776 -0.007622806 -0.124978796 -0.068946496
000070 e6 0a 2b be ea d7 8f bd 42 bf a8 3d 77 63 04 bd
       -0.16703376 -0.07023604 0.082396045 -0.03232142

backbone.3.bn.running_mean f4 [32]
000000 7b 4e 7b 3d a2 3d 86 3d 6e e1 eb 3c 95 cf d1 3a
       0.06135414 0.06554724 0.028794017 0.0016007299
000010 30 c6 83 3d 80 18 59 3d 70 21 e0 bc 89 17 58 bd
       0.06434286 0.05300188 -0.027359694 -0.05275682
000020 fd 36 64 3e 6e 75 12 3e 60 57 1f 3d ab f6 96 3d
       0.22286601 0.14302608 0.038901687 0.07371267
000030 65 d0 3e 3e 9f 19 02 3e d0 02 80 3c 28 16 71 3d
       0.18634184 0.12705086 0.015626341 0.05885902
000040 99 c4 cb 3d 1e e6 9a 3d 7d 72 d6 3c 23 fe dd bc
       0.099496074 0.075634226 0.02617764 -0.02709872
000050 dd e3 5e bd 4a 24 50 3d da 61 93 bd a3 ed 43 3e
       -0.054416526 0.050815858 -0.07196398 0.1913362
000060 7f 11 c4 3d d7 97 c7 bc e1 2f 1f 3e dc f7 03 3d
       0.095736496 -0.024364395 0.15545608 0.0322188
000070 ad b9 80 3d a2 3b 62 3e 47 93 46 be eb 73 0f 3e
       0.06285415 0.2209306 -0.1939212 0.14009063

backbone.3.bn.running_var f4 [32]
000000 7d 4f b1 3e 2d 20 db 3e ed 18 c5 3e fe 99 8e 3e
       0.34630957 0.42797986 0.3849558 0.27851862
000010 39 0b 0a 3f fd d4 c7 3e a9 5f 07 3f 71 b5 1e 3f
       0.53923374 0.39029685 0.5288034 0.6199561
000020 27 3d 02 3f d5 b0 15 3f 2a f3 03 3f 13 c5 25 3f
       0.5087456 0.5847295 0.51542914 0.64753836
000030 9e aa ce 3e fe a3 b1 3e d2 75 8b 3e b3 13 c0 3e
       0.40364546 0.3469543 0.27238327 0.3751503
000040 52 1c af 3e e4 72 d4 3e 65 57 b0 3e 38 3c ce 3e
       0.34201294 0.41493905 0.34441677 0.40280318
000050 50 95 6d 3f 65 13 3d 3f 17 cf f4 3e 8b 11 c2 3e
       0.9280596 0.7385772 0.47814247 0.3790401
000060 5d b5 df 3e 6d a8 e8 3e 36 e6 b6 3e 1c 7d 0a 3f
       0.43693057 0.45441 0.35722512 0.5409715
000070 16 72 bf 3e 95 c8 09 3f 91 ab 6c 3f 28 22 06 3f
       0.37391728 0.5382169 0.9244929 0.5239587
