models/m6_best_epoch.pt (torch, 286059 bytes, 50 tensors)

backbone.0.conv3x3.weight f4 [32, 3, 3, 3]
00000000: cc61 843d 89fd e23d c1d5 263b 06f9 fb3d
00000010: 18a0 42be ebe4 4ebd a4c2 47bd ac0c 1c3e
00000020: 515f d13d 8c4c c1bd deab fb3d 39ed 16be
00000030: dd65 e13d 5164 253e 4b2d c23d c74b da3c
00000040: 6132 183e 7c36 5f3d c639 04be d021 5b3d
00000050: ad47 f43c c147 bbbc 3a6f 753d f3cf 8b3d
00000060: 39c6 5abe 6871 08be 4b46 40be 2d94 e0bc
00000070: 03d1 a53d 260f 98be 2c21 903d 1124 3dbd
00000080: 1896 1c3e 671d 6a3c 218b 37be d911 aa3d
00000090: 3f1f 8dbd 10ad 083e e6f8 093e b3f4 b83d
000000a0: 5a0c 3d3d 4429 6dbb 089a 083d 6a6d 033e
000000b0: 1c59 173e f659 d8bd 1b0a e43d d18c a73d
000000c0: fae9 c23c cbd1 b9bd 337e 8cbe c45c 693d
000000d0: 7d2d 04be 3734 093e 4fb1 883c 38fa 553d
000000e0: fdd6 963d a65e 65bd ff68 583e d5ca e0bd
000000f0: 9676 86ba e46a 3bbe 113b b039 514e e4bd
00000100: 908b 973b 2717 d539 a19c 5f3e 425e 1fbe
00000110: dbe5 d7bd 3d72 d1bd 76bc 2e3e 7585 003d
00000120: 60fe 083e 5538 a5bd 60cc 9ebd 3fbe 38be
00000130: 9c4d 0ebe 2096 5d3e d84c b53c ecfb 2b3e
00000140: 06fc 96bd 7cf1 2fbd 0e49 a93d 1ceb fc3b
00000150: 5393 133e a118 1d3d cf74 0b3e 7139 26be
00000160: f8d0 2ebe bd8f a53c 4505 903d 6d26 de3a
00000170: a6ec 5a3d 9c42 c13d 384b d8be eb6a 01bd
00000180: 75f7 e1bc a3e9 11be 50dd 50b9 b9bd 81bd
00000190: 5e7a f93b c025 b43d 2650 103d 2dd6 78be
000001a0: a8d2 563d 705c 07be 54e6 0fbe ddf9 e0bc
000001b0: 5291 aabd 6be8 b9bd 7cc5 193e 237d 94bd
000001c0: e896 f1bc 473e b5bd ea32 9cbe 834b 82bc
000001d0: 1df3 203d 89c2 5fbd c959 16bd bc2d f6bb
000001e0: c8f5 00be 702c 60bc d424 a7bc b606 08bd
000001f0: 2e81 4dbc 41a9 ff3c 2939 efba 52c6 8dbe
00000200: 14ab 2d3e b0e8 a93c fdae 243e a758 d03d
00000210: 28dd f6be 96bf e83d 7f90 ff3c cd5e 96bd
00000220: 750f b4bd a165 c7be 1400 993c 8052 f4bc
00000230: 09e2 ac3c 6d16 9ebd 8686 603d d2cb 7cbd
00000240: d248 babd 7102 bf3d 7abc f43d 9ddd a33d
00000250: e5b8 663e 7437 a9be 2ec2 433d 823d 63bd
00000260: fa5d 8abb d05a 1ebe 18d1 4d3d 3fa2 bebd
00000270: 4b41 483d 5243 373d fa21 3d3d a1c3 dbbd
00000280: fa51 213e 8576 42bc b8d4 b83c 3bd1 89be
00000290: 02f7 313c fecc 683c 04c5 f33c 5441 453e
000002a0: 78b0 973c dfae cabd 9839 5fbb e298 1fbc
000002b0: ec8a 9e3d 1cb4 973c 37c0 49bd f354 e9bc
000002c0: 0bac b1be fd54 503c 27f6 a33d fc5b afbd
000002d0: a6cc 043c 5e99 873d 1766 1c3c baed f6bc
000002e0: bdc8 c03d b84b 0d3e acb4 39bc 7957 89ba
000002f0: 8c14 e63b 2889 f23b 2b2e a8bc 3270 773b
00000300: 1ec1 d03d bc39 6f3e 0295 97bd f3ba 54bd
00000310: 2261 243a c95c 2ebd 6583 8abb 2667 9a3d
00000320: 596b b6bd b92e 86bd ca32 023e 474f 543a
00000330: 9381 9dbc f4c1 dbbd 9e5c 2fbe 8ab0 b0bd
00000340: 81a6 3cbc 0608 a73b 9e23 543d a1ee 153e
00000350: 070b 5bbe 85c7 34bd fde5 69bc dc6c 9b3e
00000360: 4032 4a3d e2d9 043d 7347 253d 7763 a5bb
00000370: c3d3 1bbe e8d2 083e be54 80bb 4849 a73c
00000380: be1c f7be 6e16 7d3d 1a3d 023d 5668 853d
00000390: e0af 16bd a4d3 11be 0293 40bd d2d1 073d
000003a0: effe 463d 73e2 353e e51b c33d 1707 353d
000003b0: 8140 543d e123 74bc 6bf7 7cbe 7439 69be
000003c0: fe6d 513d 17ee 1bbb 559a d53b c48a 82bc
000003d0: 6c54 73b9 2ca8 893d 8508 b3bc b379 f53d
000003e0: 3372 06bd 92aa 433d 5f19 e93b 3d69 c6be
000003f0: 012d f6bc 0a53 5dbe e14d 83bc e757 6ebd
0.06463966 0.11083514 0.0025456997 0.12303357 -0.19006383 -0.050511282 -0.04876961 0.15239209
0.10223258 -0.09438428 0.122886404 -0.14738931 0.11005757 0.16151549 0.09481295 0.026647462
0.14862968 0.05449532 -0.12912664 0.053499043 0.029819334 -0.022861363 0.059920527 0.068267725
-0.21364678 -0.13324511 -0.18776815 -0.027414406 0.080965064 -0.29699057 0.07037577 -0.046176974
0.15291631 0.014289237 -0.17924167 0.083041854 -0.06890725 0.13347268 0.13473853 0.09031048
0.046154357 -0.0036187926 0.03335002 0.12834707 0.14780086 -0.10564034 0.1113474 0.081811555
0.02379321 -0.09073218 -0.27440032 0.056973234 -0.12907977 0.13398825 0.01668611 0.05224058
0.073652245 -0.055998467 0.21133803 -0.10976187 -0.001025873 -0.18302494 0.00033613344 -0.1114775
0.0046247914 0.00040643776 0.21837093 -0.155633 -0.10541888 -0.10226867 0.1706408 0.031377275
0.13378286 -0.08067385 -0.07753825 -0.18041323 -0.13896793 0.216393 0.022131369 0.1679532
-0.073722884 -0.042954907 0.08265887 0.007718457 0.14411668 0.038353566 0.13618778 -0.1623285
-0.17071903 0.020210141 0.07032255 0.0016948708 0.05344834 0.09436533 -0.42244887 -0.031596106
-0.027583817 -0.14249282 -0.00019918871 -0.06335015 0.0076134643 0.08796263 0.035232686 -0.24300452
0.05244699 -0.13218856 -0.14052707 -0.027462894 -0.08328499 -0.09077533 0.1501674 -0.072504304
-0.029490903 -0.08849769 -0.30507594 -0.015905147 0.03929435 -0.054628883 -0.03670672 -0.007512776
-0.12593758 -0.01368247 -0.020403303 -0.033209525 -0.012543006 0.031208636 -0.0018251288 -0.2769037
0.16959792 0.020740837 0.16082378 0.10173159 -0.48215604 0.11364667 0.03119683 -0.073423006
-0.08792011 -0.38944724 0.018676795 -0.029824495 0.021103876 -0.07719121 0.05481579 -0.061717816
-0.090959206 0.093266375 0.119500116 0.08001254 0.22531469 -0.3305012 0.047792606 -0.05547858
-0.0042226287 -0.1546433 0.050248235 -0.0930829 0.048890393 0.044741936 0.04617498 -0.10730673
0.15753928 -0.011869078 0.02256237 -0.26917443 0.010862114 0.01420903 0.02975703 0.19263202
0.018516764 -0.09896635 -0.0034061428 -0.00974104 0.07741341 0.0185185 -0.049255576 -0.02848289
-0.3470157 0.012715575 0.08005934 -0.085624665 0.008105433 0.06621049 0.0095458245 -0.030142654
0.09413288 0.13798416 -0.011334579 -0.0010478339 0.0070214923 0.007401604 -0.020529827 0.0037756083
0.10193084 0.23361868 -0.07401468 -0.0519361 0.00062705774 -0.042568956 -0.004227089 0.07539205
-0.08907194 -0.065518804 0.12714687 0.00080989714 -0.019226825 -0.10730353 -0.17125174 -0.08627422
-0.011514307 0.005097392 0.05179178 0.14641811 -0.21390925 -0.04413559 -0.014276025 0.3035649
0.04936433 0.03243435 0.040351342 -0.0050472575 -0.152175 0.13361704 -0.003916352 0.020420685
-0.48264116 0.06178897 0.031796552 0.06514041 -0.03678882 -0.1424089 -0.047015198 0.033159085
0.048582967 0.17762165 0.09526805 0.044196215 0.05181933 -0.014901132 -0.24703757 -0.22775823
0.051130287 -0.0023793036 0.006518642 -0.01593531 -0.00023205735 0.06721529 -0.021854648 0.11986103
-0.032823753 0.04777009 0.00711362 -0.38752165 -0.030050756 -0.21613708 -0.016028346 -0.0581893

backbone.0.conv3x3.bias f4 [32]
00000000: 068a b1bd 379b 263e 6374 143e 888f 723d
00000010: a095 483c f491 22be 7e23 a5bc 75c4 323e
00000020: 7828 463d 9d01 703c f17c 1fbd dd4b 8abd
00000030: 1558 f43d 9911 323c 2021 023e a3d5 03bd
00000040: 7e7c b03d 3b3f a63d 8c82 d73c a2ee 063e
00000050: 5094 f63d caab 2f3e ef59 173e 1829 4cbd
00000060: 5545 2bbe 1ceb 123d 0be8 0dbb 20f9 5ebd
00000070: f189 fbbc c2e3 973b 2938 0f3e cc3d 823d
-0.08668904 0.16270147 0.14497523 0.059218913 0.012242705 -0.15875989 -0.020158526 0.17457755
0.048378438 0.014648822 -0.038937513 -0.06752751 0.11930863 0.010868453 0.12707949 -0.03218616
0.08617495 0.08117529 0.026307367 0.13176969 0.12040007 0.17155376 0.147804 -0.049843878
-0.16725667 0.03586875 -0.00216532 -0.054436803 -0.030705424 0.004635305 0.13986267 0.06359443

backbone.0.bn.weight f4 [32]
00000000: 0321 773f 9619 773f ab8d 4e3f 1c49 993f
00000010: 2d9d 943f 2e9b 8a3f 6ba6 6e3f 4ef1 483f
00000020: b031 8a3f a9f5 873f 1ecb 7b3f 0cc4 383f
00000030: afc1 9d3f a867 543f 2b54 2a3f 5769 9c3f
00000040: ed37 633f 12c5 7e3f 04b6 633f 819f 5a3f
00000050: 662a 7c3f c050 4f3f 86c5 993f 0778 a63f
00000060: 8631 383f dc83 713f c051 563f 2456 2b3f
00000070: 1786 813f 0b91 6d3f d9a5 8d3f dd5f 713f
0.96534747 0.96523416 0.8068492 1.1975436 1.1610466 1.0828607 0.93222684 0.784932
1.0796413 1.0621845 0.9835681 0.72174144 1.2324733 0.82970667 0.6653468 1.2219647
0.8875721 0.99519455 0.8894961 0.85399634 0.98502195 0.8098259 1.2013404 1.300538
0.71950567 0.94341826 0.8371849 0.66928315 1.0119046 0.92799443 1.1066238 0.942869

backbone.0.bn.bias f4 [32]
00000000: 1559 a03d 565f e73d 96a1 453e cf88 943d
00000010: dd55 bbbd 14a5 2fbd e4a8 a13d 700a e83e
00000020: dd73 e03d e01e bebd c433 b9bd 3f5b 813e
00000030: 27d7 08be 8902 863f 49fd 553f e586 59be
00000040: a37c b43e b8b4 6fbc 630e d93e 3e27 7a3f
00000050: 9a2e efbd a1a6 683f 6c80 223a 2636 92bd
00000060: 5c25 ad3d 5783 3e3d 8d6c 92be 8d8b 983d
00000070: adbe 4c3e a7af f83d f8dc 1dbe 5e19 3c3e
0.07829491 0.11297481 0.19299921 0.07252657 -0.091472365 -0.04288204 0.078935415 0.45320463
0.10959599 -0.09283233 -0.09043077 0.25264928 -0.13363324 1.0469524 0.8358961 -0.21242864
0.3525134 -0.014630489 0.4239379 0.9771613 -0.116788104 0.90879256 0.0006198946 -0.07139234
0.08454391 0.046511974 -0.28598443 0.07448492 0.19994612 0.12142878 -0.15416324 0.18369052

backbone.0.bn.running_mean f4 [32]
00000000: 0ed9 123c 6e23 8a3e 541e 023e ece9 2dbe
00000010: bc79 82be 1559 9ebe c63f 8fbd 3efc 353e
00000020: 1522 7cbd 9137 acbd 8448 22be 217e 46bd
00000030: 0436 343d 318b c03c 5711 0e3e b3ce 1cbe
00000040: 7f6f 2b3e 539d 1e3d 7204 9e3d bc12 243e
00000050: 3f54 4f3e 8ad3 463e 082d 453d aa6c 83be
00000060: fd07 34be 3d77 a13d de28 5fbd e56b 67bd
00000070: 6a24 f4bd f8f0 edbd 6019 b33d 73a8 043e
0.008962883 0.26980156 0.12706882 -0.16983765 -0.254835 -0.3092734 -0.06994586 0.17772004
-0.06155594 -0.08409036 -0.15847975 -0.04846013 0.043996826 0.023503872 0.13873802 -0.15313224
0.16741751 0.038724255 0.077156916 0.16022772 0.20246981 0.19416633 0.04813865 -0.25668842
-0.17581172 0.07884071 -0.054482333 -0.05649938 -0.11921008 -0.11618227 0.08745074 0.12954883

backbone.0.bn.running_var f4 [32]
00000000: 1a19 583b 98ce 6c3b ecae 403a ba06 9e3c
00000010: 2e30 e13c 88ab 263c 0510 923a 286c 563a
00000020: b08e d63b f882 8a3b 8be7 b13b b147 f03a
00000030: 2eaf 6c3b 69d4 813a 3d4f 1c3a 3a9a d03b
00000040: 98f5 183b 0408 253b ab70 bd3a 35d9 7b3a
00000050: 13e4 833b 8406 8e3a d687 c53b 909b 823c
00000060: d24b 903a 8082 f23a aa15 1c3b 39a5 5e3a
00000070: e945 7d3b 86d8 a93b db2c 1d3b 8d7f 323b
0.0032973946 0.0036133882 0.0007350284 0.019290317 0.027488794 0.010172732 0.001114369 0.00081795687
0.0065477714 0.0042270385 0.0054292134 0.0018331913 0.0036115157 0.0009905222 0.0005962735 0.0063660415
0.0023339745 0.002518178 0.0014453133 0.00096072565 0.0040249913 0.0010835682 0.006028156 0.015943319
0.0011008924 0.0018502027 0.0023816624 0.0008493248 0.0038646406 0.0051832823 0.0023983035 0.002723667

backbone.1.conv3x3.weight f4 [32, 32, 3, 3]
00000000: 5dc4 13bd 5a53 62bd 8acb 14bd e991 9b3c
00000010: df44 123e c0a9 ffbc c247 543d 2882 253b
00000020: 6c52 f6bc a53c ba3c 5430 dcbd 2c5d 263b
00000030: edbd 94bd c24a b6bc 8aad 8cbd db5e 823d
00000040: 4d21 683d 3592 77bc 19c4 7a3d 35e5 75bd
00000050: 8c28 0b3b 383c a93b b404 2cbd d948 07bd
00000060: 3b87 a3ba eb80 8bbc 6be8 073c 27cd 96bd
00000070: 5ec0 d53d 2970 2cbd b440 69bd aaf0 753d
00000080: 9e0b 1ebd e921 33bd b5c2 0c3c f4e0 74bd
00000090: 9cb0 89bc ceb0 653b 6350 93bc a575 75bd
000000a0: 9a05 c1bc 2fe0 853d 2ef7 893d e6c0 dcbb
000000b0: 066b 3ebd 1756 393d 40e8 05bc 5861 72bd
000000c0: 4c00 5c3e 87d3 263c 557b 4e3d 4e5e cabd
000000d0: 2958 e2bc 7915 133d 4edd 1dbd 2bf4 333c
000000e0: 202c 983d d753 7c3a 6444 bc3d 8320 4b3d
000000f0: 438e 93bd e063 efbc 31b9 633d 8ec1 28bc
00000100: 127a 48bb baa6 bf3c d62d 27be 9be4 73bc
00000110: f750 13bd 44e1 ba3c 9af3 24bd 590c 603b
00000120: 2bb1 e0bd 3e07 c83b 3aae 80ba f8ab c4bb
00000130: 8cfe edbb 1d39 c53b 9ac9 73bd 12ed 23bd
00000140: fdf4 32bd 2e8f 6dbd 5c68 fab9 c73a 953c
00000150: ee2b 8e3d 2e3d e3bb 681f bc3c a045 193d
00000160: 8569 09bd fc7f 0d3d c276 1bbd c88d cb3c
00000170: 3459 18bd 22c7 dfbb f0d5 b13d 5ea7 77bc
00000180: 3496 3ebc 556e 6dbd 1e6d d43b 197f 86bd
00000190: f755 d93b 3f14 e13c a36c 5dbd 4ece 04bd
000001a0: 95c0 aebc 278c 593d 2d93 353c 52be 8b3c
000001b0: 9749 01bd 2d0d 703d eb63 c13c 4b00 d93d
000001c0: 838c 17be f43c 273d cc43 623d 42b0 f0bc
000001d0: d92c 543c c963 d63c a409 30bc 89a7 1ebd
000001e0: d9ce c7bd 4f9c f3bc fd62 82bc 5362 e13c
000001f0: f95b 9abc 04eb 1ebd 6b3d 56bc 8057 b53b
00000200: a5f4 fb3c f35b bfbd 194e 0e3d 37a0 bebc
00000210: 922c 143c 89ab 77bc ff86 0bbd eab9 9e3d
00000220: 4393 6abc df4e 933d 0a22 1f3d 283e a63e
00000230: f659 ad3c 0791 f03c 2c3e 203d aaf2 0fbc
00000240: 6563 58bd 22c3 2e3d 3638 023d fb3f 673c
00000250: fac3 953c 847d 06bd 9711 87bd 19a3 9abd
00000260: 6330 a73c 0efe 1d3d 684c bcbc f9de 0a3c
00000270: 660b b6bd bd7e 4fbe 7d12 093d 8612 7abd
00000280: 30d9 1abc c221 72bd 2e6e a63c fb4c 61bd
00000290: 1850 26bd 12e0 043c f6cb 373d bedd 3c3d
000002a0: 3b35 3dbe aa12 933d d1a2 c83c a8fa d93c
000002b0: e25f 96bc 67d8 32bd dd37 83bc 7d5d 043d
000002c0: be1b 0abd 79e6 2e3d 1532 c0bd 7405 3abc
000002d0: d142 f1bc ca02 9f3c d3ae 8abd 8be5 b2ba
000002e0: 3974 44bc ec9c 6dbc b064 bd3c d372 163d
000002f0: c347 82bc 2416 7d3c 3002 0abe 25fe d73b
00000300: 42ee 7d3c a3f6 b3bc 49a8 343d 5ca6 6d3c
00000310: a3ee 87bd ae43 97bb 857e 853d 9212 9dbd
00000320: e0c4 af3c d974 01bd 6cb0 ca3d f21b c53d
00000330: 1576 19bd 4cff 9f3c 8aac 883c 7dee 323e
00000340: f44c b63a 30f5 5abd 5d6c 033e 5cd6 6a3d
00000350: 97ec 45bd 879d c9bd 7bb6 d93c 2732 d4bc
00000360: 5a9a 2bbb 0a73 1a3b 1b52 0abd 8b97 6c3b
00000370: 724d 38bc fca7 2dbd 4c02 b7bc 649c 91bc
00000380: 81d0 83bc 25c2 53bd 0567 983c 4c8e 8fbc
00000390: 308f 61bd b4ec 17bd e608 643d 770b e13c
000003a0: 9c25 8ebb a968 f93b 56fa b0bb 8c17 cf3c
000003b0: 0230 e8bc 5c90 c8bc e48f c53a 9d37 ecbd
000003c0: 4640 953d 6532 d5bc 989c 55bc 9d97 983c
000003d0: 7576 f7bb 587c 03bc 2da7 9b3d 7b54 e6bb
000003e0: b95e 68b9 ee29 f1ba 6dec 97bd 3923 2dbb
000003f0: 661f 1cbb 51e1 743c 6df3 bcbc 8cf9 9ebc
-0.03607594 -0.05525527 -0.036326922 0.018990474 0.14284085 -0.031208873 0.051826246 0.002525458
-0.030068599 0.022733996 -0.10751405 0.0025385125 -0.07262788 -0.022252444 -0.068690374 0.063657485
0.056672383 -0.015110542 0.06122217 -0.060033042 0.0021233885 0.0051646493 -0.041996673 -0.033028457
-0.0012476215 -0.017029246 0.008295159 -0.073633485 0.10437082 -0.04209915 -0.05694647 0.06004397
-0.038585298 -0.04373351 0.008591344 -0.059784845 -0.016807847 0.003504801 -0.017982667 -0.059926648
-0.023562241 0.065369 0.06736599 -0.0067368625 -0.046488784 0.045248117 -0.0081730485 -0.059174865
0.21484488 0.010182268 0.050410587 -0.098812684 -0.027629929 0.03590915 -0.03854113 0.010983507
0.07430291 0.000962553 0.09192732 0.049591552 -0.07204869 -0.029222429 0.055596534 -0.010300053
-0.0030590338 0.023394931 -0.16326079 -0.014886047 -0.035965886 0.022812493 -0.04027138 0.0034187047
-0.10971292 0.006104379 -0.0009817549 -0.0060019456 -0.0072630104 0.0060187713 -0.059518434 -0.04002101
-0.04369067 -0.057997875 -0.0004776147 0.018216504 0.06941973 -0.0069347834 0.022964194 0.037419915
-0.033547897 0.034545884 -0.037955053 0.02484788 -0.037194446 -0.0068291584 0.086833835 -0.015115587
-0.011632491 -0.05796655 0.0064827343 -0.06567211 0.0066325623 0.027475474 -0.054058682 -0.03242331
-0.021332065 0.053112175 0.011082453 0.017058525 -0.03156432 0.058606315 0.023607215 0.10595759
-0.14799695 0.040829614 0.055240437 -0.029380921 0.012950146 0.026170628 -0.010744486 -0.038733993
-0.0975625 -0.02973762 -0.015916342 0.027512705 -0.018842684 -0.038798347 -0.013076167 0.0055341125
0.030756304 -0.0934371 0.03474245 -0.023269756 0.0090438295 -0.015116581 -0.03406429 0.07750304
-0.0143173365 0.07192778 0.03885082 0.32469296 0.02116106 0.02936603 0.03912179 -0.008785883
-0.052829165 0.042666562 0.03179189 0.014114375 0.018281925 -0.032834545 -0.06595152 -0.0755064
0.020408815 0.038572364 -0.022985652 0.008476012 -0.08888893 -0.2026319 0.033464897 -0.06105282
-0.009451196 -0.059114225 0.02031621 -0.055005055 -0.040603727 0.008110063 0.044872247 0.046109907
-0.18477337 0.07181294 0.0244917 0.02660878 -0.018356267 -0.04366341 -0.016017849 0.03231572
-0.033717863 0.042700265 -0.093845524 -0.011353839 -0.029450806 0.01941051 -0.06771626 -0.0013648731
-0.0119906 -0.014502745 0.0231193 0.0367306 -0.01590336 0.015447173 -0.13477397 0.0065915757
0.0154987 -0.021968191 0.0441058 0.014504995 -0.06637313 -0.0046162223 0.06518272 -0.07669558
0.021456182 -0.031605575 0.09896931 0.09624471 -0.037466127 0.019530915 0.016683836 0.17473789
0.0013908432 -0.053456485 0.12834306 0.057333335 -0.048321333 -0.09844499 0.026576271 -0.02590282
-0.002618453 0.0023567104 -0.033769708 0.0036101069 -0.011248933 -0.04239653 -0.022339962 -0.017774768
-0.016090633 -0.051698823 0.018603811 -0.017523907 -0.055068195 -0.037090972 0.05567255 0.027471287
-0.0043379795 0.0076113534 -0.005400936 0.025279783 -0.028343204 -0.024482898 0.001507279 -0.11534045
0.0728765 -0.026025007 -0.013037823 0.018626982 -0.007551963 -0.008025251 0.076002456 -0.007029114
-0.00022160531 -0.0018399337 -0.074181415 -0.00264187 -0.0023822426 0.014946298 -0.023065293 -0.019406103

backbone.1.conv3x3.bias f4 [32]
00000000: eccd 57bd 7c96 6c3d 4f00 293d 778e 3cbd
00000010: 9a07 3e3d 0b19 63bd 21d3 213d d5d1 253d
00000020: 5d9e 183d 561c d13c a893 11bd cb01 d3bc
00000030: f728 4f3c 1d2f c33c ac0b 543d b199 273b
00000040: 6570 c73c 1f0d 38bd abce 3dbc 3a72 0e3d
00000050: 37b8 923b 20ff 3f3d 852f 42bd 201f 21bd
00000060: 729e 943c bbbc 13bb 4718 4dbd 8ba6 cd3c
00000070: 655e 453b a130 673c 476a 4c3c 77b3 26bd
-0.052686617 0.0577607 0.04126006 -0.046034303 0.04639397 -0.055443805 0.03950799 0.040483315
0.037260402 0.025526207 -0.035541207 -0.02575769 0.012644044 0.023826176 0.051768944 0.0025573785
0.024345586 -0.04493439 -0.011584918 0.034776904 0.0044775265 0.046874166 -0.0474086 -0.039336324
0.018141959 -0.0022542912 -0.05007198 0.025103828 0.0030116078 0.014110715 0.01247651 -0.040698495

backbone.1.bn.weight f4 [32]
00000000: d723 593f cb7e 923f a9ab 723f b63a 933f
00000010: 8030 9a3f 5d31 803f 7835 723f ad3d 853f
00000020: 138c 513f aded 8c3f dab4 703f ab82 863f
00000030: 15a8 773f e815 583f bde3 563f d8d0 473f
00000040: 0717 7e3f fdfc 853f 455c 9e3f 22df 7c3f
00000050: 97df 983f 7008 863f 021f 593f 1923 8f3f
00000060: c536 873f 11f9 743f e60f 823f 6a33 523f
00000070: 4be7 6e3f 5b08 853f 6a10 653f 4ce8 833f
0.8482031 1.1444944 0.9479318 1.1502292 1.2046051 1.0015064 0.94612837 1.0409447
0.8185436 1.1010033 0.9402596 1.0508627 0.9674085 0.84408426 0.8394125 0.78053045
0.99253887 1.0467831 1.2371908 0.98777974 1.1943234 1.0471325 0.8481294 1.1182586
1.0563589 0.95692545 1.0161102 0.821097 0.93321675 1.0393175 0.8947817 1.0305266

backbone.1.bn.bias f4 [32]
00000000: e42e eabd de0e 8fbb 192c 98bd 9648 c2bd
00000010: 63b0 4cbc dbd6 b5bd adf2 dcbe ca4d a5bd
00000020: 3d59 8fbd 356a 4abe bd88 6cbd ade3 2b3e
00000030: 6442 41bd 3a26 37be 7253 c4be 5f11 7cbe
00000040: 41d1 9bbe 3dd1 a83d 7295 73be edf4 d5bd
00000050: 49cb 6f3d a63e 363e 1a0c 88be 082e 3a3a
00000060: 32c1 8abc e5bd 2dbe 82da 60be ac43 e9be
00000070: 8b59 4abd aa4d 64be d4cf f2bd f82d 803c
-0.11434725 -0.004365786 -0.07430286 -0.09486501 -0.012493226 -0.08878871 -0.43153897 -0.08071478
-0.06999443 -0.19767077 -0.05774759 0.1678607 -0.047182456 -0.17885676 -0.38344914 -0.24616002
-0.30433086 0.08243034 -0.23787478 -0.104471065 0.058543477 0.17797336 -0.26571733 0.0007102196
-0.016937826 -0.1696697 -0.21958354 -0.45559442 -0.0494018 -0.22295251 -0.11856046 0.01564692

backbone.1.bn.running_mean f4 [32]
00000000: 8ea6 52bf 8305 e0be 9dab 9cbe 7714 d1bd
00000010: ef7b a0be 22d5 64bf c4f6 4a40 0b75 00bf
00000020: 31d7 8bbe fe18 77bd 7bf2 48bf 053f e4bf
00000030: 2f5a 81bf f667 953e ac10 373f 5b01 823f
00000040: 2e16 613e 191c 0fc0 e432 b1bd eb58 d93e
00000050: 31eb 34bf f3a8 04c0 92a8 dd3c f5ae b6bf
00000060: c064 34bf e8f3 533e d215 253e 98e7 663f
00000070: 41f7 09bf fc02 c53b f514 06bf 528a 94bf
-0.8228539 -0.43754205 -0.3059968 -0.102089815 -0.31344554 -0.89387715 3.1713114 -0.50178593
-0.27312616 -0.06032657 -0.78494996 -1.7831732 -1.0105647 0.29180878 0.71509814 1.0156664
0.21981117 -2.23609 -0.08652285 0.42450652 -0.70671374 -2.0728118 0.02705792 -1.4272143
-0.7046623 0.20698512 0.16121605 0.90197134 -0.53892905 0.0060123187 -0.5237573 -1.1604712

backbone.1.bn.running_var f4 [32]
00000000: 7fed 123f c7e1 593f e47e ac3e 91a2 8a3e
00000010: 00d5 093f 5c5a 903f 4572 3e40 e9f9 823e
00000020: c002 493f 95c1 173f cc54 a03f 35d8 0c40
00000030: 485f 8e3e 445e ce3e ebd4 3e3f 42d1 0f3f
00000040: 822c e73e 4ba0 6340 8253 a53e 545a 8e3f
00000050: 9c42 803e 1a03 cb3f cc43 583e d884 ec3f
00000060: 7dcd 6e3f d193 743f cd63 9e3e 6c3e fb3e
00000070: e925 f73f 04cd bb3e acb9 883f a683 993f
0.5739364 0.85110134 0.3369056 0.27077153 0.5384064 1.1277575 2.9757245 0.2558129
0.7851982 0.5927976 1.2525878 2.2006962 0.2780707 0.40306294 0.7454364 0.5617868
0.45151144 3.5566585 0.32290274 1.1121316 0.2505082 1.5860322 0.21119612 1.8478041
0.932823 0.9553805 0.30935517 0.49071062 1.9308444 0.36679852 1.0681663 1.1993301

backbone.2.conv3x3.weight f4 [32, 32, 3, 3]
00000000: ae29 cb3c 92b3 8c3c 3e73 1e3c 5317 13bb
00000010: ad68 d5bb 0803 a4bd 9353 2a3d 5a63 c73d
00000020: 27f7 83bc 9702 c0bd 8355 453d 6748 38bd
00000030: 75fe a9bb af5f 223e 43ee bbbb ce31 a7bb
00000040: e997 f1bc 8b3c b2bd b6e0 62bc 897d db3c
00000050: 4f21 2dbd b650 b7bc 32ab f2bc 737f e03b
00000060: 29f9 8a3c f992 ebb9 9341 a73b 2682 523d
00000070: 331e a2bc b653 30bb 6171 8d3d a377 d3bd
00000080: 078e b13b 38f7 e23c 0f03 6d3c 5ad8 a839
00000090: f2f4 bebc c286 80bd 3cd3 e8bc 6110 00bd
000000a0: 2c1d 8dbb aa9d 13be 6451 f6bd a1b4 b53d
000000b0: 1661 04bc 9487 29bc 40be 8abc 54a1 5bbc
000000c0: 123b 733d c02d 1a3d bc5f c1bc 7b6c 0b3d
000000d0: 67e3 893c 80d6 43bc 2df0 94bc e486 45bd
000000e0: 3043 23bc 2cba d2bc a325 54bd 5b50 26bd
000000f0: 9421 1cbd 8896 a1bc 952d 9fbd ff28 b13c
00000100: 1706 5a3d daf9 933c a37e 4ebc 584d b73d
00000110: 9c52 773c 296e babd 466e 303c 0e4b 7abc
00000120: 66b7 673d d986 fb3c e6b8 b13b 1064 e239
00000130: ca64 a53b 50c5 20bd 1eb7 98bc 8e53 28bd
00000140: dfe9 b93b d004 b03c 39b6 86bd c04e 77bc
00000150: 1a65 b6bd 0a75 4dbe e3f7 8ebd aeac 133d
00000160: 9a80 ff3c a4ab c03b a7a2 9f3b d854 713d
00000170: 300b a5ba 9da4 0d3d e469 74bd 91f5 be3c
00000180: 43ea bf3c 9879 623d 665f ab3d 5a1a 5fbd
00000190: c95a 60bb 5020 8dbd b406 d0bd b280 18be
000001a0: 6f48 063d c641 13bc 8e7c e6bd 22e5 41bd
000001b0: b449 5b3d 822f d83c 0ac9 febb 2168 f538
000001c0: c51a dfbc 92f1 26bb 4f9d 31bd 82a3 293c
000001d0: fee9 46bd 1d99 81bd d53e adbd f9ae b4bc
000001e0: 4988 5ebb d84b 7e3d f66f 4bbc c65d 2e3c
000001f0: a1f5 953b f739 85bc 7f69 84bb 9937 94bd
00000200: 7a42 5cbc 9338 b83d bdc5 b2bd c4c3 9b3c
00000210: c89c 1a3d 7d00 8fbc 7389 47bd 5d94 783a
00000220: b530 21bd eb71 023d e0b4 033c 314b 8bbd
00000230: e8ea 243d e30e a83c b0de dfbb 0ac4 113d
00000240: e7ca 28bc fc81 3ebe af2c 0bbd 3ad4 b2bd
00000250: 6c00 93be 5787 38bd e9d9 3b3d 95d1 9dbc
00000260: 7afe 6bbc 778d 563c f30c cebd 34e3 6ebb
00000270: 9580 51bd 1547 11be e260 bfbd 6d53 3cbd
00000280: 6deb 94bd 1a13 b8bd c230 1e3d 7e3b 63be
00000290: d6dd 5dbc f1dd b2bd b8a8 77be 0e51 0ebd
000002a0: a889 6e3c d8a9 f23c 3032 f8bb 24aa 553c
000002b0: f648 3c3d 7da6 1c3c 8ca9 ca3d 1dba 7cbd
000002c0: 753d b03c 4c9e 15bd 4d09 df3c 2e6e 193d
000002d0: 2b57 773c ec83 bebc be05 7f3d 8027 893b
000002e0: 23b6 9b3c e6ed 683d b6b6 063c 8ef5 fabd
000002f0: 91c8 49bd b33d 80bd 942b dabd be30 43bd
00000300: ba2c e3bd 7475 6bbe 3af3 39bd ca2d 1ebd
00000310: 560b dabc 5c46 27bd e4ce 02bd 8808 743d
00000320: 375c 1f3d 81af 78bb 1831 113c ba02 f43c
00000330: 905d 67bd 5aeb 23bc dd12 94bb 3853 84bb
00000340: 0e18 c9bd 3d77 9a3c e9b9 2b3d 80f3 90bd
00000350: 6283 e9bc b6a3 8abb 47e1 5d3c bcf3 c0bc
00000360: 1249 5bbe 5a74 8fbe 0d33 1cbc 5e41 e23d
00000370: d853 b13a a945 9ebd 1837 b8bb eeb3 763c
00000380: 8878 71bd 9a1c d33c 1d66 943c c9b3 4a3d
00000390: 3782 4d3a 32b2 b4bd 9adb 55bd 543e 0ebd
000003a0: 078a 2ebd 9b1d 943d 7696 0ebd 9eec 553c
000003b0: 2bdb 4dbc de70 35bd ed16 56bd 4d69 bf3c
000003c0: 66ac f23c 5c51 51bc b653 1b3d 73be 1f3d
000003d0: 664a c7bc bfca 963d b8db 0e3b ebb9 96bd
000003e0: 5811 2dbd 4731 abbc c5ff e2bc 1678 dfbc
000003f0: ad77 6ebd 4424 a8bd 2b8b b63d 4ece 7dbd
0.024800148 0.01717547 0.009671031 -0.0022444322 -0.0065127225 -0.08008391 0.04158361 0.09735747
-0.016109062 -0.09375494 0.048177253 -0.044990923 -0.0051878043 0.15856813 -0.00573519 -0.0051023727
-0.029491382 -0.08702954 -0.013847521 0.026793258 -0.042268094 -0.022377353 -0.029622648 0.0068511306
0.016964512 -0.00044932196 0.0051042526 0.05139365 -0.01978979 -0.0026905364 0.06906391 -0.10325553
0.0054185423 0.027705774 0.014466061 0.00032204652 -0.023310158 -0.06275703 -0.028421037 -0.03126562
-0.004306456 -0.14415613 -0.12027243 0.08872343 -0.008079788 -0.010347266 -0.016936421 -0.013405163
0.059382506 0.037641287 -0.02360522 0.034039002 0.016832067 -0.011952996 -0.018180931 -0.048224345
-0.009964749 -0.02572354 -0.051793706 -0.040603977 -0.03811796 -0.0197251 -0.07772366 0.021625994
0.053228464 0.018063474 -0.012603435 0.08950299 0.015095379 -0.09103043 0.010768479 -0.0152766835
0.056571387 0.030703949 0.005423653 0.00043180631 0.0050474154 -0.039250672 -0.018642005 -0.04109531
0.0056736316 0.02148667 -0.06577725 -0.015094459 -0.08906002 -0.20064178 -0.069808744 0.036053352
0.031189252 0.005879836 0.0048716846 0.058918804 -0.0012591835 0.034580816 -0.059671298 0.023310455
0.023427134 0.055291742 0.08367805 -0.05446849 -0.00342338 -0.06890929 -0.101575285 -0.14892843
0.03278392 -0.00898785 -0.11254226 -0.04733766 0.053537086 0.026389841 -0.0077754306 0.00011701906
-0.027234444 -0.0025473577 -0.04336291 0.010353925 -0.048562996 -0.06328032 -0.0845925 -0.02205609
-0.0033955744 0.06208405 -0.01241683 0.0106424745 0.0045764004 -0.016262991 -0.0040408964 -0.07237167
-0.013443584 0.08995166 -0.08729122 0.019014247 0.037747175 -0.017456288 -0.048715066 0.0009482557
-0.03935309 0.031846922 0.008038729 -0.06801451 0.040263087 0.020514911 -0.0068319663 0.035587348
-0.010302282 -0.18604273 -0.03397816 -0.08731885 -0.2871126 -0.045050945 0.045862112 -0.019264976
-0.014403934 0.013095251 -0.100610636 -0.0036451342 -0.051148016 -0.14187272 -0.09344651 -0.045978
-0.072714664 -0.08988018 0.038620718 -0.22190663 -0.013541659 -0.08733738 -0.24185455 -0.03474527
0.014559187 0.029622003 -0.007574342 0.013041053 0.04596802 0.009561178 0.0989562 -0.06170093
0.02151368 -0.036527917 0.027226115 0.03745859 0.015096466 -0.023256265 0.062261336 0.004185617
0.019007748 0.056867503 0.008222273 -0.12253867 -0.04926354 -0.06261768 -0.10652843 -0.047653906
-0.11092515 -0.22994024 -0.045397975 -0.038617887 -0.026616734 -0.040838584 -0.031935588 0.05957845
0.038906302 -0.0037946405 0.0088618025 0.029786456 -0.056485713 -0.010004843 -0.0045188502 -0.0040382408
-0.09819041 0.018855685 0.041925345 -0.07077694 -0.028505031 -0.0042309416 0.01354248 -0.023553722
-0.21414593 -0.28018457 -0.009533656 0.11047624 0.0013529016 -0.0772813 -0.005621802 0.015057547
-0.05895284 0.025770474 0.018115098 0.049487863 0.0007839533 -0.088230506 -0.05221138 -0.03472741
-0.042612102 0.07232209 -0.03481146 0.013056902 -0.012564461 -0.04429709 -0.052267957 0.023365641
0.029623222 -0.012775745 0.03792163 0.038999986 -0.024327468 0.073628895 0.0021798443 -0.0735968
-0.04225287 -0.02089752 -0.027709851 -0.027278941 -0.0582196 -0.08210042 0.08913263 -0.061964326

backbone.2.conv3x3.bias f4 [32]
00000000: 8041 33bd 26fb ea3c 1d86 2ebd 0b51 3abd
00000010: 33e6 30bd ccc9 42bd f532 3a3d 4227 d0bc
00000020: b3f5 153d f53d 83bc 7d47 8fbc f794 83bc
00000030: 5915 43bd e2d0 893c aa88 c2bc 6bea 913c
00000040: 1d77 4dbd 64b8 153c ee72 443d bdcc 93bc
00000050: 6613 493c dcf1 6dbd 7231 c5bc 45d4 463d
00000060: 290e be3c 34c9 b23c 7ee3 cb3c e1b0 42bc
00000070: a467 d0bc 6f63 633d c703 b2bc 80e6 a0bb
-0.043763638 0.02868421 -0.04260837 -0.045487445 -0.043188285 -0.04755573 0.045458753 -0.025409345
0.03661127 -0.016020754 -0.017490143 -0.016062243 -0.04762778 0.016823236 -0.023746807 0.017811975
-0.050162423 0.0091382 0.047961168 -0.018041963 0.012272691 -0.058091983 -0.024071429 0.04854228
0.023200111 0.021824457 0.02488875 -0.0118829915 -0.025440045 0.05551475 -0.021730317 -0.0049102902

backbone.2.bn.weight f4 [32]
00000000: a57f 8f3f 0e46 7e3f 8e37 a43f 7e5c 733f
00000010: 90ec 853f ebe5 7b3f 0f3d 6d3f 7837 773f
00000020: 9c81 673f 91b9 823f 57af 7a3f 2385 873f
00000030: 4c23 6f3f 8ad1 5e3f e7f0 783f 7eda 7e3f
00000040: 872a 7c3f ea11 9e3f ea09 723f 5613 803f
00000050: 71aa 603f 886e 703f 2d8c 633f ba30 693f
00000060: c4cf 5e3f fe61 8e3f 1865 8c3f c8c8 593f
00000070: 383b 9c3f 5861 7e3f 45c9 873f 6306 733f
1.1210829 0.99325645 1.2829454 0.95063007 1.0462818 0.983977 0.92671293 0.96569014
0.90432143 1.021288 0.979238 1.0587505 0.93413234 0.8703848 0.9724259 0.9955214
0.9850239 1.2349217 0.9454638 1.0005901 0.8776007 0.9391866 0.88885766 0.91089976
0.87035775 1.1123655 1.0968351 0.8507199 1.2205572 0.99367285 1.0608298 0.9493162

backbone.2.bn.bias f4 [32]
00000000: 5dda 863d 14f5 9cbd a430 0dbe 64bb 0dbe
00000010: 060f cf3d 3d90 f83c b5d9 adbd a301 bfbc
00000020: 9931 52be 2d37 04be 7d88 063d 08ca a83d
00000030: 8196 8dbe 052a dabe d9e1 ffbd eda6 87bd
00000040: 035f 0cbf 18b4 07be bbf3 3dbe d568 c6bd
00000050: f3bd 08bf 5f84 873c 3a5b c4bd 33ad 5cbe
00000060: f955 11be 7a3b 38be 36af 2bbe 1812 87be
00000070: 5b82 373b c8f5 08be 06ad 03bd 078c 1cbe
0.06584618 -0.076639324 -0.13788086 -0.13841015 0.10110287 0.030342216 -0.0848879 -0.02331621
-0.20526733 -0.12911673 0.03284501 0.082416594 -0.27653888 -0.42610183 -0.12494249 -0.066236354
-0.54832476 -0.13252294 -0.18550007 -0.09687964 -0.5341484 0.016542612 -0.095877126 -0.21550445
-0.14192952 -0.17991439 -0.16766056 -0.26380992 0.0028001282 -0.13375008 -0.03214743 -0.15287791

backbone.2.bn.running_mean f4 [32]
00000000: 2585 d6bf ec73 a7bf 2859 7fbe da41 5ebf
00000010: db60 a8bf 5327 5fbf ca8a 60bd a49c 063f
00000020: d091 2f3e c932 02bf 535e acbf 0c09 00c0
00000030: 9594 6f3f 09e2 d33f c6c1 e8be f7c8 c0be
00000040: 47c3 c23f f021 45be cf70 493f 28ef 8dbf
00000050: 7f88 863f 5a81 90bf 8c73 7d3f a1ef 883e
00000060: dd3e 533f de83 83be 6f15 a9bf e08d b5be
00000070: 2476 81bf a80c 81bd 8a0e 89be 6330 4abf
-1.6759382 -1.3082252 -0.24936354 -0.8681923 -1.3154558 -0.8716938 -0.05481986 0.52582765
0.17145467 -0.5085874 -1.3466285 -2.0005522 0.93586093 1.6553355 -0.45460337 -0.37653324
1.5215844 -0.19251227 0.7868776 -1.108861 1.0510405 -1.1289475 0.99004436 0.26745322
0.82517797 -0.25686544 -1.3209666 -0.35459805 -1.0114179 -0.06301242 -0.26768905 -0.7898008

backbone.2.bn.running_var f4 [32]
00000000: eb23 f83e 0cb9 e53e 2ea3 203e 06bb 943e
00000010: da7e 243f 162c 6e3e 4f23 5a3f e8fb 3f3f
00000020: ed75 5d3f bcec 043f 1535 883e 8e91 d93e
00000030: 8cfc cf3e 09d8 0b3f f377 1e3f ddd5 993f
00000040: dae4 b53e 2027 9c3e 3627 2f3f ec11 733f
00000050: 26ec 8f3e 8966 003f 4f92 623f 68ba 663e
00000060: 9359 823f 1f85 713e e6ae 893e f398 173f
00000070: 139c 143f d095 333f 01c7 b53e 9646 1b3f
0.48464903 0.44867742 0.15687248 0.29048938 0.6425606 0.23259005 0.85210127 0.74993753
0.86508065 0.5192373 0.26602998 0.42493862 0.40622365 0.5462652 0.6190178 1.2018391
0.35526162 0.304986 0.68419206 0.9494922 0.28109854 0.50156456 0.885045 0.22532046
1.0183586 0.23585938 0.2689125 0.59217757 0.5805065 0.7015047 0.3550339 0.6065458

backbone.3.conv3x3.weight f4 [32, 32, 3, 3]
00000000: c4c7 40bd be2b 343d 3f43 a8bd 04af b1bd
00000010: 7833 7f3c b9bb 423c 9b1a c3bd 54a1 903d
00000020: edff c1bc e061 babc 4c72 aabc da8e bfbc
00000030: ddd8 17bd 3ab3 573d 8250 013d bfe2 283b
00000040: 982f 91bc 66a6 31bd 2ab8 26bc 147b 2f3d
00000050: e58c c63c d6d2 14bd 8a2c f73c 08c7 413d
00000060: a5a0 023c 54c9 713d d9f8 9e3d 095c 133c
00000070: 2782 d1bd 896a 983d 013d 12bc 6684 e03c
00000080: 0fa9 403d 945c 0a3d 835c 6b3c 57fd 443b
00000090: 14ad bbbd 06d9 7fbd 0baa d33d 396c 84bc
000000a0: 68ae b1bd 213f d53d 86ac 273c 32a8 a63d
000000b0: 481f 5f3d 4252 b5bc c0cf d13b d02e 87bd
000000c0: 07b2 10bd 93ce a83d c9c6 6fbd b4c2 b23c
000000d0: 6349 d4ba e675 08bd 5976 31bd 773e 4c3d
000000e0: defa 97bc aeb3 27bc 8915 c5bc 6060 86bd
000000f0: 9907 89bd ac73 9abd 9f49 f5bc 8f2c a2bc
00000100: 080b 653d 2fd6 be3c b346 0abd 1d80 78bc
00000110: 6e6b d83c 7922 403d 4062 e63c 2f4c 333d
00000120: 4696 91bd b246 593c 3dc8 8a3b bf25 a63c
00000130: f294 e7bc 4d0b 28bc 9ca6 763d b5d6 81bc
00000140: 2d52 d03c 36e3 7a3d ea59 203e e14a fbbb
00000150: 2d90 e83d 995b ccba eb5f c8bb 12a8 103d
00000160: aef1 d8bc 7000 18bc 2085 34bd 6e7c 3a3d
00000170: 9afb b6bb e3a1 6bbd 8189 2c3d a082 05bd
00000180: bc60 6a3d 6d53 143d 4441 1f3c f90a 87bd
00000190: 6f7b 003e 3c6e 143d 4625 46bd 7f6b 003d
000001a0: 872f f7bc 5c01 14bd 5361 7bbd 32a8 9f3c
000001b0: e221 a1bd 375b e53c 1013 68bd e566 93bd
000001c0: f5fd 993d b7b7 2f3c a648 a83c 438a 273a
000001d0: c414 4d3d d4bd 6dbd 7b58 d53c f033 0abc
000001e0: 76a4 49bd 7bb9 4d3c b935 f83b 1e5f af3d
000001f0: ee38 8a3d 60ef 013d 4779 85bd 1c71 b33d
00000200: 14c7 c03d 4877 9a3c 944e 953d 8df3 6d3d
00000210: 6bbc d4bb c000 f4bc 82c4 88bd a2da 28bc
00000220: 20d3 9e3d 0466 9c3d 8006 1bbd 9b01 5abd
00000230: 4439 023d 7e85 e6bc 5953 c33d 999c af38
00000240: dbda 1ebb 4334 06bd e79b e7ba 12d4 0abc
00000250: 7f2c 72be e6f7 bbbb e8e5 203d 555c 0ebe
00000260: e6b9 1a3c d2c5 57bd b362 de3c 1490 703c
00000270: 9dc1 febd 2882 3b3c d066 e23c 6222 3c3d
00000280: 3418 8fbc 39ca 163d 3b49 ef3c 78ef 9f3b
00000290: 6af7 80bc 5637 6a3c 0171 a2bc d7a4 21bd
000002a0: 5fec 10bd afe8 4d3d 45e1 77bc a693 c13c
000002b0: 94d3 b4bc 98a4 37bc 8f66 61bd 0c6a 09bd
000002c0: 88d2 b23d fda7 06bd b245 933d ea74 003d
000002d0: d216 953d d366 1bbd b263 bbbd 5b30 83bc
000002e0: f255 9f3c 2ffa 05bd 047d 0cbd e5cc ccbb
000002f0: 5890 423d 59a6 a43c 0f24 b6bc 2b43 d5bb
00000300: a7b9 073d 9415 ea3c 2730 783d 5059 c03d
00000310: eb8b 9dbc 6fd9 ecbc 4dda f03c b259 9c3c
00000320: d68b 113d 114b 40bd f758 c13b 6481 813d
00000330: e0fb 3dbd 2acc 633d 0354 6cbd b727 47bd
00000340: 8b8f 1fbd aab0 93bb 199a 0fbd 0411 7a3d
00000350: 714a 0dbe c0b0 5e3c 583f e13b 440b fc3b
00000360: 02a1 3abd 1090 1f3d cd83 40bd ce4a 53bd
00000370: 5349 d1bd 419b a0bc e87d 67bd a847 1fbd
00000380: 84c9 9d3c 93c6 4fbd bddb 29bc 1987 d3bb
00000390: b005 ec3d e4f5 a8bd dfdd b2bd c7a1 8bbd
000003a0: 7425 4dbd 6bbd 623d 100a f53c 8e74 713d
000003b0: d95b 4dbd 23d7 1b3e 2e80 d43d 3ed8 e43d
000003c0: 5216 38bb 8f92 893d 47a8 c13d 7c03 ba3b
000003d0: 67f5 413c 88eb e6bc 6f98 8d3a 3afe 92bd
000003e0: 90fc 55bb b3e0 33bc 94a0 c93b 62fb 31bb
000003f0: 29ad 37bd da73 ef3b d9c2 383c 38e2 103d
-0.04706551 0.04398703 -0.08215951 -0.0867596 0.015576236 0.011885577 -0.09526559 0.07062021
-0.023681605 -0.022751749 -0.020806454 -0.023383547 -0.03707205 0.05266116 0.03157092 0.0025769917
-0.01772289 -0.04337158 -0.010175744 0.042841986 0.024237106 -0.03633388 0.030172605 0.04730895
0.007972871 0.059029892 0.07762308 0.008994111 -0.10229903 0.07442195 -0.008925677 0.027406882
0.047036227 0.033779696 0.014365318 0.003005823 -0.091638714 -0.06246283 0.103351675 -0.016164886
-0.086758435 0.104124315 0.010234004 0.081375495 0.05447319 -0.02213395 0.0064029396 -0.06600726
-0.03532603 0.08242526 -0.058539186 0.021821357 -0.0016196187 -0.03331556 -0.043325756 0.04986426
-0.01855224 -0.01023571 -0.02405812 -0.06561351 -0.06690902 -0.07541594 -0.029942332 -0.019796638
0.055918723 0.02329549 -0.03375883 -0.015167263 0.026418414 0.046907876 0.028123021 0.043773826
-0.071087405 0.013261484 0.004235296 0.02028167 -0.028269265 -0.010256601 0.060217485 -0.01584945
0.02542981 0.06125184 0.156593 -0.0076688384 0.11355624 -0.0015591263 -0.00611495 0.035316534
-0.02648243 -0.009277448 -0.04407227 0.04552882 -0.0055841925 -0.057527434 0.04212332 -0.032595277
0.05722116 0.036212374 0.00972015 -0.0659389 0.12547086 0.03623794 -0.04837539 0.031352516
-0.03017403 -0.03613411 -0.061372112 0.019489381 -0.07867791 0.027997596 -0.056658804 -0.0719736
0.075191416 0.010724953 0.020542454 0.0006391147 0.05006863 -0.058042362 0.026043167 -0.008435234
-0.049229108 0.012556429 0.0075747636 0.08563064 0.0674914 0.031722426 -0.065172724 0.08761808
0.09412971 0.018855706 0.07290378 0.058093596 -0.0064921877 -0.029785514 -0.06678106 -0.010306032
0.07755113 0.076366454 -0.037847996 -0.053224187 0.031792894 -0.028139826 0.09537382 8.373819e-05
-0.0024239335 -0.032764684 -0.0017670364 -0.008473413 -0.23649786 -0.005736339 0.039281756 -0.1390241
0.009443736 -0.05267889 0.027146673 0.014682788 -0.124392726 0.011444606 0.027636915 0.045931228
-0.017467596 0.03681395 0.029209724 0.004880842 -0.015742976 0.01429542 -0.019829275 -0.039463844
-0.03538167 0.050270732 -0.015129392 0.023629975 -0.022073545 -0.011208676 -0.055029448 -0.0335484
0.08731562 -0.03287505 0.07191028 0.031361498 0.07279743 -0.037939858 -0.09149875 -0.016014269
0.019450162 -0.032709297 -0.03429891 -0.0062500113 0.04750094 0.020098852 -0.022233991 -0.006508251
0.033136036 0.028574742 0.060592797 0.09392035 -0.019231757 -0.028912274 0.029400969 0.019085739
0.03553375 -0.04694659 0.005900498 0.063235074 -0.046382785 0.055614628 -0.057697307 -0.04862186
-0.038955253 -0.004507144 -0.03505907 0.061051384 -0.13797928 0.013591945 0.0068740062 0.0076917727
-0.045563705 0.038955748 -0.047000695 -0.05158501 -0.102190636 -0.01960528 -0.056516558 -0.038886696
0.01926113 -0.050726485 -0.010367331 -0.006455314 0.11524522 -0.08250025 -0.08733725 -0.06817966
-0.050084546 0.055356424 0.029912025 0.058949046 -0.05013642 0.15218787 0.10376011 0.111740574
-0.0028089476 0.06717407 0.094559245 0.005676685 0.011838294 -0.028188482 0.0010802875 -0.07177396
-0.003265176 -0.010978865 0.0061531756 -0.0027157892 -0.044842873 0.0073075118 0.011276924 0.03537199

backbone.3.conv3x3.bias f4 [32]
00000000: 4a54 133d e240 a23b 0016 b3bc bdde f63b
00000010: f3b9 97bc 4740 3fbd 0ed6 1ebc 0072 71bd
00000020: cf44 9cbc 4932 9f3c f325 3ebd 42e2 b53c
00000030: 1e3f 703d 126f 763c f8b0 24bd a9d9 a5bc
00000040: 1506 7bbc 05e8 adbb db55 30bd 5134 78bc
00000050: aaab 913c 3a7e 5cbd a5e4 30bd 1c30 e33c
00000060: 235e 4fbc 681d fdbc 8093 ea39 8623 023d
00000070: 97eb f43c fcda 1dbc 494d f0bb 57a7 e63c
0.035969056 0.0049515823 -0.021861076 0.0075338767 -0.018521285 -0.04669216 -0.009694589 -0.05894661
-0.01907578 0.019433158 -0.04642291 0.022202615 0.058653943 0.01504113 -0.040207833 -0.02024539
-0.015321274 -0.0053072 -0.04305063 -0.015149192 0.017782051 -0.053831317 -0.043186802 0.027732901
-0.012656721 -0.030897811 0.00044741854 0.03177216 0.029897494 -0.0096347295 -0.007333432 0.028155966

backbone.3.bn.weight f4 [32]
00000000: 9838 7b3f 23d3 823f fa96 893f 4902 883f
00000010: 9273 8b3f dafc 773f 26c2 a23f df5c 803f
00000020: 1cdd 753f 3d0b 853f 7df8 813f 933e 763f
00000030: 540b 673f 248e b13f 0337 6f3f e44e 673f
00000040: 5bc5 763f 100f 5f3f 25e0 663f 4b8b 803f
00000050: 4b1d 7f3f 4ec3 713f 614f 883f 2837 6c3f
00000060: d9ff 8e3f 8be5 663f e652 7a3f c304 853f
00000070: 3145 773f 02be 743f efc6 833f d327 683f
0.9813323 1.0220684 1.0749199 1.0625697 1.0894644 0.96870196 1.2715499 1.0028342
0.9604051 1.0394055 1.0153958 0.9618923 0.9025166 1.3871503 0.93443316 0.9035475
0.9639489 0.8713236 0.9018577 1.0042509 0.9965407 0.94438636 1.0649225 0.9227166
1.1171829 0.90194005 0.9778274 1.0392078 0.9658995 0.9560243 1.0295085 0.90685767

backbone.3.bn.bias f4 [32]
00000000: 2c83 4cbe c0fe 9f3d d3d0 d43d b401 66bd
00000010: 5224 64be 88a0 a0be 0825 72be 0a94 64be
00000020: 7cde 2bbe a591 92be 8f52 c4be 71a6 04bb
00000030: 5e6a 86bd 9c10 f4bd f36a b2bc 3e46 96be
00000040: b417 68be 9b99 38be d4da bdbe 00f0 0b3d
00000050: 2bec d3bc 3bd2 a4be 5be2 cdbe 3a23 91be
00000060: fc82 12be a9c8 bcbd ed49 163d 71bb bebe
00000070: 0657 a8be 769e a8be 9639 84be 2ed4 003d
-0.19971913 0.078122616 0.103913926 -0.056153968 -0.2227948 -0.31372476 -0.23646939 -0.22322097
-0.1678409 -0.28626743 -0.38344237 -0.0020240808 -0.06563257 -0.119172305 -0.021779513 -0.29350466
-0.22665292 -0.18027346 -0.37081015 0.03416443 -0.02586945 -0.32191643 -0.40211758 -0.28347188
-0.14307779 -0.092179604 0.036691595 -0.3725238 -0.32878894 -0.32933396 -0.25825185 0.03145235

backbone.3.bn.running_mean f4 [32]
00000000: 2666 143f abab 1ebf 7a26 97bf 9354 903e
00000010: 7d59 463e 371a 96be 8963 89be ceaa 17bf
00000020: c510 733f 300a b1be 2458 b4be eb2c 89bf
00000030: b1f4 623f 9740 5ebe 725a d3bf fcc5 3b3e
00000040: c745 6a3d 0b18 933f 6016 ae3e 3dfe e5be
00000050: b9f3 febd 5718 00bf fa8f 863d bd4d 903f
00000060: 90ab 19bf bbd3 58bd 6319 1cbf d10a c73e
00000070: 3ec4 a1be 524a 353f 2f7b 27bd 06ce 593f
0.57968366 -0.61980695 -1.1808617 0.28189525 0.19370075 -0.29316875 -0.26833752 -0.59245
0.94947463 -0.34578085 -0.35223496 -1.0716833 0.8865462 -0.21704327 -1.6511977 0.18337244
0.05719545 1.1491712 0.34001446 -0.4492053 -0.1244883 -0.5003714 0.0657043 1.1273724
-0.6002741 -0.052936297 -0.6097624 0.3887544 -0.31595033 0.7081653 -0.04088896 0.8507999

backbone.3.bn.running_var f4 [32]
00000000: e338 0d3f 713a d53e 1881 533f 1a65 fc3e
00000010: fc52 133f 9ee9 0a3f 6611 043f ba74 a13f
00000020: 1f72 243f 5e6a 083f 64cb 183f b1aa f23e
00000030: 8f10 0640 f3d8 223f 2eab a03f df91 e43e
00000040: e949 093f 8f97 4b3f b434 103f e75c a53f
00000050: f59c fa3e b3f6 043f a82b be3e 1d4a a33e
00000060: 459f fb3e 73f0 423f dae3 143f b331 083f
00000070: 55d5 053f 5af8 3b3f 0e3b ff3e d496 083f
0.5516493 0.4164615 0.82618856 0.49295884 0.575485 0.5426272 0.5158905 1.2613747
0.64236635 0.53287303 0.5968535 0.47395852 2.0947607 0.6361229 1.255224 0.4464254
0.536284 0.79528135 0.5633042 1.2918977 0.48947874 0.51938933 0.37142682 0.3189248
0.4914495 0.76148146 0.58160174 0.53200835 0.52278644 0.7342583 0.49849743 0.53355145

backbone.4.conv3x3.weight f4 [32, 32, 3, 3]
00000000: b089 663d cc2e 07bd 13c4 4a3d d4df d73c
00000010: 7ef6 a63d 2364 ac3d 3428 1c3c d78d 2b3d
00000020: e259 443d 25d9 fa3a b0c8 7f3d 35e4 963d
00000030: dab9 be39 9c51 5d3d ed05 983b 197d be3c
00000040: b21a dc3d 68c8 c33d feeb 91bd bb16 9d3d
00000050: 7627 9fbb debe 0a3d b1ca 8abc cf56 193d
00000060: d262 fdbc 7c9a 063d 55c0 ea3c 1cbd 263c
00000070: 3140 da3c 539f bf3c 15de 68bc ef39 e8b9
00000080: 6649 ad3c e865 013d 552f 943d c6d7 143d
00000090: f3cd 6a3c d9d3 9bbd 9cf5 5dbd 2c6e 2ebe
000000a0: 0f3c 10be 9728 74bd 579b 673d f701 36bd
000000b0: dea0 91bd e125 e13c deb9 d33c e47d 873c
000000c0: 662b a43c 182d 19bd 37af 9039 3e2d 693b
000000d0: a164 e93b c045 23ba 8a25 bd3c 9c98 c4bd
000000e0: ce9b 8f3d c32b afbc 7d20 64bd 568a c43b
000000f0: 2026 92bd 5c76 dcbc e622 313d 1ebb fd3c
00000100: 8eff 7a3c b9d8 a43c 6872 2fbd cb48 99bc
00000110: 60e0 54bc a34d 88bd 240a 4e3c 6a2c da3b
00000120: 1bff dc3c 31e5 993d 7bf9 c7bb 0555 c83c
00000130: 7951 73bb 0e1f 5c3d 2e6f 4e3d c181 00bc
00000140: 8722 083d 7604 df3c f78f 31bd 8680 c4bb
00000150: 787a 0a3d e34b 96bd a8d4 09bd e03f 713d
00000160: 6569 5dbc 7632 5ebc f73c 04bd c686 aebd
00000170: bc65 9dbd 4079 3c3d c360 76bd 1e49 16bd
00000180: 8267 40bd 4bcd 04bd e1f3 1ebd e4b9 5c3c
00000190: 678f 1b3d 1baa 53bd 8faf 053c 4702 5ebd
000001a0: a9a4 97bc 1b9e 7dbd 234a 203d 80d7 533c
000001b0: b293 4b3b 35f0 0b3d ab69 f4bc ebbc 43bc
000001c0: 0701 5ebd afb7 893d 29ae 4abc 2886 40bb
000001d0: 63d5 743d 1374 e43d 4517 0d3d 17f5 6f3d
000001e0: 37d6 3ebd 2b0e 02bd 5819 6bbd f7fe 943d
000001f0: f0e0 423d e35a 513d 4a42 a0bc 99cf f7bc
00000200: 6dab 323c 6da5 d73c c709 2abd a496 163d
00000210: 7146 07b9 93f6 123d be3f 12bc a81e c8ba
00000220: c7b9 963a 2265 39bd f7f1 823c 0b68 9bbc
00000230: 2c0a 5ebd 2996 82bd 4b1d 20bc 2b4c 72bd
00000240: f1dd 12bc 0247 853c 457b e239 4b2a 843d
00000250: 5e0f 44bd c9a3 3fbd 6ab5 ac3d 8536 7c3d
00000260: 47f8 55bd 11b9 97bd 0119 6fbd 9418 6b3c
00000270: 72d2 4b3d 97e4 6cbd 9fd1 00bd 636d efbc
00000280: 8b06 cc3c 0866 e1ba 9e01 5bbd 7cef 84bd
00000290: adc0 6ebd 6736 0b3d e239 b5bd 89c1 83bd
000002a0: 48ec 4fbc 44ed 39bd 57e5 7fbc 3be1 d63b
000002b0: 48dd cbbc 993a e8bc ba1d 033c 807b 5cbd
000002c0: a14e 8fbc 0b40 90bd c37b 95bd 9ffa 8dbc
000002d0: 02e5 083d e0c6 f93c ce8d 243d 199e 8abd
000002e0: 0c77 09bd 5edf 1dbd 486b 32bc 0573 84bb
000002f0: 5763 8c3d ef5b 04bc 62ad b9bc 36c3 70bd
00000300: 215d 2d3d b1bc 17be 6ebb 90bd fc0f 86ba
00000310: 436d 15be 1b05 0ebd 0169 91bc c089 79bd
00000320: 0de8 bebd b0f8 95bc 7016 8ebd 4abc 65bd
00000330: 9b6f c4bc d8c1 8cbd 949b 6bbd d716 d5bd
00000340: c77e a1bd 410e 39bd bdef 19bd 550c c7bd
00000350: a98d 5bbd 0c40 c8bd 0dff e4bd 1ce6 e8bd
00000360: 1ed8 083d 7665 c5bc 6e07 b53d 3c44 513d
00000370: 1796 d93d 4ac0 c43d bb6d ac3d 7144 823d
00000380: 0799 f13c 1633 f33c dc3f b83a aaa5 ba3c
00000390: d293 7bbd 88e7 0a3c 1b32 82bc 3564 c4bc
000003a0: f991 bcbd 13c1 0ebd 684c 56bd 23d2 8bbd
000003b0: a244 82bc 1ef6 c8bd 9fb0 d6bd b328 0abd
000003c0: f773 76bd 181c dc3c 6220 1ebd 6aa0 c6bc
000003d0: 4e32 36bd ea91 84bd 03d4 63bb 4e2e 52bd
000003e0: f7f0 4bbd 52c0 e9bd edb5 86bd b0b9 77bd
000003f0: 6250 173d 4173 7cbd 8aa0 c4bd a2ba 42bd
0.056283653 -0.033003613 0.049503397 0.026351847 0.081524834 0.08417537 0.00953107 0.041883316
0.04793728 0.00191382 0.06244725 0.07367746 0.00036378094 0.054032907 0.0046393783 0.02325301
0.10747279 0.09559709 -0.0712509 0.07670351 -0.004856999 0.03387343 -0.016942354 0.037436303
-0.03093091 0.03286217 0.028656164 0.010176923 0.026641937 0.023391401 -0.014213105 -0.00044293652
0.021153163 0.031591326 0.0723559 0.03633859 0.014331329 -0.07608766 -0.05418931 -0.17034215
-0.1408541 -0.059609022 0.056544628 -0.044435468 -0.07110761 0.027483882 0.025845464 0.016539522
0.020040225 -0.03739652 0.00027596366 0.0035579945 0.0071225916 -0.000622835 0.02308919 -0.095994204
0.07012139 -0.021383172 -0.055695046 0.0059979362 -0.07136178 -0.026911907 0.043246172 0.030973013
0.015319718 0.020122873 -0.042833716 -0.018711468 -0.012992948 -0.06655433 0.01257566 0.0066581266
0.026977113 0.07514418 -0.0061027384 0.024454603 -0.003712742 0.053740554 0.050398998 -0.007843436
0.033236053 0.027223807 -0.043350186 -0.0059967665 0.0338082 -0.07338693 -0.03365007 0.058898807
-0.013513898 -0.0135618355 -0.032284703 -0.085218 -0.0768542 0.04601407 -0.060150873 -0.036690824
-0.046973713 -0.032422345 -0.0388068 0.013472054 0.037978556 -0.051675897 0.008159532 -0.05420139
-0.018511133 -0.06191836 0.039133202 0.012929797 0.0031063375 0.034164626 -0.029835543 -0.011946897
-0.0542002 0.06724488 -0.012370625 -0.0029376838 0.059773814 0.11154952 0.03444602 0.058583345
-0.04659101 -0.031751793 -0.057397217 0.07275193 0.0475778 0.051112067 -0.01956286 -0.030250357
0.010905129 0.026323998 -0.04151323 0.036764756 -0.00012900845 0.035879683 -0.00892633 -0.0015267925
0.0011499458 -0.045262463 0.015984518 -0.01897051 -0.05420892 -0.06376297 -0.009772609 -0.05915467
-0.008964048 0.01626921 0.00043197922 0.06453379 -0.047866218 -0.046787057 0.084330395 0.06157543
-0.05223873 -0.074083455 -0.058373455 0.014349122 0.049761243 -0.057835188 -0.03144991 -0.029226964
0.024905464 -0.0017196545 -0.05346834 -0.064909905 -0.05828922 0.03398743 -0.08848931 -0.06433398
-0.012690611 -0.04539229 -0.015618644 0.0065576113 -0.024885789 -0.028348254 0.008002693 -0.053828716
-0.017493548 -0.07043465 -0.07298996 -0.01733142 0.033421524 0.030490339 0.040174298 -0.06768436
-0.033560798 -0.038543098 -0.010889836 -0.0040420317 0.06854885 -0.008078559 -0.022665683 -0.058779918
0.042325143 -0.14818074 -0.070669994 -0.0010228152 -0.14592461 -0.034672838 -0.017750265 -0.060922384
-0.09321604 -0.01830706 -0.06937873 -0.05608777 -0.023978999 -0.0687291 -0.057521418 -0.10404747
-0.07885509 -0.04517961 -0.037582148 -0.09719149 -0.053601895 -0.09777841 -0.111814596 -0.11372015
0.03340923 -0.024096232 0.08839308 0.051090464 0.106243305 0.09606989 0.08419367 0.063607104
0.029491914 0.029687446 0.0014057118 0.022784073 -0.06142027 0.008478053 -0.015893033 -0.023973564
-0.092075296 -0.0348521 -0.05231896 -0.0682719 -0.015901867 -0.09812568 -0.104829066 -0.03373022
-0.060169186 0.026868865 -0.0386051 -0.024246413 -0.044481568 -0.064731434 -0.003476382 -0.05131369
-0.04979035 -0.11413635 -0.06577668 -0.06047982 0.036941893 -0.061633352 -0.09600933 -0.04754127

backbone.4.conv3x3.bias f4 [32]
00000000: 17bd a1bc 0c1a 33bd c0d6 453d a8cc 1abd
00000010: 6fc3 a5bc 404d 43bd 0b1f 6c3d c4c0 51bd
00000020: 5a8c 3a3d da6a cbbc 9eda 1dba 8220 3c3d
00000030: 5c1c 62bd b45b debb 31a5 143d cd80 dcbc
00000040: 2bb3 f93b b0c4 fbbc c049 d5bb 7ada 033d
00000050: 91db 973c 312e 903c 5c05 e83b acb3 7a3c
00000060: 3db0 2f3d f79b 91bc 3f75 84bc f516 223d
00000070: 5691 3abd 74a7 4dbd 20a5 16bd 5134 953c
-0.019743485 -0.043726012 0.048300505 -0.03779283 -0.020234792 -0.047681093 0.057646792 -0.051209226
0.045544006 -0.024831224 -0.0006021651 0.04592944 -0.055202827 -0.006785834 0.03629035 -0.026916886
0.0076202354 -0.030733436 -0.006509036 0.032190777 0.018537315 0.01760015 0.007080717 0.015301626
0.042892683 -0.017774565 -0.016169189 0.039572675 -0.04554876 -0.050208524 -0.03677857 0.018213423

backbone.4.bn.weight f4 [32]
00000000: 249d 823f 99c3 843f 65da 8a3f f06c 6f3f
00000010: 1758 863f c95d 813f 64c5 8c3f 34e4 813f
00000020: dc44 753f 3eb8 793f 72b7 9a3f c0b8 823f
00000030: 1fb7 6d3f bff5 7c3f 69df 683f 0156 5f3f
00000040: 043e 7a3f 047e 683f ef53 803f 4918 883f
00000050: 153b 783f 0b27 7a3f 0d5e 7c3f b396 763f
00000060: 02c9 853f 4b46 833f a3b3 8a3f cf57 663f
00000070: 3e88 873f febc 7b3f 58fe 6c3f b703 633f
1.0204206 1.0372192 1.0847899 0.935256 1.0495633 1.0106746 1.0997739 1.0147767
0.95808196 0.97546756 1.2087233 1.0212631 0.92857546 0.9881248 0.90965897 0.87240607
0.9775088 0.90817285 1.0025615 1.0632411 0.9696515 0.97715825 0.9858101 0.963237
1.0451968 1.0255827 1.0836071 0.89977735 1.0588453 0.98335254 0.925756 0.88677543

backbone.4.bn.bias f4 [32]
00000000: cc2b e03b f2ab d1be 32cb f8bd 08d8 6dbd
00000010: 6242 b83d bbce b7bd 7414 c9bd f0a6 a4bc
00000020: 2c59 62bd 8d54 6dbe f06e 33be 1aec 3bbe
00000030: 2ab2 c2bd 4bc7 183d 8333 35bd 80da a7ba
00000040: bd03 e9be 04a5 a3bd 7146 67be c7e8 6dbe
00000050: 8d6e edbd 23ef 88be 6cf6 d0be a4e1 4ebe
00000060: 64a0 5d3d 8218 a2be a27f 2e3d 1e46 86be
00000070: 6140 3b3e c3c8 9bbe cea8 84bd c02c 2ebe
0.0068411585 -0.40951496 -0.121481314 -0.05806735 0.089970365 -0.089749776 -0.09818354 -0.020099133
-0.055260822 -0.23176785 -0.17522788 -0.18351784 -0.09506638 0.037299436 -0.04423858 -0.0012806207
-0.45510665 -0.079904586 -0.22585465 -0.23233329 -0.115933515 -0.26744947 -0.40813005 -0.20203263
0.05410804 -0.31659323 0.04260219 -0.2622537 0.18286277 -0.30426607 -0.064775094 -0.17009258

backbone.4.bn.running_mean f4 [32]
00000000: 2f8e 04bf 4910 7a3f 8fa9 29be 32e5 8abe
00000010: ca4f 0cbf c8f5 bdbe a700 13bf 9a2e 3fbf
00000020: e8fe 3bbf 61c0 cc3e 055a cebe a734 3e3e
00000030: 2b35 4abf b126 dbbf 6bf4 0bbf 4fe9 843e
00000040: 50e3 853f b20b bbbe a29c 013c 8c54 a53e
00000050: 16ac d93e 72c1 453e 1a25 953e e038 76bd
00000060: 6b99 c2be 971d 0d3e e9d6 e3be 80ee 2dbe
00000070: b04f 42bf 835a 373d d809 38be f984 643f
-0.51779455 0.976811 -0.16568588 -0.27127987 -0.5480925 -0.3710158 -0.5742287 -0.74680483
-0.7343583 0.39990523 -0.40303054 0.18574773 -0.7898738 -1.7121183 -0.5466983 0.2595925
1.0459995 -0.3653236 0.007910879 0.32291067 0.42514104 0.19312075 0.2912987 -0.060112834
-0.38007674 0.13780819 -0.444999 -0.16985512 -0.75902843 0.044764053 -0.17972505 0.892654
