models/m6_last_epoch.pt (torch, 286059 bytes, 50 tensors)

backbone.0.conv3x3.weight f4 [32, 3, 3, 3]
0.06162838 0.11096122 0.015155014 0.12661724 -0.20519741 -0.041861583 -0.05383581 0.14992893
0.09929315 -0.09620044 0.11952225 -0.15170962 0.119409956 0.18330073 0.095945805 0.03609865
0.15339296 0.053746834 -0.13077061 0.049537543 0.030704841 -0.015418763 0.06182544 0.072657235
-0.21926509 -0.14026085 -0.18856321 -0.028104808 0.08142891 -0.29937348 0.05472425 -0.037004404
0.13703416 9.665353e-05 -0.19390213 0.0694606 -0.07966547 0.14066853 0.1476912 0.101049915
0.053002983 0.011173138 0.0460889 0.13549602 0.15640387 -0.110419154 0.11323435 0.08005284
0.033508547 -0.0869396 -0.28722695 0.05073771 -0.13486601 0.13363688 0.02295872 0.053183425
0.07212745 -0.06935087 0.22127458 -0.11057516 0.0051143104 -0.18409646 0.0018010872 -0.11892457
-0.0030303346 0.002126129 0.23249692 -0.16071273 -0.1122841 -0.10396361 0.16606396 0.029151317
0.13689883 -0.079494625 -0.07627651 -0.17473762 -0.13515201 0.22742082 0.02824144 0.16901556
-0.07875351 -0.04003229 0.08270356 0.024974825 0.12423186 0.031640608 0.11514852 -0.13857503
-0.17883202 0.01886624 0.06727895 0.0067284205 0.053020243 0.102975585 -0.47309208 -0.021046814
-0.040905003 -0.13111667 -0.013682415 -0.046549026 0.022288863 0.0966903 0.05917281 -0.2763273
0.047396094 -0.13765179 -0.1437058 -0.042285766 -0.06344114 -0.11185828 0.14148884 -0.07198807
-0.034197845 -0.0953014 -0.33834162 -0.013233896 0.04043523 -0.038990527 -0.03105106 0.003661012
-0.1331264 -0.001291436 -0.010065715 -0.043131188 0.00637078 0.038230307 0.004620152 -0.30701137
0.14078842 0.026129754 0.17065656 0.08869597 -0.5069722 0.116827466 0.024380334 -0.07424113
-0.08856159 -0.4195152 1.2639866e-05 -0.03438801 0.039186288 -0.08602053 0.03855793 -0.06412677
-0.07931612 0.09727578 0.11560686 0.0883535 0.24294962 -0.35898173 0.029994257 -0.05387944
-0.0083829975 -0.13408901 0.061765622 -0.08165232 0.03725599 0.042757314 0.039947372 -0.09935976
0.14019352 0.0028491658 0.027516779 -0.2641521 0.0066497056 0.012057464 0.032250304 0.1957788
0.024363121 -0.08654231 -0.005971381 0.0032496792 0.07787501 0.028871842 -0.0561535 -0.03271682
-0.38939345 0.008286054 0.060460918 -0.06435131 0.006013703 0.06456624 0.011091075 -0.025678776
0.09440641 0.15313141 -0.006897319 -0.0023845567 0.008055717 -0.001206635 -0.015046065 0.0033114543
0.08468776 0.25394025 -0.08565942 -0.04912588 -0.004084901 -0.047232646 -0.0072884597 0.06091084
-0.07154133 -0.05384725 0.12572894 -0.0038283332 -0.024238545 -0.1009801 -0.17034644 -0.07373674
-0.0073831785 -0.0048552584 0.034191653 0.16956863 -0.23423362 -0.033869278 -0.021618886 0.3186459
0.045905065 0.034538895 0.052005142 -0.008403448 -0.16627449 0.13038194 -0.008876583 0.018001227
-0.52719986 0.057320483 0.03455458 0.0809418 -0.029263461 -0.12069713 -0.022966959 0.025980119
0.044990107 0.17919357 0.088974066 0.043025244 0.039338592 -0.009391706 -0.27385285 -0.22358856
0.04677489 0.0010562764 0.015492344 -0.011468288 0.016496887 0.07447259 -0.029382078 0.11082344
-0.025460381 0.054687977 0.017591003 -0.43800914 -0.030753063 -0.22088043 -0.012407271 -0.055436857
00000000: 0a6e 7c3d a33f e33d bc4c 783c f3a7 013e
00000010: 451f 52be 0d77 2bbd f082 5cbd f886 193e
00000020: 355a cb3d bc04 c5bd 15c8 f43d c459 1bbe
00000030: 358d f43d 30b3 3b3e 3c7f c43d 2edc 133d
00000040: 0b13 1d3e a425 5c3d bbe8 05be e1e7 4a3d
00000050: b888 fb3c fb9e 7cbc ac3c 7d3d 51cd 943d
00000060: 0787 60be 8aa0 0fbe b716 41be 0e3c e6bc
00000070: 33c4 a63d 7b47 99be 8926 603d ee91 17bd
00000080: af52 0c3e 78b2 ca38 488e 46be 5c41 8e3d
00000090: a627 a3bd 690b 103e 5d3c 173e 42f3 ce3d
000000a0: a819 593d 8a0f 373c b7c7 3c3d 78bf 0a3e
000000b0: 5628 203e 7023 e2bd 69e7 e73d bef2 a33d
000000c0: 4240 093d 640d b2bd 690f 93be 58d2 4f3d
000000d0: 511a 0abe 1bd8 083e ed13 bc3c ddd6 593d
000000e0: 8eb7 933d d407 8ebd ce95 623e 3b75 e2bd
000000f0: f295 a73b c883 3cbe 7512 ec3a ba8e f3bd
00000100: 9498 46bb 8756 0b3b ac13 6e3e e191 24be
00000110: 35f5 e5bd e0ea d4bd ac0c 2a3e bece ee3c
00000120: 352f 0c3e 14ce a2bd dc36 9cbd 6bee 32be
00000130: 4a65 0abe 01e1 683e 985a e73c 6a12 2d3e
00000140: 8549 a1bd e6f8 23bd 7c60 a93d 0198 cc3c
00000150: 466d fe3d 9599 013d fdd2 eb3d 9de6 0dbe
00000160: be1f 37be 5f8d 9a3c 8cc9 893d 157a dc3b
00000170: c12b 593d dde4 d23d 2039 f2be 5e6a acbc
00000180: 018c 27bd 7343 06be 352c 60bc 31aa 3ebd
00000190: 2297 b63c 9005 c63d 305f 723d c67a 8dbe
000001a0: 6822 423d 97f4 0cbe 9d27 13be d733 2dbd
000001b0: 6eed 81bd f415 e5bd 73e2 103e 7b6e 93bd
000001c0: 0a13 0cbd 612d c3bd 1d3b adbe fcd2 58bc
000001d0: 699f 253d 88b4 1fbd cb5e febc 97ed 6f3b
000001e0: 4952 08be 6745 a9ba abea 24bc 54aa 30bd
000001f0: fac1 d03b 6297 1c3d a564 973b 9830 9dbe
00000200: d72a 103e 110e d63c 98c0 2e3e 3ca6 b53d
00000210: eec8 01bf 3d43 ef3d 44b9 c73c bc0b 98bd
00000220: c75f b5bd b2ca d6be d00f 5437 71da 0cbd
00000230: cd81 203d 882b b0bd ecee 1d3d e554 83bd
00000240: 7d70 a2bd 8638 c73d 4ac3 ec3d aef2 b43d
00000250: c9c7 783e 74cc b7be 84b6 f53c b0b0 5cbd
00000260: d758 09bc a14e 09be f3fd 7c3d 5539 a7bd
00000270: bd99 183d 4b22 2f3d db9f 233d 217d cbbd
00000280: e48e 0f3e 12b9 3a3b de6a e13c f23e 87be
00000290: c6e5 d93b ab8c 453c e518 043d 3d7a 483e
000002a0: 2b95 c73c 183d b1bd 93ab c3bb 92f8 543b
000002b0: ef7c 9f3d a484 ec3c 3601 66bd 1202 06bd
000002c0: 945e c7be 3bc2 073c dea5 773d 9fca 83bd
000002d0: 990e c53b 4e3b 843d 57b7 353c 4c5c d2bc
000002e0: 2658 c13d 7bce 1c3e e802 e2bb 3946 1cbb
000002f0: 20fc 033c f427 9eba c583 76bc fc04 593b
00000300: c770 ad3d 7504 823e 356e afbd 3838 49bd
00000310: a2da 85bb 0577 41bd 08d4 eebb a57d 793d
00000320: 4384 92bd ef8e 5cbd 16bf 003e c6e4 7abb
00000330: ea8f c6bc a8ce cebd 4c6f 2ebe 4a03 97bd
00000340: 97ee f1bb dc18 9fbb 8c0c 0c3d 66a3 2d3e
00000350: f0da 6fbe 83ba 0abd 171a b1bc 8e25 a33e
00000360: f306 3c3d a878 0d3d 5803 553d 9eae 09bc
00000370: dc43 2abe d882 053e 166f 11bc 4f77 933c
00000380: 92f6 06bf e2c8 6a3d 1a89 0d3d d0c4 a53d
00000390: edb9 efbc 0f30 f7bd 3425 bcbc 42d4 d43c
000003a0: 8c47 383d 857e 373e 0938 b63d 3d3b 303d
000003b0: 8121 213d acdf 19bc 7136 8cbe 66f4 64be
000003c0: 0797 3f3d c172 8a3a 9ad3 7d3c 7ce5 3bbc
000003d0: 7b24 873c 1685 983d afb2 f0bc 66f7 e23d
000003e0: 4a92 d0bc 8000 603d 021b 903c bc42 e0be
000003f0: d9ed fbbc 7b2e 62be de47 4bbc c211 63bd

backbone.0.conv3x3.bias f4 [32]
-0.08645381 0.16274412 0.14485952 0.05881645 0.012148681 -0.15836582 -0.019734504 0.17076324
0.04838687 0.013927292 -0.03870895 -0.06645113 0.11950046 0.012297254 0.1257311 -0.031069558
0.0863443 0.08154408 0.027200934 0.13124907 0.1208819 0.1736123 0.14825968 -0.049664855
-0.1680955 0.037290055 -0.0018698275 -0.054584272 -0.030206727 0.0046054157 0.14149262 0.06692494
00000000: b20e b1bd 65a6 263e 0e56 143e 85e9 703d
00000010: 430b 473c a62a 22be 41aa a1bc 8fdc 2e3e
00000020: 5031 463d 4c2f 643c 478d 1ebd 8817 88bd
00000030: a8bc f43d 6c7a 493c a7bf 003e 9685 febc
00000040: 48d5 b03d 9500 a73d 7ed4 de3c 2866 063e
00000050: ee90 f73d 6cc7 313e 63d1 173e 606d 4bbd
00000060: 3a21 2cbe 75bd 183d 0015 f5ba c293 5fbd
00000070: 1974 f7bc 07e9 963b 71e3 103e f10f 893d

backbone.0.bn.weight f4 [32]
0.9567582 0.948941 0.76334023 1.2254752 1.1760398 1.0788535 0.9107873 0.756361
1.0864545 1.0658332 0.9697942 0.6741177 1.2764225 0.82946146 0.65737337 1.2517294
0.8501949 0.9805947 0.8559345 0.81990504 0.98493826 0.85266536 1.2378339 1.3554401
0.62401146 0.9268625 0.8166233 0.5486758 1.0083501 0.91490704 1.1106932 0.9426891
00000000: 1bee 743f cced 723f 446a 433f 5fdc 9c3f
00000010: 7988 963f df17 8a3f 5b29 693f e0a0 413f
00000020: f110 8b3f 396d 883f 6f44 783f fa92 2c3f
00000030: d061 a33f 9657 543f 9f49 283f ab38 a03f
00000040: 5fa6 593f 4108 7b3f 861e 5b3f 4ce5 513f
00000050: ea24 7c3f 4748 5a3f 5771 9e3f 107f ad3f
00000060: 37bf 1f3f dc46 6d3f 390e 513f 0476 0c3f
00000070: 9e11 813f 5937 6a3f 322b 8e3f 1354 713f

backbone.0.bn.bias f4 [32]
0.04364328 0.13018192 0.15414813 0.095136315 -0.11750167 -0.07733717 0.049111836 0.47555345
0.12286107 -0.12869476 -0.122957245 0.21588364 -0.16810788 1.101755 0.85820514 -0.2623432
0.3750769 -0.079436444 0.45895198 1.0082184 -0.20508611 1.0448927 -0.01626057 -0.075252265
0.079936735 -0.0011812804 -0.3570937 0.0616796 0.22010042 0.11984049 -0.18093988 0.20405471
00000000: 4cc3 323d 694e 053e 02d9 1d3e d4d6 c23d
00000010: b7a4 f0bd f362 9ebd 7e29 493d be7b f33e
00000020: 969e fb3d 8fc8 03be 02d1 fbbd 9a10 5d3e
00000030: 7924 2cbe 4f06 8d3f 55b3 5b3f d951 86be
00000040: 140a c03e 93af a2bd c1fb ea3e 4d0d 813f
00000050: 1802 52be 0bbf 853f e334 85bc dc1d 9abd
00000060: dfb5 a33d 31d5 9aba fcd4 b6be c0a3 7c3d
00000070: 0162 613e ee6e f53d 4e48 39be b8f3 503e

backbone.0.bn.running_mean f4 [32]
0.016878322 0.27508983 0.1280797 -0.1917809 -0.27366105 -0.3247214 -0.07344505 0.17500782
-0.07537406 -0.086001545 -0.17697528 -0.03211063 0.04457411 0.015504945 0.13544542 -0.16211294
0.17224525 0.023956398 0.073265135 0.1523621 0.20720969 0.19019718 0.06171071 -0.27265495
-0.18000552 0.0794975 -0.059506502 -0.05217907 -0.13420568 -0.12063082 0.08921343 0.13289012
00000000: 6844 8a3c 93d8 8c3e 5327 033e 3662 44be
00000010: 4d1d 8cbe e241 a6be 5c6a 96bd 4035 333e
00000020: b75d 9abd 9421 b0bd 0239 35be 7086 03bd
00000030: 5893 363d 7408 7e3c 34b2 0a3e ef00 26be
00000040: 0f61 303e 3540 c43c 080c 963d cf04 1c3e
00000050: c72e 543e 0dc3 423e 5fc4 7c3d 6e99 8bbe
00000060: 5e53 38be 96cf a23d 17bd 73bd b8b9 55bd
00000070: 376d 09be 4b0d f7bd 88b5 b63d 5914 083e

backbone.0.bn.running_var f4 [32]
0.003590552 0.0036398787 0.00069247227 0.021833846 0.030311393 0.011522914 0.0011780047 0.000832596
0.007728465 0.004225272 0.0067327395 0.0021724496 0.0034648606 0.0008352925 0.00057514786 0.007194078
0.0024485437 0.0031998025 0.0012684914 0.0008268003 0.0042675403 0.00092159817 0.004934683 0.017908478
0.0011378892 0.0018033815 0.0025915399 0.0007897326 0.0048672925 0.005138716 0.00230687 0.0024910357
00000000: 774f 6b3b 088b 6e3b 0787 353a e5dc b23c
00000010: 994f f83c 9bca 3c3c 4767 9a3a 9242 5a3a
00000020: 103f fd3b 2774 8a3b 509e dc3b a85f 0e3b
00000030: b712 633b 88f7 5a3a 85c5 163a 4dbc eb3b
00000040: bf77 203b c7b3 513b 8243 a63a a1bd 583a
00000050: b9d6 8b3b 6897 713a 1fb3 a13b cdb4 923c
00000060: 3a25 953a 715f ec3a d3d6 293b 0f06 4f3a
00000070: cf7d 9f3b ad62 a83b db2e 173b a540 233b

backbone.1.conv3x3.weight f4 [32, 32, 3, 3]
-0.04333533 -0.017979836 -0.042256508 0.0055234353 0.13253264 -0.01513394 0.026914166 -0.009635956
-0.013602679 0.011994653 -0.09086593 -0.01423925 -0.06591643 0.002349608 -0.061501518 0.052556977
0.048906952 -0.0226227 0.04819607 -0.066285096 -9.224365e-05 0.015768062 -0.062101454 -0.029700525
-0.006653754 -0.0020515046 0.028278053 -0.09335637 0.09233055 -0.07670311 -0.08028056 0.0388325
-0.06323369 -0.054049212 -0.021082617 -0.06749584 -0.028650554 -0.0023288599 -0.028632328 -0.09033162
-0.037398677 0.054592993 0.049589038 -0.022661349 -0.05562781 0.0529682 -0.039494757 -0.05117534
0.27885142 -0.01681661 0.0786494 -0.11318272 -0.024038466 0.026994612 -0.054176908 0.0079577565
0.0778277 0.0045041875 0.10269134 0.04441718 -0.06580828 -0.03597609 0.061930962 -0.04140316
-0.012963636 0.028072318 -0.11974282 0.010144555 -0.028722098 0.031179555 -0.03964354 0.026583124
-0.11913718 0.034901872 -0.0141672995 -0.027607447 -0.00246523 -0.003208888 -0.077591784 -0.042925455
-0.051613715 -0.091305666 -0.0044605215 0.006847276 0.06756949 -0.032426205 0.031642713 0.028861443
-0.009934254 0.03349944 -0.051585134 0.012245284 -0.0408463 0.0070664035 0.10591758 -0.02470344
-0.014646343 -0.05853461 0.008758295 -0.054585677 -0.0116717145 0.026087673 -0.07863072 0.013768104
-0.01622711 0.04847843 0.027443862 0.028111007 -0.050641477 0.09341825 0.03762376 0.09832272
-0.26294735 0.068252794 0.08197169 -0.0115542915 0.030404067 -0.015999187 0.008637571 -0.039370347
-0.110348135 -0.015603125 -0.049453985 0.021238143 -0.030303916 -0.029565984 -0.009384006 0.049824756
0.0072884844 -0.12503885 0.0321707 -0.021933535 0.01300293 -0.046735365 -0.014686825 0.081548445
-0.015808221 0.07596657 0.04437534 0.37860465 0.012707371 0.03187167 0.060727976 -0.02033909
-0.07587769 0.041360088 0.029673578 -0.0050857873 0.00032054904 -0.016577873 -0.05294266 -0.056596708
0.008118445 0.020969993 -0.021218684 -0.0095149875 -0.11695461 -0.2608147 0.036040388 -0.06432312
-0.0038631693 -0.05485403 0.014125831 -0.038244702 -0.03681492 0.00011355081 0.02486555 0.0501102
-0.16281438 0.10920589 0.014589038 0.03901555 -0.017044034 -0.04817954 -0.020229543 0.031191275
-0.029725842 0.025379205 -0.07786199 -0.0053447266 -0.0036829794 -0.018063461 -0.086586736 -0.026280237
-0.042971034 -0.040329963 -0.01509208 -0.011484657 -0.045245893 0.0037123887 -0.14170283 0.0104404725
0.026596965 -0.01831601 0.06131053 0.008778819 -0.030081796 0.002037016 0.06345693 -0.09955597
0.029382406 -0.096048504 0.11977435 0.06996348 -0.02718377 0.016555237 0.01593873 0.21125796
0.0008824608 -0.06903294 0.147739 0.049371053 -0.06800309 -0.116609514 0.02570865 -0.025746
0.035716563 -0.015530053 -0.041127834 -0.016412612 -0.01836494 -0.01767459 -0.045953654 -0.00859273
0.0063924193 -0.048401423 -0.024560133 -0.04673631 -0.051529817 -0.04855537 0.017981878 0.012742396
-0.015969805 -0.009422902 -0.017807683 0.035038162 -0.0041611595 -0.018579384 -0.024505373 -0.13880251
0.08875622 -0.014950613 -0.010376273 0.031964254 -0.028907735 -0.004985898 0.099946775 0.012510485
0.012237076 -0.0028552113 -0.0856195 0.012129692 0.002804558 -0.0003417862 -0.01801841 -0.058060884
00000000: 6380 31bd 734a 93bc 2915 2dbd effd b43b
00000010: a3b6 073e 58f4 77bc 197b dc3c 21e0 1dbc
00000020: c5dd 5ebc 3985 443c eb17 babd be4b 69bc
00000030: 31ff 86bd e2fb 193b 04e9 7bbd fc45 573d
00000040: a852 483d 3e53 b9bc 3e69 453d 7bc0 87bd
00000050: ef72 c1b8 062c 813c 185e 7ebd 844e f3bc
00000060: bc07 dabb 8972 06bb 60a7 e73c a031 bfbd
00000070: cd17 bd3d 8516 9dbd 226a a4bd d40e 1f3d
00000080: aa80 81bd b562 5dbd 74b5 acbc 423b 8abd
00000090: 91b4 eabc c99f 18bb 588e eabc c9ff b8bd
000000a0: 5b2f 19bd e79c 5f3d e01d 4b3d 4ba4 b9bc
000000b0: fdd9 63bd 2ff5 583d 41c5 21bd 3c9d 51bd
000000c0: 9dc5 8e3e fdc2 89bc f012 a13d 58cc e7bd
000000d0: 51ec c4bc ce23 dd3c 9be8 5dbd 4061 023c
000000e0: 2164 9f3d dd97 933b d64f d23d caee 353d
000000f0: 7ec6 86bd aa5b 13bd 52ab 7d3d 5c96 29bd
00000100: 6e65 54bc ebf7 e53c b93b f5bd 5935 263c
00000110: 9b4a ebbc 446c ff3c 4461 22bd dac4 d93c
00000120: 32fe f3bd 44f5 0e3d f61d 68bc 0329 e2bc
00000130: b28f 21bb 354c 52bb 71e8 9ebd 9ad2 2fbd
00000140: e768 53bd 77fe babd 9129 92bb 1d5f e03b
00000150: df61 8a3d 57d1 04bd ca9b 013d d56e ec3c
00000160: 48c3 22bc b536 093d ef4a 53bd 72a0 483c
00000170: 734e 27bd 4a8d e73b 51eb d83d de5e cabc
00000180: 37f7 6fbc fdc1 6fbd f47e 0f3c 3b95 5fbd
00000190: b83a 3fbc d1b5 d53c 2509 a1bd 9d93 613c
000001a0: b7ee 84bc 5191 463d f3d1 e03c 0e49 e63c
000001b0: 706d 4fbd 1152 bf3d 5f1b 1a3d 6c5d c93d
000001c0: 09a1 86be 1fc8 8b3d c6e0 a73d 364e 3dbc
000001d0: f311 f93c ba10 83bc 9984 0d3c cd42 21bd
000001e0: 34fe e1bd 40a4 7fbc 4390 4abd 9dfb ad3c
000001f0: eb3f f8bc 5d34 f2bc 60bf 19bc 0b15 4c3d
00000200: 3dd4 ee3b 2f0a 00be 6dc5 033d f5ad b3bc
00000210: 3e0a 553c 956d 3fbd 02a1 70bc df02 a73d
00000220: 3e80 81bc 5c94 9b3d ebc2 353d 78d8 c13e
00000230: 9432 503c de8b 023d e6bd 783d 2a9e a6bc
00000240: c365 9bbd 3269 293d 0116 f33c ada6 a6bb
00000250: 5d0f a839 52ce 87bc 67da 58bd f3d1 67bd
00000260: 3a03 053c 43c9 ab3c ced2 adbc c0e4 1bbc
00000270: e685 efbd 8189 85be 169f 133d d7bb 83bd
00000280: 3a2d 7dbb 9fae 60bd 0870 673c 7aa6 1cbd
00000290: 3ecb 16bd 2022 ee38 d7b2 cb3c 5a40 4d3d
000002a0: d0b8 26be 56a7 df3d dc06 6f3c c5ce 1f3d
000002b0: ee9f 8bbc e957 45bd 6db8 a5bc d884 ff3c
000002c0: 9c83 f3bc 0de8 cf3c 1b76 9fbd d122 afbb
000002d0: 245e 71bb d3f9 93bc 6354 b1bd a749 d7bc
000002e0: 6502 30bd 0831 25bd c644 77bc 252a 3cbc
000002f0: c253 39bd 8c4b 733b 8c1a 11be 840e 2b3c
00000300: e1e1 d93c 750b 96bc c020 7b3d 09d5 0f3c
00000310: 196e f6bc 757f 053b b5f5 813d 00e4 cbbd
00000320: 5fb3 f03c 14b5 c4bd 414c f53d 0349 8f3d
00000330: 7fb0 debc d99e 873c f191 823c 0254 583e
00000340: f154 673a 2461 8dbd e448 173e 4d39 4a3d
00000350: 3445 8bbd f8d0 eebd f29a d23c 47e9 d2bc
00000360: 884b 123d c371 7ebc a975 28bd be73 86bc
00000370: 1272 96bc 4dca 90bc e639 3cbd 86c8 0cbc
00000380: 8077 d13b 9240 46bd 5532 c9bc 936e 3fbd
00000390: ee10 53bd ffe1 46bd bb4e 933c 7cc5 503c
000003a0: 1cd3 82bc 8462 1abc 6be1 91bc 2d84 0f3d
000003b0: 565a 88bb cb33 98bc 7ebf c8bc 3f22 0ebe
000003c0: d2c5 b53d 6af3 74bc 3e01 2abc f3ec 023d
000003d0: eacf ecbc be60 a3bb e5b0 cc3d c7f8 4c3c
000003e0: 047e 483c 7f1e 3bbb 4759 afbd 9ebb 463c
000003f0: adcc 373b c431 b3b9 589b 93bc 40d1 6dbd

backbone.1.conv3x3.bias f4 [32]
-0.052681778 0.05784443 0.041310918 -0.045986347 0.04646661 -0.055413213 0.03947485 0.040446725
0.03725138 0.025484193 -0.035568487 -0.025773203 0.012623874 0.023855284 0.05177812 0.002557523
0.024374634 -0.044918627 -0.011636593 0.034785274 0.004818197 0.046865568 -0.047507074 -0.03936927
0.01811845 -0.0022163743 -0.050061624 0.02511659 0.0030327567 0.014111024 0.012507759 -0.040688094
00000000: d9c8 57bd 48ee 6c3d a335 293d 2e5c 3cbd
00000010: c653 3e3d f7f8 62bd 61b0 213d 77ab 253d
00000020: e794 183d 3ac4 d03c 43b0 11bd 5322 d3bc
00000030: 5dd4 4e3c 286c c33c 4b15 543d 1e9c 273b
00000040: 50ad c73c 98fc 37bd 69a7 3ebc 017b 0e3d
00000050: f7e1 9d3b 1cf6 3f3d c796 42bd ac41 21bd
00000060: 256d 943c 9740 11bb 6b0d 4dbd 4fc1 cd3c
00000070: 37c1 463b ed31 673c 58ed 4c3c 8fa8 26bd

backbone.1.bn.weight f4 [32]
0.79884344 1.178358 0.9328799 1.2347366 1.2237526 0.997404 0.9336585 1.0021261
0.7724321 1.093414 0.93937397 1.0617002 0.9884213 0.80649537 0.80278647 0.7346035
0.97114986 1.0489722 1.2752216 0.9682705 1.3037432 1.0448892 0.80629605 1.1094829
1.0551975 0.93561846 1.0159321 0.7730031 0.90005845 1.0428455 0.90342593 1.0236783
00000000: 0181 4c3f 6fd4 963f 38d1 6e3f d90b 9e3f
00000010: eda3 9c3f de55 7f3f 3e04 6f3f ab45 803f
00000020: 1cbe 453f fdf4 8b3f d07a 703f cbe5 873f
00000030: 2e09 7d3f 7b76 4e3f 6a83 4d3f fa0e 3c3f
00000040: 479d 783f b944 863f 763a a33f 93e0 773f
00000050: 0fe1 a63f eebe 853f 6b69 4e3f 8903 8e3f
00000060: b610 873f b184 6f3f 100a 823f 88e3 453f
00000070: 3b6a 663f f67b 853f ec46 673f e407 833f

backbone.1.bn.bias f4 [32]
-0.17763577 -0.029153429 -0.13057147 -0.11270944 -0.041226003 -0.12063086 -0.50300664 -0.106442235
-0.122618586 -0.22077928 -0.13649818 0.17718758 -0.051836066 -0.19451183 -0.4506794 -0.3106348
-0.38274318 0.084338024 -0.2965083 -0.15173121 0.02809551 0.19296338 -0.3409429 -0.01200825
-0.038258236 -0.22227283 -0.26775265 -0.5416696 -0.11828566 -0.23674266 -0.16175038 -0.022387609
00000000: 27e6 35be 2cd3 eebc 87b4 05be 35d4 e6bd
00000010: 99dc 28bd 500d f7bd 0bc5 00bf 63fe d9bd
00000020: 741f fbbd f713 62be 2ec6 0bbe a970 353e
00000030: 0e52 54bd 1c2e 47be 73bf e6be 860b 9fbe
00000040: eaf6 c3be 6ab9 ac3d f0cf 97be 6d5f 1bbe
00000050: 8e28 e63c 3198 453e 1190 aebe 40be 44bc
00000060: abb4 1cbd 7d9b 63be e016 89be dcaa 0abf
00000070: c13f f2bd ab6c 72be e4a1 25be 3866 b7bc

backbone.1.bn.running_mean f4 [32]
-1.0746716 -0.5220164 -0.2819393 -0.17343226 -0.31664792 -1.2856876 3.6095588 -0.6921981
-0.348267 -0.19814987 -0.89697474 -2.3394358 -1.3556538 0.32493678 1.0319252 0.7617977
0.24670245 -3.4956307 -0.15765636 0.57567006 -0.7110535 -2.6208286 0.0052950694 -1.8442346
-0.82468367 -0.13578998 0.1961448 1.0684785 -1.0076246 -0.06489036 -0.8647868 -1.4331595
00000000: d78e 89bf dea2 05bf 595a 90be 3a98 31be
00000010: ad1f a2be 6991 a4bf 0303 6740 e533 31bf
00000020: 0d50 b2be cde7 4abe 23a0 65bf 51b9 15c0
00000030: 1086 adbf 1d5e a63e 2016 843f 2d05 433f
00000040: 919f 7c3e 6ab8 5fc0 ab70 21be 1d5f 133f
00000050: 9a07 36bf a8bb 27c0 4382 ad3b e10f ecbf
00000060: 781e 53bf 870c 0bbe 2fda 483e e7c3 883f
00000070: d8f9 80bf 3de5 84bd ab62 5dbf c571 b7bf

backbone.1.bn.running_var f4 [32]
0.63624525 1.2307075 0.4021774 0.3744586 0.69399714 1.7141659 4.064048 0.3308398
1.1732785 0.7409713 1.8265647 3.2690713 0.39863428 0.50710684 1.3212514 0.84271896
0.57661307 7.381975 0.36604524 1.64983 0.32416847 2.2453682 0.3489476 2.818843
1.1740283 1.3452141 0.4148282 0.8431319 3.2644827 0.44776872 1.7692742 1.67348
00000000: f8e0 223f d387 9d3f 32ea cd3e 0ab9 bf3e
00000010: cca9 313f ca69 db3f ae0c 8240 d663 a93e
00000020: fd2d 963f 4cb0 3d3f dfcc e93f 7738 5140
00000030: cb19 cc3e c1d1 013f c41e a93f 6ebc 573f
00000040: ea9c 133f 2439 ec40 486a bb3e a12d d33f
00000050: 69f9 a53e 1db4 0f40 43a9 b23e ec67 3440
00000060: 8f46 963f fa2f ac3f 5d64 d43e 7ed7 573f
00000070: 49ed 5040 f141 e53e 9477 e23f 9834 d63f

backbone.2.conv3x3.weight f4 [32, 32, 3, 3]
0.0089004915 0.006474409 0.0139460955 -0.0061932844 -0.019569714 -0.1045018 0.05732618 0.114644825
-0.029140046 -0.08488204 0.026553532 -0.02660791 -0.013977345 0.18014604 -0.006754266 -0.004001906
-0.04172527 -0.09083461 -0.01663666 0.0470347 -0.040736184 -0.009237274 -0.0450674 0.007393964
0.014256432 0.0010445279 -0.01927712 0.038645692 -0.013549578 0.0033952163 0.082477614 -0.0944254
-0.023337102 0.02612139 0.007140436 -0.0036164578 -0.028430363 -0.06085942 -0.00071266416 -0.03626213
-0.014095046 -0.15986395 -0.16766016 0.11805726 -0.02052928 0.0021557973 -0.013865204 0.0025485482
0.067965224 0.0542951 -0.021408418 0.053168 -0.0014082808 -0.0045503266 -0.0031553197 -0.046134844
-0.013044599 -0.03143231 -0.07164861 -0.051542792 -0.046202622 -0.029687455 -0.07687759 0.013411238
0.023674868 0.02071272 -0.04937136 0.07832475 -0.007574587 -0.11147539 -0.028868537 -0.0032297466
0.042358875 0.02182362 -0.012301705 -0.01038322 0.007047583 -0.046794895 -0.016397389 -0.057323925
-0.01917207 0.031530697 -0.06459049 -0.017148586 -0.091467425 -0.23872732 -0.09873595 0.03258892
0.04180082 -0.0018604266 0.029737268 0.09482721 -0.0002986265 0.04606061 -0.050676137 0.019874291
0.035477042 0.07288442 0.095160365 -0.061269004 -0.0037623204 -0.07787606 -0.11092619 -0.15453494
0.05055835 0.0037140313 -0.12415413 -0.03207543 0.068390235 0.047535703 0.03332908 0.014922541
0.012046371 0.02891691 -0.022163125 0.040470917 -0.036374025 -0.0715281 -0.08905816 -0.040635914
-0.0077518397 0.0636445 -0.009149572 0.0225404 0.011454355 -0.015875643 -0.018742006 -0.093318015
-0.010194703 0.101222664 -0.09949006 0.037583288 0.052945867 -0.019976191 -0.047073428 -0.002282191
-0.036701318 0.06763697 0.016629515 -0.07101782 0.03819536 0.01605842 -0.0013678957 0.05940563
-0.020994062 -0.19654016 -0.05304269 -0.08140813 -0.3346172 -0.0547961 0.041034225 -0.013871674
-0.00987379 0.008929356 -0.09520304 -0.003161639 -0.066912174 -0.15687624 -0.111497425 -0.07951907
-0.11266596 -0.10699288 0.038553596 -0.16746667 -0.017200192 -0.06915386 -0.23803091 -0.018448073
0.008189536 0.035170704 0.0005934814 0.004910602 0.060761966 0.0061159697 0.10343889 -0.06735306
0.008241498 -0.043385405 0.018276667 0.008310941 -0.0070615476 -0.014178817 0.087942734 0.038133323
0.0423882 0.06212115 0.03793888 -0.16628964 -0.04324429 -0.09573837 -0.13542823 -0.06927841
-0.13030776 -0.25994247 -0.05316969 -0.061370566 -0.054342866 -0.05525543 -0.049422026 0.047346305
0.017922865 -0.007583166 0.03507629 0.022580126 -0.05400836 -0.004980534 0.027955592 -0.0110894935
-0.09612107 0.02856566 0.033749048 -0.09288659 -0.054914232 -0.016445905 -0.0014079538 -0.040571764
-0.24934794 -0.29102919 0.006135301 0.116102114 -0.00850387 -0.09557031 -0.013014215 0.025524274
-0.047284465 0.015948104 0.010048519 0.05128109 0.008479635 -0.10578136 -0.0675638 -0.0328244
-0.046531074 0.07677775 -0.063785814 0.015075551 -0.011439364 -0.060115017 -0.036423102 0.015190587
0.014430461 0.00595826 0.031813823 0.039677065 -0.032962427 0.0710241 -0.0032711918 -0.089053236
-0.053777084 -0.017562043 -0.031921674 -0.045450594 -0.08742404 -0.09506988 0.12853059 -0.07595998
00000000: 5ed3 113c 4727 d43b 2a7e 643c 09f1 cabb
00000010: aa50 a0bc 0a05 d6bd dbce 6a3d e8ca ea3d
00000020: 1bb7 eebc a3d6 adbd cb86 d93c d5f8 d9bc
00000030: 3c01 65bc 3478 383e e452 ddbb 6c22 83bb
00000040: 1ee8 2abd 7f07 babd 9b49 88bc 75a7 403d
00000050: fcda 26bd ef57 17bc 9898 38bd 1149 f23b
00000060: cf93 693c 8ae8 883a 0deb 9dbc f24a 1e3d
00000070: 0dff 5dbc 4782 5e3b 06ea a83d 1b62 c1bd
00000080: 732d bfbc 86fc d53c 52fa e93b 1802 6dbb
00000090: cbe6 e8bc ba47 79bd 15d2 3aba 9987 14bd
000000a0: e8ee 66bc 60b3 23be 1baf 2bbe 01c8 f13d
000000b0: 052d a8bc 4748 0d3b e12a 63bc 8b05 273b
000000c0: 5a31 8b3d 8a64 5e3d b560 afbc b0c6 593d
000000d0: 1096 b8ba e81a 95bb 7bc9 4ebb e4f7 3cbd
000000e0: 04b9 55bc 2abf 00bd 82bc 92bd 891e 53bd
000000f0: f63e 3dbd 1b33 f3bc ff71 9dbd cfba 5b3c
00000100: ccf1 c13c b9ad a93c a039 4abd ba68 a03d
00000110: 3e34 f8bb 364d e4bd b67d ecbc 28aa 53bb
00000120: 8080 2d3d 73c7 b23c 178d 49bc 621e 2abc
00000130: 69ef e63b 01ac 3fbd d153 86bc 7ecc 6abd
00000140: bf0e 9dbc 5526 013d 0548 84bd 317b 8cbc
00000150: 4653 bbbd ef74 74be 1336 cabd f67b 053d
00000160: 5637 2b3d 8fd9 f3ba 929b f33c c534 c23d
00000170: f890 9cb9 0daa 3c3d c891 4fbd 69cf a23c
00000180: 6050 113d 6d44 953d 70e3 c23d 35f5 7abd
00000190: 4391 76bb 7c7d 9fbd 452d e3bd 683e 1ebe
000001a0: 4616 4f3d 1b67 733b 8544 febd 8761 03bd
000001b0: 2e10 8c3d ccb4 423d 1384 083d ac7d 743c
000001c0: 245e 453c 28e3 ec3c 718f b5bc d5c4 253d
000001d0: eefc 14bd 537d 92bd 2064 b6bd d871 26bd
000001e0: 2503 febb 0c58 823d 16e8 15bc a5a6 b83c
000001f0: 0cab 3b3c a30d 82bc d688 99bc 841d bfbd
00000200: af07 27bc d44d cf3d 72c1 cbbd eff0 193d
00000210: c4dd 583d 1ca5 a3bc 11d0 40bd d090 15bb
00000220: 1f54 16bd 4085 8a3d 9f3a 883c ca71 91bd
00000230: bd72 1c3d f38c 833c f74a b3ba 5153 733d
00000240: bdfb abbc d341 49be 4b43 59bd 4eb9 a6bd
00000250: f252 abbe e071 60bd 8113 283d 0546 63bc
00000260: adc5 21bc 6f4c 123c d0f9 c2bd 8033 4fbb
00000270: 4009 89bd 2aa4 20be c358 e4bd e5da a2bd
00000280: 69bd e6bd 151f dbbd 60ea 1d3d 627c 2bbe
00000290: 6be7 8cbc 8aa0 8dbd 60be 73be 6a20 97bc
000002a0: 672d 063c 280f 103d dd93 1b3a 1de9 a03b
000002b0: 8ae1 783d 7968 c83b c5d7 d33d 67f0 89bd
000002c0: 5907 073c e5b4 31bd f3b8 953c 9d2a 083c
000002d0: 8e64 e7bb 454e 68bc 521b b43d b031 1c3d
000002e0: 409f 2d3d bf72 7e3d cd65 1b3d d547 2abe
000002f0: ed20 31bd 7b12 c4bd b3ad 0abe d7e1 8dbd
00000300: 666f 05be 2e17 85be 76c8 59bd b45f 7bbd
00000310: a096 5ebd 8553 62bd c06e 4abd 33ee 413d
00000320: f9d2 923c 357c f8bb 28ac 0f3d f5f9 b83c
00000330: df37 5dbd bf33 a3bb 2003 e53c b5b0 35bc
00000340: 20db c4bd 8802 ea3c 713c 0a3d 533b bebd
00000350: bfed 60bd 90b9 86bc 178b b8ba 942e 26bd
00000360: 1155 7fbe c701 95be a30a c93b f2c6 ed3d
00000370: d153 0bbc 5eba c3bd 9339 55bc 4818 d13c
00000380: 5bad 41bd 99a5 823c 8ba2 243c 1f0c 523d
00000390: 2bee 0a3c e6a3 d8bd e45e 8abd e172 06bd
000003a0: 5e97 3ebd a73d 9d3d 23a2 82bd 72ff 763c
000003b0: 2c6c 3bbc 2a3b 76bd 6430 15bd f1e1 783c
000003c0: be6d 6c3c 823d c33b 364f 023d 6b84 223d
000003d0: 9c03 07bd 1575 913d 7e61 56bb 8b61 b6bd
000003e0: 5c45 5cbd 46de 8fbc 4dc0 02bd 672a 3abd
000003f0: 600b b3bd ffb3 c2bd 869d 033e e890 9bbd

backbone.2.conv3x3.bias f4 [32]
-0.043761224 0.028666778 -0.042679653 -0.045515265 -0.04320702 -0.047579292 0.04542637 -0.025409522
0.03663061 -0.016033918 -0.017560543 -0.016109848 -0.047564384 0.016805511 -0.023730371 0.017812438
-0.05028788 0.009065795 0.047925673 -0.018040769 0.012276531 -0.05809067 -0.024114521 0.04856376
0.023232615 0.021885699 0.024887841 -0.011864994 -0.025404392 0.055523127 -0.021737445 -0.004904284
00000000: f83e 33bd 97d6 ea3c dcd0 2ebd 376e 3abd
00000010: d8f9 30bd 81e2 42bd 0011 3a3d a127 d0bc
00000020: fa09 163d 9059 83bc 21db 8fbc cdf8 83bc
00000030: dfd2 42bd b6ab 893c 3266 c2bc 64eb 913c
00000040: aafa 4dbd b388 143c b64d 443d 3cca 93bc
00000050: 8123 493c 7bf0 6dbd d18b c5bc cbea 463d
00000060: 5352 be3c a349 b33c 96e1 cb3c 6465 42bc
00000070: df1c d0bc 386c 633d ba12 b2bc 1eb4 a0bb

backbone.2.bn.weight f4 [32]
1.1037018 0.99433297 1.3242453 0.9346354 1.0375844 0.9511071 0.9143649 0.9730458
0.8801098 1.0024145 0.9515148 1.0423297 0.90553826 0.8595781 0.96412385 0.9750747
0.96642226 1.2864013 0.9253382 0.98377526 0.83110565 0.92260426 0.8759909 0.90926003
0.8507335 1.1097869 1.098637 0.83704007 1.2320307 0.9609134 1.0905755 0.93513745
00000000: 1a46 8d3f 9b8c 7e3f df80 a93f 4444 6f3f
00000010: 91cf 843f c17b 733f d113 6a3f 8819 793f
00000020: e04e 613f 1e4f 803f 7996 733f 0f6b 853f
00000030: 5bd1 673f 4f0d 5c3f d2d0 763f 7f9e 793f
00000040: 7367 773f cca8 a43f f7e2 6c3f b2d8 7b3f
00000050: 57c3 543f cb2f 6c3f f140 603f 44c5 683f
00000060: acc9 593f 7f0d 8e3f 23a0 8c3f 4248 563f
00000070: 2fb3 9d3f 6cfe 753f fa97 8b3f 2b65 6f3f

backbone.2.bn.bias f4 [32]
0.07557558 -0.09636905 -0.15660791 -0.18694249 0.11241719 -0.0107068885 -0.08822586 -0.0092287
-0.2259309 -0.1772503 0.037552867 0.088410065 -0.3828891 -0.5430143 -0.1134187 -0.09087876
-0.674316 -0.15266939 -0.19948685 -0.12956487 -0.6656074 0.009303721 -0.092181996 -0.26387718
-0.16362257 -0.28286672 -0.21589498 -0.30319202 0.0021871715 -0.1579494 -0.0765416 -0.16815516
00000000: 5fc7 9a3d 235d c5bd d35d 20be da6d 3fbe
00000010: fc3a e63d f26b 2fbc c2af b4bd f933 17bc
00000020: 6e5a 67be 1a81 35be 09d1 193d 5610 b53d
00000030: 0a0a c4be fc02 0bbf 1048 e8bd a51e babd
00000040: f99f 2cbf 5d55 1cbe 4846 4cbe a7ac 04be
00000050: 3f65 2abf a26e 183c eac9 bcbd e91a 87be
00000060: ad8c 27be e8d3 90be 9313 5dbe fc3b 9bbe
00000070: a656 0f3b 7dbd 21be d8c1 9cbd de30 2cbe

backbone.2.bn.running_mean f4 [32]
-1.8032584 -1.4108018 -0.2062968 -0.68347114 -1.4723349 -0.7640374 -0.21871199 0.6893319
0.23244764 -0.7651384 -1.4533932 -2.1626086 0.71044976 1.7445858 -0.4150893 -0.22733915
1.6267091 -0.12502638 0.56822765 -1.0663515 1.2638925 -1.0220083 0.66763073 0.16370858
0.9232096 -0.22607678 -1.4589144 -0.45954958 -1.1737183 -0.31575498 -0.3988532 -1.0125467
00000000: 2cd1 e6bf 2795 b4bf 783f 53be f7f7 2ebf
00000010: 7875 bcbf f497 43bf 09f6 5fbe 0e78 303f
00000020: c106 6e3e 1ce0 43bf ca08 babf 2e68 0ac0
00000030: 09e0 353f 964e df3f 9686 d4be 98cb 68be
00000040: 0138 d03f ea06 00be 5e77 113f 357e 88bf
00000050: 3bc7 a13f 2bd1 82bf d9e9 2a3f 39a3 273e
00000060: 7757 6c3f ac80 67be b5bd babf 154a ebbe
00000070: 673c 96bf a3aa a1be 7d36 ccbe 219b 81bf

backbone.2.bn.running_var f4 [32]
0.49314985 0.70763 0.2074448 0.371851 0.7288769 0.26192987 1.1064451 0.7659174
1.1364535 0.7504813 0.36303884 0.48778623 0.51351035 0.7605707 0.76280224 1.1308166
0.45053682 0.36644495 0.92110115 1.4155025 0.3911581 0.6419859 1.0476925 0.28530505
0.8051232 0.25329682 0.33326113 0.6629904 0.75868577 0.7672781 0.4519042 0.8487079
00000000: 237e fc3e 3d27 353f 696c 543e 4163 be3e
00000010: ad97 3a3f ac1b 863e fe9f 8d3f 2a13 443f
00000020: 4f77 913f 8b1f 403f 3ae0 b93e 1ebf f93e
00000030: 6a75 033f c3b4 423f 0247 433f 99be 903f
00000040: c3ac e63e ac9e bb3e 49cd 6b3f 302f b53f
00000050: e045 c83e 3059 243f ca1a 863f 8113 923e
00000060: 8e1c 4e3f 1fb0 813e 34a1 aa3e bdb9 293f
00000070: 3b39 423f 566c 443f fd5f e73e ec44 593f

backbone.3.conv3x3.weight f4 [32, 32, 3, 3]
-0.04370286 0.034794394 -0.09751791 -0.08432146 0.0034198288 0.03208316 -0.079656556 0.041146193
-0.037074007 -0.03173531 -0.02779663 -0.07190777 -0.06615988 0.092414 0.055991687 -0.010338057
-0.05630101 -0.09433387 -0.03808787 0.0389617 0.03373871 -0.044089496 0.02405092 0.06833027
-0.009256931 0.07725021 0.08002077 0.03233541 -0.104150295 0.07673465 0.0029435123 0.03600422
0.05780793 0.04183564 0.02279419 0.0042956606 -0.136654 -0.09104323 0.10561498 -0.029561246
-0.09383933 0.10374531 0.009255197 0.0917614 0.07317265 -0.055785503 -0.004531035 -0.038500488
-0.04377119 0.09586777 -0.035240427 0.015184857 0.009670111 -0.020898933 -0.049752355 0.043385793
-0.029615194 -0.0074536805 -0.051252652 -0.06997698 -0.040897604 -0.08881364 -0.013831995 0.00385924
0.0532848 0.044790626 0.00016642951 0.0066735633 0.029044164 0.05875788 0.028535146 0.037144773
-0.06917459 0.012804244 0.002321823 0.025085527 -0.03465048 -0.023835624 0.060537703 -0.004952212
0.017221853 0.046150632 0.17521772 -0.005380973 0.10841006 0.008744938 -0.017879294 0.02713073
-0.04477854 -0.026466457 -0.056047883 0.044380758 -0.021419708 -0.08587923 0.070208326 -0.05874571
0.07320117 0.022595122 -0.027984949 -0.12987174 0.13796191 0.017403377 -0.05721428 0.035972897
-0.049043074 -0.077786826 -0.07686713 0.021267984 -0.09443102 0.0154918255 -0.07138212 -0.109495886
0.07566949 0.002486735 -0.00051767676 -0.005459093 0.047773555 -0.02774297 0.04430473 0.016000874
-0.031223621 0.026425326 0.016766945 0.10542204 0.08697593 0.042050328 -0.06529304 0.09836032
0.115033746 0.021355161 0.07245064 0.049041048 -0.007885534 -0.025318876 -0.07449672 -0.02324139
0.08951911 0.080166675 -0.042380784 -0.049921796 0.029221708 -0.011689454 0.10991137 0.011414067
-0.0011457416 -0.027813073 0.0013515695 -0.011598019 -0.28527075 -0.014124412 0.047979537 -0.1537882
0.0031484517 -0.074743494 0.008788383 0.0366734 -0.12628411 0.028121931 0.055140026 0.0497093
-0.006280606 0.05416799 0.02835083 0.005084126 -0.015498869 0.009788417 -0.03794158 -0.036526408
-0.050158497 0.028251577 -0.02600067 0.018697323 -0.037805792 0.0012275848 -0.07702781 -0.057329223
0.08176996 -0.058587614 0.068248264 0.010853998 0.09902349 -0.061332405 -0.10222458 0.0040692133
0.012906389 -0.02996283 -0.03403818 0.004098529 0.042187713 0.009727506 -0.022561308 -0.016074223
0.0074296775 0.02290662 0.065952465 0.10748683 -0.0171064 -0.045148022 0.010380843 0.009318158
0.041250717 -0.062424477 -0.0149700185 0.08411677 -0.063046776 0.054372672 -0.054739438 -0.017578566
-0.03434826 -0.014454493 -0.028910473 0.06556409 -0.15635239 0.02748581 -0.006992913 -0.0029191074
-0.05008851 0.031261798 -0.040216397 -0.055382643 -0.08782455 -0.025719726 -0.06731793 -0.052499603
0.007070783 -0.033681218 -0.009732889 0.007620476 0.116050296 -0.10627169 -0.09856665 -0.039294146
-0.03406737 0.058690272 0.020734292 0.06404427 -0.056520652 0.16872506 0.10347129 0.11714505
-0.01667095 0.07090786 0.1056701 0.003949095 0.022393182 -0.026407443 0.0055782967 -0.07711375
-0.019363906 0.015648242 0.012499033 -0.00853809 -0.07309435 -0.015155702 -0.007200717 -0.019342966
00000000: c501 33bd 9184 0e3d 78b7 c7bd bbb0 acbd
00000010: 351f 603b a269 033d fa22 a3bd e988 283d
00000020: eada 17bd e2fc 01bd c2b5 e3bc 6244 93bd
00000030: d57e 87bd 8d43 bd3d 8a57 653d f460 29bc
00000040: e39b 66bd 1e32 c1bd 0702 1cbd 4e96 1f3d
00000050: 9a31 0a3d 3097 34bd 6f06 c53c bef0 8b3d
00000060: 62aa 17bc 5c35 9e3d eee1 a33d 2372 043d
00000070: c04c d5bd 0e27 9d3d f1e7 403b 2979 133d
00000080: 02c8 6c3d d95b 2b3d e2ba ba3c 9dc2 8c3b
00000090: 07ef 0bbe df74 babd ab4c d83d 6d2a f2bc
000000a0: d62e c0bd 6c78 d43d 1ca3 173c 67ed bb3d
000000b0: 8bdb 953d 577f 64bd 1479 94bb b0b2 1dbd
000000c0: 6b49 33bd 5256 c43d 4458 10bd e8c9 783c
000000d0: 636f 1e3c 3d34 abbc 20c9 4bbd 4db5 313d
000000e0: 909b f2bc 013e f4bb 4dee 51bd 1750 8fbd
000000f0: 3f84 27bd ede3 b5bd 989f 62bc 4eeb 7c3b
00000100: 2a41 5a3d 6076 373d 9583 2e39 e8ad da3b
00000110: 07ee ed3c 1aac 703d 8ac2 e93c 1e25 183d
00000120: 68ab 8dbd e4c8 513c ba29 183b 2a80 cd3c
00000130: a9ed 0dbd ed42 c3bc 62f6 773d 2a46 a2bb
00000140: d814 8d3c 7208 3d3d 466c 333e e052 b0bb
00000150: 1806 de3d ee46 0f3c 9977 92bc 4441 de3c
00000160: b469 37bd 2fd0 d8bc 7792 65bd 99c8 353d
00000170: 6278 afbc 73e1 afbd 62c9 8f3d 579f 70bd
00000180: 7fea 953d 6819 b93c b140 e5bc 19fd 04be
00000190: e345 0d3e 8791 8e3c 8559 6abd 5158 133d
000001a0: 64e1 48bd b34e 9fbd 846c 9dbd 323a ae3c
000001b0: 0d65 c1bd 6dd1 7d3c ca30 92bd 613f e0bd
000001c0: 9bf8 9a3d 7df8 223b b3b4 07ba 31e2 b2bb
000001d0: 34ae 433d 3a45 e3bc e078 353d 4414 833c
000001e0: aec8 ffbc ed79 d83c d55a 893c 83e7 d73d
000001f0: 7020 b23d f73c 2c3d 5bb8 85bd 2371 c93d
00000200: d096 eb3d 05f1 ae3c 0061 943d 44df 483d
00000210: 5432 01bc 8869 cfbc bd91 98bd ba64 bebc
00000220: cc55 b73d 6d2e a43d 7997 2dbd cc7a 4cbd
00000230: 5d62 ef3c 2085 3fbc 3619 e13d 1102 3b3c
00000240: b52c 96ba 3ed8 e3bc 2627 b13a 9e05 3ebc
00000250: 020f 92be 146a 67bc 3186 443d a77a 1dbe
00000260: 4156 4e3b 1e13 99bd 26fd 0f3c d936 163d
00000270: 9f50 01be f75f e63c 82da 613d fb9b 4b3d
00000280: 8bcd cdbb 41df 5d3d 0040 e83c bd98 a63b
00000290: f8ee 7dbc 995f 203c a168 1bbd b79c 15bd
000002a0: ff72 4dbd da6f e73c 5bff d4bc 212b 993c
000002b0: 3fda 1abd e9e6 a03a c2c0 9dbd 0cd2 6abd
000002c0: 0277 a73d 91f9 6fbd bfc5 8b3d f8d4 313c
000002d0: d4cc ca3d b037 7bbd 1f5b d1bd 0957 853b
000002e0: 5275 533c 9c74 f5bc 9e6b 0bbd f44c 863b
000002f0: 06cd 2c3d 1e60 1f3c 7ed2 b8bc 17ae 83bc
00000300: a774 f33b aaa6 bb3c 1612 873d 0e22 dc3d
00000310: b922 8cbc 22ed 38bd 6914 2a3c 30ab 183c
00000320: 83f6 283d cfb0 7fbd cf44 75bc 6a45 ac3d
00000330: ab1e 81bd e1b5 5e3d 7636 60bd ed00 90bc
00000340: c3b0 0cbd 8ad2 6cbc a8d5 ecbc 7746 863d
00000350: d71a 20be ec29 e13c ce24 e5bb 7f4e 3fbb
00000360: 9c29 4dbd 5f0c 003d f3b9 24bd e9d8 62bd
00000370: 5cdd b3bd 2db2 d2bc fcdd 89bd d309 57bd
00000380: 07b2 e73b 51f5 09bd b276 1fbc 30b5 f93b
00000390: c7ab ed3d f9a4 d9bd 50dd c9bd e6f2 20bd
000003a0: 3a8a 0bbd 3665 703d f6da a93c a429 833d
000003b0: 3382 67bd 43c6 2c3e c1e8 d33d bee9 ef3d
000003c0: 8491 88bc 2438 913d 9169 d83d 6967 813b
000003d0: e871 b73c 6c54 d8bc 25ca b63b d0ed 9dbd
000003e0: 0ea1 9ebc be30 803c bec8 4c3c 58e3 0bbc
000003f0: 7eb2 95bd 9f4f 78bc fef3 ebbb 2475 9ebc

backbone.3.conv3x3.bias f4 [32]
0.035969067 0.004999966 -0.021868441 0.007526632 -0.018506726 -0.0466759 -0.009644292 -0.058975365
-0.019070715 0.019453255 -0.046417642 0.022219995 0.058647238 0.015118279 -0.04019743 -0.02022836
-0.0153039945 -0.0052992 -0.043060303 -0.015139808 0.017802713 -0.053836156 -0.04318294 0.027819876
-0.012717912 -0.03091231 0.0004163996 0.031768747 0.029920759 -0.009641333 -0.0074205715 0.02815318
00000000: 4d54 133d c1d6 a33b 7225 b3bc f7a1 f63b
00000010: 6b9b 97bc 3b2f 3fbd 1803 1ebc 2790 71bd
00000020: 303a 9cbc 6f5c 9f3c 6d20 3ebd b506 b63c
00000030: 1638 703d a8b2 773c 0fa6 24bd f2b5 a5bc
00000040: 9bbd 7abc e9a4 adbb 0060 30bd f50c 78bc
00000050: ffd6 913c 4d83 5cbd 98e0 30bd 82e6 e33c
00000060: ca5e 50bc d03b fdbc 3550 da39 f21f 023d
00000070: 611c f53c aef6 1dbc 4428 f3bb 7fa1 e63c

backbone.3.bn.weight f4 [32]
0.9534733 1.0310148 1.0750959 1.0496321 1.1026318 0.96980923 1.306832 0.9988427
0.96012485 1.054601 1.0210994 0.93931645 0.87983453 1.4493563 0.9135521 0.8993233
0.96290827 0.85604745 0.89420974 0.9898547 1.0081105 0.9682944 1.1077435 0.89333373
1.1305677 0.89128476 0.9938836 1.0456731 0.9542207 0.9446404 1.0619042 0.8970355
00000000: d416 743f 4bf8 833f be9c 893f 585a 863f
00000010: 0a23 8d3f 6b45 783f 4546 a73f 28b4 7f3f
00000020: beca 753f 2afd 863f 63b3 823f 0b77 703f
00000030: d63c 613f 8284 b93f 8dde 693f 0d3a 663f
00000040: 2881 763f ed25 5b3f eeea 643f 1e67 7d3f
00000050: c409 813f 24e2 773f 8aca 8d3f 85b1 643f
00000060: 71b6 903f 3d2b 643f 286f 7e3f 9ed8 853f
00000070: cf47 743f f4d3 713f 7aec 873f 1ea4 653f

backbone.3.bn.bias f4 [32]
-0.27027237 0.118393645 0.13663396 -0.08824664 -0.21436937 -0.3390286 -0.21901327 -0.258049
-0.15638877 -0.31074813 -0.443669 -0.03327709 -0.095049866 -0.10229227 -0.031478386 -0.36063758
-0.24809393 -0.20030977 -0.44214767 0.019232398 0.016588487 -0.335143 -0.46453485 -0.36412674
-0.14573814 -0.10799178 0.08889692 -0.4445864 -0.3830784 -0.3992229 -0.27491096 0.07551017
00000000: 2461 8abe 5e78 f23d c6e9 0b3e a8ba b4bd
00000010: a583 5bbe 2895 adbe 0445 60be 001f 84be
00000020: 6124 20be 611a 9fbe 9528 e3be 8f4d 08bd
00000030: 81a9 c2bd 9c7e d1bd 7bef 00bd 7da5 b8be
00000040: 560c 7ebe 011e 4dbe 2e61 e2be 438d 9d3c
00000050: 94e4 873c dd97 abbe 83d7 edbe d26e babe
00000060: 613c 15be cb2a ddbd 970f b63d d4a0 e3be
00000070: da22 c4be f266 ccbe 21c1 8cbe 13a5 9a3d

backbone.3.bn.running_mean f4 [32]
0.24005188 -0.5200747 -1.33198 -0.16969718 0.15005799 -0.41637433 -0.40779504 -0.79271543
0.72295624 -0.4914723 -0.40933606 -0.98965675 0.9250469 -0.45432547 -1.8261037 -0.09341478
0.088656366 1.1798387 0.4147347 -0.13475798 -0.6273619 -0.6463026 -0.05640141 0.84763366
-0.7099408 -0.06413704 -0.8805107 0.4678157 -0.26013222 0.59066576 -0.26015773 0.7642394
00000000: 29d0 753e 9e23 05bf 527e aabf 19c5 2dbe
00000010: cda8 193e 042f d5be 83ca d0be 66ef 4abf
00000020: a913 393f 42a2 fbbe 7f94 d1be 255a 7dbf
00000030: e0cf 6c3f 599d e8be c4bd e9bf 4050 bfbd
00000040: 7891 b53d f404 973f 1b58 d43e fffd 09be
00000050: ca9a 20bf 1674 25bf 2a05 67bd 85fe 583f
00000060: aebe 35bf 485a 83bd 2669 61bf 8a85 ef3e
00000070: 0d30 85be df35 173f 6533 85be 31a5 433f

backbone.3.bn.running_var f4 [32]
0.56091475 0.402802 1.0128917 0.43469626 0.6888265 0.69163305 0.6959051 1.5055174
0.7919391 0.64024323 0.7223175 0.6652768 2.4929383 0.80520344 1.6789143 0.79060614
0.6645471 0.9225912 0.6616402 1.5435727 0.99994624 0.6098608 0.44176254 0.7183665
0.6610403 1.3059227 0.87414616 0.66076434 0.60040194 0.59665763 0.6474541 0.61422175
00000000: 1c98 0f3f 103c ce3e 6fa6 813f 8290 de3e
00000010: ef56 303f dd0e 313f d626 323f cbb4 c03f
00000020: 85bc 4a3f fbe6 233f cde9 383f 954f 2a3f
00000030: 4d8c 1f40 d021 4e3f aae6 d63f 2a65 4a3f
00000040: c21f 2a3f f02e 6c3f 4161 293f ca93 c53f
00000050: 7afc 7f3f d61f 1c3f b32e e23e dee6 373f
00000060: f039 293f 7a28 a73f 0bc8 5f3f da27 293f
00000070: f1b3 193f 8ebe 183f 8dbf 253f a33d 1d3f

backbone.4.conv3x3.weight f4 [32, 32, 3, 3]
0.03946354 -0.05706027 0.047413982 0.023547767 0.0689598 0.087276496 0.023610875 0.03267869
0.055811487 -0.014428001 0.056249194 0.06160414 -0.02272592 0.029805847 -0.021493401 -0.002598413
0.088214755 0.081740454 -0.0976874 0.050278652 -0.041088898 0.0086011 -0.05830368 0.002131784
-0.06016175 0.0027640543 -0.005392285 -0.022256661 -0.00089300063 0.006151 -0.05294692 -0.010470791
0.0005542223 0.0017101578 0.04957316 0.013799787 0.019064968 -0.080522045 -0.053900853 -0.17918584
-0.14969634 -0.065658905 0.063735 -0.03690994 -0.07148858 0.012438952 0.008318075 0.0008135146
0.004042603 -0.060757007 -0.016210958 0.0017274545 0.0016327277 -0.006467559 0.050453 -0.07976889
0.10329061 -0.01212385 -0.038503617 0.026079714 -0.04287431 -0.002741917 0.056944415 0.046242423
0.024744501 0.026004642 -0.037145216 -0.017940098 -0.011300854 -0.068097785 0.009763951 0.0074073346
0.02130556 0.07079548 -0.0093554575 0.01388953 -0.013551976 0.043917622 0.036825914 -0.025007967
0.017654601 0.042855565 -0.022204371 0.016037237 0.04124515 -0.06177519 -0.021375166 0.073470265
0.006319891 0.002585939 -0.05409049 -0.13082176 -0.15145133 0.02592768 -0.119729936 -0.07592514
-0.06833379 -0.09229013 -0.08485442 0.019930407 0.031155895 -0.059150584 -0.0040858476 -0.065329336
-0.036567405 -0.08410817 0.01736154 -0.0038351524 -0.01723213 0.012345144 -0.03851575 -0.025765406
-0.070870966 0.064376645 -0.003627988 -0.0009930929 0.07189934 0.11968427 0.030576974 0.062543936
-0.05087801 -0.03887761 -0.06938267 0.09444502 0.07548707 0.05442215 -0.009307231 -0.03024528
0.0059913094 0.026113577 -0.0452154 0.031058362 0.002683181 0.04081792 -0.0070133964 0.00689384
0.003356123 -0.07325929 0.030673366 -0.03245343 -0.0920056 -0.0352378 -0.0084947795 -0.069804
-0.034517623 -0.01609988 -0.032488905 0.058536176 -0.058990322 -0.08762442 0.095721595 0.061381985
-0.06668555 -0.12379057 -0.09084844 -0.0110381795 0.00829955 -0.08841641 -0.038508765 -0.051138118
0.016902095 -0.0037502802 -0.056674153 -0.08148054 -0.081546016 0.0048774136 -0.1179854 -0.10338636
-0.047668874 -0.05597988 -0.029393759 0.008849811 -0.01483824 -0.0065462305 0.0056628105 -0.0432751
0.006850919 -0.060338765 -0.058861908 0.0113925785 0.03793979 0.041806277 0.05317601 -0.06133529
-0.017945567 -0.030282786 -0.004252107 0.006756128 0.077359214 0.025515782 -0.011710462 -0.049615115
0.07059095 -0.14625116 -0.069823086 0.018484352 -0.14803395 -0.032570846 -0.032155 -0.11902193
-0.15833019 -0.024814788 -0.13477077 -0.10314963 -0.023151973 -0.117428534 -0.08307654 -0.09898741
-0.07426197 -0.052715067 -0.044740193 -0.105102494 -0.06924246 -0.109487526 -0.12356099 -0.13259023
0.022469955 -0.032574654 0.08228849 0.040222116 0.10064453 0.09008262 0.07488957 0.055850584
0.019912872 0.043375004 0.009196044 0.03186505 -0.059241407 0.017404392 -0.011852379 -0.03417607
-0.09848115 -0.038062245 -0.044682737 -0.075837955 -0.025533155 -0.10483164 -0.12977381 -0.04948592
-0.057739224 0.028991515 -0.0429329 -0.08964112 -0.08587816 -0.07757665 -0.05553265 -0.10280695
-0.07440966 -0.18303974 -0.117819674 -0.096774854 0.030934332 -0.06756848 -0.12043296 -0.06513512
00000000: 85a4 213d 08b8 69bd 2a35 423d 3fe7 c03c
00000010: cc3a 8d3d 05be b23d 986b c13c 17da 053d
00000020: 969a 643d 6c63 6cbc 8e65 663d 9f54 7c3d
00000030: b52b babc 642b f43c ee12 b0bc 234a 2abb
00000040: f0a9 b43d 8a67 a73d 5510 c8bd fdf0 4d3d
00000050: d54c 28bd a1eb 0c3c d7cf 6ebd 67b5 0b3b
00000060: 2b6c 76bd 2325 353b c4b1 b0bb 9a53 b6bc
00000070: 4218 6aba 548e c93b dfde 58bd ae8d 2bbc
00000080: 3b49 113a 6027 e03a 3a0d 4b3d 8018 623c
00000090: 232e 9c3c bee8 a4bd 24c7 5cbd 7e7c 37be
000000a0: ff49 19be 2d78 86bd 7f87 823d e12e 17bd
000000b0: 9b68 92bd bfcc 4b3c 8948 083c 0a42 553a
000000c0: d077 843b 57dc 78bd d8cc 84bc c16b e23a
000000d0: 4001 d63a d1ed d3bb cea7 4e3d df5d a3bd
000000e0: 078a d33d 1da3 46bc f8b5 1dbd 20a5 d53c
000000f0: f99c 2fbd bcb1 33bb 8c3e 693d b268 3d3d
00000100: fbb4 ca3c b007 d53c 9525 18bd 1df7 92bc
00000110: 3827 39bc da76 8bbd fbf8 1f3c 3ab9 f23b
00000120: ff88 ae3c 38fd 903d a247 19bc e990 633c
00000130: 1b09 5ebc f7e2 333d c5d6 163d 82dd ccbc
00000140: 62a0 903c 5189 2f3d f1e5 b5bc 8660 833c
00000150: adf0 283d fb07 7dbd f91a afbc 9477 963d
00000160: 1717 cf3b db78 293b fd8d 5dbd 24f6 05be
00000170: 0f16 1bbe 4966 d43c f834 f5bd a47e 9bbd
00000180: 96f2 8bbd 9c02 bdbd 27c8 adbd 1845 a33c
00000190: a63a ff3c e247 72bd 93e2 85bb 63cb 85bd
000001a0: b4c7 15bd e740 acbd ca39 8e3c 2e57 7bbb
000001b0: 652a 8dbc 4943 4a3c b1c2 1dbd f911 d3bc
000001c0: cc24 91bd e7d7 833d 8ac3 6dbb ab2a 82ba
000001d0: f63f 933d 071d f53d 907c fa3c 0917 803d
000001e0: 7665 50bd 213e 1fbd 8018 8ebd 646c c13d
000001f0: f798 9a3d c3e9 5e3d 5b7d 18bc f3c4 f7bc
00000200: bf52 c43b 24ec d53c c933 39bd 1b6e fe3c
00000210: 4fd8 2f3b b130 273d a2d0 e5bb b9e5 e13b
00000220: 67f2 5b3b f708 96bd b646 fb3c e3ed 04bd
00000230: 6f6d bcbd 8355 10bd b02d 0bbc 66f5 8ebd
00000240: 5a62 0dbd e5e3 83bc 1613 05bd a1c3 6f3d
00000250: d69f 71bd 6f74 b3bd af09 c43d ad6b 7b3d
00000260: 6f92 88bd e985 fdbd bf0e babd 7bd9 34bc
00000270: d6fa 073c aa13 b5bd 5ebb 1dbd 3476 51bd
00000280: 4376 8a3c 43c7 75bb 2823 68bd 45df a6bd
00000290: 9901 a7bd b6d2 9f3b 54a2 f1bd 3abc d3bd
000002a0: 7040 43bd 294b 65bd 2ecb f0bc ccfe 103c
000002b0: 171c 73bc c381 d6bb 198f b93b 3b41 31bd
000002c0: ad7d e03b c825 77bd 2f19 71bd f0a7 3a3c
000002d0: c166 1b3d 0f3d 2b3d 16cf 593d b73a 7bbd
000002e0: 9502 93bc 9b13 f8bc 4255 8bbb 8262 dd3b
000002f0: 826e 9e3d 7906 d13c 3ddd 3fbc 3839 4bbd
00000300: fd91 903d ddc2 15be 68ff 8ebd 7f6c 973c
00000310: 3696 17be 0269 05bd f6b4 03bd c5c1 f3bd
00000320: 4f21 22be 6248 cbbc 5901 0abe 1d40 d3bd
00000330: 35a9 bdbc 5f7e f0bd 0824 aabd e9b9 cabd
00000340: a916 98bd c1eb 57bd 7e41 37bd fa3f d7bd
00000350: fece 8dbd ff3a e0bd 8b0d fdbd bcc5 07be
00000360: e912 b83c 006d 05bd de86 a83d f2bf 243d
00000370: b81e ce3d 3d7d b83d b45f 993d 95c3 643d
00000380: 5220 a33c fda9 313d 01ab 163c ed84 023d
00000390: 1ea7 72bd a893 8e3c 7b30 42bc 35fc 0bbd
000003a0: 7cb0 c9bd 28e7 1bbd 3f05 37bd ee50 9bbd
000003b0: e82a d1bc f9b1 d6bd 6de3 04be c0b1 4abd
000003c0: f77f 6cbd 9d7f ed3c 69da 2fbd c395 b7bd
000003d0: e4e0 afbd 82e0 9ebd 3476 63bd 738c d2bd
000003e0: 1864 98bd c56e 3bbe 714b f1bd e531 c6bd
000003f0: ff69 fd3c 5861 8abd 8ea5 f6bd 9065 85bd

backbone.4.conv3x3.bias f4 [32]
-0.01972816 -0.043750256 0.048301287 -0.03779703 -0.020231413 -0.04768694 0.05759567 -0.05124775
0.04553819 -0.024837911 -0.000613892 0.0459245 -0.055181608 -0.00679524 0.036316473 -0.026923448
0.00763289 -0.030725665 -0.006502559 0.032191105 0.01853471 0.017595278 0.007087521 0.0153038595
0.042886857 -0.017745359 -0.016189955 0.039570794 -0.045525882 -0.050221648 -0.036775038 0.018262198
00000000: f39c a1bc 7833 33bd 92d7 453d 0fd1 1abd
00000010: 59bc a5bc 6153 43bd 70e9 6b3d 29e9 51bd
00000020: 4186 3a3d e078 cbbc 98ed 20ba 541b 3c3d
00000030: 1c06 62bd 9baa debb 95c0 143d 908e dcbc
00000040: 521d fa3b 64b4 fbbc 6b13 d5bb d2da 033d
00000050: 1bd6 973c f923 903c 6f3e e83b 0abd 7a3c
00000060: 21aa 2f3d b75e 91bc cca0 84bc fc14 223d
00000070: 5979 3abd 37b5 4dbd 6ca1 16bd 9b9a 953c

backbone.4.bn.weight f4 [32]
1.0065093 1.0473502 1.1126608 0.9318504 1.0710441 1.0099908 1.0975009 1.0305878
0.95378953 0.9499714 1.242468 1.0084589 0.92883646 0.95942694 0.8705143 0.8597357
1.0041873 0.879584 1.0101529 1.0727088 0.94269633 0.96832305 0.9763353 0.95227885
1.0200437 1.019166 1.0852562 0.88664526 1.088406 0.99877346 0.8820761 0.8532804
00000000: 4cd5 803f 920f 863f ab6b 8e3f bf8d 6e3f
00000010: f917 893f 6147 813f e97a 8c3f 4dea 833f
00000020: 8d2b 743f 5331 733f 3109 9f3f 2e15 813f
00000030: 3ac8 6d3f 019d 753f 06da 5e3f a417 5c3f
00000040: 3689 803f 6b2c 613f b14c 813f 864e 893f
00000050: 8c54 713f 05e4 773f 1cf1 793f 8cc8 733f
00000060: cb90 823f 0874 823f ade9 8a3f 2ffb 623f
00000070: e350 8b3f 9eaf 7f3f bdcf 613f 9670 5a3f

backbone.4.bn.bias f4 [32]
-0.0059347507 -0.46251696 -0.13293307 0.0018532336 0.12472651 -0.12987366 -0.09632994 -0.03966585
-0.07098667 -0.2662401 -0.2118386 -0.19329675 -0.056610305 0.011716369 -0.060127176 -0.017339563
-0.5457288 -0.12406997 -0.22793062 -0.25145802 -0.1756117 -0.29786724 -0.4618195 -0.2225903
0.042228743 -0.37658417 0.059298765 -0.28389156 0.25521564 -0.30112463 -0.14020035 -0.2324881
00000000: 4c78 c2bb 06cf ecbe 9b1f 08be 33e8 f23a
00000010: 9d70 ff3d 9afd 04be a248 c5bd a978 22bd
00000020: 7661 91bd 9f50 88be 38ec 58be 95ef 45be
00000030: 35e0 67bd 03f6 3f3c ea47 76bd b30b 8ebc
00000040: e2b4 0bbf 6518 febd a566 69be 1bbf 80be
00000050: 8ed3 33be 0e82 98be 9b73 ecbe b6ee 63be
00000060: 0cf8 2c3d a4cf c0be 43e3 723d 3c5a 91be
00000070: a0ab 823e 022d 9abe ae90 0fbe 5c11 6ebe

backbone.4.bn.running_mean f4 [32]
-1.1197882 1.0844463 -0.16499242 -0.35739148 -0.5544153 -0.41396484 -0.60609657 -1.0213904
-0.62831926 0.48484522 -0.39705312 0.16729926 -0.67762774 -1.5994569 -0.8522605 0.25385296
0.8775957 -0.5137438 -0.29025257 0.09972771 0.62803763 -0.2705314 0.24760406 -0.11524626
-0.78102136 -0.03294768 -0.35557622 -0.27753565 -0.6176825 -0.19587202 -0.31659782 0.95992315
00000000: 3855 8fbf 23cf 8a3f c6f3 28be 04fc b6be
00000010: 29ee 0dbf 33f3 d3be 2529 1bbf ecbc 82bf
00000020: 88d9 20bf a23d f83e 8c4a cbbe 7f50 2b3e
00000030: 0379 2dbf 01bb ccbf be2d 5abf 04f9 813e
00000040: 1daa 603f b784 03bf fc9b 94be 0b3e cc3d
00000050: 13c7 203f 1783 8abe eb8b 7d3e 3b06 ecbd
00000060: 04f1 47bf 26f4 06bd 160e b6be 2719 8ebe
00000070: 7120 1ebf ad92 48be 1c19 a2be 86bd 753f
