models/m8_best_epoch.pt (torch, 365739 bytes, 62 tensors)

backbone.0.conv3x3.weight f4 [32, 3, 3, 3]
00000000: 1ccd 90ba 1d64 db3d 9b2a 85bd 578a 2f3e
00000010: dbf4 17be c82c a9bd 73d5 06be 4aac 0a3e
00000020: d02d cd3d b1f6 0ebe acdd 5b3e f324 4c3d
00000030: 74af 643e f1b8 103d 38bf 0e3e a51c 2b3d
00000040: 1e36 2d3e 1478 a53d 0d37 2abe 9a95 463d
00000050: f287 d9bc d25b b23c 475c 9dbb 594e 3b3b
00000060: 79db 1fbe 9a23 d4bd 874b c6bd 95e1 83bd
00000070: 7c62 703c a81d 03be fdbf 633e f401 febd
00000080: 6b56 643d 05f6 c83b 1841 f7bd 4f3e de3d
00000090: 6711 c43c 3819 0b3e bdfc 13bd e9ab 5bbd
000000a0: 7f62 e13b 8c9a 08bd c95f d53c 9295 313e
000000b0: 2b01 cb3d 73df e0bd c626 933d e9d0 813d
000000c0: 5c81 8d3d 9273 c3bd 4758 8ebe c44e a9bd
000000d0: e4c2 b0be 10e1 963d a493 923b e8d6 7f3b
000000e0: cce4 3e3d d36a 17bc e072 8b3e 10f2 4cbd
000000f0: f46e dab9 a2ba 90be fbf9 dd3b 5fa1 8ebd
00000100: 3373 8cb8 98e9 b7bb e1ba 4a3e c60c 52be
00000110: b02c 4fbd 93e8 d2bd 90c7 5d3e 45d9 2c3b
00000120: cb57 903d 07c6 12bd 9eb6 dcbc 2078 0bbe
00000130: 7018 03be 79b2 e83d 1fb9 4dba bd9b 603e
00000140: 7028 58bd cfd7 603c 0d3d 643d 56ef e3bb
00000150: 57e4 0e3e 02cb 693c 5240 d83d 17e7 4abe
00000160: 37eb 97bd 128e 2cbd 89ce 303d fdfd d3b9
00000170: 6cea 5a3d 62ef 3d3d 8f2c cdbd 6801 283d
00000180: 14f3 3f3d c27f a9bd f2da 653d 7c5f f3bc
00000190: 52da cf3a 6327 c13d 97f1 dd3c 0464 edbe
000001a0: 4f82 43bc 4568 c9be ef9a 96bd 2642 07bd
000001b0: 7105 3cbd edf0 f33b 708d f83d eca2 273c
000001c0: 9932 293c 0856 b9bc fc84 ecbe 7c56 e13c
000001d0: 686c 923c 3192 75bd 661b 713d 9b11 85bc
000001e0: 631a 083d 964d e1bd 8417 0c3c a182 4abd
000001f0: 9d6c 41bb 6dc1 40bc bc8b 0c3d cbf7 8dbd
00000200: 057c 593d 0a39 b5bc e754 3d3e f7a6 6b3d
00000210: 2e7f 03bf 2679 ea3d 2931 323d 876c 0dbc
00000220: 3a39 2cbe d977 27be 5345 af3c 314f 423d
00000230: eab0 363c 97b5 acbd ef4d 3f3e 5b80 54b9
00000240: 8bfa ab3c ef59 843d 7a5b 303e 41d8 9c3d
00000250: 4abd 1f3e 2e19 31be bdd7 3d3d 6a05 aabe
00000260: 5a5e 533c c2d0 45bd 5973 c63d d334 18be
00000270: d6dc 973c e6be 153d 30c3 d83d 37e0 b5bd
00000280: b477 7b3e f2aa 103d f656 303c df19 61be
00000290: 3b6a 563c 4397 c33c 5a8b 8eba 72ba 923e
000002a0: 74b9 113d d63c 9ebd d5e7 1abc cc43 9ebb
000002b0: 0f7e d63d 9555 b2bb d08a 89bd edf7 a739
000002c0: 9223 8dbe 70fb 983c a3dc cf3d 3347 0dbe
000002d0: 587b 843c b502 ad3d 8522 e53b 073d 01bc
000002e0: 7455 813d a952 c83d ac00 74bc d28d 353b
000002f0: 6a3c c13c 4711 903c 7343 94bd 6bfd 743d
00000300: bb45 ed3d db1e 403e 77b2 a5bc fd21 88bd
00000310: 55e3 353c 0292 e33c ddf8 c33c fa28 013e
00000320: 0d16 b2bd bb53 09be b064 483e e55b 233d
00000330: 004c e8bc 9cf0 41be afea 50be 5372 b3bd
00000340: 6eb0 41bd cc37 413d 9ff8 833d ada2 153d
00000350: e681 27be c63f 3fbc d2a3 e03c d92b 743e
00000360: e601 943c 2286 5b3d 44f9 bd3d f583 fc3b
00000370: 4a96 bcbe 6817 113e eda0 253d ab13 c43b
00000380: d101 a1bd 0c5c 0d3c b403 6cbc 7195 2b3d
00000390: 3166 34bd 7af7 ccbe 869d 95bd 80e7 8a3d
000003a0: 13c7 973d 0c9e 1a3e 3556 e13c e30d 493d
000003b0: f4da 9e3c 4884 503c d4ca a6be 701a ffbd
000003c0: b0aa f33d 54e0 b3bc 8e3c bdbc a8f2 44bd
000003d0: 6931 13bd 6709 0e3c ce13 edbd a6a9 333e
000003e0: 1ea2 0ebe 818d 5c3c 7ee7 61bc d4ea 01be
000003f0: e620 2ebc 5788 a4be 6d82 d9bc 41a3 72be
-0.0011047455 0.107124545 -0.06502267 0.17142616 -0.14839499 -0.082604945 -0.13167362 0.13542286
0.10018504 -0.13961293 0.2147128 0.049839925 0.22332555 0.035332624 0.13940132 0.041775364
0.16915175 0.08079544 -0.16622563 0.048482515 -0.026554082 0.021772299 -0.00480226 0.0028580634
-0.15611066 -0.10358353 -0.096823744 -0.06439511 0.014671918 -0.12804282 0.22241206 -0.12402716
0.055746477 0.0061328434 -0.120729625 0.10851728 0.02393408 0.13583839 -0.036129702 -0.053630743
0.0068781967 -0.033350512 0.02604665 0.17342213 0.09912332 -0.109801196 0.0718513 0.063386746
0.06909439 -0.09543528 -0.27801725 -0.082669765 -0.3452369 0.07367146 0.0044731665 0.0039038006
0.046604916 -0.0092417775 0.2723608 -0.050035536 -0.00041662867 -0.2826739 0.0067741848 -0.06964373
-6.697178e-05 -0.0056125633 0.19797851 -0.20512685 -0.050579727 -0.10298266 0.21658158 0.002637462
0.07047995 -0.035833385 -0.026942547 -0.13620043 -0.12802291 0.11362166 -0.00078477146 0.2193441
-0.05277294 0.013723328 0.055722285 -0.0069560213 0.13954292 0.014269592 0.10559143 -0.19814716
-0.074179105 -0.042127676 0.043165717 -0.00040434292 0.05344622 0.04637087 -0.100182645 0.041016966
0.046862677 -0.08276321 0.056117006 -0.029708616 0.0015857911 0.094313405 0.027092738 -0.46365368
-0.011932923 -0.39337364 -0.0735377 -0.03302207 -0.045903627 0.007444492 0.12136352 0.010231715
0.010327005 -0.02262403 -0.4619521 0.02750706 0.017873958 -0.059953872 0.05886402 -0.016243747
0.03322829 -0.110011265 0.008550528 -0.049440984 -0.0029514201 -0.011764866 0.03431295 -0.069320284
0.05309679 -0.022121925 0.18489419 0.057532277 -0.51365936 0.114488885 0.043503914 -0.008631832
-0.16818705 -0.16354312 0.021395361 0.047438804 0.011150578 -0.08433073 0.18682073 -0.00020265712
0.020993492 0.06462466 0.17222396 0.07658435 0.15599552 -0.17294762 0.046348322 -0.33207256
0.012900913 -0.04829479 0.096899696 -0.14863901 0.01853792 0.036559008 0.10584104 -0.08880656
0.24557382 0.035319276 0.010762921 -0.21982525 0.013086851 0.023875838 -0.001087527 0.2865787
0.035577253 -0.07726447 -0.009454687 -0.0048298594 0.104732625 -0.005442331 -0.067159295 0.0003203744
-0.275662 0.018674582 0.10149505 -0.13796692 0.016172096 0.08447782 0.0069926404 -0.007888085
0.06315127 0.09781391 -0.014892738 0.002770294 0.023588378 0.017586363 -0.072394274 0.05981199
0.11585566 0.1876177 -0.0202267 -0.06647108 0.011101563 0.027779583 0.023922378 0.12613288
-0.08695612 -0.13410847 0.19569659 0.03988256 -0.028356552 -0.18939441 -0.20402025 -0.0876204
-0.047287397 0.047172353 0.06443905 0.036532093 -0.16358146 -0.01167292 0.027421866 0.23844852
0.018067311 0.053594716 0.09276059 0.00770616 -0.3683341 0.14169085 0.040436674 0.00598379
-0.078616746 0.008627903 -0.01440518 0.041890565 -0.04404277 -0.4003256 -0.07305436 0.06782436
0.07411017 0.15099353 0.027506927 0.04908551 0.019391514 0.012726851 -0.3257662 -0.124562144
0.118977904 -0.021957554 -0.023100164 -0.048082978 -0.035935793 0.008669234 -0.11576043 0.17545184
-0.1392903 0.013461472 -0.013788102 -0.12687236 -0.010627961 -0.3213527 -0.02655145 -0.23695089

backbone.0.conv3x3.bias f4 [32]
00000000: c050 b8bd f917 1b3e e7fa 203e 2521 6f3d
00000010: de49 123c be46 2ebe 013a a8bc b93c 4e3e
00000020: 36e8 413d 1ae2 833c ba93 21bd 1f96 82bd
00000030: e2dd f03d 9e09 913b c56f 013e 3e1b f7bc
00000040: 65fd af3d ae1c a33d d6f8 de3c 29c0 fc3d
00000050: 4985 f53d 23cc 313e c41a 173e a6be 49bd
00000060: 517a 27be aba1 013d f857 a8ba a379 3bbd
00000070: 317b 0abd 6214 133c abbb 133e 5074 763d
-0.08999777 0.15145864 0.15720712 0.05838122 0.008928744 -0.17019174 -0.02053547 0.20140351
0.047340594 0.016099025 -0.039447524 -0.063762896 0.11761071 0.0044261953 0.12640293 -0.030164357
0.08593253 0.079644546 0.027218264 0.12341339 0.11988313 0.17363028 0.14756304 -0.049254082
-0.16355254 0.03164832 -0.00128436 -0.0457703 -0.03380889 0.008977028 0.14427058 0.060169518

backbone.0.bn.weight f4 [32]
00000000: df55 853f 9c1a 5e3f b23a 643f 29bb 913f
00000010: 5704 983f 3b4e 413f 0117 493f 599e 413f
00000020: 1e2a 943f 5056 833f 8ef5 833f e3fc 273f
00000030: d712 a83f ba16 5e3f ae0e 803f 7080 943f
00000040: ac6d 373f ea50 813f aed1 643f 2fdc 503f
00000050: cbdc 823f a9a2 5c3f d065 7f3f 9aa6 983f
00000060: 5eb7 793f 2ee7 813f 632f 153f 5215 2e3f
00000070: 319e 833f dc78 543f a77d 9a3f 4394 4a3f
1.0416831 0.8675935 0.8915206 1.1385242 1.1876324 0.75509995 0.78550726 0.75632244
1.1575353 1.0260715 1.0309312 0.6562025 1.313075 0.8675343 1.000448 1.1601696
0.7165172 1.0102818 0.89382446 0.81585974 1.0223631 0.861857 0.9976473 1.1925843
0.9754542 1.0148675 0.5827543 0.6800128 1.0282651 0.82996917 1.2069596 0.7913248

backbone.0.bn.bias f4 [32]
00000000: 13e2 483d a795 e4bd 7e0c 093f 73aa 1abd
00000010: 5212 51be 6eed 8a3f 6e42 743f bf4b 203f
00000020: 1866 f93d 2d15 35bd 0db6 51bd 43f4 e53e
00000030: 059e 1bbe 2a01 253f 348f c4bd 6445 93bd
00000040: 33c7 ec3e 7062 14be e5c2 e23e 9128 3a3f
00000050: e991 edbd 62f0 823f 74f3 90bd e984 b8bd
00000060: c8c9 24be 8b8e 803a 63e8 543f 3769 d03e
00000070: 6e6f 73bd 8b92 e73d d31f e9bd e9f6 1d3f
0.049043726 -0.111613564 0.53534687 -0.03776021 -0.20417145 1.0853708 0.95413864 0.6261558
0.12177676 -0.044209648 -0.051199008 0.4491292 -0.15196998 0.644549 -0.09597626 -0.071909696
0.46245727 -0.14490676 0.44289318 0.7271815 -0.11600096 1.0229609 -0.07077685 -0.090097256
-0.16092598 0.0009808106 0.83167094 0.40705273 -0.05943244 0.11307248 -0.11383023 0.6170488

backbone.0.bn.running_mean f4 [32]
00000000: f17c 783d 8c51 9b3d 01bf 1f3e ad24 1bbe
00000010: 6bb3 27be d08b 04be 3b32 40bc 8ca0 643e
00000020: 8451 ebbd 9f4d 4cbe a2d4 65be 7f03 56bd
00000030: afb6 41bd d8d1 cf3c 6ca3 de3c 6cb6 8ebe
00000040: 89da b83d c8ad a13b 2df4 933d 97e5 0a3e
00000050: 95bc 4b3e 3d1d 4d3e 3a9d 043d 7a47 b1be
00000060: 3504 9ebd ed6a 123e b1a6 853c 42d8 84bb
00000070: b2c5 70be eb31 3abd 4066 ad3d 20e9 ac3d
0.06066603 0.07583913 0.15600206 -0.1515071 -0.16377036 -0.12943959 -0.011730726 0.22326869
-0.11490157 -0.19951485 -0.22444394 -0.052249428 -0.04729336 0.025368616 0.027177535 -0.27873552
0.09026057 0.0049340464 0.07224307 0.13564144 0.19896157 0.20030685 0.032376505 -0.34624845
-0.07715646 0.14298601 0.016314836 -0.0040541003 -0.23512915 -0.04545776 0.08466768 0.084429026

backbone.0.bn.running_var f4 [32]
00000000: 2113 d33b 395f 623b 2e7e 1f3a 2100 963c
00000010: 70db 5b3c 4d88 b03a cd4c 153a a28a 803a
00000020: 4ba0 2a3c 81c0 783c be22 453c 71c3 923a
00000030: 3a64 3d3c 58c0 953a 65b9 743b 36f5 b33c
00000040: 5a02 ab3a 3002 8f3b 9bd9 a73a d76d 2c3a
00000050: 82a1 6d3b 5b02 8a3a d084 de3b 94c5 f83c
00000060: 8b6b 9a3b e2fd 943b 8dbd 633a 8cf6 893a
00000070: c57b 823c a1f1 9f3a b59c 1c3b a212 be3a
0.0064414893 0.003454162 0.0006084171 0.018310608 0.013419017 0.0013468355 0.0005695343 0.0009806941
0.010414193 0.015182615 0.012032209 0.0011197162 0.01155954 0.0011425121 0.003734195 0.021967512
0.0013046965 0.0043642744 0.001280594 0.0006577647 0.0036259596 0.0010529266 0.006790735 0.03036765
0.004712527 0.0045468668 0.0008687608 0.0010525747 0.015928159 0.0012202748 0.0023897116 0.0014501403

backbone.1.conv3x3.weight f4 [32, 32, 3, 3]
00000000: da2c 3bbb 6812 2dbd d61f bebc 006a c43b
00000010: d64a 0d3e 1b39 f3bc fde8 663d 73a8 40bd
00000020: 26c7 dd3c c3b1 eabc d709 adbc 8274 2cbd
00000030: c191 22bd ec04 b8bd a567 b63b 5d32 44bc
00000040: 0e51 8f3d fd68 edbb 8cbd 993c 5212 5f3c
00000050: d564 723d d5e2 1abb 542c 33bf dbcd af3c
00000060: 2c1f 9b3c a152 ea3c 2bbe 17bc 358c 283d
00000070: ad1d e13d a3a9 ff3c 64b7 973b 16f4 403d
00000080: 274c 7f3d 4d4f 61ba fc83 79bb fabc cabd
00000090: 5d96 0ebc e69d 273b 5c70 30bd c5b9 81bd
000000a0: 5612 953a 0461 153d 7e8b 883d dd6e 243c
000000b0: dd9f 62bd 07a5 163d 3182 093d 5957 d539
000000c0: 3f75 8d3a c159 993d 477f fbbc 2d68 82bc
000000d0: 0c70 2dbd 7e2e e93b a7f5 49bc 91fb 53bc
000000e0: b8c5 293d f040 d1bd d8b9 89bc 0835 24bb
000000f0: 0c26 213d ee55 76bd 9984 4f3d 471e a4bc
00000100: 1f4d e6bb 6cd3 e63c b157 5bbd 606c 9cbc
00000110: b44c 24bd 90fb 5e3d 6e01 753d 4227 2b3d
00000120: 5dd1 4dbd 9a20 653d 3a7c f0bc ad5b df3c
00000130: bfb8 f0bc 8179 b9bd 6c83 773c ef6b df3c
00000140: 467f c53b 4b47 0b3d 371a 17bd 3a79 7b3d
00000150: f6ad e03c e820 e83c 30a3 9c3b e0aa a13d
00000160: c601 cdbd fa0c 213d 4256 89bc 2b0b 183c
00000170: 6fe8 c63a c71d 7dbd cb0f 333d 9068 ccbc
00000180: 9eed 99bc 78fc a5bd 7a1b 4fbc 454a d8bb
00000190: 81e4 e83c 59ab 61bc 8500 24bd 2361 f6bb
000001a0: 1b8b 233c 65a8 1cbc e698 86bc ffff 3f3d
000001b0: f4f2 bd3c 44e7 00bc 6ef1 09bd 5fee 4c3d
000001c0: 7c7a fd3c cc9c 9dbd 4523 13bc cf9a 9bbc
000001d0: 1c50 bebb c1cb c13b 2397 693c 3b00 b9b8
000001e0: 753f a73c 94e7 6fbd 70ca f8bb ecc3 603c
000001f0: ba04 0bbd 9c82 45bd 327e 93bd 3419 6dbd
00000200: 574d 98bb 8968 b7bb 6b20 b9bd 464d bcbd
00000210: b4a3 af3c 862e 2a3b 8386 4d3d c353 57bd
00000220: bdb5 14bc 6b63 f7bc 17cf 263d f5f0 fd3c
00000230: 9031 133d 4b09 1b3d 57ef 9c3d c07c 953d
00000240: 5e76 babb c181 313d caae b73c 4a2a b8bc
00000250: d07e 7ebd de36 a13b a750 c6ba 7441 1fbc
00000260: 8765 c4bc 13ca bd3b bcd1 d3bc afc3 86bc
00000270: 268e 5fbd 4b2a cbbd a70d bfbb 7a6e ecbc
00000280: ca15 cb3c aca7 04bd 4f31 19bc d63d 4fbd
00000290: 1afb 5bbc e975 acbd 2b3e b13d b72e 823d
000002a0: 5492 ecbc 80f3 833d 29d3 5ebd 0353 6e3c
000002b0: 0c41 d1bc faaf 983c cc63 da3c ff89 c53d
000002c0: 42f6 953c 8b95 acba 6e34 cebe bf85 093b
000002d0: 250d 0abd 7050 dc3c dc89 4bbd 01cd 533c
000002e0: 6ed8 0b3d 3ef9 0e3d ab4d af3c 87ca 533d
000002f0: ee98 163d 8360 4a3d 22d5 e7bd a348 65bc
00000300: 7578 1cbd a6ec 2c3d 743b 44bd 12c6 463d
00000310: 5983 da3b e3bb 9739 8c12 a33c 58a6 9bbd
00000320: f86e 4c3b 023b 973d 993a e03b d1df 513d
00000330: 43e6 bbbc 3cec 2a3d c6eb 14bd c27c 733d
00000340: 4c15 b3bb d360 753c ccd4 6b3c fb81 c23c
00000350: 8f27 a73c 279b 453d bc39 aa3c f39f 41bd
00000360: 6d93 983c 59a4 2c3d 134a ec3a b86a 6c3c
00000370: a0a0 ddbc c685 2c3d d0e1 ef3b fe58 fd3c
00000380: 36b7 98bc de68 10bd 63d8 583c 289f 96bc
00000390: 8bd2 1f3b b95a 9dbd 0a5a a03c 8000 813d
000003a0: 873c 94bc e9af 9bbc 360d 9fbc 2ee7 433c
000003b0: f83c c9bb 4503 bb3b 3074 023e 5106 30bd
000003c0: 0ee9 993b c5aa a33c 8152 69bd 735c 76bb
000003d0: 4322 993b 4e3d 5a3c ece1 95bd b1d5 32be
000003e0: 17f1 723c c825 9b3c 560b 0abd c6de 3abc
000003f0: f6fb 823d e148 563d c075 e73a 4051 163d
-0.002856067 -0.04225388 -0.02320854 0.0059940815 0.13798079 -0.029690316 0.05637454 -0.047035646
0.0270725 -0.028649217 -0.021122856 -0.042103298 -0.039689783 -0.08985314 0.0055665546 -0.011974898
0.06997882 -0.0072451816 0.01876714 0.013615208 0.059178192 -0.0023633738 -0.69989514 0.021460464
0.018935762 0.028603854 -0.009261648 0.041149337 0.10991988 0.031208819 0.004630016 0.04710778
0.062328484 -0.00085948856 -0.0038073054 -0.09899326 -0.008702842 0.0025576293 -0.043075904 -0.06334261
0.0011373262 0.036469474 0.06667231 0.0100361975 -0.05532824 0.036778476 0.033571426 0.00040691605
0.0010792388 0.07487822 -0.030700339 -0.015918816 -0.042343184 0.007116138 -0.0123266345 -0.012938396
0.041448325 -0.10217464 -0.01681225 -0.0025056023 0.039342925 -0.060140543 0.050663564 -0.020033969
-0.0070282365 0.028176986 -0.053550426 -0.019094646 -0.040112212 0.054439127 0.059815817 0.041785486
-0.050248493 0.055939294 -0.02935611 0.027265394 -0.029384969 -0.09056378 0.015107017 0.027273146
0.006027135 0.034003537 -0.036890235 0.061394908 0.027426701 0.028336003 0.0047801957 0.0789392
-0.10010104 0.039319016 -0.016764764 0.009280006 0.0015175472 -0.061795976 0.043716233 -0.024952203
-0.018790063 -0.08104795 -0.012640828 -0.0066006505 0.028429272 -0.013773763 -0.040039558 -0.007518904
0.009981896 -0.009561633 -0.01643033 0.046874996 0.023187138 -0.007867638 -0.03367751 0.050032016
0.030942194 -0.07695922 -0.008980577 -0.018994717 -0.0058078896 0.005914182 0.014257225 -8.82153e-05
0.020416 -0.05857046 -0.007592492 0.013718586 -0.033940054 -0.048220262 -0.07201804 -0.057885364
-0.0046478915 -0.0055971784 -0.09039386 -0.09194426 0.021440364 0.0025967672 0.05017711 -0.052570116
-0.009076533 -0.030198773 0.04072484 0.030998686 0.03593594 0.03785066 0.07662838 0.07299185
-0.00569038 0.043336634 0.022422213 -0.022481102 -0.062132657 0.0049198708 -0.0015130237 -0.009720195
-0.023974193 0.0057919114 -0.025856845 -0.016450731 -0.054578923 -0.09920176 -0.005830485 -0.028861273
0.024790663 -0.032386467 -0.009350135 -0.05059608 -0.0134265665 -0.08420927 0.08654436 0.063565664
-0.028878368 0.06442928 -0.054400597 0.014546159 -0.025543712 0.0186386 0.026658915 0.09645461
0.018305901 -0.0013167126 -0.40274376 0.002098426 -0.03370394 0.026893824 -0.04969202 0.012927295
0.03414195 0.034905665 0.02139934 0.051706817 0.03676694 0.049408447 -0.11319949 -0.013994369
-0.038200814 0.042217873 -0.04790826 0.04852874 0.00666849 0.0002894095 0.019906305 -0.07600087
0.0031194072 0.07384302 0.006842923 0.05123884 -0.022936946 0.041729197 -0.036357664 0.05944515
-0.0054651853 0.014976698 0.014393996 0.02374362 0.020404605 0.048243668 0.020779483 -0.04727168
0.018624986 0.04214892 0.0018027447 0.014429741 -0.027054131 0.042119764 0.00732062 0.030926224
-0.01864205 -0.03525626 0.013235184 -0.018386438 0.0024386968 -0.076833196 0.019574184 0.062989235
-0.018095268 -0.019004779 -0.01941548 0.011956973 -0.0061413012 0.005707177 0.12739635 -0.042974774
0.0046969717 0.01997889 -0.056963447 -0.0037591725 0.004673274 0.01332028 -0.07318482 -0.1746433
0.014827988 0.018938914 -0.033702217 -0.011405652 0.06395714 0.052315596 0.0017658994 0.03669858

backbone.1.conv3x3.bias f4 [32]
00000000: ba37 56bd 1af0 6a3d 0068 283d aef7 3cbd
00000010: 2271 3c3d 02f3 62bd a3fe 1f3d 0165 2d3d
00000020: e497 163d 0fea d03c 0d2b 14bd 3708 d2bc
00000030: 3ddf 573c 5e0f be3c 6fb2 523d b4ff 4b3b
00000040: 9d2f c13c 82b3 37bd 4535 4ebc 0180 103d
00000050: 4d9c 903b d067 3d3d 1966 41bd 76d6 1fbd
00000060: 8596 943c 0eb2 2cbb 08a0 4ebd b404 cc3c
00000070: af2c 183b 8087 733c 65ca 4c3c e197 27bd
-0.05229924 0.057357885 0.041114807 -0.046134643 0.04600633 -0.05540753 0.0390612 0.042332653
0.036765948 0.025502233 -0.03617387 -0.025638683 0.013175783 0.023200687 0.0514397 0.0031127753
0.023582274 -0.044848926 -0.012585943 0.035278324 0.0044131638 0.04624158 -0.04721651 -0.039022885
0.01813818 -0.0026351246 -0.050445586 0.024904586 0.0023219993 0.014863849 0.0124994265 -0.040916327

backbone.1.bn.weight f4 [32]
00000000: 1c74 923f e71d 743f bc4c 6d3f 885b 883f
00000010: c555 853f 626e 653f 1c47 573f 4b49 8b3f
00000020: 487f 543f 8994 913f 114f 573f 9932 743f
00000030: abdf 933f 868d 693f c5d9 7e3f c5f4 5a3f
00000040: 5c4a a83f a07e 7b3f 964a 8f3f bde6 5c3f
00000050: 9c7d 623f 918b 883f a41d 793f ae2c 833f
00000060: 9e6e 933f 4ed9 613f 9a74 6f3f b43e 4f3f
00000070: 249b 603f b238 8f3f b656 5b3f ba92 703f
1.1441684 0.9535813 0.9269521 1.0652933 1.04168 0.89621556 0.8409288 1.0881742
0.83006716 1.1373454 0.8410502 0.95389706 1.1552633 0.9123157 0.9955104 0.8552974
1.3147693 0.9824009 1.1194637 0.8628958 0.88472915 1.0667592 0.97310853 1.024801
1.1518133 0.88222206 0.93537295 0.8095505 0.87736726 1.1189177 0.85679185 0.93973887

backbone.1.bn.bias f4 [32]
00000000: 5e79 653e bc7a 63bd 5298 f9bd 6622 033e
00000010: 3406 a33d 0e37 42be ccbc 9dbe d0e0 10bd
00000020: 7b09 34bd 3cbe a6bd 7bde 6fbe bc7b 8cbc
00000030: ec54 1fbd c795 7b3c 36c4 1abe 7645 20be
00000040: bdc3 32be 0a57 adbd dfa2 10be 6c24 52be
00000050: 9ba6 88be fb03 5b3d c220 91bd fd51 39bd
00000060: 5ca2 1f3e c5ff 30be 45cf 5bbe fffb cfbd
00000070: f6f7 8dbd 9c0d 27be 90e2 84be 09c2 12be
0.22409579 -0.05553697 -0.12187256 0.1280609 0.079601675 -0.18966314 -0.30808103 -0.035370648
-0.043954354 -0.08141753 -0.23424713 -0.017148845 -0.038899347 0.015355534 -0.15113911 -0.15651497
-0.1745748 -0.08463867 -0.1412463 -0.20521706 -0.2668961 0.053470593 -0.07086326 -0.045244206
0.15589279 -0.17285068 -0.21465786 -0.10155486 -0.069320604 -0.16313785 -0.25954103 -0.14331831

backbone.1.bn.running_mean f4 [32]
00000000: e8f0 50bf b5a9 b8be 61e3 d7be cef1 78c0
00000010: 8ccb 15c0 8ce0 d63e c0dd 4040 8282 383e
00000020: 9dd2 10bf 1722 963e ff5d c23f e4b0 bfbf
00000030: 5e9b 4ebf 41fe 24bf 43e0 57bf 8685 943e
00000040: 902b 6a3d 0466 d63e 96b0 dd3c 070d 193e
00000050: b407 e03f 547d c7bf 58ee 6ebf 7b4a b3be
00000060: 6966 d0bf 1b45 6d3f 9251 0b3f 3ed0 31bf
00000070: f62e 4fbe c115 f8bd eaa4 3240 9a93 30bf
-0.81617594 -0.36066976 -0.42165664 -3.8897586 -2.3405485 0.4196819 3.0135345 0.18018535
-0.5657137 0.29322883 1.5184935 -1.4975858 -0.8070582 -0.6445046 -0.8432657 0.2900812
0.05717045 0.41874707 0.027061742 0.14946376 1.7502351 -1.5585122 -0.93332434 -0.35017762
-1.6281253 0.9268357 0.5442134 -0.6945838 -0.20232758 -0.12113524 2.7913156 -0.6897522

backbone.1.bn.running_var f4 [32]
00000000: 9b26 ed3e 3744 a03f ffdb 3b3f ca41 2340
00000010: c345 5740 1fd7 653f b93f 0e40 67b0 d63e
00000020: 14d0 2d3f 09f2 073f 6dbf 903f b659 e33e
00000030: c83b 0b3f cae7 0d3f c028 0640 7b24 9a3f
00000040: feb4 013f 8bd8 923f 4e82 013f e14a 833f
00000050: 2c5b a53f c07f 3140 aef4 383f 8c26 1740
00000060: 35f6 0d40 71f9 433f ff2e 8a3e d367 013f
00000070: 1220 b23f c4c2 c23e 420a 2e40 63c4 453f
0.46318516 1.2520818 0.7338256 2.5508904 3.363633 0.89781374 2.2226393 0.4193146
0.6789563 0.5310369 1.1308419 0.44404382 0.54388094 0.5543181 2.0962372 1.2042383
0.506668 1.1472334 0.50589454 1.0257226 1.2918448 2.7734222 0.7224835 2.3617277
2.2181523 0.7655249 0.2698898 0.5054905 1.3916037 0.3803922 2.719376 0.7725279

backbone.2.conv3x3.weight f4 [32, 32, 3, 3]
00000000: 14fa 83bd 1d1c 9f3b 66c1 cc3d 5282 7fbd
00000010: 1ad7 b3bc 86df 49bc 4553 7b3c cc6c ee3c
00000020: ffa3 2cbd 5748 cebd a115 393d 41e8 41bc
00000030: bfb4 fe3c 2c90 cb3d ddc5 3f3d ddd3 aa3c
00000040: eeda a23c 26a8 c9bd b905 36bd af87 8a3d
00000050: f4da e1bc a22c 7fbc a23d 94bd d17b 41bd
00000060: 634e 1b3d c076 35bd 4ec0 f6bc 1356 2a3d
00000070: 1e0e 133c 57d1 f53b 0711 ad3c ee91 a4bd
00000080: c82b cabc 2393 3fbd 73a0 15bd 05b6 68bc
00000090: 6692 52b8 bed1 413d 117c ab3c 1d93 d03c
000000a0: ef70 bfbc 9775 bbbd 16fe 64bc 3e8f abbc
000000b0: 5efe d4bc 3aee 10be 5ed9 15be 0d8c bfbc
000000c0: b40e c0bd c413 aabd a2f8 1ebe 623d a9bd
000000d0: 88eb c3bc 95b4 05bd 77fc 1fbd 6650 b93b
000000e0: ddc0 cc3c 2e14 0ebc e29e 543c 36b6 bdbc
000000f0: 8b71 f4bc da69 3cbd 13b7 90bd 5a6e a8bb
00000100: 9e09 653d a2e8 19bd e51e 443d b7a8 8c3d
00000110: f0a9 de3d a102 6b3c 91b6 883d 9f08 36bd
00000120: 141a 0abc 2627 7b3c f533 96bc 7198 65bd
00000130: 27d6 28bc 5572 0d3d 1067 9c3d e01b b2bb
00000140: 453e 503d 1a66 5bbd 877f b8bc 54db 683a
00000150: d1e5 8c3c 55bc 76bd 3cf3 91bc bcf6 e0bc
00000160: bb89 d5bb c399 e8bd f0d4 5ebd 5d56 debc
00000170: ba4b 653d 8376 003d efe6 d7bd bbae 4bbd
00000180: 73d6 a5bc 0c0d 21bd d4c1 d33c 5772 62bd
00000190: 2fc1 19bd 4913 94bd 8f69 92bd 9cee 1cbd
000001a0: 5eb2 2a3d 986c 5abd 0cc0 11bd 875d 00bd
000001b0: 3461 f8bb f3c7 bb3c 6c69 523d c71d 94bd
000001c0: 74f5 fe3c be7c 81bd 8f62 16bd 29a0 9b3a
000001d0: a8de 26bd 4a59 58bd d171 80bd 0ba8 2fbd
000001e0: fef3 e9bc 0eb0 aa39 97ab 1abd 230e 12bd
000001f0: 1ba1 2fbc 42d7 9ebc 3561 9dbd 24ef a3bd
00000200: 8c47 42bd dfc4 02bc e444 abbd 348c d5bc
00000210: 782e 90bc 498e b83c 20d6 d9bc bd3e 40bc
00000220: ff19 053d f83f 3d3c 67cd 0abd 528e 5cbd
00000230: 5e4a 1c3d 5798 c4bc 5d9c d1bc 0765 b83c
00000240: 96ec 2fbe 3296 a3bd cdfe c1bc 4d12 86bc
00000250: b2d1 25be f0f1 87bd d933 34bd 2241 a6bd
00000260: f5b7 873d 2373 043d 188b 1a3d 60a7 4b3d
00000270: f7f2 2dbd 071f dcbc 1fc0 353d 099e b13c
00000280: 6393 213d f9a2 753b 8d48 293e dc4b edbd
00000290: a3a8 bebc 5f69 4dbc e9c8 14be ff08 43bd
000002a0: fe22 6cbc 683b 80bd 1292 823d 2251 7dbb
000002b0: e679 ebbc fcd0 c5bb 7d7e df3c 7d76 81bd
000002c0: 5065 e13c db83 3cbb ed07 eebc 0542 5a3c
000002d0: ed1c 1dbd c4a7 a9bc 10e4 603d 9078 0fbc
000002e0: 18c8 893c d01d 1dbd 303f aabd ebc9 23bc
000002f0: ffa1 4abb a201 9e3d bc69 94bd f86b 173c
00000300: f473 c9bc 2b1a 3ebd 63f8 efba a1f2 413c
00000310: d1fe 853d 2d1e 043d 6b26 6e3d c78d b9bb
00000320: c95f c2bc a50b 8fba 2daf 5d3c 965c c1bd
00000330: b8f5 dbbc 6538 37bb 02d7 92bd 3379 ecbc
00000340: bc16 15bd 7f9e 353d 15e7 15bd 9ce3 a3bb
00000350: af78 893d 5e8f 40bd ff6c 733d bec8 b13c
00000360: e943 64bd 5301 9abd 991d 6cbd ef52 c53c
00000370: c330 88bd faa7 2fbd e927 bbbc 787d fa3c
00000380: 7692 fbbc 120f 0a3e 69f1 023c 416e 413d
00000390: 3513 a6bc 906f a0bd df43 9bbd 5e30 f9bc
000003a0: e3fa 89bd b1e2 e63c f710 b8bd ee19 143d
000003b0: 1c8c 55bd c667 54bd ad9c 98bd 3dc2 db3c
000003c0: 6954 d93c 940c 60bc c837 613d 2e28 53bc
000003d0: 04bc 8fbc bc18 f23c 4fc6 dcbc 2084 68bc
000003e0: b982 36bd 5fcd 71bc 85d6 9dbc 0be9 f0bc
000003f0: ada6 cebd 37d2 fbbd 60f9 08bd 3479 edbd
-0.06444183 0.0048556463 0.09997825 -0.062380143 -0.021953154 -0.012321359 0.015339677 0.029104613
-0.042148586 -0.100723915 0.045186643 -0.011835159 0.031092046 0.09939608 0.046819557 0.020852977
0.019879784 -0.09846525 -0.04443905 0.06764161 -0.027570225 -0.015574606 -0.07238318 -0.04723722
0.037916552 -0.044302702 -0.030120995 0.041585993 0.008975534 0.007501762 0.021126283 -0.080356464
-0.02467908 -0.04677118 -0.03652997 -0.014203553 -5.0204246e-05 0.047319166 0.020933183 0.025460774
-0.02336928 -0.09153288 -0.013976594 -0.020942327 -0.026000198 -0.14153376 -0.146337 -0.023382211
-0.093778044 -0.08304551 -0.15524533 -0.08263661 -0.023916021 -0.03264292 -0.03905913 0.005655336
0.024994308 -0.008671803 0.012977334 -0.023158174 -0.029839298 -0.045999385 -0.07066169 -0.005140108
0.055917375 -0.03757537 0.047881026 0.06868117 0.10872257 0.0143438885 0.06675447 -0.044441815
-0.008429069 0.015329158 -0.018335322 -0.056053583 -0.010304964 0.034532864 0.07636845 -0.005435452
0.050840635 -0.05356417 -0.022521747 0.000888278 0.017199429 -0.0602382 -0.017816179 -0.027461402
-0.006516663 -0.11357453 -0.05440229 -0.02714079 0.05598042 0.03136302 -0.10542094 -0.049727183
-0.020243859 -0.039319083 0.02584926 -0.055284824 -0.03753775 -0.07230241 -0.0714904 -0.038313493
0.04167401 -0.05332622 -0.03558354 -0.031339195 -0.007579947 0.022922492 0.05137007 -0.07232242
0.0311229 -0.06322621 -0.036715087 0.0011873293 -0.040739685 -0.052819528 -0.06271709 -0.042884868
-0.028558727 0.00032556098 -0.037761297 -0.035658013 -0.010719563 -0.019389752 -0.076845564 -0.08004597
-0.047431514 -0.007981508 -0.08362749 -0.02606783 -0.017600283 0.022528784 -0.02659136 -0.011733708
0.032495495 0.011550896 -0.033887293 -0.053846665 0.03815686 -0.023998423 -0.025587255 0.022509111
-0.17180094 -0.07987632 -0.023681069 -0.016366148 -0.16193274 -0.06637943 -0.04399476 -0.08117892
0.06626884 0.032336365 0.037730306 0.049720168 -0.042468037 -0.026870264 0.044372674 0.021681802
0.0394472 0.0037481172 0.16531582 -0.11586735 -0.023273772 -0.012537329 -0.14529766 -0.047616
-0.01441264 -0.06261331 0.06375517 -0.0038653095 -0.02874465 -0.006036876 0.027281994 -0.06321428
0.02751413 -0.0028765115 -0.029056514 0.013321404 -0.038357664 -0.02070988 0.054904997 -0.008756772
0.016819045 -0.03835851 -0.08312833 -0.009996871 -0.003091931 0.07715155 -0.0724673 0.00924205
-0.024591424 -0.046411674 -0.0018308278 0.011837632 0.06542743 0.03225534 0.058142107 -0.005662653
-0.023727315 -0.0010913505 0.013530535 -0.094414875 -0.026850566 -0.0027957198 -0.07169916 -0.028866386
-0.036398634 0.044340607 -0.03659733 -0.0050014984 0.06712472 -0.047011726 0.05943012 0.021702167
-0.055728827 -0.07519784 -0.057645414 0.024087397 -0.066499256 -0.042884804 -0.02284618 0.030577406
-0.030709486 0.13482311 0.007992127 0.047224287 -0.02027283 -0.07833779 -0.07581305 -0.030418571
-0.06737306 0.028184267 -0.08987611 0.03615754 -0.05213557 -0.05185678 -0.074517585 0.026826018
0.026529508 -0.013674874 0.054984838 -0.012887998 -0.017545708 0.02955281 -0.02695003 -0.014191657
-0.04455826 -0.014758437 -0.01926733 -0.029407999 -0.10090385 -0.12295955 -0.033440948 -0.11595383

backbone.2.conv3x3.bias f4 [32]
00000000: 2927 35bd 73bf e93c 410c 2fbd 5e63 3bbd
00000010: 115d 30bd 46b4 43bd 6d87 393d b9c4 cebc
00000020: c2fc 143d 908e 85bc ae3e 97bc b0ff 82bc
00000030: 7979 43bd 91c9 883c b349 c5bc a41a 903c
00000040: f8ce 4cbd 5a3b 173c ce5b 453d 7d50 94bc
00000050: 9b3d 4d3c 17d3 6dbd 1667 c3bc f9e3 463d
00000060: 03fe be3c abb1 b03c 4bdb d23c 8baf 40bc
00000070: 59a6 cabc 4396 623d 87eb afbc dc0f a7bb
-0.0442268 0.028533673 -0.042736296 -0.04574906 -0.043057505 -0.047779344 0.045295168 -0.025240289
0.03637386 -0.01630333 -0.018462505 -0.015991062 -0.047723267 0.016697677 -0.024082994 0.017590828
-0.05000207 0.009230459 0.048183255 -0.018104786 0.012526895 -0.05806264 -0.023852866 0.048557255
0.023314482 0.021569094 0.025739333 -0.011760603 -0.024737524 0.055319082 -0.021474613 -0.005098326

backbone.2.bn.weight f4 [32]
00000000: 9fdb 7c3f 2bbb 863f 56c7 663f fd32 7e3f
00000010: 06a5 573f 3ddc 963f 9331 903f 2a33 803f
00000020: 1765 5f3f 444b 813f 9119 883f bf7f 813f
00000030: 1ac8 813f 1de5 643f 93d5 5a3f 2f50 943f
00000040: 3a33 613f ccbd 843f 9a74 6f3f 84d7 813f
00000050: 2327 803f 0242 a13f 27eb 643f 00cf 793f
00000060: 6217 763f b335 6e3f 8e30 8a3f e936 8b3f
00000070: ee26 933f f773 713f b421 773f b279 5f3f
0.98772615 1.0525869 0.9014791 0.9929655 0.8423618 1.1785961 1.1265129 1.0015614
0.87263626 1.0101094 1.0632802 1.011711 1.0139191 0.894121 0.8548214 1.158697
0.8796879 1.0370421 0.93537295 1.0143895 1.0011944 1.2598269 0.89421314 0.9758148
0.9612943 0.9305069 1.0796068 1.0876132 1.1496255 0.94317573 0.965358 0.8729507

backbone.2.bn.bias f4 [32]
00000000: 1694 dc3d f644 213d 40b6 65be cbaf d0be
00000010: 5419 8dbe 6180 113c 49a7 213e 2444 883d
00000020: cc93 9fbd a728 c5bd a2b4 283d eddc 703d
00000030: 8e74 bcbb 04e8 a7be d217 4cbe afc5 2cbe
00000040: db38 e5bd f846 5c3e 2fa7 1f3c e5f1 46be
00000050: 8817 0c3d 8151 a0bc 4b30 14be 26a4 2f3c
00000060: bb8a a13c 6fa9 26be a8b4 81be 1728 39be
00000070: d5a3 4a3e abf0 18bd 4f20 f4bd c1e8 24be
0.10770433 0.039372407 -0.22432804 -0.4075912 -0.27558386 0.008880706 0.1578647 0.06653622
-0.07791862 -0.096268944 0.04118789 0.05880444 -0.005751199 -0.327942 -0.19930962 -0.16872285
-0.11192485 0.21511447 0.0097444495 -0.19428213 0.03420213 -0.019570114 -0.14471547 0.010720288
0.019719472 -0.16275571 -0.25333142 -0.180817 0.1978906 -0.037338894 -0.11920225 -0.16104414

backbone.2.bn.running_mean f4 [32]
00000000: 23ce b5bf 0b05 66bf 59fb afbe de47 913f
00000010: 4412 3c3f 6ae1 8cbf 9a2d b5be 9eee dabf
00000020: 174f 73bf 5684 73bf 3f0c 01bf 9462 72bf
00000030: 789b 43bf a025 0940 bca5 19bf c115 a6bd
00000040: b4d6 4abf 4fb2 0bc0 8309 6ebf 2e20 23be
00000050: b9a8 87bf 0b4f a1be b90d 8dbe 91c9 e2be
00000060: db4e 91be 6b83 8fbe 5897 01bf 82d8 9d3d
00000070: 57bf adbf cadb 8cbf 008c 43bf cb4e c63e
-1.4203533 -0.89851445 -0.3437145 1.1350057 0.7346537 -1.1006291 -0.35386354 -1.710407
-0.95042557 -0.95123804 -0.5040931 -0.9468167 -0.764091 2.1429214 -0.60018516 -0.08109618
-0.7923386 -2.182758 -0.92983264 -0.15930244 -1.0598365 -0.31505617 -0.27549532 -0.44294408
-0.28380474 -0.2802995 -0.5062156 0.07707311 -1.3574017 -1.1004574 -0.763855 0.3873199

backbone.2.bn.running_var f4 [32]
00000000: 467e 733f 3510 823e b1a2 213f 0e71 ca3e
00000010: 8300 8e3f 6437 e73e 4844 e53e 369f 3340
00000020: 0795 193f c49c d63e 05da 993e 7025 7d3e
00000030: 8fcf ea3e 1c90 553f bd69 0c3f 1d68 033f
00000040: 2fa5 493f e2e1 243f 4576 b03e 8b8c 7e3e
00000050: 94e6 fc3e f57d 033f 1db0 8d3f 6c40 0c3f
00000060: 582d 263f bc89 013f baa5 353e eb91 8f3e
00000070: 28fe 433f 9f05 9c3e 3532 0a3f a9ba ca3e
0.9511455 0.2540299 0.6313887 0.3953938 1.1093906 0.45159447 0.44778657 2.8065925
0.5999302 0.41916478 0.30049148 0.24721313 0.4586148 0.8342302 0.54848844 0.5133074
0.78767675 0.6440717 0.34465232 0.248583 0.49394667 0.5136407 1.106937 0.547858
0.6491294 0.5060079 0.17739001 0.28041014 0.76559687 0.3047304 0.5398286 0.39595535

backbone.3.conv3x3.weight f4 [32, 32, 3, 3]
00000000: 60a0 4bbd 002e 7e3d 2da4 e1bc b04b a1bc
00000010: cae0 d1bd e2ff 12bd 5fbf bbbd 0303 a7bc
00000020: 3cba 933c 2bcd c63b 8cfc 363d 902b 483d
00000030: f932 b7bd bc61 54bd 4c74 a43d ba6d 213d
00000040: 0b40 d83d 1d68 2a3d 05fe e3bc 6b4b 3fbd
00000050: 6e24 433c d935 33bd f446 32bd a962 bbbc
00000060: 0276 19bc 3936 9b3c 7bcc 3bbc c8d5 75bc
00000070: 9f39 cdbd dd20 8b3d c3ca eabd da04 56bd
00000080: d9fc 6c3d 9385 f93c 9838 3b3d c4d6 d63c
00000090: c70e 1fbc a8d2 283d e941 4e3d 91a3 003d
000000a0: 938e 1cbd 9e5e 243d aa50 793d 41c6 9b3b
000000b0: b1a8 4d3c b01e cebc 75e3 7d3d b91c 17bd
000000c0: 5700 3fbd 37cd cbbc 5e65 21bc 2b29 a43c
000000d0: cf9d 4e3d e653 1bbd 4079 25be bf5e 75be
000000e0: 1cbd 31bc 82d2 163e 3d53 413e 1192 063d
000000f0: 7245 443c f187 2fbb 24f0 45bd 5f95 4abd
00000100: 8487 18bc 5ce6 1bbc bbf0 41bd 2de6 a6bd
00000110: a52f b3bc 7e77 813c e091 25bd 16a3 25bd
00000120: 1ada 04bd fd17 2ebd 1bc7 84bd 9502 b23c
00000130: 7119 c4bd d2aa 2a3c 253c ba3c 70ad 77bd
00000140: 7c7f c83c 70c0 8a3c 84a7 8e3d 910e d33c
00000150: d0b5 7e3d 0299 213d d034 0f3c ba0d d53c
00000160: 5003 25bd 9c20 c7bc 4358 bbbd 8aa2 86bc
00000170: 2d85 adbc 9a34 733d 75be c1bb 4601 25bc
00000180: 4c56 903b 8128 2cbc b922 14bc 1e69 e83c
00000190: 18a9 af3d 7be1 463c 0b5d 9ebc c071 1e3d
000001a0: 0daa 643d f1f9 1cbd e4b3 ae3c 68f7 73ba
000001b0: ad9c 10bd f2fd c73c 2d71 09bd 912b 3d3d
000001c0: c864 f33d d701 6f3b 9fa3 22bd be51 80bd
000001d0: 0a51 853c c6cc edbc 55e8 8c3d c185 d33c
000001e0: 68cf 63bd 308b 36bd fc66 6c3d fecb 743d
000001f0: dcb4 a8bc af16 d43c 0fe9 0d3c 70db f83c
00000200: 209b 8c3d 05dc 253d a39f 26bc 338a 393d
00000210: 91e9 80bd 6365 07bd b76d 903c 1293 77bb
00000220: aa0e 96bb efb7 95bc b552 bb3c 10c3 15be
00000230: e3d8 51be 1925 103d f333 34bd a395 833b
00000240: 7d5a 163d 19f6 c5bc 3231 863b af3d af3c
00000250: 0750 5cbd 2cd2 80bc 5250 b33c 09c2 80bc
00000260: 3700 b5bc b316 50bd e687 a33b ef0b 14bd
00000270: 007c 7ebd b0a4 c0bd fdc7 4fbd 2f44 b93c
00000280: 8c8f 313d cc3d 0e3b f74c 26bd 101c 763d
00000290: a888 1bbd 8b78 d2bd 5c13 5cbc b5e1 94bc
000002a0: 08fc 153d 0df7 0c3d 79a8 7f3c 04c9 0bbc
000002b0: c164 6dbd 7a13 d1bc ef04 9a3c 2230 083d
000002c0: 1e02 5b3d 37f3 27bd d034 b4bb 5a1b 0bbd
000002d0: e586 8d3d 45e5 5bb9 8f91 93bd c055 a13d
000002e0: aff8 ba3b bbea 37bc 4abc 073d ca10 3cbc
000002f0: 8b05 9dbc 0971 72be 3696 b8bb ff3d ac3c
00000300: 9f7e 3dbd b6a7 bf3c d760 3a3d 905d 9c3d
00000310: 2f7b 7d3b 5e59 973d a44f 4c3d a8ac 93bb
00000320: ef17 8e3c 1713 cc3b 45b1 ac3c 817b ab3c
00000330: ae90 cfbc d0c7 123d 69a3 00bd 9af6 dbbc
00000340: 6824 9b3d ac82 0f3c 95d1 10be c010 95bd
00000350: c11f 4e3d 40a8 473b 1a9d 35bd e4e8 053d
00000360: e5a2 bf3b 2abc b73d 80e3 7dbc 6787 87bd
00000370: 639c 6ebb 3c64 963d a535 3bbd 467d e0bd
00000380: 436c edba 9bba a6bd c7a8 793a 309e 7e3c
00000390: 2dea 523d f2a8 6fbd 9dfb 72bd 7588 44bb
000003a0: f0e6 683c 3b04 d4bc 3b31 a43c 6255 77bd
000003b0: f2dd dabc 201d a63c 7722 37bd 82cb 75bc
000003c0: e767 8a3d 8532 293d b93e 323c 6613 4a3d
000003d0: f755 22bd 7262 683c 006a 54be 1795 cbbe
000003e0: d7b3 c33c 2f75 5f3d fc9b 843d c19c 163b
000003f0: 3285 c43d 8572 d43d 45cf 37bd 6067 053d
-0.049713492 0.062055588 -0.027544105 -0.01968941 -0.10247953 -0.03588856 -0.091673605 -0.020387178
0.01803314 0.0060669384 0.04467444 0.04886967 -0.08945269 -0.05185102 0.08029994 0.039411284
0.1055909 0.041603196 -0.027831087 -0.046702784 0.011910541 -0.043752525 -0.043524697 -0.022874193
-0.009366514 0.018946754 -0.011462326 -0.015004583 -0.10020756 0.067933775 -0.11464455 -0.05225072
0.05785832 0.030459201 0.04570827 0.026225455 -0.009708113 0.041216522 0.050355826 0.03140599
-0.038221907 0.040129296 0.060867943 0.0047538583 0.012552426 -0.025161117 0.061984498 -0.036892626
-0.046631183 -0.024878128 -0.009850828 0.020039162 0.050443467 -0.03792181 -0.16159534 -0.23961924
-0.01084831 0.1472874 0.18879409 0.032854144 0.011979448 -0.0026783908 -0.04832472 -0.049458858
-0.009309653 -0.009515371 -0.04734872 -0.08149371 -0.021873305 0.015804049 -0.04042232 -0.040438734
-0.03243456 -0.042503346 -0.06483289 0.021729747 -0.09575165 0.010416703 0.022733757 -0.060468137
0.024474852 0.016937464 0.06965545 0.025763782 0.06218511 0.03945256 0.008740619 0.026007522
-0.040286362 -0.024307542 -0.09147694 -0.016434927 -0.021181667 0.059376337 -0.005912597 -0.010071104
0.0044048186 -0.010507704 -0.009041482 0.028370436 0.08577174 0.01213872 -0.019331476 0.0386827
0.055826236 -0.0383243 0.021326013 -0.0009306581 -0.035305668 0.024413083 -0.0335552 0.046184126
0.11884457 0.0036469602 -0.039706822 -0.06265591 0.016273994 -0.029028308 0.06880251 0.025820615
-0.05561772 -0.044566333 0.0577154 0.059764855 -0.020594053 0.025889723 0.0086615225 0.030378073
0.06865525 0.04049303 -0.010169896 0.045297813 -0.06294549 -0.033055674 0.017630441 -0.003777687
-0.004579385 -0.018276183 0.022866586 -0.14625192 -0.20492892 0.03519163 -0.043994855 0.004015641
0.03670739 -0.0241652 0.00409522 0.021391718 -0.053787258 -0.015725218 0.021888886 -0.015717523
-0.022094829 -0.050802898 0.0049905656 -0.036144193 -0.062129974 -0.09406412 -0.050727833 0.02261552
0.043349788 0.0021704314 -0.040600743 0.060085356 -0.037972122 -0.10276898 -0.01343235 -0.018174032
0.03661731 0.034415293 0.015604132 -0.008531813 -0.057957415 -0.025521982 0.01880118 0.033249028
0.053468816 -0.041003432 -0.00549946 -0.03396163 0.06910495 -0.00020970877 -0.072054975 0.07877684
0.005705915 -0.011225398 0.03313855 -0.011478612 -0.019167682 -0.23675932 -0.005633141 0.021025656
-0.046263333 0.0233954 0.04550251 0.07635033 0.003867816 0.07390092 0.04988064 -0.004506666
0.017345397 0.0062278616 0.021080622 0.020932915 -0.025337543 0.035835087 -0.03140584 -0.026850987
0.07575303 0.008759182 -0.14142449 -0.072785854 0.05032325 0.0030465275 -0.044339277 0.032692805
0.005848276 0.08971436 -0.015496135 -0.06617623 -0.0036409132 0.07343337 -0.045705456 -0.10961394
-0.001811393 -0.08141061 0.0009523746 0.0155406445 0.05149286 -0.05851073 -0.05932199 -0.0029988561
0.014215216 -0.025880923 0.020043006 -0.06038416 -0.02671716 0.02027756 -0.044710603 -0.015002133
0.06758099 0.041307945 0.010879212 0.049334906 -0.039632764 0.014183627 -0.20743561 -0.39762184
0.023889465 0.054555114 0.06475064 0.0022981616 0.095957175 0.10373405 -0.044875402 0.03256929

backbone.3.conv3x3.bias f4 [32]
00000000: 1986 123d e878 a33b 8aee b6bc e572 fe3b
00000010: 6463 98bc 4af8 3ebd 537f 23bc 6759 72bd
00000020: 6e89 97bc 680c 9e3c d02a 3dbd 02c8 b63c
00000030: 7c2a 703d 9998 6f3c 92b2 24bd f837 a6bc
00000040: 32d3 7dbc 18db afbb 2b9f 2ebd 1523 7bbc
00000050: cf75 8f3c 03cd 5dbd 6c68 31bd d0c9 e53c
00000060: 734f 56bc 0c02 00bd 94b6 fa37 c6c3 023d
00000070: 8fc2 f43c 10c4 17bc 3f52 f0bb 588a e53c
0.035772417 0.0049887784 -0.022330541 0.0077651613 -0.01860208 -0.046623506 -0.009979087 -0.059167292
-0.018498149 0.019293025 -0.046183407 0.022312168 0.058634266 0.014623784 -0.04020936 -0.02029036
-0.015492247 -0.005366694 -0.042632263 -0.015328188 0.01751223 -0.054150593 -0.043312475 0.028050333
-0.013080466 -0.031251952 2.9887342e-05 0.031924985 0.029877929 -0.009263054 -0.0073340232 0.028020069

backbone.3.bn.weight f4 [32]
00000000: 3491 8e3f 513b 953f 0ac1 733f 88a0 8a3f
00000010: 3cbb 6c3f 5839 723f 0c9d 613f 0ead 793f
00000020: 5fd4 643f 42ef 6d3f 5dc0 6b3f b4f1 853f
00000030: b295 9b3f 8f51 923f c4b8 7c3f f4fd 743f
00000040: be08 6b3f 368a 7a3f ccb8 943f 437c 7a3f
00000050: 85c6 943f 5563 733f 47d3 893f 8176 803f
00000060: 79cb 923f 3191 7a3f 9d20 623f f693 7e3f
00000070: da7c 793f 7a91 5f3f c224 803f 8925 943f
1.1138062 1.1658727 0.9521643 1.083024 0.92473197 0.9461875 0.8813026 0.97529685
0.8938655 0.92943203 0.920904 1.0464387 1.2155058 1.143114 0.9871943 0.957
0.91810215 0.97867143 1.1618896 0.9784586 1.1623083 0.95073444 1.0767602 1.0036165
1.1468345 0.97877795 0.88331014 0.9944452 0.97456133 0.87331355 1.0011218 1.1573955

backbone.3.bn.bias f4 [32]
00000000: 514c 33bb fdb5 6a3d 8449 67bd 6cd1 86be
00000010: 061e 7bbe b3f1 95bd d356 9ebe 6929 57be
00000020: 6c18 e3be 960c 37be d7e9 09be 5725 89b9
00000030: abbd 53bd f3e5 863c 296e 073d 0d1c 65be
00000040: 0775 18be da51 b9bd aa95 733c 2b8f b5be
00000050: 34e3 b4bd f107 32be ba25 bebe c982 073e
00000060: 7521 8dbe 5c2b c8bd ae6f 8abe efd9 70be
00000070: a568 3fbc 1d98 40be 11f1 223d e8dc 663d
-0.002735872 0.057302464 -0.056466594 -0.2633165 -0.24523172 -0.07321491 -0.30925617 -0.2101189
-0.4435457 -0.17875895 -0.13468109 -0.00026158497 -0.051694553 0.01646707 0.03306404 -0.22373982
-0.14888392 -0.09048815 0.014867226 -0.3546079 -0.08832398 -0.17385842 -0.37138158 0.13233484
-0.27564588 -0.09773895 -0.2703833 -0.23520635 -0.011682664 -0.18808027 0.03978068 0.056363016

backbone.3.bn.running_mean f4 [32]
00000000: 53cf a6be 9260 63bf 6e45 35bf 2519 4ebe
00000010: a4d7 d2be 8a18 f63e a4b2 373f 2236 d23e
00000020: 764c a03f 008f e0be 3a35 58be 336a 96bf
00000030: f176 42bf bf32 6fbf 6780 aabf c06f c63e
00000040: 4398 8c3e 9e93 3b3f d100 65bf 66fc dabe
00000050: df89 d5be aefd 813e f17e 863e 6ffc 35bf
00000060: 3fcc be3c 9d5e b6be fd1f 7d3d b1d9 b53e
00000070: bef8 f6be 8544 37bf 7520 b0bf 7e86 49bf
-0.3258005 -0.8881923 -0.70809066 -0.2012678 -0.41180146 0.48065597 0.7175696 0.41056925
1.2523334 -0.438591 -0.21114054 -1.175116 -0.7596274 -0.9343681 -1.3320435 0.38757133
0.27459916 0.7327212 -0.8945437 -0.4277069 -0.4170675 0.25388855 0.26268724 -0.7108831
0.023290752 -0.3561906 0.061798085 0.35517648 -0.4823665 -0.7158893 -1.3759905 -0.78720844

backbone.3.bn.running_var f4 [32]
00000000: 47e6 f43e 8680 373f fabd fe3e 0014 c53e
00000010: 64a8 cb3e adb0 fe3e 8005 113f d1c0 e63e
00000020: 97fc 193f 27b3 e03e 011a c73e 9a61 563f
00000030: 8655 283f fb38 f43e 3715 0b3f d1bd e93e
00000040: ee54 d53e 4382 253f 2be8 033f 5aec 6f3e
00000050: c47e f53e ed67 993e ca50 093f 5eba 7d3f
00000060: bd81 ed3e c35a ca3e c7d3 dd3e c5f0 063f
00000070: a99d 573e d822 553f 5534 113f bce4 123f
0.47831938 0.71680486 0.49754316 0.3849182 0.3977691 0.49744168 0.5664902 0.45068982
0.60151047 0.43886682 0.38887027 0.8374268 0.657555 0.47699723 0.54329246 0.4565263
0.4166636 0.6465189 0.51526135 0.23430005 0.47948277 0.29962102 0.536389 0.991125
0.46388045 0.3952237 0.43325636 0.52711135 0.21056236 0.8325629 0.5672048 0.5738027

backbone.4.conv3x3.weight f4 [32, 32, 3, 3]
00000000: a7ec a63d b456 48bd 8dd7 5b3b 5ea2 403d
00000010: 86bc ca3d df67 b03d d8fd d73b 5ec8 33bd
00000020: 086d 973c 06cd 12bd 2c2b 69bd 0fc9 d9ba
00000030: 2fa4 663d adef 323d 854d ebbc 2733 94bd
00000040: 9124 3a3d 451a fe3c bedb 333b c6b2 5e3d
00000050: 7c19 acbc 3c13 033d 5f45 2d3d 9209 223a
00000060: 3f03 29bd 6eeb 9b3d 162e f43c 0551 5abd
00000070: 9c43 353d 048a 3dbd a0c6 04be 5bc9 89bd
00000080: e3f1 30bd 0fa7 473d 362e 163d 3d98 253d
00000090: 9464 f23c 9f02 67bc a3a8 28bd bead d1bd
000000a0: a1f2 2cbd 515b 343d 65e7 e33b 2a8b 3b3d
000000b0: 817e 0f3d 652d 443c a792 4cb9 1215 4dbd
000000c0: b2a4 e33c 2b00 fbbc 5aaa 233c cfef 363d
000000d0: 769d 253d 0da4 433b cf6f 3dbb 67db bcbd
000000e0: 5c44 063d 9adc 2cbd d59b 63bd 3c90 ffbc
000000f0: e301 efbd 1da9 7abc a3be c73d 325e 913d
00000100: 1af8 2d3d a448 a93c ee98 c1bc b595 b1bd
00000110: ed09 aebc d61a 91bd c73b de3c fd5e acbb
00000120: e10b 55bd a4bd b7bc f2b7 e6bc 6e5d bbbd
00000130: cc7a 64bd 2576 1f3b 9ce3 44bd 7dba 8fbd
00000140: f35b faba 6947 ac3b a1a7 14bd a0f3 c3bc
00000150: cdee 81bd b833 c3bc 6aba 30bd d78d c4bc
00000160: 6b8b f83c 907a a2bc 9cfe 603c d0e4 5abd
00000170: b5a9 f8bc 5c70 52bd b5da 31bd 6ac3 3e3c
00000180: f8ea 9a3c dfbe 103d 4c7f 023c d048 d5bb
00000190: 2be8 cd3c db5b 62bd a89e 563d d283 bf3c
000001a0: 2d96 023c d8d3 64bd 6612 953d 749d 083d
000001b0: 21d6 6cbd 7ef3 2f3d dc86 a2bd 4293 97bc
000001c0: eef4 84bd de38 663c 8c87 26bd 2987 8b3c
000001d0: 441c 7b3c 3cb9 3ebd 1569 66bd 146f d6bc
000001e0: cb2b c33c f1c1 063d 5072 0abd 8743 2abd
000001f0: d242 1cbd 666d 453a 956c 783c 81a8 3bbc
00000200: 5b81 89bc 4b38 263d b91c 19bd 7a04 453d
00000210: 47bc 1ebd bb56 133c 43ec 8cbd a03e 7c3c
00000220: 1f84 5fbd 69c3 823b 8cb3 043d 1f45 e73c
00000230: abb4 463d b56d 76bd 2e7c 97bc 147a 2d3d
00000240: 7372 ba3c bc94 153d 5d85 11bb 33b3 803d
00000250: 00d5 71bd f886 f0bc 99d6 353d 1e30 943d
00000260: 0e1f 58bd d97f a5bd b3ec 5abd f038 3f3d
00000270: a029 44bd e5d9 42bd cc95 bfba 2277 bfbd
00000280: 8d08 0b3d 0ff4 613d 6db4 b7b9 13e9 243d
00000290: c1a5 5d3c 5964 213d be49 7e3c 4c52 26bc
000002a0: a5b5 573d 0dbc fabc 04b1 d3bb 64ed b73d
000002b0: e147 433d afb7 2d3c 05f1 763d 33e3 d03d
000002c0: ebb0 673d 0284 3abd 3151 603e 75f7 0f3e
000002d0: 50ad 6a3c a856 5d3c bef0 87bb 5b0a d2bd
000002e0: 7599 863b 61ae 43bd c667 983b 5ad4 0c3b
000002f0: 110a b43c d8ff 7e3d dae6 a3bb b8ea b33c
00000300: 7fe9 893d b942 2cbd 0b8f ac3c fc4c a13d
00000310: 7aed d93b 4886 a93d c308 353d 4324 9eb9
00000320: bf9e e6bc 800e 98bd 551b 383d a4b9 4bbd
00000330: 00f1 b6bd fb09 0dbd cd6b 80bc c97c d1bd
00000340: 0e77 f9bb 3b1e bf3b c68a 4bbc 9cdb 5cbd
00000350: 795b b33c 2956 cbbd a701 06bd e58a bf3c
00000360: 204c 14bd 2457 a8bd 15c7 873d ecbe e03d
00000370: 0551 9b3d dbaa 3f3d 6935 0b3e 70a9 0e3d
00000380: 8e27 e93d 472a c13c 6e6e c5ba 3b8e aa3c
00000390: d85d b2bd d420 e83d 88ff 2cbd 0ae3 d13d
000003a0: ada0 783d 4f19 623d 686b 8ebd 9f3b 58bd
000003b0: a452 02bd db54 4cbd 798c 5bbd e490 e2bb
000003c0: fd06 12bd aad5 8d3c 2fbc 5a3d 34da dd3a
000003d0: 18f1 b5bd 0dd0 a7bb f8e8 30bd 5222 64bd
000003e0: 94cf fabc 06c0 fbbd 3e41 653d c96b 843d
000003f0: 6950 abbd 9476 373d a138 4ebb 1f54 e0bc
0.081506066 -0.04891081 0.0033545226 0.047029845 0.09899239 0.08613562 0.00659154 -0.043892257
0.018484607 -0.035840057 -0.056925938 -0.0016615706 0.05630892 0.043685604 -0.028723488 -0.07236319
0.04544503 0.031018386 0.002744421 0.05436971 -0.021008246 0.032000765 0.042302486 0.00061812357
-0.04126286 0.07613264 0.029807132 -0.053299922 0.04425393 -0.0462742 -0.12966394 -0.06727859
-0.04319943 0.048743304 0.036665164 0.04042839 0.029588975 -0.014099746 -0.04117645 -0.10238217
-0.042223576 0.0440324 0.0069550746 0.045787014 0.035032753 0.0119737135 -0.00019509588 -0.050068922
0.027788494 -0.030639729 0.009989345 0.044662293 0.04043337 0.002985242 -0.0028905754 -0.09221535
0.032780036 -0.04220257 -0.055568535 -0.031196706 -0.11670282 -0.015299109 0.09753158 0.070980445
0.042472936 0.02066452 -0.023632493 -0.086711325 -0.021244967 -0.07085197 0.027128113 -0.005260347
-0.05201328 -0.022429295 -0.028163884 -0.0914868 -0.05578117 0.0024331894 -0.048068628 -0.07017992
-0.0019100889 0.005257536 -0.036292676 -0.02391988 -0.06344376 -0.023828372 -0.04314653 -0.023993416
0.030339917 -0.019833833 0.013732579 -0.05344087 -0.03035436 -0.051376686 -0.043421466 0.01164327
0.01891087 0.03533828 0.00796492 -0.006508924 0.02513512 -0.05526338 0.0523974 0.023378287
0.007970375 -0.055866092 0.072789 0.033353284 -0.057821397 0.04295682 -0.07935879 -0.018502835
-0.06492029 0.014051644 -0.04065661 0.017032223 0.015326563 -0.046563372 -0.056252558 -0.026176013
0.023824593 0.0328998 -0.033800423 -0.041568305 -0.038149662 0.0007531255 0.015162607 -0.011453749
-0.016785314 0.04058103 -0.037380908 0.048099972 -0.038753774 0.008992846 -0.06881001 0.01539579
-0.05456936 0.00399058 0.03239779 0.028231202 0.048512142 -0.06016322 -0.01849183 0.04235275
0.022759652 0.036518797 -0.0022204735 0.062841795 -0.059041023 -0.029361233 0.04439411 0.0723574
-0.05276399 -0.08081026 -0.05344839 0.04668516 -0.04789126 -0.04757108 -0.0014616787 -0.09348895
0.0339437 0.055164393 -0.00035038908 0.04026134 0.013528288 0.03940234 0.015520511 -0.010151457
0.052663464 -0.030607248 -0.006460311 0.089808255 0.04767597 0.010602876 0.060288448 0.10199585
0.056565206 -0.04553605 0.21905972 0.14059241 0.0143235475 0.01350943 -0.0041485718 -0.102558814
0.004107649 -0.047773723 0.0046510426 0.0021488876 0.021977456 0.06225571 -0.005001885 0.021962509
0.06733989 -0.04205582 0.021064302 0.07876012 0.006650624 0.08277565 0.04419781 -0.00030163125
-0.028151868 -0.07424641 0.04494794 -0.049737588 -0.08932686 -0.034433346 -0.015676403 -0.10228879
-0.0076130694 0.005832461 -0.012423223 -0.053920373 0.021894203 -0.09928543 -0.03271642 0.02338166
-0.03620541 -0.08219746 0.06629769 0.109739155 0.075838126 0.0467938 0.13594593 0.034829557
0.113844976 0.02357973 -0.0015062818 0.020819774 -0.087093055 0.113343865 -0.04223588 0.102483824
0.060700107 0.055199917 -0.0695408 -0.052791234 -0.031817093 -0.049885612 -0.053600762 -0.006914245
-0.035651196 0.017313797 0.053402122 0.0016925992 -0.088838756 -0.005121237 -0.043190926 -0.055696793
-0.03061656 -0.12292485 0.055970423 0.06465871 -0.083649464 0.04479082 -0.003146686 -0.027383862

backbone.4.conv3x3.bias f4 [32]
00000000: 21ca a2bc 443b 33bd 77f0 473d 62a7 19bd
00000010: f60c a7bc 5cc9 43bd 89a9 6c3d 4bdc 52bd
00000020: 9c00 3c3d cbbc c9bc adac 35b9 f2d6 3b3d
00000030: 81de 62bd 446d d9bb 0f91 153d ddb7 dabc
00000040: 7e3c f83b 39db fcbc 4d8f d3bb af10 043d
00000050: 0034 983c c3a2 8d3c b31e e13b 2908 7d3c
00000060: 0050 303d d26b 95bc 01d0 84bc c632 213d
00000070: e6d2 39bd e723 4dbd 979b 16bd d482 923c
-0.019871773 -0.043757692 0.04881331 -0.037513144 -0.020391922 -0.047799453 0.05777887 -0.05147962
0.04589902 -0.024626156 -0.00017325832 0.045859285 -0.055387978 -0.00663534 0.03651529 -0.026699001
0.0075755706 -0.030866252 -0.006456292 0.032242473 0.018579483 0.017289525 0.0068701147 0.01544384
0.043045044 -0.01823989 -0.016212465 0.039355062 -0.045367144 -0.050083067 -0.036769476 0.01788465

backbone.4.bn.weight f4 [32]
00000000: 028b 7e3f d356 8e3f 0f00 7d3f 78d0 7d3f
00000010: 4472 793f c156 843f e79b 723f 5d01 963f
00000020: 2e3f 693f 5eae 853f cf5a 8c3f ce2f 883f
00000030: 7958 6b3f 33a7 883f e2f5 663f 6d88 9d3f
00000040: 6c6f 6a3f 44d1 7c3f f24b 663f 6ccf 853f
00000050: 0b66 8f3f e778 713f 4249 7f3f 1dc5 843f
00000060: b6c6 883f 6f43 6f3f 37de 843f 04a8 743f
00000070: 2197 843f dcd5 993f 670e 863f 602c 5e3f
0.9943086 1.1120247 0.98828214 0.99146223 0.9743998 1.0338975 0.9476914 1.1719166
0.9111203 1.0443838 1.0965213 1.0639589 0.91931874 1.0676025 0.9021894 1.2307259
0.91576266 0.98756814 0.89959633 1.0453925 1.1203016 0.9432511 0.9972116 1.0372654
1.0685642 0.9346227 1.0380315 0.9556887 1.0358621 1.201839 1.0473145 0.8678646

backbone.4.bn.bias f4 [32]
00000000: f69d 7abe f76f aebc 1789 c73c ea7e 17be
00000010: 0aed 4cbe 3b45 953d 218b 82bd 558b ebbc
00000020: e1af e5bd c439 05be 1e0a 66be 240a 49be
00000030: 4b43 4cbe 9814 4b3d 10ba 7dbe 06b1 99bd
00000040: bf4a 2bbe c5a8 21be 33dc 16be d4bf 86be
00000050: 8d4d ccbc 02c4 a6be e095 0fbe 571a 17be
00000060: d1e0 2a3d be59 113d ef9b aa3d 3aac 48be
00000070: 13ac 153d 26eb 8abd acfa 223d 3533 47be
-0.2447432 -0.021293623 0.024357362 -0.14794508 -0.20012298 0.07288595 -0.06374193 -0.028752962
-0.11215187 -0.13010317 -0.22464797 -0.19632775 -0.19947545 0.049580187 -0.24778008 -0.07504468
-0.16727732 -0.15787037 -0.14732437 -0.26318228 -0.024939323 -0.32571417 -0.14022017 -0.14756142
0.041718308 0.035485975 0.08330523 -0.19596949 0.036541056 -0.06783132 0.03978984 -0.19453128

backbone.4.bn.running_mean f4 [32]
00000000: 53c7 39be c22b 4ebe 39b4 82be 0452 e2bd
00000010: 756e c9be 744e 42bf 29ca b9bd 52d0 69be
00000020: cd54 ce3e 0b4a 9abf 1d44 dcbe 124b 07bf
00000030: e3a6 a93f faf0 6abf 48cf a23d 58fc 0b3e
00000040: 55ab c73e c9b3 b13d 644e b23e 9998 3dbe
00000050: 7a54 9d3d f0ad e0be 93bd 62be 8893 5bbd
00000060: c2ef 9b3d 56f3 e9be 219b 42bf e3dc a53e
00000070: 177b 61bf fc6a fabd cdca cabe 52fb 563f
-0.18142442 -0.2013388 -0.25528124 -0.110507995 -0.39342085 -0.7590096 -0.09071762 -0.22833374
0.40299073 -1.2053846 -0.43020716 -0.52848923 1.3254055 -0.9177395 0.07949692 0.1367048
0.38997903 0.086768694 0.34825432 -0.18515243 0.07682128 -0.43882704 -0.2214263 -0.053607494
0.076140895 -0.45693463 -0.7601796 0.32395086 -0.88078445 -0.12227437 -0.3960785 0.83977234
