models/m8_last_epoch.pt (torch, 365739 bytes, 62 tensors)

backbone.0.conv3x3.weight f4 [32, 3, 3, 3]
000000 cf 0a af bc fd f2 d0 3d 2a 78 8e bd ed cf 30 3e
       -0.021367459 0.10202596 -0.06956513 0.17266817
000010 e5 3f 27 be 65 16 b7 bd 72 f5 0e be 56 71 0a 3e
       -0.16332968 -0.08939818 -0.13960817 0.13519797
000020 c9 d2 a9 3d d7 a1 00 be 14 00 61 3e df 9c 6d 3d
       0.08292157 -0.12561737 0.21972686 0.058010932
000030 05 f3 7b 3e b0 c4 6e 3d 7e f1 14 3e d7 e7 52 3d
       0.24604423 0.058293045 0.14545247 0.05149063
000040 a0 90 33 3e 47 ac a4 3d 20 85 34 be 18 5b 34 3d
       0.17535639 0.08040672 -0.17628908 0.044032186
000050 2d fd c4 bc 4f 48 12 3d a6 a7 a6 bb 17 ab 47 bc
       -0.024046505 0.03571349 -0.005085903 -0.012186787
000060 cb f0 22 be df 48 d2 bd 33 54 c0 bd 5a 42 55 bd
       -0.15912168 -0.10267805 -0.0939106 -0.05206523
000070 4a c0 6e 3c 70 9b fd bd e1 23 67 3e 29 0a fe bd
       0.0145722125 -0.12383163 0.2257228 -0.12404282
000080 be 22 08 3d f7 0d 8a 3b 0f 4d 06 be 44 41 e0 3d
       0.033236258 0.0042130905 -0.13115333 0.109499484
000090 31 c6 10 3d 34 5e fe 3d cd 9f 0d bd cb 20 22 bd
       0.03534526 0.124203116 -0.034576226 -0.039582055
0000a0 5f e2 85 3c 97 e9 20 bd 9f ce 94 3c 77 ca 39 3e
       0.016343294 -0.03928527 0.01816493 0.1814364
0000b0 c3 8f c1 3d 92 5f e3 bd d2 ef 8b 3d 66 f6 9f 3d
       0.094512485 -0.11102213 0.068328515 0.07810669
0000c0 bf 3e 87 3d 5c 82 bd bd 8d 4f 91 be 16 e0 a3 bd
       0.06603765 -0.0925338 -0.28381005 -0.080017254
0000d0 fc 8b ba be 2c 44 96 3d b5 b3 4c 3b 62 c5 e1 3a
       -0.36434925 0.073372215 0.0031235043 0.0017224962
0000e0 c8 32 19 3d e2 09 9d bb 4b 23 93 3e a6 a8 37 bd
       0.037401944 -0.004792438 0.28737864 -0.04483857
0000f0 e3 d6 7f ba d2 b0 96 be 62 58 94 3b 75 2e 55 bd
       -0.00097594986 -0.29431778 0.0045271376 -0.052046258
000100 ee ce 44 bb 50 65 d4 bb 9b 9c 45 3e 43 eb 66 be
       -0.0030030566 -0.006481804 0.19298021 -0.22550683
000110 05 bd 23 bd a7 76 c5 bd 0a 0d 69 3e 00 3b f4 bb
       -0.039975185 -0.09641772 0.2275888 -0.0074533224
000120 f4 47 6d 3d ca 73 ef bc 22 a4 6b bc 09 b8 06 be
       0.057929948 -0.029230017 -0.014382394 -0.13156141
000130 d8 24 12 be 17 6e d6 3d c3 4a a4 bb 5c 68 66 3e
       -0.14271867 0.10470217 -0.005013795 0.22500747
000140 39 b3 3a bd 8f 30 0a 3c cb e2 57 3d c1 39 28 bc
       -0.045581076 0.008434429 0.05270652 -0.010267676
000150 a8 3e 0c 3e 40 ba 67 3c 22 df bc 3d 29 1d 37 be
       0.13695776 0.014143527 0.09222247 -0.17882217
000160 ab 7f 93 bd ab 62 44 bd 1c fc 14 3d 09 0b 0f bc
       -0.07202085 -0.04794566 0.036373243 -0.008730658
000170 70 52 66 3d 61 5a 1a 3d fe 09 bd bd c6 51 62 3d
       0.056230962 0.03768385 -0.092304215 0.055253766
000180 1f 38 09 3d ed 06 93 bd d2 25 59 3d 0b 22 1f bd
       0.033500787 -0.07179055 0.053014584 -0.038850825
000190 d3 23 0c 3c 8c 45 d6 3d a2 70 ad 3c 22 6f 01 bf
       0.008553463 0.10462484 0.021171872 -0.505602
0001a0 70 e4 90 bb 0c 01 d0 be 0e e3 ae bd 3d 5f e6 bc
       -0.004421763 -0.406258 -0.08539401 -0.028121585
0001b0 a3 bf 1d bd c8 9d bf 3c cf e2 00 3e f4 0f 52 3c
       -0.038512837 0.023390666 0.1258652 0.012821186
0001c0 c9 da 8c 38 07 1b 50 bb a0 c9 f0 be 3f 09 16 3d
       6.716472e-05 -0.003175439 -0.47028828 0.03662991
0001d0 5c c2 51 3c 0b 94 85 bd ae a7 81 3d 1c 46 73 bc
       0.012802687 -0.065223776 0.063308105 -0.014848258
0001e0 12 8b e3 3c 4f 16 e5 bd cd 3f a2 3a fb 82 9b bd
       0.027776275 -0.11185896 0.0012378633 -0.07593342
0001f0 5c 35 dc 3a ec 02 8c bc a9 ff bd 3c 8d 8d 54 bd
       0.001680057 -0.017091237 0.023193197 -0.051892806
000200 53 32 64 3d 04 b9 cc bc 96 73 3c 3e 2d e1 83 3d
       0.055712055 -0.024990566 0.18403468 0.06439433
000210 cd be 0a bf 40 c7 de 3d a5 fb 2d 3d 38 00 80 bc
       -0.5419739 0.10877848 0.042476315 -0.015625104
000220 73 c7 27 be bc b4 1f be 63 2c c3 3c 45 cb 55 3d
       -0.16384678 -0.15596288 0.023824876 0.052195806
000230 71 9b 10 3c ab f7 99 bd 9d f3 57 3e 41 e0 8a 3a
       0.008826123 -0.07517942 0.21089025 0.0010595397
000240 07 3d ef 3c ae 2c 94 3d fc 4d 20 3e 08 66 89 3d
       0.029203905 0.072350845 0.15654749 0.06708914
000250 dd 3f 1b 3e a7 0d 32 be 35 b5 15 3d e6 14 b9 be
       0.1516108 -0.1738802 0.036549766 -0.36148757
000260 0a 60 68 3c b5 cb 3a bd ed 27 9f 3d 61 76 1a be
       0.014183054 -0.045604426 0.07771287 -0.1508422
000270 6e d6 83 3c af 61 1a 3d 0d af c6 3d 95 49 a9 bd
       0.016093459 0.037690815 0.09701357 -0.08265988
000280 10 01 87 3e d4 5c 02 3d 21 f9 15 3c df f8 53 be
       0.26367998 0.03182681 0.009153635 -0.20700406
000290 d0 8e eb 3b b0 ed ad 3c f8 f1 99 ba 83 50 a3 3e
       0.0071886554 0.021231502 -0.0011745086 0.31897363
0002a0 f4 29 0b 3d bb 8a a2 bd 2b 88 aa bb cf 00 ed 3a
       0.033975556 -0.07936617 -0.005204221 0.0018081906
0002b0 bc 61 cd 3d e1 20 c9 bb 77 93 5d bd 90 d9 22 3c
       0.10028407 -0.0061379527 -0.05409571 0.009939566
0002c0 07 c8 9f be 51 5c 72 3c 96 1a ac 3d f6 85 ff bd
       -0.31207296 0.014792518 0.08403508 -0.12476723
0002d0 d0 c4 2a 3c 62 15 86 3d 1e 86 09 3c 39 a1 2a bc
       0.0104229 0.06547047 0.008393792 -0.010414415
0002e0 89 bf 40 3d 7a 26 c6 3d 50 69 8d bc 47 fe 9c 3b
       0.047057662 0.096753076 -0.017262131 0.0047910544
0002f0 92 81 9d 3c a2 db a5 3c 36 c7 9d bd 0e db 86 3d
       0.019226823 0.02024633 -0.07704012 0.0658475
000300 6e 11 e6 3d 0e 4f 4a 3e 65 9b 50 bc 9b c7 70 bd
       0.11233793 0.1975672 -0.012732361 -0.05878411
000310 c2 4a fc 3b 46 20 f2 3c 5d 58 88 3c 54 d2 05 3e
       0.0076993415 0.029556405 0.016643697 0.13068515
000320 15 4d a1 bd 65 55 08 be a8 1b 51 3e 5e 29 12 3d
       -0.0787603 -0.13313825 0.20420706 0.035683982
000330 8b 6c f2 bc 2a 59 52 be 81 23 66 be 54 59 96 bd
       -0.029592773 -0.20541826 -0.22474481 -0.07341257
000340 e2 ab 4f bd 52 2b 46 3d d2 86 72 3d 7e 8c 23 3d
       -0.05070103 0.048381157 0.059210606 0.039928906
000350 6d ad 27 be 6b 67 0b bc 8e 87 a2 3c 3f 81 76 3e
       -0.1637475 -0.0085085435 0.019840028 0.24072741
000360 ca d4 7e 3c 16 88 8c 3d bc 87 bf 3d 2b b0 24 3c
       0.015553663 0.06861894 0.09352061 0.010051767
000370 33 ad c6 be 65 07 0c 3e df 64 38 3d e9 ba c2 3b
       -0.38804016 0.13674696 0.045018073 0.0059426916
000380 47 5f 83 bd d8 71 72 3b e6 85 bc bc a2 f4 40 3d
       -0.06414657 0.0036994126 -0.023013067 0.0471083
000390 a4 a9 1e bd d6 da dd be ce 64 6e bd b0 7c 7a 3d
       -0.038736 -0.4333102 -0.058201604 0.061154068
0003a0 a2 e2 94 3d 8a 0b 0f 3e 3e 6f c3 3c 0f 57 47 3d
       0.07269789 0.13969246 0.023856755 0.04866701
0003b0 49 ac bb 3b 1f 91 3c 3c a6 d8 ab be 45 d0 ed bd
       0.005727325 0.011509209 -0.33563727 -0.1161199
0003c0 16 38 e4 3d 5b e8 83 bc da 42 8d bc 35 ff 3a bd
       0.1114351 -0.016102007 -0.017243791 -0.04565354
0003d0 8e 5d fe bc 23 e0 d0 3b 78 ae df bd aa 06 42 3e
       -0.03105047 0.0063743754 -0.10921949 0.18947855
0003e0 d9 a7 14 be 89 26 cc 3a d0 3a c9 bb 44 c1 dc bd
       -0.14517154 0.0015575449 -0.006141044 -0.1077905
0003f0 92 57 18 bc 71 85 ad be 16 68 b7 bc 6c 86 70 be
       -0.009298222 -0.3389087 -0.0223885 -0.23488778

backbone.0.conv3x3.bias f4 [32]
000000 ee 09 bc bd ac 75 1b 3e 73 ec 1d 3e 74 08 6e 3d
       -0.091815814 0.15181607 0.1542223 0.05811353
000010 99 9c 13 3c 39 bf 2b be f5 aa b8 bc 51 d2 50 3e
       0.009009504 -0.16772164 -0.022542456 0.2039273
000020 0a b0 3f 3d 42 88 79 3c f9 a9 20 bd 6c 6d 79 bd
       0.046798743 0.01523024 -0.0392246 -0.06089537
000030 0f 2e f2 3d c9 3b a9 3b 79 46 01 3e 38 e5 00 bd
       0.11825191 0.0051645976 0.1262454 -0.0314686
000040 90 89 b1 3d c3 d6 a0 3d 10 de bf 3c 71 2a ef 3d
       0.08668816 0.078534625 0.023421317 0.11678017
000050 d2 ea f7 3d 25 b4 35 3e 8f 1f 17 3e ea ef 4a bd
       0.12105335 0.17744501 0.14758132 -0.049545206
000060 f0 46 27 be 51 c6 f5 3c 08 d1 f3 ba f8 7f 34 bd
       -0.16335654 0.030001791 -0.0018601725 -0.044067353
000070 c8 22 09 bd 8b c6 1d 3c 2b a1 15 3e 81 9d 75 3d
       -0.033480436 0.009629856 0.14612262 0.05996466

backbone.0.bn.weight f4 [32]
000000 f3 c5 84 3f e6 50 5a 3f 27 63 62 3f b8 47 94 3f
       1.0372909 0.8527969 0.88432544 1.1584387
000010 9f 5e 9a 3f 86 15 37 3f 35 8d 45 3f 15 ed 37 3f
       1.2060126 0.7151722 0.7716859 0.71846133
000020 af 55 99 3f 54 f5 83 3f 61 67 85 3f 59 24 16 3f
       1.1979274 1.0309243 1.0422174 0.5864921
000030 58 8b ab 3f 9e 5f 53 3f 53 20 7f 3f fa 40 98 3f
       1.3401899 0.82567775 0.996587 1.1894829
000040 95 35 2c 3f 59 44 84 3f 7e 06 5d 3f c0 67 46 3f
       0.6726926 1.0333358 0.8633803 0.7750206
000050 41 e0 82 3f b4 49 63 3f ba 7d 7f 3f 9d f5 9a 3f
       1.0224687 0.8878434 0.9980122 1.2106205
000060 e3 42 77 3f fd 6a 80 3f 0b 25 0a 3f 27 bb 1a 3f
       0.96586436 1.003265 0.53962773 0.6044182
000070 c5 69 86 3f be f2 49 3f 67 d1 a0 3f 80 3a 49 3f
       1.0501028 0.7888602 1.2563905 0.7860489

backbone.0.bn.bias f4 [32]
000000 3d 4a 24 3d 27 c3 f3 bd 4e 2b 11 3f 2c 27 56 bd
       0.04010986 -0.11902457 0.567067 -0.05228345
000010 23 57 84 be da 83 8b 3f f3 32 86 3f 0d f4 21 3f
       -0.2584773 1.0899613 1.0484298 0.63263017
000020 ff ee 18 3e 96 43 6f bd de 65 a6 bd 71 21 ea 3e
       0.1493492 -0.058414064 -0.081248984 0.4572864
000030 dd d7 44 be 47 65 2c 3f f0 42 0d be 5c 3c a4 bd
       -0.1922297 0.67342037 -0.13795066 -0.08019325
000040 36 3b e1 3e 88 1a 39 be ad cb 07 3f 6f 4b 42 3f
       0.43990487 -0.18076527 0.5304516 0.7589635
000050 90 fa 21 be 7d 16 8f 3f fe 87 c6 bd d7 8e d3 bd
       -0.15818238 1.1178738 -0.09693907 -0.10329979
000060 1d 1b 5b be 21 b6 19 bc 3d d1 58 3f 1f 1e d6 3e
       -0.21397062 -0.009381802 0.8469427 0.41819856
000070 46 cc 90 bd bf 34 e1 3d bf 1d ff bd 96 7f 29 3f
       -0.07070212 0.10996389 -0.124568455 0.66210306

backbone.0.bn.running_mean f4 [32]
000000 7b 85 75 3d 5c 98 94 3d 6b 61 1f 3e 64 7c 2c be
       0.05994175 0.07255623 0.15564506 -0.16844326
000010 2b 5e 30 be 40 e4 0b be 96 14 95 bc 3a 8e 62 3e
       -0.17223422 -0.13661289 -0.018198293 0.22124568
000020 f4 0c 00 be 26 90 3c be 2d 81 6c be e3 7c 54 bd
       -0.12504941 -0.18414363 -0.23096152 -0.051876914
000030 00 56 59 bd cd 0e e5 3c e0 83 23 3d 19 ea 8c be
       -0.05306053 0.02796116 0.039920688 -0.27522352
000040 5f 94 b8 3d 6e e6 47 bb ae c9 66 3d c2 cb fa 3d
       0.090126745 -0.0030502337 0.05634468 0.12245895
000050 43 39 48 3e 2c 09 49 3e 84 ba 13 3d 53 cc a7 be
       0.19553094 0.19632405 0.036066547 -0.32773075
000060 71 4b ae bd 70 d0 1c 3e 41 c2 47 3c ee 39 1f bc
       -0.08510483 0.15313888 0.01219231 -0.009718401
000070 0e 18 6f be b3 54 2d bd e4 82 c2 3d 5c cd aa 3d
       -0.2334902 -0.042317104 0.09497622 0.083399504

backbone.0.bn.running_var f4 [32]
000000 df e8 d2 3b fc 26 79 3b 52 41 24 3a e5 15 af 3c
       0.006436452 0.0038017621 0.0006265837 0.021372745
000010 cf 8e 76 3c e9 3e 9c 3a 34 b5 0e 3a c0 60 80 3a
       0.015048697 0.0011920604 0.00054438715 0.0009794459
000020 85 a8 3f 3c 14 53 57 3c a2 c0 56 3c 33 13 9d 3a
       0.011697893 0.013142366 0.013107451 0.0011983871
000030 d8 3b 4d 3c 72 69 a6 3a 69 20 47 3b 26 bb b1 3c
       0.012526475 0.001269622 0.0030384308 0.021695685
000040 28 7b b7 3a 0d 1e a0 3b 08 a8 84 3a d3 66 27 3a
       0.0013998495 0.004886395 0.0010120878 0.00063858664
000050 df d4 64 3b 7c a2 70 3a d7 2a de 3b 7d 4d e5 3c
       0.003491692 0.00091794855 0.0067800093 0.02799105
000060 83 77 8f 3b af 61 b0 3b 41 6e 5c 3a 84 5e 79 3a
       0.0043782606 0.0053827385 0.0008408763 0.000951268
000070 85 bd 86 3c 7d 96 9a 3a 73 94 0f 3b 97 d8 c0 3a
       0.016447792 0.0011794117 0.002190855 0.0014712986

backbone.1.conv3x3.weight f4 [32, 32, 3, 3]
000000 bd 65 99 bb be 58 20 bd ce 91 06 bd 35 12 89 3c
       -0.0046813176 -0.03914713 -0.032853894 0.016732315
000010 5c f5 16 3e a0 87 b2 bc b9 f4 7f 3d 80 fd 54 bd
       0.14742035 -0.021793187 0.062489245 -0.05199957
000020 06 5d fd 3c 21 22 4d bd e6 e6 2d bb 1d 0d 96 bc
       0.030928146 -0.050081376 -0.0026535331 -0.0183168
000030 5c 6e 2c bd 95 7d b9 bd 25 9a 92 3c ce 90 e8 bc
       -0.042097434 -0.09057156 0.017895767 -0.02838936
000040 72 75 80 3d cb 25 9e bb a3 7a 90 3c f8 73 95 3c
       0.06272401 -0.0048262826 0.017636603 0.018243775
000050 a2 27 7f 3d b4 66 8d 3b 97 e1 61 bf 72 5a 04 3d
       0.062293656 0.0043152217 -0.8823485 0.032312818
000060 60 46 1b 3d bc 3d 13 3d b7 92 81 3c 61 31 4d 3d
       0.03790891 0.035947546 0.01581703 0.05009592
000070 b2 2d f4 3d bb cc 35 3d 75 ff 4f 3c be 2d 61 3d
       0.11922778 0.0443847 0.012695183 0.054975264
000080 7c 23 7b 3d 8c ee 32 bc 37 b4 c0 bc 76 32 d8 bd
       0.061313137 -0.010921132 -0.023523433 -0.105565
000090 ba 87 2b bc 21 92 78 bb 0e b3 05 bd b4 ca 9a bd
       -0.010469371 -0.0037928896 -0.032641463 -0.07558194
0000a0 8d d3 89 bc 6d 5d c2 3b 1f 8d 7b 3d 1f 9a 7f 3c
       -0.016824508 0.0059315474 0.06141388 0.01560071
0000b0 2f 63 7f bd 7e 1c 0a 3d c7 25 a2 3c a1 b3 19 3c
       -0.06235045 0.03371858 0.019793404 0.009381206
0000c0 50 81 9e 3b 39 95 9e 3d 46 f0 00 bd 9a d1 48 bc
       0.0048371926 0.07743306 -0.031479143 -0.012257004
0000d0 0f 9f 12 bd 0b fe 24 3c 25 6a 5d bb 11 0a 50 bc
       -0.03579622 0.010070334 -0.003378519 -0.0126977125
0000e0 23 b9 1b 3d 38 66 01 be 49 f3 1f bd 5a cb 0d 3c
       0.038018357 -0.1263665 -0.039050374 0.00865444
0000f0 19 b5 2d 3d 4a 08 bb bd c5 ff 49 3d 3f cb f2 bc
       0.042409036 -0.091324404 0.049316186 -0.02963793
000100 d3 17 3a bc f1 23 ce 3c 55 8b 8a bd b1 aa 64 bc
       -0.011358219 0.025163623 -0.06764857 -0.013956712
000110 d2 e8 4e bd 7a 34 51 3d 88 2a 6c 3d a7 80 09 3d
       -0.050515004 0.051075436 0.05765775 0.033569958
000120 34 67 6d bd 1b 0d 61 3d bf a9 17 bd 41 02 20 3d
       -0.05795975 0.05494414 -0.037027117 0.03906465
000130 4e 24 cb bc d0 cc b6 bd fb 08 95 3a c0 85 a2 3c
       -0.024797585 -0.08925784 0.0011370474 0.019839168
000140 80 7b 09 ba ce de 19 3d 28 41 1c bd 3f 06 7b 3d
       -0.0005244538 0.037566 -0.038148075 0.061285254
000150 28 1d f2 3c e4 4f 2b 3d ae 77 e3 3a 0a 76 aa 3d
       0.029554918 0.041824237 0.0017354393 0.083232954
000160 9e 5d f1 bd 0e 35 61 3d 63 f5 38 bc 5d d0 99 3a
       -0.11785434 0.054982238 -0.0112889735 0.0011735071
000170 25 82 e4 3b 50 93 64 bd 28 86 82 3d 52 e9 b7 bc
       0.0069735222 -0.05580455 0.063732445 -0.022450123
000180 3a f3 f9 bc 32 f0 ab bd 79 ec b3 bc 54 27 7b 3c
       -0.030511487 -0.08395423 -0.021963345 0.015329201
000190 ba 4f 94 3c 97 12 27 bc 31 c5 5d bd c8 4d ba bc
       0.018104423 -0.010197303 -0.054143135 -0.022742167
0001a0 27 07 80 3c 8a 38 ad bb 07 75 59 bb 79 8d 52 3d
       0.01562841 -0.005286281 -0.0033181326 0.05140445
0001b0 a2 10 c2 3c 23 95 5a bc f8 36 e3 bc 97 ee 57 3d
       0.023689572 -0.013341221 -0.027736172 0.05271777
0001c0 a5 6c 12 3d cc 73 92 bd 19 ce 72 ba d5 51 08 bd
       0.035748143 -0.07150993 -0.00092622783 -0.033281166
0001d0 27 95 66 bb ee be c9 3b 4f 7c 0a 3c 30 70 40 3b
       -0.0035184117 0.006156794 0.008452489 0.0029363744
0001e0 55 f5 f7 3c e7 5a 69 bd eb b6 17 ba 00 0f 08 3d
       0.03026835 -0.056971457 -0.000578745 0.03321743
0001f0 17 c0 f1 bc 56 a8 40 bd 5c 64 a9 bd 3b 2e 98 bd
       -0.02951054 -0.047035538 -0.08271095 -0.07430693
000200 58 fc 2a 3c b3 9f a2 bc 46 61 08 be 6f 11 9e bd
       0.01043614 -0.019851541 -0.13318357 -0.07718169
000210 77 4c 0f 3d 13 18 38 3c 0f 64 72 3d f6 27 77 bd
       0.034985032 0.0112362085 0.059177455 -0.060340844
000220 66 cb 6c bc b3 6a 05 bd 86 63 32 3d 44 7e 92 3c
       -0.014452791 -0.03257246 0.043551944 0.017882474
000230 39 d5 03 3d 7c 6d 2d 3d 48 a3 ab 3d 52 15 b1 3d
       0.032185767 0.04234074 0.08380753 0.08646645
000240 93 ed dd bb 62 77 36 3d 3f ee d6 3c 62 ee aa bc
       -0.006772706 0.044547446 0.026236651 -0.020865623
000250 6e 8e 4a bd ff 0e a6 bb a8 61 c2 bc d9 12 07 bd
       -0.049452238 -0.0050677056 -0.023728207 -0.03297696
000260 b5 dc 21 bd 30 41 04 bc 04 92 ef bc cf 01 d9 bc
       -0.039517123 -0.008072183 -0.02924443 -0.02649012
000270 11 60 86 bd 5f 1e 02 be 68 b6 be bc 7b 86 ce bc
       -0.06561292 -0.12706898 -0.023280337 -0.02521061
000280 e3 96 e5 3c df a6 96 bc 0e c4 e0 bb 8a 0e 34 bd
       0.02802605 -0.018390117 -0.006859309 -0.043959178
000290 59 75 56 bb b7 ec b8 bd 2d 14 b1 3d e4 3b 8d 3d
       -0.0032723753 -0.09029525 0.08646426 0.06896189
0002a0 41 27 ca bc 65 12 5f 3d d0 04 52 bd b4 74 9c 3c
       -0.02467692 0.0544609 -0.05127412 0.019098617
0002b0 c9 e4 24 bc 2f 66 af 3c da f6 12 3d ec 51 cc 3d
       -0.010064312 0.02141103 0.035879947 0.09976563
0002c0 83 3d 86 3c 46 6a 86 3c 8a 28 f9 be 60 cb 4f 3c
       0.016386753 0.016408097 -0.4866374 0.012682766
0002d0 39 94 e6 bc fb 41 c9 3c 23 15 1f bd 4b b9 a4 3c
       -0.02814685 0.024567595 -0.038838517 0.020107886
0002e0 ea de 3a 3d ef 3d 38 3d 1a eb b7 3c 28 9e 72 3d
       0.045622744 0.04498094 0.022450972 0.05923286
0002f0 79 9b 19 3d 9d 27 3f 3d c2 18 04 be 39 3e 11 bc
       0.037501786 0.046668638 -0.1290007 -0.008864933
000300 80 29 17 bd c0 c5 99 3d bc b4 9a bd 0a 1f 57 3d
       -0.03690481 0.07508421 -0.075540036 0.052519836
000310 f0 72 76 3b 02 24 8c 3c a9 fc 24 3d 9a 0f af bd
       0.003760513 0.017107014 0.040280018 -0.08547898
000320 c4 c9 42 bc c2 96 97 3d 5a d4 15 ba 53 94 80 3d
       -0.011888925 0.07401802 -0.0005715542 0.062782906
000330 50 a2 48 bd be 98 35 3d 00 ff 35 bd 0d 26 61 3d
       -0.04898292 0.04433512 -0.04443264 0.05496793
000340 a5 d6 dc 39 d5 e2 9c 3c 12 e8 bc 3c 90 4b 04 3d
       0.00042121593 0.01915113 0.023059878 0.032298625
000350 12 da c1 3c 8f 6a 52 3d 30 a3 bd 3c 14 7e 2e bd
       0.023663554 0.051371153 0.023149103 -0.042600706
000360 2c ba cd 3c f7 24 32 3d 04 91 0b 3c 54 e1 f8 3b
       0.025113188 0.043492284 0.008518461 0.0075952206
000370 f3 e3 fd bc 0d e1 0b 3d b9 f5 97 ba 44 5d 3c 3d
       -0.030992484 0.034150172 -0.0011593617 0.045987383
000380 af 32 8f bc 23 d7 dc bc 63 e7 26 3c 82 b7 3e bc
       -0.017480223 -0.026958054 0.010187003 -0.011640431
000390 e1 11 e0 3a a8 b3 a3 bd 12 48 40 3c 21 e5 53 3d
       0.0017095172 -0.07993251 0.011735933 0.051732186
0003a0 46 fe f0 bc e9 ad e1 bc f2 22 c1 bc 2b fe 1a 3c
       -0.029418122 -0.027548747 -0.023576234 0.009460012
0003b0 10 0b d1 bb f1 b3 b4 3a 7c 30 f5 3d 18 aa 61 bd
       -0.0063794926 0.0013786537 0.11972138 -0.055093855
0003c0 a1 16 22 3b a3 fa d9 3c 32 66 4e bd 90 ef 41 3c
       0.0024732726 0.02660877 -0.05039043 0.011836901
0003d0 21 72 49 3b a8 29 da 3c 20 ab b0 bd 2f f3 40 be
       0.0030738192 0.026631191 -0.086263895 -0.18842767
0003e0 6c 76 81 3c f9 4b 9c 3c cc 0e 33 bd 75 c8 0d 3b
       0.015803538 0.019079195 -0.043715283 0.0021634374
0003f0 56 1d 93 3d f3 f8 8d 3d e1 d4 7f 3b 80 7e bd 3c
       0.0718333 0.06932249 0.0039036798 0.023131609

backbone.1.conv3x3.bias f4 [32]
000000 b9 e0 55 bd f5 f6 6a 3d 7e 67 28 3d 7c 28 3d bd
       -0.052216265 0.057364423 0.041114323 -0.046181187
000010 59 74 3c 3d 52 ea 62 bd a1 02 20 3d 43 76 2e 3d
       0.046009395 -0.055399247 0.039065007 0.042593252
000020 82 87 16 3d a1 dc d1 3c f6 23 14 bd 1f 59 d2 bc
       0.036750324 0.0256179 -0.036167108 -0.025677262
000030 e1 f4 57 3c ae 03 be 3c d6 5e 52 3d f9 7f 4c 3b
       0.013180942 0.023195114 0.051359974 0.0031204207
000040 1d b4 c3 3c 90 c4 37 bd 2a 7a 51 bc 27 84 10 3d
       0.023889596 -0.04486519 -0.012785474 0.03528228
000050 3e 8e 90 3b 85 7b 3d 3d ac 74 41 bd 1a a3 1f bd
       0.004411488 0.046260376 -0.047230408 -0.038973905
000060 fe 82 94 3c 1e a6 2c bb 59 bf 4e bd eb 16 cc 3c
       0.018128868 -0.002634413 -0.050475452 0.024913272
000070 52 fe 13 3b 4c fc 70 3c bf 2e 4c 3c 4d 90 27 bd
       0.0022582007 0.01470859 0.012462317 -0.0409091

backbone.1.bn.weight f4 [32]
000000 1d 30 97 3f b8 c9 6d 3f 53 84 6a 3f 0f 77 89 3f
       1.1811558 0.92885923 0.9160816 1.0739459
000010 02 51 85 3f 23 2a 5e 3f f9 10 51 3f bc 2d 8c 3f
       1.0415347 0.86783046 0.81666523 1.0951457
000020 de df 4c 3f 3c c8 92 3f 0f 77 53 3f aa fe 79 3f
       0.80029094 1.1467357 0.82603544 0.9765421
000030 45 4f 97 3f 59 6e 68 3f b9 8b 7f 3f f0 43 56 3f
       1.1821066 0.9079338 0.99822575 0.83697414
000040 95 36 aa 3f 4f 5c 7b 3f 5e 62 8f 3f 1b 94 55 3f
       1.3297907 0.98187727 1.1201894 0.83429116
000050 f8 db 5e 3f 32 dd 87 3f 96 55 7b 3f 76 e1 83 3f
       0.87054396 1.0614378 0.9817747 1.030318
000060 a4 17 93 3f b7 77 5b 3f 70 0b 6c 3f 27 e3 46 3f
       1.149159 0.85729545 0.9220495 0.77690357
000070 fa 47 5e 3f 9a a7 98 3f 58 df 55 3f 62 82 6f 3f
       0.8682858 1.1926148 0.8354392 0.93558323

backbone.1.bn.bias f4 [32]
000000 e8 1b 83 3e 8d 1e da bd 19 49 1e be c3 df 16 3e
       0.25607228 -0.10650358 -0.15457572 0.14733796
000010 29 f9 9d 3d e5 4f 75 be 7b 4b c5 be 9d 56 e0 bc
       0.07713539 -0.23956259 -0.3853415 -0.02738505
000020 22 d5 93 bd 0b 5e ec bd f3 fd 92 be 38 58 c6 bc
       -0.07218386 -0.11541375 -0.28709373 -0.024211988
000030 a0 9b 83 bd 82 7a d8 3b 6d 7d 35 be 9e 4b 51 be
       -0.064261675 0.006606401 -0.17723627 -0.20439002
000040 74 21 6d be 49 3c da bd ed a1 32 be 07 66 6a be
       -0.23157293 -0.1065603 -0.17444582 -0.22890483
000050 ed 33 ac be c4 4a 25 3d 28 54 ce bd 6e 7a 6b bd
       -0.33633366 0.040354505 -0.10074645 -0.057489805
000060 70 00 23 3e e1 d1 4e be 2e 18 80 be 27 e1 ac bd
       0.15918136 -0.2019725 -0.25018448 -0.08441382
000070 57 fa c2 bd 88 4f 3f be 7c 9d a4 be 48 16 13 be
       -0.09520405 -0.18682683 -0.321514 -0.14363968

backbone.1.bn.running_mean f4 [32]
000000 d2 6a 8a bf 82 f3 31 bf 18 69 3e bf 24 b8 98 c0
       -1.0813849 -0.6951219 -0.7437911 -4.772478
000010 e5 c0 45 c0 b9 bd e8 3e 7e 91 5f 40 cd 6a 22 3d
       -3.0898983 0.45457247 3.4932551 0.039652634
000020 de 03 1b bf e7 09 72 3e a4 f0 a6 3f 4c bd ea bf
       -0.60552776 0.2363659 1.3042188 -1.8339019
000030 53 c9 6b bf 82 c7 45 bf c7 e7 54 bf 43 ad ab 3e
       -0.9210407 -0.7725755 -0.83166164 0.33530626
000040 cd 87 f3 3d b6 cd ed 3e 23 1f e4 3d 07 ff b3 3e
       0.11891136 0.46446007 0.11138751 0.35155508
000050 83 1f f1 3f d2 52 ed bf a3 17 8b bf 29 6e 1c bf
       1.8837742 -1.85409 -1.0866588 -0.6110559
000060 f4 af db bf 30 5c 8c 3f 6b 5a af 3d 7e 33 15 bf
       -1.7163072 1.0965633 0.08562168 -0.58281696
000070 94 95 c9 be 19 d7 9b be 89 0d 56 40 73 db 40 bf
       -0.39371932 -0.30437544 3.3445761 -0.7533485

backbone.1.bn.running_var f4 [32]
000000 2c 0e 33 3f 90 d4 c0 3f 2a 28 9f 3f 27 76 6a 40
       0.699435 1.5064869 1.2434132 3.6634614
000010 7d 1b 81 40 b9 73 a6 3f cc e5 5a 40 f3 f7 0e 3f
       4.0346055 1.3004066 3.4202757 0.5584709
000020 91 19 5e 3f 5c 35 33 3f f8 1e b5 3f d4 6a 21 3f
       0.8675776 0.70003295 1.4150076 0.6305363
000030 23 22 29 3f e3 88 53 3f d7 63 f1 3f df 7f cf 3f
       0.66067713 0.8263075 1.8858594 1.6210898
000040 c1 36 2c 3f 97 39 ad 3f 45 5f 2f 3f ce 79 c9 3f
       0.6727105 1.35332 0.68504745 1.5740297
000050 5c d1 eb 3f d5 94 6e 40 0d f9 35 3f c4 b5 27 40
       1.8423266 3.727834 0.71083146 2.620469
000060 b3 88 1b 40 cc 5a 8f 3f c1 96 93 3e 85 c8 16 3f
       2.4302185 1.1199584 0.28825954 0.5889972
000070 85 87 0a 40 4a e8 00 3f b9 d3 79 40 9d ab 52 3f
       2.1645215 0.50354445 3.9035475 0.8229311

backbone.2.conv3x3.weight f4 [32, 32, 3, 3]
000000 07 a3 1e bd d8 30 a5 3b dd 99 e6 3d ae ba 44 bd
       -0.038729694 0.005041223 0.11259816 -0.048029594
000010 46 ab 13 bc 20 0e 63 37 12 d3 bc 3b f8 1a 44 3d
       -0.009013003 1.3533543e-05 0.005762466 0.047877282
000020 c0 74 0b bd 57 10 04 be f5 ed 83 3d 2e 89 57 3c
       -0.03404689 -0.12896858 0.06441871 0.013155265
000030 6b b8 30 3d e3 a8 f7 3d 15 c4 81 3d 55 2a 44 3d
       0.043144625 0.120927595 0.06336228 0.047891933
000040 b2 9b 27 3d 5a 32 cc bd c8 7e 37 bd 6d 18 c4 3d
       0.040919967 -0.09970541 -0.044798642 0.09574971
000050 f6 a1 b1 bc 92 ac 32 3c d1 1c a3 bd 98 a1 6c bd
       -0.021683674 0.010905402 -0.07964481 -0.057771295
000060 76 04 38 3d 23 df 57 bd de bd c2 bc 69 d2 35 3d
       0.04492613 -0.052703034 -0.023772176 0.044390116
000070 b4 ce 2f 3c d7 46 f6 3b b2 60 d1 3c c0 2e 9e bd
       0.010730434 0.007515769 0.025558803 -0.077237606
000080 25 0c 99 bc 78 9e 29 bd e9 ff ed bc f4 56 0d bb
       -0.018682549 -0.041410893 -0.029052692 -0.002156672
000090 50 c0 7d 3c a0 8d 7a 3d f5 4d 15 3d d8 6b ea 3c
       0.015487745 0.06117022 0.0364513 0.028615877
0000a0 72 0b c0 bc ed 90 a1 bd e7 0e 2b bc 4e fd a6 bc
       -0.023442958 -0.078889705 -0.010440565 -0.020384457
0000b0 7b e4 f0 bc c0 37 0f be 56 fe 26 be dc 97 0a bd
       -0.029405823 -0.1398611 -0.16307959 -0.03383623
0000c0 e2 fd b8 bd 44 46 a3 bd aa c8 23 be a0 0f bc bd
       -0.09032799 -0.079723865 -0.15994516 -0.09182668
0000d0 64 6a 64 bd 22 23 30 bd 79 5a 54 bd cf f4 11 bb
       -0.055765525 -0.043002255 -0.051844094 -0.0022271161
0000e0 62 29 a7 3c b9 4c 39 bc 67 2e 00 3c ed 3e ed bc
       0.020405475 -0.011309796 0.007823563 -0.02896067
0000f0 a3 68 d8 bc 56 80 42 bd 11 a3 95 bd 55 1c 95 bb
       -0.026417082 -0.047485672 -0.07306493 -0.0045504966
000100 18 89 4e 3d 12 83 24 bd 8a 65 29 3d 19 96 8f 3d
       0.05042371 -0.04016406 0.0413566 0.07011051
000110 67 c6 c8 3d 57 8d d0 3a ef db 6a 3d 87 11 81 bd
       0.09803467 0.0015911263 0.05733865 -0.06302171
000120 cc 84 2a bb 84 71 54 3c f8 d2 cf bc d0 d3 97 bd
       -0.0026019095 0.012966517 -0.025369152 -0.07413447
000130 58 d2 97 bc 06 f5 08 3d 49 e3 97 3d c8 32 b4 bc
       -0.018532917 0.033436798 0.07416398 -0.02199687
000140 08 7e 0e 3d 44 42 9b bd 21 af a3 bc 15 b6 98 bb
       0.03478816 -0.075809985 -0.019980969 -0.0046603777
000150 bb f9 45 3c 78 ff 62 bd f4 77 a8 bc 6f b3 d4 bc
       0.012083466 -0.055419415 -0.02056501 -0.025964467
000160 12 54 10 3b 17 bc e3 bd 4a 19 89 bd 9e fd fa bc
       0.0022022766 -0.1111986 -0.06694277 -0.030638512
000170 7f c1 6c 3d 67 f7 08 3d 20 85 d9 bd 49 42 65 bd
       0.05780172 0.033439066 -0.10621095 -0.055971418
000180 07 03 96 bc 82 e4 17 bd 0e f8 ca 3c f4 24 63 bd
       -0.01831199 -0.037083156 0.024776485 -0.055455163
000190 45 a6 1b bd c8 4d 9a bd ad b9 8d bd f1 20 12 bd
       -0.038000364 -0.07534367 -0.069201805 -0.035675947
0001a0 93 7d 57 3d 39 16 4e bd a6 29 18 bd 5b d0 fb bc
       0.05260999 -0.050314162 -0.037149094 -0.030739
0001b0 14 1e 2a bc 9e 84 17 3d 2d 8d 9c 3d a5 38 83 bd
       -0.010383148 0.036991708 0.07644115 -0.064072885
0001c0 31 6c fa 3c 0f d9 ac bd 4a f0 f6 bc bb dc 1c bc
       0.030569168 -0.08439838 -0.030143876 -0.009574111
0001d0 08 56 5d bd 98 6f 78 bd 89 d6 9f bd 1a 04 62 bd
       -0.054037124 -0.0606533 -0.07804591 -0.055179693
0001e0 1c d5 27 bd 2d 93 50 bc fa 7c 5a bd b0 58 0e bd
       -0.04097472 -0.012730402 -0.053341843 -0.034752548
0001f0 aa f0 eb bc 39 6c 9c bc 05 74 cf bd 32 b9 bc bd
       -0.028801281 -0.019094573 -0.10129551 -0.09215011
000200 b5 82 6f bd 23 38 ba bc a3 c3 c7 bd d1 53 13 bd
       -0.05847426 -0.022731846 -0.097541116 -0.035968605
000210 a7 61 05 bd 39 d1 c5 3c c6 82 61 bc ec 84 bf bc
       -0.03256383 0.024147617 -0.013764089 -0.023378812
000220 1e 29 c9 3c de 08 0c 3b f2 66 be bc bd 56 8e bd
       0.024555739 0.002136759 -0.023242448 -0.06950138
000230 35 bd 12 3d fd 94 0d bc 1a 93 4c bd ca 72 e9 b9
       0.035824973 -0.008641479 -0.049944974 -0.00044526748
000240 41 8d 37 be 24 7a a0 bd 70 4f ae bc d9 ca b9 bc
       -0.17924978 -0.078357965 -0.021278113 -0.022679733
000250 4f b0 20 be 31 bf c2 bd e5 76 11 bd 28 5e b6 bd
       -0.15692256 -0.09509123 -0.035513777 -0.08904678
000260 63 05 61 3d 94 63 98 3c da 8c 1c 3d 8c 6d 30 3d
       0.054936778 0.01860217 0.038220264 0.043073222
000270 c2 8c 51 bd 2c 75 0a bd a7 db b6 3c 3a 18 cb bb
       -0.051159628 -0.03380315 0.022321535 -0.0061979564
000280 16 86 04 3d dc 10 ac bb 20 c5 36 3e ba 07 0e be
       0.032354437 -0.005251033 0.17848635 -0.13870135
000290 10 57 bc bc f1 7d 35 bc 93 53 24 be 32 8a 89 bd
       -0.022990733 -0.01107739 -0.16047506 -0.06715812
0002a0 9f e3 d1 bc a4 c9 bc bd 58 de 75 3d 46 11 15 3b
       -0.025621234 -0.092181474 0.060026497 0.0022745891
0002b0 21 90 08 bd 87 45 23 bc 9d 3b a9 3c b6 34 8b bd
       -0.033340577 -0.009965307 0.020658309 -0.06797163
0002c0 9f 4c c5 3c bd 0a f6 bb 34 32 31 bd e5 fa b2 3c
       0.024084387 -0.0075086043 -0.043260768 0.021848151
0002d0 91 3a 4c bd 22 ca f0 bc b9 3d 37 3d 90 cb 1c bc
       -0.04986054 -0.02939326 0.044736598 -0.009570017
0002e0 ba a7 57 3c e5 27 3b bd fb 3b a9 bd 9c f9 82 bc
       0.013162548 -0.045692343 -0.082633935 -0.015988164
0002f0 ce 22 05 bc 7c 96 be 3d 47 82 86 bd 8c 7b eb 3c
       -0.008125974 0.09306046 -0.06567817 0.028745435
000300 93 09 43 bc 30 b7 00 bd f3 0b 05 3c 7a 6a 89 3c
       -0.011904138 -0.0314247 0.008120525 0.016774405
000310 a0 fa ae 3d bc 09 32 3d f3 51 7f 3d 36 58 2e bd
       0.08543897 0.043466315 0.062334012 -0.042564593
000320 5b 66 0a bd 5c 1c ff bb b4 6d f7 3a 3c 32 c9 bd
       -0.03378902 -0.007785363 0.0018877299 -0.098240346
000330 0b 95 d1 bb 1e fb 0e bc 43 4c 6f bd dc 64 dc bc
       -0.006395941 -0.008726863 -0.05842234 -0.026903562
000340 9e 39 54 bd 02 3b 6c 3d 8a 9f 25 bd f6 0e 90 3b
       -0.05181276 0.05767346 -0.04043535 0.0043963147
000350 05 81 97 3d 0d 8d 47 bd d0 6b 86 3d 67 76 0c 3d
       0.073976554 -0.0487185 0.06563532 0.034292605
000360 1d e9 79 bd cf a0 8f bd 05 54 6e bd 36 29 5e 3c
       -0.06101333 -0.07013094 -0.058185596 0.01355963
000370 1d c4 8c bd da 93 2f bd ed c3 03 bd a7 a9 f9 3c
       -0.06873343 -0.04286561 -0.03216927 0.030476404
000380 e3 4c 19 bd d8 03 1d 3e 0f 8a ce b9 e7 e7 54 3d
       -0.03742684 0.15333498 -0.00039394244 0.05197897
000390 c4 49 24 bc 94 cd a4 bd 2a 10 a2 bd 6a 7d 03 bd
       -0.010027353 -0.080470234 -0.07913239 -0.032102026
0003a0 f7 e8 94 bd 5f f4 1a 3d b4 3b d6 bd 5b c7 43 3d
       -0.07270997 0.037830707 -0.10460606 0.047797542
0003b0 60 6b 51 bd d0 4c 86 bd c4 fd 94 bd b4 44 c3 3c
       -0.05112779 -0.065576196 -0.072749645 0.023836471
0003c0 a7 a6 5a 3c 16 fb 89 bc 67 54 34 3d 07 16 97 bc
       0.013345397 -0.01684336 0.044025805 -0.01844312
0003d0 c5 09 fa bb 83 bd 6c 3d a1 98 24 bd a4 49 69 bc
       -0.007630559 0.05779792 -0.04018462 -0.014238749
0003e0 dc 5a 2e bd b0 1b 0d bd fa 33 22 bd 84 10 d0 bc
       -0.04256712 -0.034450233 -0.03960035 -0.0253985
0003f0 50 00 04 be c2 c7 0e be 98 d3 70 bd 49 b5 01 be
       -0.12890744 -0.13943389 -0.05879554 -0.12666811

backbone.2.conv3x3.bias f4 [32]
000000 22 36 35 bd 69 eb e9 3c ec 33 2f bd 40 79 3b bd
       -0.04424108 0.028554635 -0.042774126 -0.04576993
000010 93 46 30 bd df 6c 43 bd 06 06 3a 3d 8c cb ce bc
       -0.043036055 -0.04771125 0.0454159 -0.025243543
000020 04 fc 14 3d 09 7b 85 bc 41 7e 96 bc 59 e3 82 bc
       0.036373153 -0.01629402 -0.01837075 -0.015977548
000030 24 21 43 bd d3 af 88 3c 01 0b c5 bc 14 a4 90 3c
       -0.047639027 0.016685402 -0.024053099 0.017656364
000040 28 dd 4c bd ec 24 17 3c 4f af 45 3d 92 2a 94 bc
       -0.0500156 0.009225111 0.04826289 -0.018086705
000050 ff fe 4c 3c 49 89 6d bd 0b 46 c3 bc 2d ef 46 3d
       0.012511968 -0.057992253 -0.02383711 0.04856794
000060 44 df be 3c 22 4d b0 3c 0d d2 d2 3c 4e d2 3f bc
       0.02329982 0.021521155 0.025734926 -0.011707855
000070 23 a1 ca bc 05 ea 62 3d 84 da af bc f6 9b a5 bb
       -0.02473504 0.05539896 -0.021466501 -0.0050539924

backbone.2.bn.weight f4 [32]
000000 cc ff 7d 3f a5 17 86 3f ab a7 5d 3f d5 80 7d 3f
       0.9921844 1.0475966 0.86583966 0.9902471
000010 be bc 50 3f c8 fb 96 3f 0d 08 95 3f f5 4d 80 3f
       0.81538 1.1795588 1.1643082 1.0023791
000020 03 2b 5b 3f d0 27 81 3f 86 17 89 3f cd 58 82 3f
       0.85612506 1.0090275 1.0710304 1.018335
000030 a2 7f 83 3f 0a 12 5f 3f 8f ae 5a 3f bd f0 98 3f
       1.0273325 0.871369 0.85422605 1.1948467
000040 10 d0 5c 3f be 0d 85 3f 90 59 66 3f b7 a0 81 3f
       0.8625498 1.0394819 0.8998041 1.0127171
000050 4b ae 80 3f c7 06 a4 3f 5c d2 5b 3f 38 9b 70 3f
       1.005319 1.2814568 0.8586786 0.93986845
000060 5e 30 73 3f 39 aa 69 3f 48 ad 8a 3f 17 18 8d 3f
       0.9499568 0.91275364 1.0834131 1.1022977
000070 dd b6 96 3f bd 9e 71 3f 70 88 73 3f 29 66 5a 3f
       1.1774555 0.9438284 0.9513006 0.85312134

backbone.2.bn.bias f4 [32]
000000 34 78 f3 3d 8a af 2d 3d 26 47 83 be 38 f9 f4 be
       0.11888161 0.042403735 -0.2564022 -0.4784639
000010 fe b4 a0 be d5 e4 27 3c a0 8a 35 3e 6f 53 9b 3d
       -0.31388086 0.010247429 0.17728662 0.07584273
000020 cd 50 e0 bd 15 7e ca bd eb 3c 2d 3d a8 b3 53 3d
       -0.109529115 -0.098873295 0.042294424 0.051685005
000030 6b b9 5e 3c 94 af d1 be 59 0d 58 be 53 f2 3e be
       0.013594012 -0.40954268 -0.21098842 -0.18647127
000040 b7 cb 0a be 94 40 6b 3e b3 e2 9a bc 3a af 5a be
       -0.13554274 0.22973853 -0.018906927 -0.21355906
000050 25 62 05 3d 64 fe c2 bc 0f d4 51 be fd 28 05 bc
       0.0325643 -0.023802944 -0.2049105 -0.008127448
000060 86 6b 25 3c 18 1d 44 be e8 8f 97 be 5c c5 51 be
       0.010096436 -0.19151723 -0.2960198 -0.20485443
000070 f7 ea 6e 3e 46 c7 9a bd b5 98 19 be ba 32 1d be
       0.2333182 -0.0755754 -0.1499966 -0.15351382

backbone.2.bn.running_mean f4 [32]
000000 7a 54 be bf b5 18 5d bf 54 52 06 bf 85 fc a0 3f
       -1.486953 -0.86365825 -0.5246937 1.2577063
000010 39 db 20 3f 08 e4 a2 bf af 38 dd be 66 5a 03 c0
       0.6283451 -1.272584 -0.4320731 -2.0523925
000020 8f 17 a6 bf d5 b2 76 bf 57 09 f3 be 38 5f 64 bf
       -1.297594 -0.96366626 -0.47468063 -0.8920779
000030 78 5b 4c bf 07 37 11 40 03 1d 3d bf 19 41 06 be
       -0.7982707 2.2689836 -0.73872393 -0.1311077
000040 33 f9 92 bf e7 94 18 c0 4f fd 8d bf 3f e2 aa bd
       -1.14823 -2.3840883 -1.1092929 -0.08343934
000050 bf a7 9f bf 6b 2d 4f be 73 27 b4 be 9f e9 f7 be
       -1.2473067 -0.2023217 -0.35186347 -0.48420426
000060 05 38 9a be 01 b5 d5 be 51 c5 0b bf c2 3d d8 3d
       -0.30120865 -0.41739658 -0.54597956 0.10558654
000070 1e d1 c1 bf 0f 62 83 bf 5f 85 32 bf 8b 9e 3b 3f
       -1.5141943 -1.02643 -0.6973476 0.7328879

backbone.2.bn.running_var f4 [32]
000000 3a d8 a9 3f 44 7c a4 3e a1 8c 83 3f 68 8b 05 3f
       1.3269112 0.32126057 1.0277292 0.5216584
000010 6e 6b bf 3f 3d da 08 3f 81 03 02 3f 2b bc 5f 40
       1.495466 0.53458005 0.50786597 3.4958599
000020 11 03 7a 3f 38 e6 04 3f 5f c7 c1 3e 2d b4 96 3e
       0.9766093 0.51913786 0.3784742 0.29434338
000030 bc 23 04 3f b3 0c 71 3f 12 d9 17 3f 2f 84 1b 3f
       0.51617026 0.9416 0.593156 0.6074857
000040 23 5e 38 3f 1a 36 73 3f cc a7 f1 3e 79 d8 8d 3e
       0.7201864 0.9500443 0.4719833 0.27704218
000050 e1 d5 13 3f 23 7a 1f 3f a2 ff 7f 3f f8 a1 41 3f
       0.5774823 0.6229574 0.9999944 0.7563777
000060 bd ce 6f 3f 58 75 01 3f 15 ed 55 3e 04 93 b0 3e
       0.9367483 0.5056968 0.20891221 0.34487164
000070 1d 5d 87 3f d2 9c c9 3e 12 42 32 3f 33 8a f0 3e
       1.0575291 0.39377457 0.69632065 0.46980438

backbone.3.conv3x3.weight f4 [32, 32, 3, 3]
000000 cf b8 4f bd f4 dd 91 3d 62 2e d2 bc 88 ce b3 bb
       -0.050713357 0.07122412 -0.025656883 -0.005487267
000010 d3 bf c8 bd 7d c8 0d bd d3 ae c3 bd 4d d3 f1 bc
       -0.098022126 -0.03461503 -0.095548294 -0.029519701
000020 1a 9f 6a 3c a8 41 74 bc c5 ee f6 3c e1 f3 10 3d
       0.014320159 -0.014908232 0.030143151 0.03538883
000030 cc 4a de bd a9 32 88 bd 4b 1a b8 3d 1b 54 22 3d
       -0.1085411 -0.06650288 0.0898939 0.03963099
000040 92 8c d2 3d e3 bd 0a 3d 53 47 29 bd f4 4e 73 bd
       0.10280718 0.033872496 -0.041327786 -0.059401467
000050 dc 40 68 3a 4d 84 54 bd 21 07 39 bd 5e 0c f9 bc
       0.00088597625 -0.051883984 -0.045172814 -0.030401405
000060 fb 5b 89 bc c3 a8 20 3c db fc cc bc 21 e8 44 bc
       -0.016767493 0.009805861 -0.025022915 -0.0120182345
000070 db 99 af bd ca f2 90 3d 20 1b f2 bd 1b e8 5e bd
       -0.085742675 0.07077558 -0.1182158 -0.05442057
000080 cc 34 82 3d 75 5c 1d 3d 3d a0 55 3d 56 f7 09 3d
       0.063577265 0.038418252 0.05215477 0.033683144
000090 76 7d f0 bb 81 63 28 3d 11 63 62 3d cb f9 16 3d
       -0.007339175 0.04111052 0.05527026 0.036859315
0000a0 95 5c 2a bd a9 d3 12 3d da 4d 7b 3d 90 e9 33 ba
       -0.0415922 0.035846386 0.061353542 -0.00068631116
0000b0 3a e3 2e 3b 8a a4 c2 bc 21 79 9d 3d 13 05 16 bc
       0.002668573 -0.023760099 0.07689119 -0.009156483
0000c0 42 b1 68 bd 22 ab d1 bc 1f 6c c8 3b 2b 51 2f 3d
       -0.05680967 -0.025594298 0.0061164047 0.042802017
0000d0 fc fb 85 3d 35 8d 44 bd ee 2e 56 be 33 82 9b be
       0.06542203 -0.047986228 -0.2091634 -0.30372772
0000e0 71 36 f7 bc d8 a3 1e 3e 78 3d 4c 3e 3b f8 22 3d
       -0.030177327 0.15492189 0.19945323 0.039787512
0000f0 fa 54 c3 3b 03 e3 1a 3b 15 ee 33 bd 1b 39 5c bd
       0.0059610577 0.0023633845 -0.043928225 -0.053765398
000100 50 3c 8f bc d5 c0 62 bc 2d c3 66 bd ba e4 c2 bd
       -0.017484814 -0.01383992 -0.056338478 -0.095162824
000110 57 c7 ed bc 1c 89 3a 3c 38 20 58 bd dc 2c 47 bd
       -0.029025717 0.0113852285 -0.0527651 -0.048626766
000120 13 30 0f bd 3d f5 52 bd 22 b6 87 bd e1 4f c5 3c
       -0.034957957 -0.05150341 -0.06626536 0.02408594
000130 8b 32 cf bd 05 b9 2e 3c f4 ad 1b 3d 69 1a 41 bd
       -0.10117062 0.010664229 0.03800769 -0.047144327
000140 89 0b c1 3c 82 e1 23 3c 9a 9c a2 3d d4 cd d3 3c
       0.02356507 0.010002496 0.07940026 0.025854982
000150 04 3d 8e 3d 89 c9 7e 3d ff 0d aa 3c 85 57 e0 3c
       0.069452316 0.062203918 0.020758627 0.027385483
000160 3f c8 44 bd ab 39 04 bd 76 9d e4 bd 3d 2d d3 3b
       -0.048042532 -0.03228156 -0.11162846 0.006444602
000170 6a 81 95 bc 48 c5 84 3d 6d 9b 14 bc da b4 9d bb
       -0.018250186 0.06482941 -0.0090702595 -0.004812819
000180 9c 00 27 3c 70 39 3e bc ee 7b e2 bb 85 ba e6 3c
       0.010193016 -0.011610374 -0.006911746 0.028165111
000190 6e 94 b3 3d 49 2c 9c 3c d7 04 f7 bc 1d d4 20 3d
       0.08768545 0.019064086 -0.030153675 0.039264787
0001a0 82 5e 85 3d d0 d1 ab bc 06 b7 95 3c 84 95 95 bb
       0.065121666 -0.02097407 0.018275749 -0.004564943
0001b0 17 75 10 bd 39 46 a8 3c 5d cb ea bc 6e 60 5a 3d
       -0.035267916 0.020541297 -0.028661424 0.05331462
0001c0 c7 8f 00 3e 67 a3 6b bc ae 2b 38 bd 95 8e 5a bd
       0.12554847 -0.01438222 -0.04496353 -0.053358633
0001d0 06 b5 9c 3c 70 e9 d5 bc ac 65 94 3d a4 ed f4 3c
       0.019129287 -0.026112288 0.07245955 0.029898472
0001e0 6e 8e 5e bd 64 57 3a bd 7c 8e 76 3d 2c 8d 85 3d
       -0.05433505 -0.0454935 0.060194477 0.06521067
0001f0 98 2b a1 bc a2 1f d5 3c f9 08 92 bb e2 7a 0d 3d
       -0.019674107 0.02601606 -0.004456636 0.03454102
000200 fe 80 9c 3d 75 7e 04 3d ec 54 fe bb 72 c2 2c 3d
       0.07641791 0.03234716 -0.0077615883 0.042177625
000210 46 7f 84 bd 94 bc a2 bc a1 77 a1 3c 5d 2d f1 bb
       -0.06469588 -0.019865312 0.019710364 -0.007360144
000220 d8 1c cb bc a9 a6 0f bd 00 fb f4 3c 18 ae 3d be
       -0.024794027 -0.03507105 0.029904842 -0.18523443
000230 42 cf 94 be bc 0d 15 3d da 5c 10 bd 34 96 6c 3c
       -0.29064375 0.03639005 -0.0352448 0.014440108
000240 74 f4 fc 3c f9 02 41 bd 30 16 59 bc 21 db e2 3c
       0.030878283 -0.047121976 -0.013249919 0.02769238
000250 75 7a 40 bd 69 5b b5 bc 26 32 c6 3c 25 9e 44 bc
       -0.046991784 -0.022138314 0.024193835 -0.012000595
000260 59 6a 8b bc 42 ca 53 bd 7b f4 84 3b a5 16 0b bd
       -0.017018484 -0.05170656 0.0040574647 -0.033957142
000270 3f 06 8c bd fa 4c c5 bd f7 12 2a bd 8e 5a c2 3c
       -0.06837129 -0.09633823 -0.041521993 0.02372482
000280 d3 2a 53 3d 28 97 0c 3c 2c 41 5c bd 50 9a 8e 3d
       0.051554512 0.00858096 -0.05377309 0.069630265
000290 83 2a 0c bd 99 36 cd bd 44 94 4f bb 39 e4 ca 3b
       -0.03422023 -0.10020179 -0.0031674067 0.006191757
0002a0 1d e9 73 3d a3 3a 19 3d a1 47 96 3c b9 d2 ab bb
       0.059548486 0.037409436 0.018344702 -0.005243626
0002b0 50 ae 4c bd b9 63 95 bc da 8b a3 3c 72 f3 2a 3d
       -0.049970925 -0.018236028 0.019964147 0.041736074
0002c0 82 54 49 3d 93 42 02 bd f2 90 2d 3b 3f 30 0e bd
       0.04915286 -0.03180177 0.00264841 -0.03471398
0002d0 f4 c0 7f 3d 6d a2 59 bc ab c7 9d bd 98 26 b2 3d
       0.062439874 -0.013283354 -0.07704099 0.086987674
0002e0 16 39 a0 ba 6e fd 12 bb a2 e8 48 3d 1a 3f 60 bb
       -0.0012224044 -0.0022428888 0.04904998 -0.00342173
0002f0 ed 43 db bc da 05 87 be a4 6d c4 3c 29 bf d8 3b
       -0.026765788 -0.26371652 0.023978062 0.006614585
000300 04 87 47 bd b8 7a 5a 3c 4e 47 06 3d d6 03 9a 3d
       -0.048712745 0.0133349225 0.032782845 0.07520263
000310 8a 3d 81 bc 4d 66 3c 3d 04 cd 87 3d 44 cc dd 3b
       -0.015776414 0.045996 0.066309005 0.006768735
000320 83 9f 88 3c da 45 1a 3c d8 55 ba 3c 9f 4e 11 3c
       0.016677624 0.009416068 0.022746012 0.008868842
000330 25 13 ad bc f0 38 0a 3d e7 01 08 bd 9c 03 a5 bc
       -0.021127293 0.033745706 -0.03320494 -0.020143323
000340 8b c2 a9 3d 8b ef e7 3c 2b f0 1d be 76 2f 7c bd
       0.08289059 0.028312465 -0.15423648 -0.0615687
000350 d3 ed 98 3d 3c cd 32 3c 0a ef 89 bc 36 34 38 3d
       0.07467236 0.0109131895 -0.016837616 0.044971667
000360 78 fd 99 3c 1d b4 d2 3d 2e 41 91 bc c2 af 99 bd
       0.018797621 0.1028826 -0.017731275 -0.07504226
000370 80 4a 14 3b 61 24 9f 3d 2d 71 55 bd cc a4 e5 bd
       0.0022627413 0.077706106 -0.052109886 -0.11213073
000380 46 64 0d bc c3 9f 9d bd d3 59 8d 3c cc 58 e7 3c
       -0.008629864 -0.07696488 0.017254746 0.028240584
000390 d7 25 78 3d c9 04 4a bd ad 41 55 bd 5a e5 d0 39
       0.060582962 -0.04932097 -0.052064586 0.00039843732
0003a0 62 1f 9f 3c a5 46 9f bc a6 08 8b 3c b6 7e 73 bd
       0.019424144 -0.019442866 0.016971897 -0.059447013
0003b0 3b b3 a2 bc a7 d0 9d 3c c6 fa 34 bd 1f 8b a3 bc
       -0.019860854 0.019264532 -0.04418447 -0.019963799
0003c0 20 e0 90 3d d5 70 32 3d 8c e1 04 3c 96 af 13 3d
       0.070739985 0.043564636 0.008110415 0.036056124
0003d0 ca 11 1e bd fe 80 92 3c 44 96 58 be 0d b9 dc be
       -0.038591184 0.017883774 -0.21151072 -0.43109933
0003e0 ed 11 ef 3c 45 61 7b 3d 00 67 86 3d b3 c2 a4 3b
       0.029183352 0.06137206 0.065626144 0.005028093
0003f0 5a cb c9 3d 23 cb c4 3d bf 08 93 bd 5b 58 62 3d
       0.09853239 0.09609058 -0.071794026 0.055260044

backbone.3.conv3x3.bias f4 [32]
000000 09 63 12 3d 75 5a a2 3b f6 de b6 bc 42 ce fd 3b
       0.03573898 0.004954631 -0.022323113 0.007745535
000010 a0 59 98 bc 6a 00 3f bd e4 a8 23 bc db 5e 72 bd
       -0.018597424 -0.046631254 -0.009988997 -0.059172492
000020 33 91 97 bc 37 ed 9d 3c f5 1e 3d bd e4 53 b6 3c
       -0.018501854 0.019278152 -0.0461721 0.022256799
000030 25 28 70 3d 4f 0d 6f 3c cd b9 24 bd fb 2a a6 bc
       0.058632035 0.014590575 -0.040216256 -0.020284167
000040 1c e9 7d bc 29 64 af bb d3 9b 2e bd 15 02 7b bc
       -0.015497472 -0.005352516 -0.042629074 -0.015320321
000050 1d 2d 90 3c e8 c0 5d bd 7a 2c 31 bd 88 c8 e5 3c
       0.017599637 -0.054139048 -0.043255307 0.028049722
000060 13 76 56 bc 4d 07 00 bd a8 bf a3 37 0f d2 02 3d
       -0.0130896745 -0.031256963 1.9520361e-05 0.03193861
000070 d6 2a f5 3c 98 9d 17 bc 63 fa ef bb c2 58 e5 3c
       0.029927652 -0.009253882 -0.0073235496 0.027996425

backbone.3.bn.weight f4 [32]
000000 7d 45 8e 3f fc d8 95 3f 8d 68 6d 3f 27 c7 8c 3f
       1.1114956 1.1706843 0.92737657 1.0998276
000010 48 02 6d 3f 38 6c 6c 3f c2 3d 5e 3f 60 4a 7b 3f
       0.92581606 0.9235263 0.86812985 0.9816036
000020 44 20 5b 3f 6a 58 6e 3f db a9 6d 3f cc 62 86 3f
       0.8559611 0.9310366 0.92837304 1.04989
000030 8e e4 9e 3f e9 4f 93 3f 99 7f 7a 3f b6 df 76 3f
       1.2413499 1.1508762 0.9785095 0.96435106
000040 76 1b 64 3f d8 14 74 3f 2c d7 97 3f cc f5 7c 3f
       0.891044 0.95344305 1.186254 0.98812556
000050 70 39 97 3f 96 1f 71 3f b6 8d 8b 3f 92 19 80 3f
       1.1814404 0.9418882 1.0902622 1.0007803
000060 57 e2 99 3f 4e 8d 7b 3f 98 58 5c 3f 50 ac 80 3f
       1.2022198 0.9826249 0.86072683 1.0052586
000070 9d 3b 75 3f 30 8c 59 3f ef 92 7f 3f 37 49 95 3f
       0.9579409 0.84979534 0.9983358 1.1662968

backbone.3.bn.bias f4 [32]
000000 89 a7 7c 3c 79 62 a4 3d af 74 9f bd 49 a8 8d be
       0.015420803 0.08026595 -0.077859275 -0.27667454
000010 ce 90 97 be 90 be c1 bd e2 ed e1 be be de 5c be
       -0.29602665 -0.09460175 -0.44126803 -0.21569344
000020 26 5e 06 bf 47 73 4a be 9b 8e 31 be a4 49 a1 3c
       -0.5248741 -0.19770537 -0.17339556 0.019688435
000030 c5 5f 80 bd 3d 09 95 3b 0c 06 2a 3c b3 54 75 be
       -0.062682666 0.0045482204 0.010377418 -0.23958091
000040 2b 78 2c be e4 55 d7 bd 75 91 ea 3c 61 da d6 be
       -0.16842715 -0.10514429 0.028633812 -0.41963485
000050 14 23 9d bd 40 8e 53 be c6 38 e4 be 03 08 06 3e
       -0.07672706 -0.20659733 -0.44574565 0.13088994
000060 e8 e0 a6 be 5b b6 e3 bd 07 81 9e be 4b 2d 93 be
       -0.32593465 -0.11118766 -0.30957815 -0.28745493
000070 29 7d 25 bd ef 40 66 be bc f9 2d 3d bc 5a 7f 3d
       -0.040402565 -0.22485708 0.042474493 0.06234239

backbone.3.bn.running_mean f4 [32]
000000 2f cc b4 be 59 42 66 bf 43 1c 37 bf fa eb c7 be
       -0.3531203 -0.8994499 -0.715275 -0.39047223
000010 c7 d6 b3 be 32 59 45 3f 39 8b 5f 3f da 81 2e 3f
       -0.351248 0.77089226 0.8732181 0.6816689
000020 2a bb ac 3f eb b3 42 bf b2 64 bc be 00 28 c9 bf
       1.3494618 -0.76055783 -0.36795574 -1.5715332
000030 8b f3 2f bf b2 ee 42 bf f4 d4 97 bf 4b b9 b0 3e
       -0.6873099 -0.7614547 -1.1861863 0.34516367
000040 33 1a c8 3e 95 de 0f 3f b2 78 6d bf d8 ed 04 bf
       0.39082488 0.5619901 -0.9276229 -0.5192542
000050 56 e8 27 bf 30 ab ae 3e 9b 76 98 3e a3 eb 68 bf
       -0.6558889 0.3411498 0.2977799 -0.90984553
000060 cf 09 49 3d 95 d7 b8 be c8 61 b3 3d 09 7a 0f 3f
       0.04908162 -0.36101976 0.08758885 0.56045586
000070 84 f6 a7 be 2c 85 76 bf f5 d7 b4 bf 01 ab 4b bf
       -0.32805264 -0.96296954 -1.4128405 -0.79557806

backbone.3.bn.running_var f4 [32]
000000 5a c9 29 3f 09 54 52 3f ed 3b 2d 3f c0 cb 03 3f
       0.66322863 0.8215948 0.67669564 0.5148277
000010 ca 9f e9 3e 0e 3f 26 3f b3 56 3c 3f 27 9d 1a 3f
       0.45629722 0.64939964 0.7356979 0.60396045
000020 82 74 4a 3f 12 ce 35 3f f9 94 fb 3e 7e ab 9b 3f
       0.79084027 0.71017563 0.49137095 1.216171
000030 14 5c 5c 3f 8a 7c 12 3f aa a3 3e 3f b0 57 0e 3f
       0.86078 0.5722128 0.7446848 0.5560255
000040 df 4d 06 3f ae 88 3f 3f ea 6b 29 3f 47 ce 92 3e
       0.5246257 0.7481793 0.6618029 0.28673002
000050 6d ce 26 3f 9a db c2 3e a6 9c 33 3f 84 44 f5 3f
       0.6515873 0.38058168 0.701609 1.9161534
000060 19 32 1f 3f 25 9b e8 3e 45 6b 19 3f 14 0c 50 3f
       0.6218582 0.45430866 0.59929305 0.8126843
000070 f5 ef 8d 3e ef 5e 80 3f 22 ce 4e 3f 45 ba 47 3f
       0.27722135 1.0028971 0.80783284 0.780186
