models/ps_factor4_last_epoch.pt (torch, 262251 bytes, 38 tensors)

backbone.0.conv3x3.weight f4 [32, 48, 3, 3]
0	0x3d3e7256	0.046495758
1	0x3d0769af	0.033059772
2	0xbcc42090	-0.023941308
3	0x3d73b8f6	0.059502564
4	0xbc73ba4c	-0.01487596
5	0xbcb25ffb	-0.021774283
6	0xbbeba931	-0.0071918
7	0x3cb47144	0.022026666
8	0x3ce24b27	0.027623726
9	0xbce62e82	-0.028098349
10	0x3d0dab9f	0.0345875
11	0xbbb97bef	-0.005660526
12	0x3d4745c4	0.048650518
13	0x3a3cf062	0.00072074507
14	0xbb47a8bf	-0.003046557
15	0x3c34beaf	0.011031791
16	0x3d0a4420	0.033756375
17	0xba94eefc	-0.0011362727
18	0xbc89502b	-0.01676186
19	0x3b9dc2c7	0.004814479
20	0xbd0a543d	-0.033771742
21	0x3c540adf	0.012942045
22	0xbcece68e	-0.02891853
23	0x3b1798fc	0.0023131957
24	0xbce0a08f	-0.02742031
25	0xbcd77534	-0.026301004
26	0xbcbd89cb	-0.023136994
27	0xbd062044	-0.032745615
28	0xbc116693	-0.008874553
29	0xbd6ea779	-0.058265183
30	0x3d3de033	0.04635639
31	0xbd68ea2d	-0.056863952
32	0x3c087f55	0.00833114
33	0x3c1a4077	0.009414784
34	0xbcd0e004	-0.025497444
35	0x3c7acdae	0.015307827
36	0x3ca92294	0.020646371
37	0x3d06fbe8	0.03295508
38	0xbc1538d2	-0.009107785
39	0x3bc3990c	0.0059691723
40	0x3c12f103	0.0089685945
41	0xbd0fda7b	-0.03512047
42	0x3d1566c0	0.036474943
43	0x3d28e934	0.041238025
44	0x3c9ed94a	0.01939072
45	0xbb9cfb14	-0.004790673
46	0x3cc84034	0.024444677
47	0xbb98fdb9	-0.004668918
48	0x3d5ec403	0.05438615
49	0xbcf16e08	-0.029471412
50	0xbd909df6	-0.07061379
51	0xbb90d846	-0.004420313
52	0xbd11da7b	-0.03560875
53	0x3d0f4cd4	0.03498538
54	0x3ccda862	0.025104705
55	0x3c406116	0.011741897
56	0x3a7de5ea	0.0009685444
57	0x3ccef301	0.025262358
58	0x3ceca746	0.028888356
59	0xbd6916f1	-0.056906644
60	0x3c451d5c	0.012030926
61	0xbd093d8b	-0.033505958
62	0x3c102337	0.008797458
63	0xbc5c2837	-0.013437322
64	0x3b8199a3	0.0039550825
65	0xbcb19336	-0.021676641
66	0x3d3fd2c6	0.04683187
67	0xbd2ad600	-0.041707993
68	0xbd45a07c	-0.048248753
69	0xbc97f5b6	-0.018549781
70	0x3d1a2ded	0.037641454
71	0x3c490932	0.012270259
72	0x3d92632f	0.07147824
73	0xbd2a4645	-0.04157092
74	0xbd7b272a	-0.061316647
75	0xbc3cb864	-0.0115185715
76	0xbd12e9aa	-0.03586737
77	0xbc0c898c	-0.008577716
78	0x3cd9bf5d	0.026580507
79	0x3d1ba647	0.03800037
80	0xbcf8011a	-0.030273963
81	0xbc6aab75	-0.014323105
82	0x3cc5015a	0.024048496
83	0xbd02284e	-0.03177672
84	0x3d6fcdf0	0.058546007
85	0xbc766b5e	-0.015040247
86	0x3b59bb60	0.0033223256
87	0xbcacba16	-0.021084826
88	0xbcc08b88	-0.023504034
89	0x3c5be44e	0.013421131
90	0x3cb18a63	0.021672433
91	0xbcb0055a	-0.021486927
92	0x3be8f42a	0.0071091847
93	0x3d1eefd6	0.038802944
94	0xbd37f5cc	-0.044912145
95	0xbd5267f8	-0.051368684
96	0x3d4891cc	0.048967168
97	0xbca8b321	-0.020593228
98	0xbcb6d0b4	-0.022316314
99	0xbd336bc6	-0.043803953
100	0xbd200076	-0.03906294
101	0xbbdfef94	-0.00683398
102	0xbb1925a3	-0.002336838
103	0xbd589c30	-0.052883327
104	0xbcdb95ac	-0.026804768
105	0xbce4e9d8	-0.027943537
106	0xbd39e0c8	-0.045380384
107	0xbd0cf4cc	-0.034413144
108	0xbc5a2425	-0.013314282
109	0xbcf74f21	-0.030189099
110	0x3cca26eb	0.02467676
111	0x3d09922d	0.03358667
112	0x3c2a1ab6	0.010382345
113	0xbd74d5a5	-0.05977406
114	0xbc76fa74	-0.015074361
115	0xbc8de4e3	-0.017321056
116	0x3bd7c947	0.0065852734
117	0xbc917990	-0.01775816
118	0xbcba85fc	-0.022768967
119	0xbd3bf4c9	-0.045887742
120	0x3ce51183	0.027962452
121	0xbcb107df	-0.021610199
122	0xbcb9dc5f	-0.022688089
123	0xbc9d1edd	-0.019179756
124	0xbd0aa734	-0.033850864
125	0xbce95619	-0.028483437
126	0x3c13ec80	0.009028554
127	0xbd31b72c	-0.043387577
128	0x3ca3be55	0.019988218
129	0x3ba59397	0.0050529945
130	0x3d02f905	0.031975765
131	0xbb9bdbc8	-0.0047564246
132	0xbcef2011	-0.029190095
133	0x3cf14c06	0.029455196
134	0xbc80b985	-0.015713463
135	0xbba2a6ca	-0.0049637305
136	0xbd4a684b	-0.049415868
137	0xbd76b902	-0.06023503
138	0x3c711578	0.014714591
139	0xbcaa5020	-0.02079016
140	0x3ad9921f	0.0016599334
141	0xbd048fba	-0.03236363
142	0x3cfe9cb6	0.031080585
143	0xbd06d7eb	-0.03292076
144	0x3ba4510f	0.0050145457
145	0x3bdb0117	0.0066834795
146	0x3c672ddf	0.014110058
147	0x3d8e48ac	0.06947455
148	0x3d2bb430	0.041919887
149	0xbd5c5fcd	-0.0538023
150	0x3d158894	0.036507204
151	0xbca62985	-0.02028347
152	0xbc21ab17	-0.009867451
153	0xbcb9aae8	-0.022664502
154	0x3d29a6fd	0.041419018
155	0xbd2bff3e	-0.041991465
156	0x3d64a207	0.055818584
157	0x3c8ba4aa	0.017046291
158	0x3ae9385f	0.0017793289
159	0x3b0861a3	0.002081015
160	0x3d37f9f1	0.044916097
161	0x3c209751	0.009801702
162	0x3c8fee4a	0.01756968
163	0xbd34ab40	-0.04410863
164	0x3c336f61	0.010951848
165	0x3c9d9e6c	0.01924058
166	0xbcc397bf	-0.02387607
167	0x3c94174d	0.018077517
168	0x3d04afe9	0.032394323
169	0xbcd736ca	-0.026271243
170	0xbcde453e	-0.027132627
171	0xba7d0398	-0.00096517196
172	0x3c903343	0.017602568
173	0xbcb2c5ca	-0.021822829
174	0xbc46a1a8	-0.012123503
175	0xbcd9efd9	-0.026603626
176	0xbd650e92	-0.0559221
177	0x3cb9c7f8	0.02267836
178	0x3cebad82	0.028769258
179	0xbd51d044	-0.05122401
180	0x3cb69bc3	0.02229107
181	0x3c9419cc	0.018078707
182	0xbc04094a	-0.008058855
183	0xba37d958	-0.0007013283
184	0x3c93174e	0.017955448
185	0xbb1c278e	-0.0023827287
186	0x3cf83403	0.030298239
187	0xbc32fb08	-0.010924108
188	0xbca94653	-0.020663416
189	0x3c9ecb24	0.019383974
190	0xbc1f7b1e	-0.009733943
191	0xbcc8cb36	-0.024510961
192	0x3d855ab7	0.06511443
193	0x3d20783f	0.039177176
194	0xbcea1311	-0.028573545
195	0x3c1e6b91	0.0096692005
196	0x3adab9c0	0.0016687438
197	0xbb9a2882	-0.004704536
198	0x3c9b2626	0.018939089
199	0x3bda377c	0.0066594463
200	0xbd5bb8d6	-0.05364307
201	0x3c550f27	0.013004101
202	0x3d096254	0.03354104
203	0xbc02cd52	-0.0079835225
204	0x3c82e0bc	0.015976302
205	0xbcdb1074	-0.026741244
206	0xbcf10a5a	-0.029423881
207	0xbd0831df	-0.033250686
208	0xbccb3d9d	-0.024809653
209	0x3b83faac	0.004027685
210	0x3d3872a4	0.045031205
211	0x3b9da6c0	0.004811138
212	0xbd7d7344	-0.061877504
213	0xbc96acdd	-0.018392975
214	0xbc52ecd8	-0.012873851
215	0x3d1d1c21	0.038356904
216	0x3d03272c	0.03201978
217	0xbc4ba29a	-0.012428904
218	0x3be5db3d	0.0070146606
219	0x3c5302fb	0.012879129
220	0xbcffb3ac	-0.031213604
221	0x3c87cb4f	0.016576437
222	0x3a931f83	0.0011224601
223	0xbbd84b49	-0.0066007716
224	0xbd37c88e	-0.044869
225	0x3d6753dc	0.05647646
226	0x3d0d0440	0.03442788
227	0x3b7e8596	0.0038836948
228	0x3b91fba9	0.004455049
229	0xbd4831c4	-0.048875585
230	0xbd69c052	-0.057068177
231	0x3d6a202c	0.057159588
232	0x3cc78cce	0.024359133
233	0x3d22261e	0.039587133
234	0x3d2ed197	0.04268035
235	0x3bdb7226	0.006696957
236	0xbc79d83a	-0.015249306
237	0xbc01cd69	-0.007922509
238	0xbd3e0bd1	-0.046397988
239	0xbd89a3c8	-0.06720692
240	0x3d1da3f6	0.038486443
241	0xbcbf681c	-0.023365073
242	0xbc2c960d	-0.010533822
243	0xbc44f883	-0.01202214
244	0xbc87aafe	-0.016561028
245	0xbd371e3f	-0.04470658
246	0xbc941ac1	-0.018079164
247	0x3b9db8c3	0.004813285
248	0xbd094fd1	-0.033523384
249	0x3d32df8c	0.043670222
250	0xbc6e74bc	-0.014554199
251	0xbcffae69	-0.031211095
252	0x3c84131e	0.016122397
253	0xbca8d000	-0.020606995
254	0xbce1de52	-0.02757183
255	0xbc669ac5	-0.014074986

backbone.0.conv3x3.bias f4 [32]
0	0xbc74d1b5	-0.014942576
1	0xbc9122d3	-0.0177168
2	0xbd11b457	-0.035572376
3	0xbd467f6c	-0.048461363
4	0x3cab918e	0.02094343
5	0xbcfe7916	-0.031063598
6	0xbcd6772e	-0.026179876
7	0xbca2252f	-0.019793121
8	0xbd17a0c5	-0.037018556
9	0xbd18348a	-0.03715948
10	0xbd00a90b	-0.031411212
11	0x3d3fe8b0	0.046852767
12	0x3b3e24bf	0.0029013602
13	0xbc9501ab	-0.018189272
14	0xbb8c8ad9	-0.004289013
15	0x3d256102	0.040375717
16	0xbce48054	-0.027893223
17	0x3c9e40f0	0.019318074
18	0xbc129d3d	-0.008948621
19	0xbd280565	-0.04102077
20	0x3d01e15c	0.03170906
21	0x3cbade77	0.022811158
22	0x3d10fd12	0.035397597
23	0x3cb4c750	0.022067696
24	0x3c057e28	0.008147754
25	0x3c769aa2	0.015051516
26	0xbd13b882	-0.036064632
27	0x3d3d9f2a	0.04629437
28	0xbcff3908	-0.031155124
29	0x3d0acb38	0.03388521
30	0xbcf8445f	-0.03030604
31	0xbd0ea3b3	-0.034824084

backbone.0.bn.weight f4 [32]
0	0x3f7f7184	0.99782586
1	0x3f7c4aa7	0.9855141
2	0x3f816c5b	1.0111192
3	0x3f7ca70d	0.986924
4	0x3f81cafd	1.0140072
5	0x3f7f3f52	0.99705994
6	0x3f809588	1.0045633
7	0x3f7da673	0.99082106
8	0x3f7dbf7f	0.99120325
9	0x3f80a79f	1.0051154
10	0x3f7a28be	0.9771842
11	0x3f80f936	1.0076053
12	0x3f827541	1.0192033
13	0x3f7f276e	0.9966954
14	0x3f7ef683	0.995949
15	0x3f7fef8f	0.9997491
16	0x3f7d29e9	0.98892075
17	0x3f7e5b7e	0.99358356
18	0x3f8006ff	1.0002135
19	0x3f80c67f	1.0060576
20	0x3f80454e	1.002115
21	0x3f7ef06b	0.995856
22	0x3f813165	1.0093199
23	0x3f7d0f58	0.9885154
24	0x3f82f5db	1.0231279
25	0x3f7f4215	0.9971021
26	0x3f8061e0	1.0029869
27	0x3f7d3548	0.98909426
28	0x3f7eed82	0.9958116
29	0x3f7dcf77	0.9914469
30	0x3f7d5d3c	0.9897039
31	0x3f7de483	0.99176806

backbone.0.bn.bias f4 [32]
0	0x3c60876d	0.013704163
1	0xbcf609df	-0.030034004
2	0xbd3d1a9d	-0.04616796
3	0xbcecc059	-0.028900312
4	0xbdba1b2a	-0.090872124
5	0x3c90ab28	0.017659739
6	0xbd00a4dd	-0.031407226
7	0x3add1087	0.0016865887
8	0x3c65f8a9	0.014036336
9	0xbd56aa58	-0.052408546
10	0xbc8e35fa	-0.017359722
11	0xbd739c87	-0.059475448
12	0xbd288864	-0.041145697
13	0x3bba8ae3	0.005692826
14	0x3cc1d2d7	0.023660107
15	0xbceaa682	-0.02864385
16	0xbc670203	-0.014099601
17	0xbbcf31d7	-0.00632308
18	0x3ba84224	0.0051348377
19	0xbd8163bd	-0.06317852
20	0xbce34655	-0.027743498
21	0x3c8a694a	0.016895909
22	0xbd4c8fdc	-0.049941882
23	0xbc3a1371	-0.011357174
24	0xbce297a9	-0.027660208
25	0x3cf9a058	0.030471966
26	0xbce5dae9	-0.028058486
27	0x3d2a8bf1	0.041637365
28	0x3d30ea88	0.043192416
29	0x3d148e4a	0.03626851
30	0xbd888c08	-0.06667334
31	0x3bbdabf2	0.0057883197

backbone.0.bn.running_mean f4 [32]
0	0xbed78d7e	-0.42100137
1	0xbe41be8f	-0.18920349
2	0x3d4c7585	0.049916763
3	0x3e4e2003	0.20129399
4	0x3e38e827	0.18057309
5	0xbf354e51	-0.70822626
6	0x3e7ff5fe	0.24996182
7	0xbec8be94	-0.392079
8	0xbf28c69f	-0.6592807
9	0x3e7d2ab2	0.24723318
10	0xbe0518c4	-0.12997729
11	0x3e555538	0.2083329
12	0x3f066cb0	0.52509594
13	0xbf124586	-0.57137334
14	0xbf022582	-0.5083848
15	0x3f02db4f	0.5111589
16	0xbe865588	-0.2623713
17	0xbefe78c9	-0.49701527
18	0xbf0def31	-0.554431
19	0x3f01e61a	0.5074173
20	0x3da9d49b	0.082925044
21	0xbefbed9d	-0.49204722
22	0x3f13d4ea	0.57746756
23	0xbf350cdc	-0.70722747
24	0xbf0da0d9	-0.5532356
25	0xbe9fe824	-0.31231797
26	0xbd667ba4	-0.056270257
27	0xbf2b5736	-0.6692995
28	0xbf2c97f4	-0.6741936
29	0xbede4145	-0.43409172
30	0x3f0350dd	0.5129526
31	0xbf059a8c	-0.52188945

backbone.0.bn.running_var f4 [32]
0	0x3de3a0ec	0.11114678
1	0x3c70fbe0	0.014708489
2	0x3bde295b	0.0067798323
3	0x3ca24699	0.019809054
4	0x3c6b4e35	0.014361908
5	0x3e168a3a	0.14701167
6	0x3cd45eef	0.025924174
7	0x3d419ca2	0.047268517
8	0x3dffbd3c	0.124872655
9	0x3cf9ffb5	0.030517438
10	0x3d221c98	0.03957805
11	0x3c93b9b4	0.018032886
12	0x3dc3d8ec	0.09562859
13	0x3dd19044	0.102325946
14	0x3d9f56be	0.07780217
15	0x3da72b4d	0.08162556
16	0x3ccda628	0.025103644
17	0x3db7533d	0.08951423
18	0x3dddba0f	0.108265035
19	0x3dd75742	0.1051469
20	0x3b4c66ce	0.0031189206
21	0x3db0eeef	0.08639323
22	0x3dd20dc5	0.102565326
23	0x3e2eeea7	0.17083226
24	0x3dc7b2dd	0.09750912
25	0x3d23c45d	0.03998219
26	0x3aa5c396	0.001264679
27	0x3e22a0a0	0.15881586
28	0x3e072cfc	0.13200754
29	0x3d94e841	0.072708614
30	0x3dba005e	0.09082101
31	0x3d8ee215	0.069767155

backbone.1.conv3x3.weight f4 [32, 32, 3, 3]
0	0x3cd17ccc	0.025572203
1	0x3d248e06	0.040174507
2	0xbca491f1	-0.020089122
3	0x3c9ad8e0	0.018902242
4	0xbd476f76	-0.04869028
5	0xbc13933d	-0.009007272
6	0x3d53acfa	0.051678635
7	0x3d5c3225	0.05375876
8	0xbcc54065	-0.024078557
9	0x3ca4b8a2	0.020107571
10	0x3d4a06ac	0.04932277
11	0x3ccae241	0.02476609
12	0x3b6b0e60	0.0035866722
13	0xbd505231	-0.050859634
14	0x3ca05fd2	0.01957694
15	0x3c325ed3	0.010886866
16	0xbd157dce	-0.03649693
17	0x3d0747a3	0.033027302
18	0xbd01875a	-0.031623222
19	0x3d76e0d8	0.06027302
20	0x3b8248c1	0.003975958
21	0x3d3b05ae	0.045659713
22	0xbc1b8123	-0.009491238
23	0xbcac11d4	-0.021004595
24	0x3d430671	0.047613565
25	0x3d287350	0.041125596
26	0x3d872d12	0.06600393
27	0x3c94d408	0.01816751
28	0xbcdaf180	-0.026726484
29	0xbd1c95f7	-0.038228955
30	0xbd40e26d	-0.047090936
31	0xbab20912	-0.0013583025
32	0x3d3e7e3e	0.046507113
33	0xbcbde46f	-0.023180215
34	0xbc9d9123	-0.019234246
35	0x3cf4811c	0.02984672
36	0x3d78b0ae	0.06071537
37	0x3cbf6a0d	0.023365999
38	0x3c20eb05	0.009821658
39	0x3d8a0824	0.06739834
40	0x3d6f3784	0.058402553
41	0xbcfb7499	-0.030695247
42	0xbd088c54	-0.033336952
43	0xbbcc629c	-0.006237341
44	0x3cf3c21f	0.02975565
45	0xbd156482	-0.036472805
46	0xbccb5535	-0.024820903
47	0x3b923705	0.0044621252
48	0xbc59f142	-0.013302149
49	0x3d253aa4	0.040339127
50	0x3d17ea98	0.03708896
51	0x3d209394	0.03920324
52	0x3cf1c38e	0.029512193
53	0xbd14f685	-0.03636791
54	0xbd208f85	-0.03919937
55	0xbd19b330	-0.037524402
56	0xbc210b27	-0.009829319
57	0x3d3fc261	0.046816234
58	0xbc504ddb	-0.012713875
59	0x3d4ba4d6	0.049717747
60	0x3d3a3e1d	0.045469392
61	0xbd5f9e11	-0.054594103
62	0x3cc80e4d	0.024420882
63	0xbccadd66	-0.024763774
64	0xbd5f090b	-0.054451983
65	0x3c90843a	0.017641176
66	0xbc9906d5	-0.018680016
67	0xbd56dd1f	-0.05245697
68	0xbd2d3bf9	-0.042293523
69	0x3d244db9	0.040113185
70	0xbc90709d	-0.017631823
71	0x3d2cf9a7	0.042230275
72	0xbcae6ae2	-0.0212912
73	0x3d60aa64	0.054849997
74	0xbc7d3642	-0.015454831
75	0x3d687471	0.056751672
76	0x3cc737f5	0.024318675
77	0xbd29900d	-0.041397143
78	0x3cc33b69	0.02383204
79	0x3cb10e41	0.021613242
80	0xbd49c72d	-0.049262214
81	0xbd32d1de	-0.043657176
82	0x3c171cd2	0.00922318
83	0x3d155c03	0.036464702
84	0x3d659715	0.056052286
85	0xbc1c238c	-0.009529959
86	0xbd4639a7	-0.048394825
87	0x3d04e9b3	0.032449435
88	0x3c10c890	0.00883688
89	0x3be19edc	0.0068853926
90	0x3d2b063a	0.041753985
91	0x3c2aca50	0.010424212
92	0x3d57955c	0.052632675
93	0x3d38f2cf	0.045153435
94	0x3c4589dc	0.012056794
95	0x3d2ccc8a	0.04218725
96	0x3c8a1980	0.016857862
97	0xbd78e10d	-0.0607615
98	0x3d487bc4	0.048946157
99	0x3bd41297	0.0064719426
100	0xbace57fa	-0.0015742772
101	0x3d53a4ce	0.051670842
102	0x3d6c2bf4	0.057659104
103	0xbd1d495d	-0.038400043
104	0x3cea4cc2	0.028601054
105	0xbcd36aa9	-0.025807695
106	0xbc01dcf3	-0.007926214
107	0x3c9c2221	0.019059243
108	0xbc73254b	-0.014840434
109	0xbc9e8bf4	-0.019353844
110	0x3d0e1c3e	0.034694903
111	0xbbe22abe	-0.006902068
112	0x3ce19df6	0.027541142
113	0x3d7b2a8b	0.06131987
114	0x3ca9fd96	0.020750802
115	0x3ca071c1	0.019585492
116	0x3d6bf48c	0.057606265
117	0xbcc10d0a	-0.023565788
118	0xbacf6022	-0.0015821496
119	0xbd5bbd49	-0.053647313
120	0xbcb15a7a	-0.021649588
121	0xbb0c9a6a	-0.0021454343
122	0x3d5dbbc0	0.05413413
123	0x3cfcaacc	0.030843161
124	0xbc45ac2c	-0.012064975
125	0xbc911326	-0.017709326
126	0x3c35d713	0.011098641
127	0xbcf679f7	-0.030087454
128	0xbc5b296e	-0.013376577
129	0x3c88b0a6	0.016685795
130	0xbca5de43	-0.020247584
131	0x3d2555ba	0.04036496
132	0x3c9224cb	0.01783981
133	0xbc3f82e3	-0.011688921
134	0xbc732415	-0.014840146
135	0x3c1d6377	0.009606234
136	0x3d0e5fbb	0.034759264
137	0x3caf582f	0.021404354
138	0xbc42cdbb	-0.01188987
139	0x3cd3dd09	0.025862234
140	0x3b9d2590	0.0047957376
141	0xbd1cd52f	-0.038289245
142	0xbd282bbd	-0.041057337
143	0x3bf1948e	0.0073724454
144	0x3d46b745	0.048514623
145	0xbcad8554	-0.02118174
146	0x3d1ff28c	0.03904967
147	0xbc9b9286	-0.018990766
148	0x3d06216e	0.032746725
149	0xbc44b3e1	-0.012005777
150	0xbce5cc0a	-0.028051395
151	0x3c500d2c	0.012698453
152	0x3cf6d1fc	0.030129425
153	0xbd47a3f6	-0.04874035
154	0xbbfbb860	-0.0076818913
155	0x3c16a3ed	0.009194356
156	0x3be7ac9e	0.007070138
157	0x3d5ed01b	0.054397684
158	0xbd5c449b	-0.053776365
159	0x3d3c9b73	0.046046685
160	0x3cd993d0	0.02655974
161	0xbd7534c7	-0.059864786
162	0xbcc2d075	-0.02378104
163	0x3cab5c32	0.020917986
164	0xbd394f2f	-0.04524153
165	0x3d677473	0.05650754
166	0xbca0db4b	-0.019635817
167	0x3cc15191	0.023598464
168	0x3c2eb1c4	0.0106625
169	0xbcba212c	-0.022720896
170	0xbd68cc09	-0.056835208
171	0x3c069cd6	0.008216104
172	0xbd331e76	-0.04373022
173	0xbc2ec4a8	-0.010667004
174	0x3c8330e5	0.016014526
175	0xbc8397c8	-0.016063586
176	0x3d1667d1	0.0367201
177	0xbd47692d	-0.048684288
178	0xbd2cd92c	-0.0421993
179	0x3d0e6761	0.03476656
180	0xbca51fb5	-0.02015672
181	0x3d43f866	0.047844313
182	0xbbe85813	-0.0070905774
183	0xb996eb0f	-0.00028785362
184	0x3d6335fc	0.055471405
185	0xbb69e87b	-0.0035691548
186	0xbd29924c	-0.041399285
187	0xbcbee8c4	-0.02330435
188	0x3c9ef0e3	0.019401973
189	0x3d3058d4	0.043053463
190	0x3d60b1e2	0.054857142
191	0xbc904b9b	-0.017614176
192	0x3c346118	0.011009477
193	0x3d3b0098	0.045654863
194	0xbcb029fc	-0.021504395
195	0x3b88a282	0.004169763
196	0xbce5a98f	-0.028034953
197	0x3c32f6cc	0.010923099
198	0x3d80d65d	0.062908866
199	0x3d55839d	0.05212747
200	0xbd0d735e	-0.03453385
201	0x3d0c5928	0.034264714
202	0x3d7513ee	0.05983346
203	0xbb451fd2	-0.003007878
204	0x3cd70e9e	0.026252087
205	0xbd422d8d	-0.04740672
206	0x3d21fd11	0.039547984
207	0xbc2a1227	-0.010380304
208	0x3d5c3b35	0.0537674
209	0x3d28372e	0.04106825
210	0xbd04b66c	-0.032400534
211	0xbccce170	-0.02500984
212	0xbd3e3375	-0.046435792
213	0xbd5e3f47	-0.054259565
214	0xbd5d1ffd	-0.053985585
215	0x3cdde5f8	0.027087197
216	0x3ce7d299	0.028298663
217	0xbd206697	-0.039160337
218	0x3d0572b8	0.032580107
219	0xbcc258cd	-0.023723984
220	0x3c3ae18e	0.0114063155
221	0x3d228f73	0.039687585
222	0x3d17d514	0.03706844
223	0xbd5b0765	-0.05347385
224	0x3c6eb019	0.014568352
225	0xbd073f94	-0.033019617
226	0xbd50bbc3	-0.050960314
227	0xbb80ff87	-0.0039367112
228	0xbc774f02	-0.0150945205
229	0x3c3d5dc8	0.011558004
230	0x3c0b6247	0.008507318
231	0x3cfc95f5	0.030833224
232	0x3ce29df8	0.027663216
233	0xbd65a2f4	-0.056063607
234	0xbd74843e	-0.05969643
235	0xbd22d7c2	-0.039756544
236	0x3d014401	0.031558994
237	0x3d356012	0.044281073
238	0xbd1c7d2b	-0.038205307
239	0x3c7430ce	0.014904214
240	0xbba790b2	-0.0051136846
241	0x3c8521db	0.016251495
242	0x3cde1c5d	0.027113134
243	0x3c209f40	0.009803593
244	0x3d1df32e	0.038561992
245	0xbc927e9d	-0.01788264
246	0x3d68b976	0.056817494
247	0xb9b18cbc	-0.00033864926
248	0xbd50f7f6	-0.051017724
249	0x3cd656ee	0.026164498
250	0x3d1fa5be	0.038976423
251	0x3d1f0bd6	0.038829647
252	0x3bc3f379	0.005979952
253	0x3c985131	0.018593403
254	0x3c8e9700	0.017405987
255	0xbcc57ba1	-0.024106802

backbone.1.conv3x3.bias f4 [32]
0	0xbd70ab1a	-0.058756925
1	0xbd0e785c	-0.034782752
2	0x3c7db7f8	0.015485756
3	0x3d669e00	0.056303024
4	0xbd4582cf	-0.048220452
5	0xbc880b50	-0.016606957
6	0xbcce8475	-0.025209645
7	0x3d12171b	0.035666566
8	0xbd1766c1	-0.036963228
9	0x3cd35185	0.025795707
10	0xbd3dd32d	-0.04634397
11	0xbd3f59de	-0.046716563
12	0xbc6b3749	-0.014356443
13	0x3cc4861a	0.023989726
14	0xbd0da449	-0.034580503
15	0xbc9cea77	-0.01915477
16	0xbc8786a9	-0.016543703
17	0xbd0cb288	-0.03434995
18	0x3b09a87f	0.0021004973
19	0x3d3646e4	0.0445012
20	0xbc89020f	-0.016724614
21	0xbd6d2826	-0.057899617
22	0x3d510655	0.05103143
23	0xbd1e0fe4	-0.038589373
24	0xbc9ab783	-0.018886333
25	0xbab2899d	-0.0013621334
26	0xbd6aa119	-0.05728254
27	0x3d657505	0.0560198
28	0xbd26eb53	-0.040751766
29	0xbccf2488	-0.025285974
30	0xbc6923d4	-0.0142297335
31	0x3bac91ca	0.005266403

backbone.1.bn.weight f4 [32]
0	0x3f7d44f7	0.98933357
1	0x3f7e48a3	0.99329585
2	0x3f809a50	1.0047092
3	0x3f7d9cfb	0.9906766
4	0x3f81299d	1.0090824
5	0x3f801597	1.0006589
6	0x3f82db01	1.0223085
7	0x3f810267	1.0078858
8	0x3f7eca2e	0.9952725
9	0x3f8156b0	1.010458
10	0x3f7d6927	0.98988575
11	0x3f7c69d5	0.98598987
12	0x3f80abc3	1.0052418
13	0x3f7bdd41	0.9838448
14	0x3f81490b	1.0100416
15	0x3f7e904c	0.9943893
16	0x3f7d74b2	0.9900619
17	0x3f831386	1.0240333
18	0x3f813b1f	1.0096167
19	0x3f7bb68f	0.9832544
20	0x3f80b6f3	1.0055832
21	0x3f80adda	1.0053055
22	0x3f7f9b52	0.99846375
23	0x3f7ddc37	0.99164146
24	0x3f8130f1	1.0093061
25	0x3f7d64f7	0.98982185
26	0x3f7dd782	0.99156964
27	0x3f7dd771	0.9915686
28	0x3f7fc8d1	0.99915797
29	0x3f809af8	1.0047293
30	0x3f81f815	1.0153834
31	0x3f804bfc	1.0023189

backbone.1.bn.bias f4 [32]
0	0xbd048883	-0.03235675
1	0xbd1e4376	-0.038638555
2	0x3d0dca79	0.03461692
3	0xbc0e11a8	-0.008671202
4	0x3d144906	0.036202453
5	0xbd617689	-0.055044685
6	0x3d4171bc	0.047227606
7	0xbd79fae1	-0.061030272
8	0xbc443f4e	-0.011977984
9	0xbd8488fa	-0.06471439
10	0x3a84ec2d	0.0010141187
11	0xbced979b	-0.029002955
12	0xbdb45668	-0.08805543
13	0xbd0ff560	-0.035146117
14	0xbd659d30	-0.05605811
15	0xbd50a8fa	-0.0509424
16	0xbc8a20c3	-0.016861325
17	0x3d3f212c	0.046662495
18	0xbd579718	-0.05263433
19	0xbc002890	-0.007822171
20	0xbca0ff9f	-0.01965314
21	0x3c93d31a	0.018044997
22	0xbd0f9bc6	-0.035060667
23	0xbd254f62	-0.04035891
24	0xbd5659aa	-0.052331604
25	0xbcb1cc13	-0.021703755
26	0x3af6fb23	0.0018843155
27	0xbcec5559	-0.02884929
28	0xbd7f40a3	-0.0623175
29	0xbd67aaff	-0.05655956
30	0x3d875fa1	0.06610037
31	0xbd68ff6e	-0.05688422

backbone.1.bn.running_mean f4 [32]
0	0x3ea7d8cf	0.327826
1	0x3ef9bbae	0.48776
2	0xbf145f6b	-0.57958096
3	0x3d1bd710	0.038046896
4	0xbf4b6d7a	-0.7946392
5	0x3e8b59d6	0.27216977
6	0xbf386adb	-0.7203805
7	0x3f561df6	0.83639467
8	0x3d21aa1f	0.03946888
9	0x3ed54aa6	0.41658515
10	0xbf09693c	-0.536762
11	0x3ef4af35	0.47789922
12	0x3eb94526	0.3618557
13	0x3e4f1d42	0.20226005
14	0x3e905f52	0.28197724
15	0x3ecd2e51	0.400744
16	0xbe29b785	-0.16573913
17	0xbf6371d8	-0.88845587
18	0x3ef17581	0.4715996
19	0xbec3cd3e	-0.38242525
20	0x3eac14f8	0.33609748
21	0xbe410489	-0.18849386
22	0x3e843c90	0.25827456
23	0x3e9c1caf	0.30490634
24	0x3f0c4eab	0.5480754
25	0x3c2d2af6	0.010569325
26	0xbdfce556	-0.1234843
27	0x3f2e5213	0.68093985
28	0x3e8bc7ee	0.27300972
29	0x3f598e0d	0.8498238
30	0xbf225980	-0.63417816
31	0x3f2b6be5	0.6696151

backbone.1.bn.running_var f4 [32]
0	0x3ea45689	0.3209727
1	0x3e811a08	0.25215173
2	0x3f2ef301	0.68339545
3	0x3f0de56e	0.55428207
4	0x3f944bbf	1.1585616
5	0x3e552cbb	0.20817845
6	0x3f7b9994	0.98281217
7	0x3edffdc5	0.43748298
8	0x3e1d5cea	0.15367475
9	0x3e9a010a	0.30078918
10	0x3e225be3	0.15855365
11	0x3e4c4ad4	0.1995042
12	0x3e8adc56	0.27121228
13	0x3e240fb6	0.16021618
14	0x3ead0c11	0.33798268
15	0x3e528ccc	0.20561522
16	0x3eb9979d	0.36248484
17	0x3fad5258	1.3540754
18	0x3e338ced	0.17534228
19	0x3f3aaa85	0.7291644
20	0x3ead9be3	0.33907995
21	0x3d1c9948	0.038232118
22	0x3e277bdc	0.16355842
23	0x3e677898	0.22604597
24	0x3ec1b8c4	0.37836277
25	0x3d4c6c24	0.04990782
26	0x3eb4f5f4	0.35343897
27	0x3e6fc020	0.23413134
28	0x3e8e95df	0.27848718
29	0x3f23bc14	0.6395886
30	0x3f4425d6	0.76620233
31	0x3f072c57	0.5280203

backbone.2.conv3x3.weight f4 [32, 32, 3, 3]
0	0x3d72608d	0.05917411
1	0x3d0d8119	0.034546945
2	0x3d41260a	0.047155418
3	0x3d3e399a	0.046441652
4	0xbc18e45b	-0.009331788
5	0xbc994b0b	-0.018712541
6	0x3c9ddbba	0.019269813
7	0xbd495b59	-0.04915938
8	0xbba83cd4	-0.0051342044
9	0xbaf38f83	-0.0018582199
10	0xbc560886	-0.013063556
11	0x3c2440c0	0.010025203
12	0xbc93d465	-0.018045614
13	0xbd1f2e7e	-0.038862698
14	0xbcc22c9a	-0.023702908
15	0x3d552a6f	0.05204242
16	0xbd53e8eb	-0.0517358
17	0xbc020370	-0.00793539
18	0x3d5193da	0.051166393
19	0xbb5049f7	-0.0031782368
20	0x3cdd2929	0.026997166
21	0x3cbec0ee	0.023285355
22	0x3cfd1999	0.030895995
23	0x3d82b3f1	0.06381977
24	0x3d560d0d	0.05225854
25	0xbabe1a8e	-0.0014503764
26	0x3b9b3b8c	0.004737323
27	0x3d5b491c	0.05353652
28	0xbd717ef8	-0.058958977
29	0xbd5fb091	-0.054611746
30	0x3d08f99a	0.033441164
31	0xbd1e4035	-0.03863545
32	0x3c7a10b5	0.015262772
33	0xbca6e434	-0.020372488
34	0xbd2a0bed	-0.04151528
35	0x3d4f3644	0.05058886
36	0x3d11f926	0.035637997
37	0xbb431e74	-0.002977279
38	0x3cd11cb8	0.02552639
39	0x3bd5a259	0.0065195975
40	0x3b0872ea	0.0020820447
41	0x3d53d03e	0.051712267
42	0x3bea6398	0.007152986
43	0x3c8fa571	0.017534943
44	0xbccb710a	-0.024834175
45	0x3bf815c4	0.007570954
46	0x3d2a8c71	0.04163784
47	0x3d02ea56	0.03196176
48	0x3cf3d19d	0.029763037
49	0x3cd9c64c	0.026583813
50	0x3d424619	0.04743013
51	0xbb5236b0	-0.0032076053
52	0xbd43bbbc	-0.04778646
53	0xbccc1523	-0.024912423
54	0x3d00137e	0.03126859
55	0x3d5fdb15	0.054652292
56	0x3d74ef11	0.059798304
57	0x3c718f4b	0.014743636
58	0xbb4a39ca	-0.00308572
59	0x3dab74b6	0.0837187
60	0xbd230ba4	-0.039806023
61	0x3dab7829	0.08372528
62	0xbca1a7d2	-0.019733343
63	0xbb2764a7	-0.0025542171
64	0x3d0e166d	0.034689356
65	0x3c9313bd	0.017953748
66	0x3d6b821c	0.05749713
67	0x3c1ff302	0.009762527
68	0xbd4074e6	-0.046986483
69	0x3d2d2140	0.042268038
70	0xbb5b191f	-0.0033431721
71	0x3d762643	0.060095083
72	0x3d24a61b	0.040197473
73	0x3bd794b6	0.006579007
74	0x3cf863d1	0.030321034
75	0xbcb9bc84	-0.022672899
76	0xbd4ac3d1	-0.04950315
77	0xbd1b61ba	-0.037934996
78	0xbc36b0bc	-0.011150535
79	0xbd0ed825	-0.0348741
80	0xbd3a59d8	-0.045495838
81	0x3d291b74	0.041285947
82	0xbc05cdc0	-0.00816673
83	0x3d34202d	0.043975998
84	0x3b0acb4d	0.0021178306
85	0xbc8c6866	-0.017139625
86	0xbd4657ee	-0.0484237
87	0xbd345ae7	-0.044032004
88	0x3d40c630	0.047064006
89	0x3ce48054	0.027893223
90	0xbc9ee854	-0.019397892
91	0xbcd3d48b	-0.025858184
92	0xbd82a0fc	-0.063783616
93	0x3d2f4e0f	0.04279905
94	0x3d471d47	0.048611905
95	0xbd1e8b76	-0.03870722
96	0x3a3a27e5	0.00071012817
97	0xbd4e936b	-0.050433557
98	0xbd196b13	-0.03745563
99	0x3c242a0c	0.01001979
100	0xbce050f3	-0.02738235
101	0xbd5aaf4e	-0.05338984
102	0xbc8fef14	-0.017570056
103	0xbd305219	-0.043047044
104	0x3c7aa8d5	0.015299042
105	0xbce0d9a2	-0.027447525
106	0x3d67ebda	0.05662141
107	0x3d07b3bd	0.033130396
108	0x3d81c10f	0.06335651
109	0xbd360479	-0.04443786
110	0x3d0bb6c1	0.034109835
111	0x3d6179e9	0.055047903
112	0x3c4914c2	0.012273015
113	0xba650d18	-0.0008737608
114	0x3d20b34b	0.039233487
115	0x3cda3f77	0.02664159
116	0xbc70526e	-0.01466809
117	0xbd48bf98	-0.049010843
118	0xbcebf6a8	-0.028804138
119	0x3d1e71a4	0.038682595
120	0x3d47d317	0.048785295
121	0x3c1a4cb5	0.009417702
122	0xbca435fd	-0.020045275
123	0x3d0375eb	0.032094877
124	0xbbdf0037	-0.0068054455
125	0x3cd4a9e5	0.025959918
126	0xbcf5ccb5	-0.030004838
127	0x3d3119b8	0.043237418
128	0xbc807f17	-0.015685601
129	0x3c9cf878	0.019161448
130	0x3c9c97bb	0.01911532
131	0x3d86a935	0.065752424
132	0x3d81d220	0.06338906
133	0xbd1c8a0f	-0.0382176
134	0x3d1fc29b	0.03900395
135	0xbd44f37d	-0.04808377
136	0xbce92641	-0.028460624
137	0x3cea4d5c	0.028601341
138	0xbd11adf8	-0.0355663
139	0x3d5c8e3e	0.05384659
140	0x3cf19e60	0.029494464
141	0x3c2da485	0.010598307
142	0x3d22c7b6	0.03974124
143	0xbd280a10	-0.04102522
144	0x3ba2ff30	0.0049742684
145	0x3c58b4ca	0.013226697
146	0xbd0d6064	-0.034515753
147	0xbcbe8f18	-0.023261592
148	0x3c852354	0.016252197
149	0x3d3f285b	0.046669345
150	0xbcc6a459	-0.024248289
151	0x3d0889bb	0.033334475
152	0x3d04d593	0.032430243
153	0xbc91e92a	-0.017811377
154	0xbcd4ca2d	-0.025975311
155	0x3cb68a84	0.022282846
156	0x3d5a354f	0.053273495
157	0xbcaa6d73	-0.020804143
158	0xbb47f9bb	-0.0030513841
159	0x3d745361	0.05964983
160	0x3b902e1b	0.0044000275
161	0xba88a66c	-0.0010425574
162	0x3ba9ada6	0.005178171
163	0x3d866d12	0.06563772
164	0x3d44532e	0.04793089
165	0x3d183f48	0.037169725
166	0x3c73a1a1	0.014870078
167	0xbca8738c	-0.02056291
168	0xbd19bf80	-0.037536144
169	0x3d256cf3	0.040387105
170	0x3cd96c3d	0.02654087
171	0x3c7edea5	0.015556012
172	0xbd0c9038	-0.034317225
173	0xbd90ffcb	-0.07080039
174	0x3b7c8a9f	0.0038534773
175	0xbcc3712a	-0.023857672
176	0xbd044a39	-0.032297347
177	0x3a429a90	0.00074235443
178	0xbd41fca7	-0.04736009
179	0xbd8159b4	-0.06315938
180	0xbc742dc3	-0.014903489
181	0x3ce53993	0.027981555
182	0xbd2cd476	-0.042194806
183	0x3d6189a6	0.055062912
184	0xbd52366e	-0.05132144
185	0xbd25353f	-0.040333983
186	0x3cc4ddba	0.024031509
187	0xbd372b60	-0.0447191
188	0xbcda15f9	-0.026621806
189	0x3d51d791	0.05123097
190	0xbbd4a41e	-0.006489291
191	0x3ce32909	0.027729528
192	0xbc5ace79	-0.013354891
193	0x39f1c12c	0.00046111026
194	0x3cb16b4b	0.021657607
195	0x3c1f642a	0.009728471
196	0x3d664f79	0.056228135
197	0x3c4037fc	0.011732098
198	0x3c7c619b	0.01540413
199	0xbcc91800	-0.024547577
200	0x3d6e70e4	0.05821313
201	0x3b897505	0.004194858
202	0x3d20c973	0.039254617
203	0xbd293d06	-0.041317962
204	0x3d0dc23b	0.03460906
205	0x3d552189	0.052033935
206	0x3d3395ac	0.04384391
207	0x3d6ca6ba	0.05777619
208	0xbc929117	-0.01789145
209	0xbd11a547	-0.03555801
210	0x3d003573	0.031300973
211	0x3d0b3aac	0.0339915
212	0xbce171e1	-0.027520122
213	0xbc2e5a8d	-0.010641706
214	0x3c0c646c	0.008568864
215	0x382356b4	3.8942977e-05
216	0x3d1823db	0.03714357
217	0x3d4b6b05	0.04966261
218	0x3cc01465	0.023447225
219	0xbc73fe83	-0.014892223
220	0xbcf0633f	-0.0293442
221	0x3d692911	0.05692393
222	0x3c8132a2	0.015771214
223	0xbcb6b812	-0.022304568
224	0xbd144bb1	-0.036204997
225	0xbd1cb22d	-0.03825586
226	0x3d6196e4	0.05507554
227	0xbd4b4fa0	-0.049636483
228	0xbd52bff5	-0.051452596
229	0xbd0f3a4c	-0.034967706
230	0xbcf4d2c9	-0.029885666
231	0xbb62f536	-0.003463102
232	0xbd214fb2	-0.039382644
233	0x3c7a1aea	0.015265206
234	0xbc5df385	-0.013546829
235	0xbcbf79d7	-0.023373527
236	0xbd158e5b	-0.036512714
237	0xbcb61121	-0.022224965
238	0x3d5e15d0	0.05422002
239	0xba8bc2dd	-0.0010662932
240	0x3bd876d6	0.006605963
241	0xbd890a81	-0.066914566
242	0x3cedf149	0.029045718
243	0x3ca5c6f1	0.020236464
244	0x3b7aa51b	0.0038245383
245	0x3c42fa05	0.01190043
246	0xbc8e9f30	-0.01740989
247	0xbd19ddff	-0.037565228
248	0xbcabc62a	-0.020968515
249	0x3cec937f	0.028878925
250	0x3d6f7663	0.05846251
251	0xbcf5a78a	-0.029987115
252	0x3d09a230	0.03360194
253	0xbcb8073d	-0.022464389
254	0x3d4d90c3	0.050186884
255	0x3c531447	0.012883252

backbone.2.conv3x3.bias f4 [32]
0	0x3cfe0f73	0.031013226
1	0x3cecced2	0.028907213
2	0xbd640005	-0.05566408
3	0x3c9ff7ab	0.019527277
4	0x3d0e18fa	0.03469179
5	0xbcb0221a	-0.021500636
6	0xbc72e5b2	-0.014825271
7	0xbc895401	-0.016763689
8	0x3d21bac0	0.03948474
9	0xbceb552a	-0.028727133
10	0x3bfd320f	0.0077269147
11	0x3d695c1a	0.0569726
12	0x3d489fe4	0.04898061
13	0x3cc73768	0.024318412
14	0x3d32753b	0.04356883
15	0xbd37deb2	-0.044890113
16	0x3ba2ac67	0.0049643996
17	0xbd1f7fc3	-0.038940202
18	0xbcc7cf6d	-0.0243909
19	0x3d4479cf	0.04796773
20	0x3d3d688c	0.04624228
21	0x3d24aa71	0.040201608
22	0xbcec4253	-0.02884022
23	0xbc4199c6	-0.011816448
24	0x3d608c5b	0.054821353
25	0x3cca5dcc	0.024702929
26	0xbcdeebfd	-0.027212137
27	0x3d3513cc	0.044208333
28	0xbcb2f7e5	-0.021846721
29	0x3d5c49c6	0.053781293
30	0xbcfd1ea2	-0.030898396
31	0x3bad0f10	0.0052813366

backbone.2.bn.weight f4 [32]
0	0x3f817817	1.0114774
1	0x3f7e328e	0.9929589
2	0x3f7b5cc3	0.9818842
3	0x3f82a1d0	1.0205631
4	0x3f812e2d	1.0092217
5	0x3f760153	0.9609577
6	0x3f7da1fc	0.99075294
7	0x3f7f0fbd	0.9963339
8	0x3f81a98b	1.0129865
9	0x3f81c972	1.0139601
10	0x3f7d80e5	0.990248
11	0x3f805f3a	1.0029061
12	0x3f7d02ec	0.98832583
13	0x3f80e127	1.0068711
14	0x3f808fc3	1.0043873
15	0x3f7dbf5d	0.9912012
16	0x3f7ecc8b	0.9953086
17	0x3f7da9e5	0.99087363
18	0x3f7bf9d7	0.984281
19	0x3f809386	1.004502
20	0x3f7d2e03	0.98898333
21	0x3f7cf243	0.9880716
22	0x3f7be86c	0.9840152
23	0x3f7f15f9	0.996429
24	0x3f7e7e83	0.9941179
25	0x3f7f25a6	0.9966682
26	0x3f81028f	1.0078906
27	0x3f7d1511	0.9886027
28	0x3f8186bb	1.0119241
29	0x3f7f97ee	0.998412
30	0x3f80a6d0	1.0050907
31	0x3f802f13	1.0014366

backbone.2.bn.bias f4 [32]
0	0xbd79237f	-0.060824867
1	0x3b41b6eb	0.002955849
2	0xbc86ff51	-0.016479166
3	0xbd4ca55a	-0.04996238
4	0xbd88765b	-0.066631995
5	0xbc7b32bd	-0.015331921
6	0x3a93f28e	0.0011287497
7	0xbd14566b	-0.036215227
8	0xbd04adf1	-0.032392446
9	0xbda4d6f8	-0.080488145
10	0xbd506f48	-0.050887376
11	0xbd14d809	-0.03633884
12	0xbcd76d75	-0.02629731
13	0xbd879b12	-0.06621374
14	0xbd64ec7a	-0.055889584
15	0x3cbe0fce	0.023200896
16	0xbcd4174e	-0.025890019
17	0xbbab5367	-0.005228448
18	0xbccda655	-0.025103727
19	0xbd0e25c4	-0.034703985
20	0xbc05ce07	-0.0081667965
21	0xbc91d489	-0.01780154
22	0xbd118c4b	-0.035534184
23	0xbd20d300	-0.039263725
24	0xbcd96c15	-0.026540795
25	0xbd19fd14	-0.03759487
26	0xbd88b7ae	-0.06675659
27	0x3c97756e	0.018488612
28	0xbd43d369	-0.04780904
29	0x3c8af290	0.016961366
30	0xbd27e8cd	-0.0409935
31	0xbd6f9040	-0.058487177

backbone.2.bn.running_mean f4 [32]
0	0x3ed60e01	0.4180756
1	0xbec5cb70	-0.38631773
2	0xbf046c87	-0.517281
3	0x3f581e52	0.84421265
4	0x3f2b39af	0.66884893
5	0x3ef67d04	0.48142254
6	0xbe922b8a	-0.28548843
7	0x3ea714ec	0.3263315
8	0x3f332344	0.69975686
9	0x3f1deb13	0.6168682
10	0x3ea5a06b	0.32348952
11	0x3eb80760	0.35943127
12	0xbe3109c1	-0.17288877
13	0x3f6ed37c	0.9329145
14	0x3f466316	0.77494943
15	0xbf405dfa	-0.75143397
16	0x3f064a52	0.52457154
17	0xbec044fc	-0.3755263
18	0x3eb628ab	0.35577902
19	0x3e515963	0.20444255
20	0xbf20fb65	-0.628836
21	0xbe68c298	-0.22730482
22	0x3ef04c56	0.4693324
23	0x3ed4b9c5	0.4154798
24	0x3f1d054e	0.6133622
25	0x3f011885	0.5042804
26	0x3ef6e9e3	0.48225316
27	0xbeab3cd7	-0.33444855
28	0x3efd3ee5	0.49462047
29	0xbe2d3b9b	-0.16917269
30	0x3f30b791	0.690301
31	0x3f18c86c	0.5968082

backbone.2.bn.running_var f4 [32]
0	0x3ef442a3	0.4770709
1	0x3fc1f82e	1.5153863
2	0x3fc7b2ea	1.5601475
3	0x3f5d0a3d	0.8634375
4	0x3f2ab834	0.6668732
5	0x3e9bd757	0.3043773
6	0x3f3dd5e2	0.74154484
7	0x3e2eba27	0.17063199
8	0x3f925a49	1.1433803
9	0x3f1d48a5	0.6143897
10	0x3dda4815	0.1065828
11	0x3f466343	0.7749521
12	0x3f434073	0.76270217
13	0x3f4f078e	0.808709
14	0x3f9fcabf	1.2483748
15	0x40081be8	2.1267033
16	0x3f308e06	0.6896671
17	0x3fb5416b	1.4160589
18	0x3faf1ecc	1.3681273
19	0x3ed15050	0.40881586
20	0x3f8ce45b	1.1007189
21	0x3f544f1d	0.8293322
22	0x3f54a468	0.83063364
23	0x3e916de7	0.2840416
24	0x3f4bb8bb	0.7957875
25	0x3f243daf	0.6415662
26	0x3e8db9ac	0.2768072
27	0x3fba1ed8	1.4540663
28	0x3f1297ca	0.5726286
29	0x3f039616	0.5140089
30	0x3f811521	1.0084573
31	0x3f2d9b57	0.67815155

backbone.3.conv3x3.weight f4 [32, 32, 3, 3]
0	0xbd0f21ba	-0.034944274
1	0xbd411bd0	-0.047145665
2	0xbcc489e6	-0.023991536
3	0x3c007f39	0.007842832
4	0xbcfcede9	-0.030875163
5	0x3d04f809	0.032463107
6	0xbd0104c9	-0.031498704
7	0xbd0cd1ee	-0.034379892
8	0xbd443bdd	-0.047908653
9	0xbccc9de9	-0.024977641
10	0x3d3305ec	0.04370682
11	0x3d63f0b5	0.055649478
12	0xbd56b2a8	-0.052416474
13	0x3c9e2728	0.01930578
14	0x3d02e7bd	0.031959284
15	0xbd2a1455	-0.041523296
16	0xbd759160	-0.059953094
17	0x3bc5c4a6	0.006035405
18	0xbd54346f	-0.051807817
19	0x3c6d6f4c	0.014491867
20	0x3d614a55	0.05500253
21	0x3bcba8f9	0.0062152115
22	0x3d25e713	0.040503573
23	0x3d348243	0.04406954
24	0x3cda5f8a	0.026656885
25	0xbcb09447	-0.02155508
26	0xbca6ba6e	-0.020352568
27	0xbd640053	-0.05566437
28	0xbd312f9d	-0.0432583
29	0x3cc91c8b	0.024549743
30	0x3cac9a73	0.02106974
31	0xbd4d52a5	-0.050127644
32	0xbc0f83d7	-0.00875946
33	0xbc3e02c5	-0.01159734
34	0x3c727d56	0.01480039
35	0xbd3baccd	-0.045819093
36	0xbbb2c050	-0.0054550543
37	0x3c404315	0.011734744
38	0x3b1caa6d	0.0023905293
39	0xbca19edd	-0.019729072
40	0x3ce9337f	0.028466938
41	0xbd482671	-0.048864786
42	0xbc938e98	-0.01801233
43	0xbd6e5ce9	-0.058194075
44	0x3c7ecf97	0.015552423
45	0xbcb74388	-0.022371069
46	0x3d24a7cb	0.040199082
47	0x3a961f2d	0.0011453383
48	0xbc9a53e5	-0.018838832
49	0x3d6a7294	0.057238176
50	0xbcfee19b	-0.031113436
51	0x3d150cdb	0.036389213
52	0x3d7e6e24	0.062116757
53	0xbd40de8c	-0.047087237
54	0x3cba9654	0.02277676
55	0xbd41a678	-0.047277898
56	0x3d181aaa	0.037134804
57	0xbcc6b62a	-0.024256784
58	0x3b15d190	0.0022860505
59	0xbc5ec023	-0.013595614
60	0x3cb7993f	0.02241194
61	0xbb1aeafa	-0.0023638592
62	0xbd276244	-0.040865198
63	0xbd26d207	-0.04072764
64	0x3b1e461b	0.0024150673
65	0xbcf43cf1	-0.029814215
66	0x3c42dbdd	0.01189324
67	0x3d3f754a	0.046742715
68	0x3cfb5020	0.030677855
69	0x3c5fa673	0.013650524
70	0x3d7bb782	0.061454304
71	0x3cb45f36	0.022018056
72	0xbc5ee054	-0.013603289
73	0xbd786c24	-0.060650006
74	0xbb6159b5	-0.0034385745
75	0xbd37edc2	-0.044904478
76	0xbc833b1d	-0.016019398
77	0xbd7169e6	-0.058938883
78	0xbcfb280e	-0.030658748
79	0xbd15a8d7	-0.03653797
80	0xba5dd122	-0.0008461644
81	0xbaa54370	-0.0012608599
82	0xbc820d32	-0.015875433
83	0xbd2e7505	-0.042592067
84	0xbd87b150	-0.066256166
85	0x3c10e1f5	0.008842935
86	0x3d3ea12c	0.046540424
87	0x3d010335	0.0314972
88	0xbd44958b	-0.047994178
89	0xbd7895c6	-0.06068971
90	0xbd3fea1c	-0.046854123
91	0xbd0fffee	-0.035156183
92	0xbcb1738a	-0.021661539
93	0x3d62e1b1	0.055391017
94	0xbc189c3a	-0.009314591
95	0x3d12b9e1	0.0358218
96	0x3cb41079	0.021980511
97	0x3cab1c72	0.020887587
98	0xbd48e937	-0.049050536
99	0x3d537d2c	0.051633045
100	0x3cedc117	0.029022736
101	0xbd652442	-0.05594278
102	0xbd19703f	-0.03746056
103	0x3cc30c88	0.023809686
104	0xbc0ee9ac	-0.008722704
105	0xbd178887	-0.036995437
106	0x3c2b5984	0.010458354
107	0xbd470941	-0.04859281
108	0x3d2d5cf1	0.042324964
109	0x3d7156b9	0.058920596
110	0x3d3f9a1f	0.04677784
111	0x3cb6c653	0.022311365
112	0xbcf12c4c	-0.029440068
113	0x3b637c14	0.0034711407
114	0x3cabd188	0.020973936
115	0x3c7c5ed8	0.015403472
116	0x3d570c73	0.052502107
117	0x3c07b159	0.008282029
118	0xbd51412a	-0.051087536
119	0xbd29add6	-0.04142555
120	0x3d192feb	0.037399214
121	0x3d033eee	0.032042436
122	0x3c307226	0.010769403
123	0x3beb67c6	0.0071840016
124	0x3cfd023a	0.03088485
125	0xbd7c07cf	-0.061530884
126	0xbd8e86f8	-0.06959337
127	0xbd2c708e	-0.042099528
128	0xbd2bc777	-0.04193827
129	0xbcb35089	-0.021888988
130	0x3c297eef	0.010345205
131	0xbcef8626	-0.029238772
132	0xbc5ed4f7	-0.013600579
133	0xbd69b04d	-0.0570529
134	0xbd0e0a19	-0.0346776
135	0x3ceacd11	0.028662236
136	0x3d012c9a	0.031536676
137	0xbcf3af13	-0.029746568
138	0x3c22ec5b	0.009944047
139	0x3d168bf6	0.03675457
140	0x3d03c9ad	0.032174755
141	0xbc9ee542	-0.019396428
142	0xbd5c5b18	-0.05379781
143	0xbd0ddbf7	-0.034633603
144	0x3cce8d1a	0.025213767
145	0xbd1b0ac9	-0.037852082
146	0x3c1c4caf	0.009539767
147	0xbd4c95ab	-0.049947422
148	0x3c37a904	0.01120973
149	0x3cc1908d	0.023628497
150	0xbc862c0d	-0.016378427
151	0x3d367b6f	0.04455131
152	0x3cbde806	0.023181926
153	0x3b96aaa2	0.0045979777
154	0xbbc03d41	-0.005866677
155	0x3c21b1b5	0.009869029
156	0xbcfd6b8d	-0.030935073
157	0xbb8ee307	-0.00436056
158	0xbd580d56	-0.052747093
159	0x3be50b55	0.0069898763
160	0xbaf04fe0	-0.0018334351
161	0xbd6d1f56	-0.057891212
162	0xbc9ea4d1	-0.0193657
163	0x3cb5203d	0.022110099
164	0xbd315658	-0.043295234
165	0x3c986d28	0.018606737
166	0xbd1d7dc4	-0.038450018
167	0xb9725d4f	-0.00023113679
168	0xbc2dc04a	-0.010604927
169	0xbd0fd912	-0.035119124
170	0xbb453f88	-0.0030097682
171	0xbd024048	-0.031799585
172	0xbc3b53ab	-0.011433522
173	0x3b1bfc23	0.0023801408
174	0xbc3a6eea	-0.011378983
175	0xbc0d065a	-0.008607471
176	0x3d2c7b14	0.042109564
177	0x3d34b64f	0.044119176
178	0xbcf8ebcf	-0.03038588
179	0x3ba1bd3b	0.004935888
180	0x3ccb51ed	0.024819339
181	0x3bce29f0	0.0062916204
182	0xbbcb79aa	-0.006209572
183	0xbcc48b4b	-0.023992201
184	0x3c2f99d2	0.010717826
185	0xbd382546	-0.04495742
186	0xbcbe2656	-0.02321164
187	0xbcfad937	-0.030621154
188	0x3acdfb1a	0.0015715093
189	0x3c6379a9	0.0138839865
190	0xbd4c01f4	-0.04980655
191	0xbd37492e	-0.044747524
192	0xbc335dfb	-0.0109477
193	0x3cc0909d	0.023506457
194	0xbd4ffcfc	-0.050778374
195	0x3bb153c8	0.005411599
196	0xbcc79725	-0.024364064
197	0xbd368011	-0.044555727
198	0x3d5bb182	0.05363608
199	0xbd14d960	-0.036340117
200	0xbcd76eb8	-0.026297912
201	0x3d6e4dbe	0.05817961
202	0xbcfe89b2	-0.031071518
203	0xbcb78e92	-0.02240685
204	0xbd17758c	-0.036977336
205	0xbd0177fd	-0.03160857
206	0x39a7b8bd	0.00031990363
207	0x3cb76269	0.022385793
208	0x3c65df87	0.014030344
209	0xbcb6b3ba	-0.022302497
210	0x3be5c740	0.007012278
211	0xbd4a6b02	-0.049418457
212	0x3d1b7b0f	0.037959155
213	0xbd2a11dc	-0.04152094
214	0x3cc9acae	0.024618473
215	0xbd401872	-0.046898313
216	0xbd1a8ad1	-0.037730042
217	0xbda353ac	-0.079749435
218	0xbc6e30e4	-0.014538024
219	0x3c88c777	0.016696675
220	0xbd797013	-0.060897898
221	0x3b9e49d6	0.0048305793
222	0xbc9ad5cb	-0.018900773
223	0x3be4b577	0.00697964
224	0xbd32629c	-0.043551072
225	0xbd6ed924	-0.05831255
226	0xbcc930dc	-0.02455943
227	0x3c22d0a7	0.009937442
228	0xbd8b01d7	-0.0678746
229	0xbd5d75ea	-0.05406753
230	0xbd649cbc	-0.055813536
231	0xbbac182c	-0.005251905
232	0xbd308e8a	-0.043104686
233	0xbd03e043	-0.032196295
234	0xbcfa172c	-0.030528627
235	0xbd24c03f	-0.040222403
236	0xbd1b4db0	-0.037915885
237	0xbd0bc83d	-0.03412651
238	0xbc82ddec	-0.015974961
239	0x3d3feb5b	0.04685531
240	0xbb651e02	-0.0034960513
241	0x3d70d334	0.05879517
242	0x3c35215f	0.01105532
243	0x3ca9fb5f	0.020749746
244	0x3c80b404	0.015710838
245	0xbc42b3f4	-0.0118837245
246	0x3d3bf298	0.045885652
247	0xbd2564b6	-0.04037925
248	0xbcddcf3e	-0.02707636
249	0xbb73db05	-0.0037209403
250	0xbac3b934	-0.0014932514
251	0xbd007b51	-0.031367604
252	0x3cea0b59	0.028569864
253	0xbd838e68	-0.06423646
254	0x3d2fc00d	0.042907763
255	0x3b174ee6	0.0023087799

backbone.3.conv3x3.bias f4 [32]
0	0xbc8a7376	-0.01690076
1	0x3acde794	0.0015709274
2	0xbd3f2c15	-0.0466729
3	0x3d63a160	0.05557382
4	0x3b5a70e3	0.0033331446
5	0xbc27387d	-0.010206339
6	0x3d3b803b	0.045776587
7	0x3d700942	0.05860258
8	0xbd6d9c3e	-0.058010332
9	0x3b165331	0.002293777
10	0xbd598249	-0.053102765
11	0xbd38fe58	-0.045164436
12	0x3bea1a9e	0.0071442863
13	0x3cd0e814	0.025501288
14	0xbcf96067	-0.030441476
15	0x3ca8cb16	0.020604651
16	0x3c90490c	0.017612956
17	0x3d28d0e4	0.04121484
18	0x3cb80ccf	0.022467045
19	0x3d14ae35	0.03629895
20	0x3be3576a	0.006937911
21	0xbd6f74e4	-0.058461085
22	0xbccf0012	-0.025268588
23	0xbb833daf	-0.004005156
24	0xbd4bb6dd	-0.04973494
25	0xbd297e25	-0.041380066
26	0xbd28b8a4	-0.041191712
27	0x3c3cf3ef	0.011532768
28	0x3c684c0d	0.014178288
29	0xbc9a3a2e	-0.01882657
30	0xbcde38f0	-0.02712676
31	0x3d042571	0.03226227

backbone.3.bn.weight f4 [32]
0	0x3f78bb66	0.9716095
1	0x3f80ad5f	1.0052909
2	0x3f7ac6fa	0.97959864
3	0x3f80145e	1.0006216
4	0x3f7e18bd	0.992565
5	0x3f7a2e3d	0.97726804
6	0x3f80ed6a	1.0072453
7	0x3f80adbf	1.0053023
8	0x3f81baed	1.013517
9	0x3f7b5e70	0.98190975
10	0x3f78a6d2	0.9712955
11	0x3f80a2da	1.0049698
12	0x3f8137c1	1.009514
13	0x3f805817	1.0026883
14	0x3f7cd113	0.9875652
15	0x3f822411	1.0167257
16	0x3f82c2f0	1.021574
17	0x3f7c0a2c	0.9845302
18	0x3f812a4d	1.0091034
19	0x3f7900d1	0.9726687
20	0x3f81a4f6	1.0128467
21	0x3f7b61e0	0.9819622
22	0x3f80b84c	1.0056243
23	0x3f8200f8	1.0156546
24	0x3f812475	1.0089251
25	0x3f811309	1.0083934
26	0x3f81d8af	1.0144252
27	0x3f7e736c	0.9939487
28	0x3f775f41	0.9662972
29	0x3f7d0013	0.9882824
30	0x3f80e274	1.0069108
31	0x3f7b9420	0.98272896

backbone.3.bn.bias f4 [32]
0	0xbc7b4f65	-0.015338753
1	0xbc4722f9	-0.012154334
2	0xbc0b17d3	-0.008489567
3	0xbd6f4766	-0.0584177
4	0xbc9ed559	-0.019388841
5	0x3b4bad5f	0.003107868
6	0xbc3839d0	-0.011244252
7	0xbce294dd	-0.027658874
8	0xbc97210c	-0.018448375
9	0xbd02425f	-0.031801578
10	0xbc6666bc	-0.01406258
11	0xbd1d03dc	-0.03833376
12	0xbcb31058	-0.02185838
13	0xbcc1df23	-0.02366597
14	0xbcad6908	-0.021168247
15	0xbcf5dd5b	-0.030012777
16	0xbbe957bb	-0.007121054
17	0xbce93aca	-0.028470416
18	0xbcb75e85	-0.022383938
19	0xbcad42e2	-0.021150056
20	0xbbb6c097	-0.0055771577
21	0xbb040460	-0.002014421
22	0xbd14bc85	-0.0363126
23	0xbc4856f5	-0.012227763
24	0xbc4820f3	-0.012214887
25	0xbcc196c8	-0.023631468
26	0xbb47750e	-0.003043476
27	0xbc99a007	-0.018753065
28	0xbd1a782d	-0.037712265
29	0xbc4ba377	-0.01242911
30	0xbd5b21bd	-0.053498972
31	0xbcc53bf6	-0.024076443

backbone.3.bn.running_mean f4 [32]
0	0xbf0ee2e5	-0.55814964
1	0x3f08476a	0.5323397
2	0xbef0a691	-0.4700208
3	0x3ee0dd2e	0.43918747
4	0x3ed5d2a6	0.41762275
5	0xbf193022	-0.5983907
6	0x3ecfba7b	0.4057196
7	0x3f159f15	0.58445865
8	0x3ef72f19	0.4827812
9	0xbea2a2b2	-0.31764752
10	0xbf35ff15	-0.7109235
11	0x3eb96b38	0.36214614
12	0x3f02ffdc	0.5117166
13	0x3e98f35e	0.29873174
14	0x3e106319	0.14100303
15	0x3f039fdb	0.51415795
16	0x3e93715d	0.28797427
17	0x3e87f995	0.26557603
18	0x3f024896	0.5089201
19	0xbe0b2d56	-0.13591513
20	0x3eb88d20	0.3604517
21	0xbeeac3ad	-0.45852414
22	0x3eb3a9cb	0.3509048
23	0x3ede1505	0.43375412
24	0x3ec34b7d	0.3814353
25	0x3e69177a	0.22762862
26	0x3f1a74f8	0.6033473
27	0x3e7dac28	0.24772704
28	0xbe9992aa	-0.29994708
29	0xbebc62df	-0.36794183
30	0x3f0d39d9	0.55166394
31	0xbe217b6d	-0.1576974

backbone.3.bn.running_var f4 [32]
0	0x40a5dc51	5.183144
1	0x3fc1310d	1.5093094
2	0x4045aa44	3.0885172
3	0x3ec8eaf5	0.39241758
4	0x3fad3383	1.3531345
5	0x40ea5ea9	7.324055
6	0x401908e4	2.3911676
7	0x3f75bc89	0.95990807
8	0x3fd63dcc	1.6737609
9	0x3fb77ab0	1.4334316
10	0x4040d6ed	3.013118
11	0x3fccbe43	1.5995563
12	0x3fc6eb0e	1.5540483
13	0x3f80b9af	1.0056666
14	0x3fa58e23	1.2934002
15	0x3fb5eea0	1.4213448
16	0x3f83b8a5	1.0290724
17	0x3fa74cef	1.3070353
18	0x3fb0e941	1.3821183
19	0x401f8186	2.4922805
20	0x3faef279	1.3667747
21	0x404934b4	3.1438417
22	0x3fb524fb	1.415191
23	0x3fc7bde9	1.5604831
24	0x3fdde14b	1.7334379
25	0x3fa7a5db	1.309749
26	0x401c1361	2.4386828
27	0x3fbdbda5	1.48235
28	0x403bf970	2.9370995
29	0x401c8e3c	2.4461813
30	0x3f40b3a8	0.75274134
31	0x4016c0d1	2.3555186
