models/ps_factor8_last_epoch.pt (torch, 440811 bytes, 38 tensors)

backbone.0.conv3x3.weight f4 [32, 192, 3, 3]
0	0x3c94ab86	0.018148195
1	0x3cd05c8c	0.025434755
2	0xbaee81a5	-0.0018196596
3	0x3cb7fb2d	0.022458637
4	0xba37b84a	-0.0007008357
5	0x3bed000f	0.007232673
6	0xbc7beae6	-0.015375828
7	0x3c972aa7	0.018452955
8	0x3cbf58cd	0.023357773
9	0xbc8c6c75	-0.01714156
10	0x3cd6110f	0.026131181
11	0x3c0ba13f	0.008522331
12	0x3c9829ea	0.018574674
13	0x3bfa3113	0.0076352446
14	0x3c6a39a4	0.014295969
15	0xbbe3f2ea	-0.006956448
16	0x3cb7de5f	0.022444902
17	0x3bbb7849	0.005721126
18	0xbc23f493	-0.0100070415
19	0x3c367370	0.011135921
20	0xbbe1377a	-0.0068730684
21	0xbb192900	-0.0023370385
22	0xbbb8e8d1	-0.0056429883
23	0x3c9b9c17	0.018995328
24	0xbcb930f3	-0.022606349
25	0xbbefc1b5	-0.007316793
26	0xbb88d442	-0.0041756937
27	0xbc6e18fb	-0.014532323
28	0x3be3e10c	0.006954318
29	0xbc9f8e7c	-0.019477122
30	0x3cac4398	0.021028325
31	0xbc89321c	-0.016747527
32	0x3cb1eeb3	0.021720266
33	0x38b6b7d0	8.712674e-05
34	0xbb910717	-0.004425894
35	0x3c8fba36	0.017544847
36	0x3b240b88	0.0025031287
37	0x3cc456fc	0.023967259
38	0x3be28a93	0.006913492
39	0xbc11001a	-0.008850122
40	0x3c2081b6	0.0097965505
41	0xbb4a1ab2	-0.0030838666
42	0x3bc19d34	0.0059086327
43	0x3cca3c51	0.024686964
44	0x3c871529	0.016489582
45	0xbc3eed0d	-0.011653197
46	0x3c9497e9	0.018138843
47	0x3c0df09e	0.008663325
48	0x3c262fe5	0.010143255
49	0xbc4157c6	-0.011800712
50	0xbca566df	-0.020190654
51	0xbc60f8f4	-0.01373123
52	0xbc800333	-0.015626526
53	0x3cb8f4a6	0.022577595
54	0x3b86b62e	0.004111073
55	0x3c65b58f	0.014020338
56	0x3c476aaf	0.012171431
57	0xbb83c91d	-0.0040217773
58	0x3cb181e4	0.021668382
59	0xbc5977d9	-0.013273203
60	0xbb455036	-0.0030107624
61	0xbc62617a	-0.013817186
62	0x3c29be16	0.010360261
63	0xbc289960	-0.010290474
64	0x3c3a708c	0.011379372
65	0xb9bc01a9	-0.0003585939
66	0x3c81eef3	0.01586101
67	0xbc3dc328	-0.011582173
68	0xbc29a8fd	-0.010355231
69	0xbc9b84a2	-0.018984143
70	0x3cc47ecc	0.023986243
71	0x3c2f9e8c	0.010718953
72	0x3cbf180b	0.023326894
73	0xbc6eadad	-0.014567775
74	0xbca63024	-0.020286627
75	0xbc8e2a17	-0.017354054
76	0xbc3c7180	-0.01150167
77	0x3c4c8fb5	0.012485434
78	0x3bd89711	0.0066098054
79	0x3cc97984	0.024594076
80	0xbc221bff	-0.00989437
81	0xbc804f1e	-0.015662726
82	0x3c928fb9	0.017890798
83	0xbbbd4ced	-0.0057769925
84	0x3c76e5e0	0.015069455
85	0xbaa7d6ca	-0.0012805101
86	0x3c894c73	0.016760087
87	0xbcaaa6e0	-0.020831525
88	0xbc0127f7	-0.0078830635
89	0x3c2148d5	0.009844025
90	0x3bb9c47b	0.0056691743
91	0xba9c0d3a	-0.0011905797
92	0x3c9652c8	0.01835002
93	0x3c9130f0	0.01772353
94	0xbc58d330	-0.013233945
95	0xbc1bcba1	-0.009508998
96	0x3c98c389	0.018647926
97	0xbb88e8d3	-0.0041781454
98	0xbbbfbd54	-0.005851427
99	0xbcbde113	-0.023178613
100	0xbc184cf6	-0.009295693
101	0x3c259952	0.010107355
102	0xbb530f77	-0.0032205263
103	0xbc5f896c	-0.013643604
104	0x3b83aa5b	0.0040181107
105	0xbca600f0	-0.020264119
106	0xbc89b77b	-0.016811123
107	0xbc2a3984	-0.010389689
108	0xbcb9e41e	-0.022691783
109	0xbc326e05	-0.0108904885
110	0x3ce6aac6	0.028157603
111	0x3b85cded	0.004083386
112	0x3c326393	0.010887998
113	0xbc99957b	-0.018748036
114	0xbca18430	-0.019716352
115	0xbb921088	-0.004457537
116	0x3bdd4a33	0.00675323
117	0xbcb784a8	-0.022402123
118	0xbbcfe6db	-0.006344659
119	0xbc2713ad	-0.010197562
120	0xbae66606	-0.0017578013
121	0xbbbb1a92	-0.0057099545
122	0x3b08e860	0.002089046
123	0xbca783ed	-0.02044865
124	0xbc58801f	-0.01321414
125	0xbc3818e4	-0.011236403
126	0xbc220092	-0.009887831
127	0xbc77507c	-0.015094873
128	0x3cc89504	0.024485119
129	0xbbe2a8f6	-0.0069171144
130	0x3cc33612	0.023829494
131	0x3c3b6071	0.011436568
132	0xbcc9bb1a	-0.02462535
133	0x3ca163a7	0.019700838
134	0xbb6fec51	-0.0036609361
135	0xbc5026de	-0.012704579
136	0xbc831961	-0.016003313
137	0xbc9e87c1	-0.019351842
138	0x3b4cf997	0.0031276697
139	0xbb0a2eb4	-0.0021084966
140	0x3c5f3d66	0.013625478
141	0xbcc6519e	-0.02420884
142	0x3caa30df	0.020775257
143	0xbc72cec5	-0.0148198055
144	0xbb810689	-0.0039375466
145	0x3c278f11	0.010226981
146	0x3c8117f4	0.015758492
147	0x3cb15988	0.021649137
148	0x3cdaf950	0.02673021
149	0xbc830293	-0.015992438
150	0x3b64f6eb	0.0034937214
151	0xbbb03d5d	-0.005378409
152	0x3913edae	0.00014107555
153	0xbc92b39f	-0.017907916
154	0x3cdbfafa	0.026853073
155	0xbc660f55	-0.014041741
156	0x3c6b10ef	0.014347299
157	0x3c54e8b1	0.012994931
158	0x3c3408c4	0.010988418
159	0xbc80c900	-0.015720844
160	0x3cd7e37e	0.026353594
161	0x3c02656f	0.007958754
162	0x3b5fcaf1	0.0034148062
163	0xbc87cc18	-0.016576812
164	0x3c63dbc4	0.013907377
165	0xbb1b4cc7	-0.0023696886
166	0xbbd93dd5	-0.0066296854
167	0x3cc64d2f	0.024206726
168	0x3b262527	0.0025351734
169	0xbc153457	-0.009106717
170	0xbc174c6a	-0.009234527
171	0xbad8552d	-0.0016504877
172	0x3c8fbe21	0.017546715
173	0xbb1b7a33	-0.002372396
174	0xbc5ba835	-0.013406803
175	0xbb8a5230	-0.0042212233
176	0xbc6b4835	-0.014360477
177	0x3bad2344	0.005283745
178	0x3cb860c4	0.022507079
179	0xbca0561a	-0.019572306
180	0x3b62e2da	0.0034620077
181	0x3c85c379	0.01632856
182	0x3c083f68	0.0083158985
183	0xbc0f7312	-0.008755462
184	0x3c867832	0.016414735
185	0x3c876566	0.016527843
186	0x3bae9b67	0.005328584
187	0xb9d905c5	-0.00041393764
188	0xbb5990a5	-0.0033197787
189	0xb9735cb8	-0.00023208826
190	0xba19670f	-0.0005851844
191	0xbb4936fb	-0.0030702937
192	0x3c6de1cf	0.014519169
193	0x3cc5ed1b	0.024160912
194	0x3acf6ecf	0.001582587
195	0xbc18e165	-0.009331082
196	0x3b81c81e	0.0039606234
197	0x3acf4c03	0.00158155
198	0x3b2dff1c	0.0026549762
199	0x3c2bc5eb	0.010484199
200	0xbc905813	-0.017620122
201	0xbc235d6b	-0.009971003
202	0x3cc1ef96	0.023673814
203	0x3c5c4cc1	0.013446034
204	0xbbaa9cc2	-0.0052066753
205	0xbc35c539	-0.011094385
206	0xbc3e0112	-0.011596935
207	0xbcc47807	-0.023983015
208	0xbb89770c	-0.0041950997
209	0x3c4c6f02	0.012477638
210	0x3c561cea	0.013068417
211	0x3c6d96e1	0.014501304
212	0xbc8b9767	-0.017039968
213	0xbc99780d	-0.018734002
214	0xb9da3f27	-0.00041627252
215	0x3cd8b495	0.026453296
216	0x3b5bb68d	0.0033525557
217	0xba8dd310	-0.0010820348
218	0x3c56cb92	0.013110058
219	0xbb99f0be	-0.004697888
220	0xbc2de9e5	-0.010614847
221	0x3caa808b	0.020813247
222	0xbc4250dc	-0.011860099
223	0x39a0376d	0.00030558874
224	0xbcab8a38	-0.020939931
225	0x3c83e1eb	0.016098937
226	0x3cbd1bac	0.023084484
227	0x3c45b0ce	0.012066079
228	0xbc5795ed	-0.013158304
229	0xbc9c39e0	-0.019070566
230	0xbc84977f	-0.01618552
231	0x3c89897d	0.016789192
232	0x3c853623	0.016261166
233	0x3cbe3c22	0.023222033
234	0x3c48898b	0.012239824
235	0x3c2dbceb	0.010604124
236	0x3b54cf0b	0.003247204
237	0xbc70b3b9	-0.014691287
238	0xbc83f0c8	-0.016106024
239	0xbc9b152b	-0.018930992
240	0x3bf8271b	0.007573021
241	0xbbf1ae39	-0.0073755053
242	0xbae071ec	-0.0017123795
243	0xbc801e61	-0.015639486
244	0xb9c195eb	-0.00036923526
245	0xbc5a4ace	-0.013323499
246	0xbc4ffe4c	-0.012694906
247	0x3c475485	0.012166147
248	0xbb5faa67	-0.0034128667
249	0x3c42b637	0.011884264
250	0xbb6ab89a	-0.0035815598
251	0xbc6d6e33	-0.014491606
252	0xbbd0e625	-0.0063750916
253	0xbc03a524	-0.008034978
254	0xbb6d3ec2	-0.0036200737
255	0xbcaf241f	-0.021379529

backbone.0.conv3x3.bias f4 [32]
0	0x3b0dc083	0.0021629639
1	0xbc46ec41	-0.012141288
2	0xbb3dbcba	-0.00289516
3	0xbc591d2f	-0.013251587
4	0x3a5929f9	0.00082841475
5	0xbc7e408d	-0.01551832
6	0xbb8fd0ae	-0.00438889
7	0x3cb4477e	0.022006746
8	0x3c099514	0.008397359
9	0x3c7c944c	0.015416216
10	0xba865b52	-0.0010250604
11	0xbc5c502f	-0.013446852
12	0x3c92aa02	0.017903332
13	0xbc85cbdb	-0.016332557
14	0xbc0bd60e	-0.008534921
15	0xbca7bca6	-0.020475697
16	0x3c93a6e7	0.018023921
17	0xbc99517f	-0.018715618
18	0x3ca139b1	0.01968083
19	0xba88371d	-0.0010392402
20	0xbc17c9cf	-0.0092644235
21	0x3c639e74	0.013892759
22	0x3c7e5f19	0.015525603
23	0xbb90d139	-0.0044194725
24	0x3b2c694a	0.0026307874
25	0xbca8ffba	-0.020629752
26	0xbb7a0ffc	-0.00381565
27	0xbc49d7b4	-0.012319494
28	0x3cbd4800	0.023105621
29	0xbc36989c	-0.011144783
30	0x3c7c9855	0.015417178
31	0xbc7aaaf2	-0.015299546

backbone.0.bn.weight f4 [32]
0	0x3f7fd9b1	0.99941546
1	0x3f7e91b9	0.99441105
2	0x3f802c86	1.0013587
3	0x3f80716b	1.0034612
4	0x3f7e5417	0.9934706
5	0x3f7e2371	0.9927283
6	0x3f7e7b17	0.9940657
7	0x3f802e99	1.001422
8	0x3f804126	1.0019882
9	0x3f80e149	1.0068752
10	0x3f7ef9c7	0.9959988
11	0x3f7ffbe6	0.9999374
12	0x3f806a0f	1.0032367
13	0x3f7e6854	0.9937794
14	0x3f80849d	1.004047
15	0x3f7e4bac	0.99334216
16	0x3f7ee96f	0.9957494
17	0x3f8119df	1.008602
18	0x3f7e5e86	0.9936298
19	0x3f7eef92	0.99584305
20	0x3f804131	1.0019895
21	0x3f80e56f	1.0070018
22	0x3f7f33ac	0.9968822
23	0x3f7ea3a1	0.9946843
24	0x3f80afef	1.0053691
25	0x3f7dd8db	0.9915902
26	0x3f7ff45e	0.9998225
27	0x3f7ebf4c	0.99510646
28	0x3f7f652f	0.9976377
29	0x3f80ca13	1.0061668
30	0x3f7efa83	0.99601
31	0x3f7ffdb7	0.99996513

backbone.0.bn.bias f4 [32]
0	0xbc1db444	-0.009625498
1	0xbbd6c306	-0.0065540103
2	0xbbbf2b55	-0.005834023
3	0xbc67135b	-0.014103736
4	0xbb37a3f5	-0.002802131
5	0xbb580f07	-0.0032967941
6	0xbbca22cb	-0.0061686984
7	0x3ba695bf	0.005083769
8	0xbc29d55f	-0.010365813
9	0xbc5f0639	-0.013612323
10	0xbb8ec0c7	-0.004356477
11	0x3a3c010d	0.00071717874
12	0xbc3e8745	-0.01162893
13	0xbb1eb74e	-0.0024218145
14	0xbc26a738	-0.010171704
15	0xbb2338e5	-0.0024905738
16	0xbb38f37c	-0.00282213
17	0xbc260cc5	-0.01013488
18	0xbbeecbfd	-0.007287501
19	0xbb15417d	-0.002277463
20	0xbc417cce	-0.011809541
21	0xbc1b8098	-0.009491108
22	0xbaae0122	-0.0013275484
23	0xbbc1a0ce	-0.005909062
24	0xbbde9500	-0.0067926645
25	0xbbe44362	-0.0069660405
26	0xbc24de26	-0.01006273
27	0xbbb7d706	-0.0056103496
28	0xba7a9efb	-0.0009560433
29	0xbc3e2607	-0.011605746
30	0xbb0e7e97	-0.0021742934
31	0xbc33dab2	-0.010977434

backbone.0.bn.running_mean f4 [32]
0	0x3f90f4bb	1.1324686
1	0x3eb9985e	0.3624906
2	0x3febe5b9	1.8429481
3	0x3fbf6039	1.495124
4	0xbfab818d	-1.3398911
5	0x3f124313	0.571336
6	0x3f4cb425	0.7996238
7	0xbfca498f	-1.5803698
8	0x3fdce1c1	1.7256395
9	0x3fd2cdb8	1.646903
10	0xbfb44284	-1.4082799
11	0xbf1ed7c6	-0.62047994
12	0x3f06ff35	0.52733165
13	0xbf0de35d	-0.55425054
14	0x3ee20c7f	0.4415016
15	0xbf4043b6	-0.7510332
16	0xbf0a6056	-0.54053247
17	0x3feab2af	1.833578
18	0xbfb07723	-1.3786358
19	0xbfa5062e	-1.2892511
20	0x3fc24385	1.5176855
21	0x3f53ed58	0.8278403
22	0xbfb0234c	-1.3760772
23	0x3f8927a4	1.0715222
24	0x3f653889	0.8953939
25	0x3f6cdde2	0.92526066
26	0x3fa94e23	1.322697
27	0xbf27f2c8	-0.6560483
28	0xbfe6f4b2	-1.8043425
29	0x3fa269c5	1.2688528
30	0xbf9665c4	-1.1749806
31	0x3fba2ba9	1.4544574

backbone.0.bn.running_var f4 [32]
0	0x3ec5a5cc	0.38603055
1	0x3dc3f5d7	0.095683746
2	0x3f828b99	1.0198852
3	0x3f2f01a2	0.68361866
4	0x3f0aca21	0.54214674
5	0x3e225397	0.158522
6	0x3e76c49b	0.24098437
7	0x3f43100e	0.7619637
8	0x3f64a97d	0.8932112
9	0x3f47d74c	0.7806289
10	0x3f1e5173	0.6184303
11	0x3e465833	0.19369583
12	0x3e19e06d	0.15027018
13	0x3e3402fc	0.17579263
14	0x3dcd5547	0.10026031
15	0x3e43b3b3	0.19111519
16	0x3e0df1c0	0.13861752
17	0x3f832a5a	1.02473
18	0x3f18f202	0.59744275
19	0x3f0277f5	0.5096429
20	0x3f30a19a	0.68996584
21	0x3e756dbb	0.2396764
22	0x3f1250f9	0.57154804
23	0x3ebafb1d	0.3651971
24	0x3e79309e	0.24334952
25	0x3e91f710	0.28508806
26	0x3f0b3e41	0.54391867
27	0x3e534fa9	0.20635857
28	0x3f795dd5	0.974088
29	0x3efd3621	0.4945536
30	0x3edec3c2	0.43508726
31	0x3f25bd6a	0.6474215

backbone.1.conv3x3.weight f4 [32, 32, 3, 3]
0	0x3cfe2785	0.031024704
1	0x3d568be9	0.052379522
2	0x3c62f428	0.013852157
3	0x3d0fd285	0.035112876
4	0xbc9c8173	-0.019104695
5	0x3c99ed53	0.018789923
6	0x3d26daa7	0.040735867
7	0x3d47a8d3	0.048744988
8	0xbc7cdf07	-0.015434033
9	0x3d0754a2	0.033039697
10	0xbc0fa5f4	-0.008767594
11	0xbc33211e	-0.010933189
12	0x3d08a28e	0.03335815
13	0x3d6d5d23	0.05795015
14	0xbc14d6f4	-0.009084452
15	0x3b10d293	0.0022098168
16	0xbcf82a43	-0.03029359
17	0x36464eba	2.9550124e-06
18	0xbcb3f1f2	-0.021965954
19	0x3d322935	0.04349633
20	0x3c90edc5	0.017691502
21	0x3c35b56d	0.011090619
22	0x3d71b263	0.059008013
23	0xbd35fe97	-0.04443225
24	0x3d319e4b	0.04336385
25	0xbd0d1b9f	-0.03445017
26	0xbd44ba35	-0.048029143
27	0x3cfc9aae	0.030835476
28	0xbc78b905	-0.015180831
29	0x3c0974f9	0.008389705
30	0xbd638666	-0.055548094
31	0xbd2a581e	-0.04158794
32	0x3d3b1d48	0.04568222
33	0xbd5c64de	-0.053807132
34	0xbce51608	-0.027964607
35	0xbb10e3f8	-0.0022108536
36	0xbc7e9c70	-0.015540227
37	0xbbfbd949	-0.0076858145
38	0x3be05c75	0.0068469592
39	0x3ce90a99	0.028447436
40	0xbca0350a	-0.019556541
41	0x3be909d6	0.0071117682
42	0xbd40601b	-0.046966653
43	0x3c00d748	0.007863827
44	0x3cf67082	0.030082945
45	0x3ceda1c2	0.029007796
46	0x3bc26e2c	0.0059335437
47	0x3c6be263	0.0143972365
48	0x3d136996	0.035989366
49	0xbc992785	-0.018695602
50	0xbd48eff7	-0.049056973
51	0x3cfdac20	0.030965865
52	0xbca48f6b	-0.020087918
53	0xbd06e34e	-0.03293162
54	0x3ca64ba3	0.020299738
55	0x3c09ed81	0.008418442
56	0x3c492a63	0.012278172
57	0x3b655e9e	0.0034999023
58	0x3c49bd69	0.012313225
59	0xbd493c9a	-0.04913006
60	0x3aa7ae0e	0.0012792961
61	0x3d3df0c9	0.04637221
62	0x3d2296f1	0.03969473
63	0x3cef2961	0.029194536
64	0x3d629404	0.05531694
65	0x3d6bee4d	0.05760031
66	0xbca6e368	-0.020372108
67	0x3d2b2461	0.04178274
68	0x3d3d0595	0.0461479
69	0x3d3b46bd	0.04572176
70	0x3c832f04	0.01601363
71	0xbcefa7cd	-0.029254818
72	0x3b5b02cd	0.0033418417
73	0x3cce1baf	0.025159685
74	0x3d7d3070	0.06181377
75	0xbd62a04c	-0.055328652
76	0x3ce04f5a	0.027381588
77	0x3cff9573	0.031199193
78	0x3d2bb565	0.04192104
79	0xbd660e12	-0.056165762
80	0xbc8bac13	-0.017049825
81	0xbbe2752f	-0.006910942
82	0xbc9adabb	-0.018903127
83	0xbd0a99c3	-0.033838045
84	0x3d400647	0.046880987
85	0x3cda835e	0.026673969
86	0x3d449a1c	0.047998533
87	0xbd32d38c	-0.043658778
88	0xbd336c4c	-0.04380445
89	0x3d1da56a	0.03848783
90	0x3d0cf2f2	0.03441138
91	0x3d1e5943	0.038659345
92	0x3bc14aac	0.005898794
93	0xbd44b4f0	-0.048024118
94	0x3c10dd37	0.008841804
95	0x3cf290b7	0.029610021
96	0x3d51c15e	0.0512098
97	0xbaf242e0	-0.0018483065
98	0xbc60d4c3	-0.013722601
99	0xbd0f4c44	-0.034984842
100	0x3d51c9a5	0.051217694
101	0xbd658828	-0.05603805
102	0xba7eef0e	-0.0009724953
103	0x3c46ba8f	0.01212944
104	0xbce508b2	-0.027958248
105	0x3c9b42a5	0.018952677
106	0xbd68be55	-0.05682214
107	0xbd075ba6	-0.033046387
108	0xbca45bba	-0.02006327
109	0x3d161be4	0.036647692
110	0x3cf4e30a	0.029893417
111	0x3d501b35	0.050807197
112	0xbd0b6946	-0.034035943
113	0x3d112e77	0.035444703
114	0x3cde9a0a	0.02717306
115	0xbbfc24d3	-0.0076948195
116	0xbc8f5ad3	-0.017499363
117	0xbcf1c968	-0.029514983
118	0x3d2cc48e	0.042179637
119	0xbd23c3a9	-0.039981518
120	0xbd2f54fe	-0.042805664
121	0xbd38cd7e	-0.045117848
122	0xbc2cadf6	-0.010539522
123	0xbd4d916e	-0.05018752
124	0x3d0f27fe	0.03495025
125	0xbcd606d4	-0.026126303
126	0xbd61447f	-0.054996964
127	0x3d2891da	0.04115472
128	0x3c2923f9	0.010323518
129	0xbca14ddb	-0.019690445
130	0xbb6f9116	-0.0036554984
131	0x3a79fc8a	0.00095362274
132	0x3d2fdeb4	0.042936996
133	0xb9f60695	-0.0004692568
134	0x3cb9ce53	0.02268139
135	0xbd2ab4e3	-0.041676413
136	0xbd103253	-0.035204243
137	0xbd342882	-0.043983944
138	0x3c940042	0.01806653
139	0xbcd69b76	-0.026197176
140	0x3cb49b1c	0.022046618
141	0xbcb95554	-0.022623695
142	0x3d15197c	0.036401257
143	0xbba4421c	-0.0050127637
144	0x3b65bbd6	0.0035054586
145	0xbd124785	-0.035712738
146	0x3d31b5ac	0.043386146
147	0x3c99e1e9	0.01878448
148	0x3cfd423e	0.030915376
149	0xbcec0a5d	-0.028813535
150	0x3d4bfad4	0.049799755
151	0xbcfa0f5b	-0.0305249
152	0xbcb61153	-0.022225058
153	0xbd43a8c6	-0.047768377
154	0x3d2906ed	0.04126637
155	0x3d6da6c3	0.058020364
156	0xbc913b90	-0.017728597
157	0x3c234601	0.009965421
158	0x3d4b2912	0.049599715
159	0x3b854ac4	0.0040677506
160	0xbbfe6c6f	-0.007764391
161	0x3cc73520	0.024317324
162	0xbd5193e8	-0.051166445
163	0x3cf751b8	0.030190334
164	0xbcfd0417	-0.03088574
165	0x3d496969	0.049172793
166	0x3c813321	0.01577145
167	0xbd58f7e7	-0.052970793
168	0x3d19ad89	0.03751901
169	0xbc550d04	-0.013003591
170	0xbd051197	-0.032487478
171	0x3d048d98	0.032361597
172	0x3cc3a9ca	0.023884673
173	0xbd59516d	-0.05305617
174	0x3cc113af	0.023568956
175	0x3a209179	0.0006125193
176	0xbcf3e6da	-0.029773165
177	0x3d7a8d84	0.061170116
178	0x3d542641	0.051794294
179	0xbcc36e95	-0.02385644
180	0xbd49c132	-0.04925651
181	0xbd0c3584	-0.034230724
182	0x3d483a12	0.048883505
183	0x3ca59497	0.020212455
184	0x3d036b38	0.032084674
185	0xbd20d77f	-0.039268013
186	0x3d1218f6	0.035668336
187	0x3cb44f2b	0.022010406
188	0x3d61fd39	0.055173133
189	0x3ce0382d	0.027370537
190	0x3d2d11ff	0.04225349
191	0x3d71bc03	0.059017193
192	0xbcb5cb80	-0.022191763
193	0x3d66a116	0.056305967
194	0xbc9640ed	-0.018341506
195	0xbc09af9c	-0.008403685
196	0xbbf39d00	-0.0074344873
197	0x3a0f8766	0.0005475193
198	0x3d400ef3	0.046889257
199	0x3c139094	0.009006638
200	0xbce0bc72	-0.027433608
201	0xbce75e3e	-0.02824318
202	0xbd4c96f6	-0.049948655
203	0xbd5b8c1f	-0.053600427
204	0xbc551d77	-0.013007513
205	0xbd4cea36	-0.05002805
206	0xbcf6ea8b	-0.030141136
207	0xbcd85e13	-0.026412046
208	0xbc99e7a2	-0.018787209
209	0xbd05ee57	-0.032698
210	0xbce83641	-0.028346183
211	0xbd477eec	-0.048705027
212	0x3bcac033	0.0061874627
213	0x3ccc478c	0.02493646
214	0x3ce08477	0.027406914
215	0x3d565c2c	0.052333996
216	0xbc944dba	-0.01810347
217	0x3cddaf19	0.027061032
218	0x3d3e8ae4	0.046519175
219	0x3d555903	0.05208684
220	0x3d87fdd5	0.066402115
221	0xbb8bbf28	-0.004264731
222	0xbbc00bea	-0.0058607953
223	0xbc809272	-0.01569483
224	0xbcb694fb	-0.022287836
225	0xbd206ed7	-0.039168205
226	0xbd2dc0bd	-0.042420138
227	0xbd574c8c	-0.052563235
228	0x3baa8ecb	0.0052050105
229	0xbd077a8a	-0.033075847
230	0x3cd38d40	0.02582419
231	0x3c8f991a	0.01752906
232	0xbd2863b9	-0.041110728
233	0x3c6f164e	0.01459272
234	0x3d1e9a2c	0.03872125
235	0x3d433a41	0.047662977
236	0x3cfa22ee	0.030534234
237	0x3d47d70b	0.048789065
238	0xbcd12293	-0.025529182
239	0xbc64cc80	-0.013964772
240	0x3cd7732c	0.026300035
241	0x3ca4dc85	0.020124683
242	0xbcbb50f3	-0.022865748
243	0xbcc5b3de	-0.024133619
244	0xba8aa27f	-0.0010576992
245	0x3c81d69f	0.01584941
246	0xbc7242d2	-0.014786439
247	0xbd5e690e	-0.054299407
248	0xbcb0999e	-0.021557625
249	0xbd0480cc	-0.032349393
250	0xbd0cf561	-0.0344137
251	0xbcf67bc6	-0.030088317
252	0x3d4ab829	0.049492035
253	0x3c8c57ec	0.017131768
254	0xbd3e197d	-0.046411026
255	0x3d443733	0.047904205

backbone.1.conv3x3.bias f4 [32]
0	0x3cfeb3fa	0.031091679
1	0x3d46cee6	0.048537157
2	0xbd4a261d	-0.049352754
3	0x3c811e6e	0.01576158
4	0x3d4ea197	0.050447073
5	0x3ac4a171	0.0015001727
6	0x3c8eab73	0.017415738
7	0xbc806b1e	-0.015676077
8	0xb90fec17	-0.00013725493
9	0xbd0716c2	-0.032980688
10	0x3bd2feff	0.0064390893
11	0xbd599b92	-0.05312688
12	0xbb2f64c7	-0.002676295
13	0xbbfa245d	-0.0076337294
14	0xbcabe3b1	-0.020982595
15	0x3c54f218	0.012997173
16	0x3ce56ae3	0.02800507
17	0xbd1ff3c2	-0.039050825
18	0x3d2d8ff2	0.042373605
19	0x3d55abf0	0.052165926
20	0x3b35da22	0.0027748425
21	0xbcefa5cc	-0.029253863
22	0x3d4f3fd5	0.050597984
23	0x3d2e1d7f	0.0425086
24	0x3d5373ed	0.051624227
25	0xbd706f49	-0.05869988
26	0x3c88f573	0.016718602
27	0xbd62d748	-0.05538109
28	0x3c931348	0.01795353
29	0x3cae3390	0.021264821
30	0xbd6e4b4a	-0.05817727
31	0xbd08d66a	-0.033407606

backbone.1.bn.weight f4 [32]
0	0x3f7f2f05	0.9968112
1	0x3f7ed557	0.9954428
2	0x3f80e1e6	1.0068939
3	0x3f7ebb03	0.9950411
4	0x3f80e667	1.0070313
5	0x3f7ee58b	0.99569005
6	0x3f802621	1.0011636
7	0x3f80ed7d	1.0072476
8	0x3f7dd227	0.9914879
9	0x3f7e5172	0.99343026
10	0x3f80c69f	1.0060614
11	0x3f7faf22	0.99876606
12	0x3f7f1d91	0.9965449
13	0x3f7eac61	0.9948178
14	0x3f7ef9e2	0.9960004
15	0x3f7ea7b2	0.9947463
16	0x3f7e446c	0.99323153
17	0x3f7eb553	0.9949543
18	0x3f80d0c0	1.0063705
19	0x3f80c6f5	1.0060717
20	0x3f7e0f75	0.99242336
21	0x3f802826	1.0012252
22	0x3f803918	1.0017424
23	0x3f7e9879	0.99451405
24	0x3f7f21f2	0.9966117
25	0x3f8066b4	1.0031343
26	0x3f80c635	1.0060488
27	0x3f7e30e0	0.9929333
28	0x3f7de30d	0.99174577
29	0x3f7e1065	0.99243766
30	0x3f7fb204	0.99881005
31	0x3f7e642b	0.99371594

backbone.1.bn.bias f4 [32]
0	0xbc0195aa	-0.007909218
1	0xbb3b322a	-0.0028563836
2	0xbc1fa3cb	-0.009743641
3	0xbc1f5031	-0.009723709
4	0xbc5a6b9e	-0.013331322
5	0xbad13e4c	-0.0015964
6	0xbbcfd446	-0.0063424436
7	0xbc5c89f5	-0.013460626
8	0xbbe0e380	-0.0068630576
9	0xbbdc1ff7	-0.0067176777
10	0xbc6aeeb4	-0.014339138
11	0x38b376b4	8.557495e-05
12	0xbb4a7870	-0.003089454
13	0xbc69edb4	-0.014277864
14	0x3b0d53eb	0.0021564912
15	0xbb7e0998	-0.0038763043
16	0xbbc28210	-0.005935915
17	0x3a78482f	0.00094712054
18	0xbc445888	-0.011983998
19	0xbc4c582a	-0.012472192
20	0xbb6bc7f7	-0.0035977343
21	0xbc16cb75	-0.009203781
22	0xbc5149d4	-0.01277395
23	0xbbdda602	-0.0067641744
24	0xbc23cd0f	-0.00999762
25	0xbbcf2699	-0.00632174
26	0xbc663b08	-0.01405216
27	0xbbf846be	-0.0075767925
28	0xbc0a3b43	-0.008436981
29	0xbc051a30	-0.008123919
30	0xbb466a41	-0.0030275735
31	0xbbc4c33f	-0.0060047205

backbone.1.bn.running_mean f4 [32]
0	0x3e6015e0	0.21883345
1	0xbf12ad52	-0.57295716
2	0x3f12cee4	0.5734694
3	0x3e7609c3	0.24027161
4	0x3f062ecb	0.5241515
5	0xbead44fb	-0.3384169
6	0x3ec8e4ab	0.3923696
7	0x3ed2a6b1	0.411428
8	0x3e1f70e5	0.1557041
9	0xbee2b9d2	-0.44282395
10	0x3f12bc8e	0.5731896
11	0xbf2448a4	-0.6417334
12	0xbd488a00	-0.048959732
13	0x3ed0f576	0.40812272
14	0xbdc24bf2	-0.09487142
15	0xbe9dd9b9	-0.30830172
16	0xbc433eb4	-0.011916805
17	0xbe2ef001	-0.17083742
18	0x3f29cdfc	0.6632993
19	0x3ee340fb	0.44385514
20	0xbde21228	-0.11038619
21	0x3ecefd23	0.40427503
22	0x3ebca421	0.3684397
23	0xbe488a4d	-0.19584008
24	0x3eb30e22	0.3497172
25	0x3e850a46	0.259844
26	0x3ef38c1c	0.47567832
27	0x3e91e2ec	0.2849344
28	0xbe6d3bd8	-0.2316736
29	0x3e9baba0	0.30404377
30	0x3ea30c8b	0.31845507
31	0xbeb0c40b	-0.3452457

backbone.1.bn.running_var f4 [32]
0	0x3e58d1cf	0.21173786
1	0x3f43dc98	0.76508474
2	0x3f08c857	0.53430694
3	0x3e335013	0.17511015
4	0x3eba14da	0.36344033
5	0x3f07e44b	0.5308272
6	0x3eb5a1b5	0.35474935
7	0x3ea38fa6	0.31945533
8	0x3e6d3651	0.23165251
9	0x3ee3fdcb	0.44529566
10	0x3f387cbe	0.7206534
11	0x3fa1c361	1.263775
12	0x3e73a93c	0.23795027
13	0x3ea93dab	0.3305486
14	0x3e81f015	0.2537848
15	0x3ec105fc	0.37699878
16	0x3e8b44d1	0.2720094
17	0x3ea1e654	0.3162104
18	0x3e94bc13	0.2904974
19	0x3f0ce243	0.5503275
20	0x3e02e64e	0.12783167
21	0x3f26c1e4	0.65139604
22	0x3e8ea863	0.27862844
23	0x3e7e20e3	0.24817233
24	0x3ecf827e	0.40529245
25	0x3e324041	0.17407323
26	0x3e83cfdf	0.2574453
27	0x3defe99f	0.117144816
28	0x3e510959	0.20413722
29	0x3e25b411	0.16181971
30	0x3e8a02dd	0.2695531
31	0x3ef8503f	0.48498723

backbone.2.conv3x3.weight f4 [32, 32, 3, 3]
0	0xbd108348	-0.03528145
1	0x3d436236	0.047701083
2	0xbae9e40e	-0.0017844455
3	0x3cb931a0	0.02260667
4	0x3d25d46f	0.040485796
5	0x3d4c3c76	0.049862348
6	0x3c7f3797	0.0155772185
7	0x3d37fb38	0.044917315
8	0xbd65f2af	-0.056139644
9	0xba5cfb13	-0.0008429747
10	0xbc480ccc	-0.012210082
11	0xbd17d7ea	-0.037071146
12	0xbc510cea	-0.012759427
13	0x3d44ca32	0.04804439
14	0x3ce3a7ae	0.027789917
15	0x3c3f8b98	0.011690997
16	0xbc3d1b79	-0.0115421945
17	0xbcc3bbf9	-0.023893343
18	0xbb853fad	-0.0040664286
19	0x3b376448	0.0027983356
20	0x3d443a05	0.047906894
21	0x3d04be0e	0.032407813
22	0xbd11d74f	-0.035605725
23	0xb80493e0	-3.160897e-05
24	0x3d4623a7	0.048373844
25	0x3d2406a2	0.040045388
26	0x3c5a7830	0.013334319
27	0x3b2c725c	0.002631328
28	0x3cc208d4	0.02368585
29	0xbd5899db	-0.052881103
30	0x3c66bae0	0.01408264
31	0xbd3d16de	-0.046164386
32	0xb94d78b7	-0.00019595293
33	0xbc685c7a	-0.014182204
34	0xbb448b6c	-0.0029990328
35	0xbc0bc60a	-0.008531103
36	0xbb97f51c	-0.0046373736
37	0x3ca0983a	0.019603837
38	0xbc6e1bd9	-0.014533007
39	0x3d815a3c	0.06316039
40	0x3c82f284	0.015984781
41	0x3d3a6048	0.045501977
42	0xbc8d0e38	-0.017218694
43	0x3bf01f39	0.007327941
44	0xbd67c6c9	-0.05658606
45	0xbd2b8e6a	-0.041883864
46	0x3cd3071f	0.025760232
47	0x3c95bd5b	0.018278768
48	0x3ca8e116	0.020615142
49	0xbd67c870	-0.056587636
50	0x3d6ced40	0.057843447
51	0x3d196cb1	0.03745717
52	0xbbf81cae	-0.0075717783
53	0x3c2bc969	0.010485032
54	0xbcbbef59	-0.022941278
55	0x3c562d02	0.013072254
56	0xbce065c8	-0.027392283
57	0xbc6661fa	-0.014061445
58	0xbd0a6500	-0.033787727
59	0xbd169003	-0.036758434
60	0x3d2169c3	0.039407503
61	0x3d690b1a	0.056895353
62	0x3ae16a6d	0.0017197855
63	0x3d6bd075	0.057571847
64	0xbcf160d7	-0.029465122
65	0x3d60e02c	0.054901287
66	0xbd3e0452	-0.04639084
67	0xbce08be0	-0.027410448
68	0x3c8a680a	0.016895313
69	0xbc3bcb99	-0.011462116
70	0xbbc70183	-0.0060731783
71	0x3d58cda8	0.052930504
72	0xbd508f19	-0.05091772
73	0x3cba73c1	0.022760274
74	0xbc88f339	-0.01671754
75	0xbd13f0fd	-0.036118496
76	0x3d766d37	0.06016275
77	0xbd3150f6	-0.0432901
78	0x3d7d16f5	0.06178947
79	0x3c851154	0.016243614
80	0x3cbb8e89	0.022895114
81	0x3b0acd24	0.0021179402
82	0xbd4cb1bd	-0.049974192
83	0x3cb89cd8	0.022535726
84	0x3c91e35e	0.017808612
85	0xbbbb58c1	-0.0057173674
86	0xbd4af31e	-0.04954826
87	0x3c8be3e4	0.01707644
88	0x3cd5d857	0.026104135
89	0xbbb7ed9b	-0.0056130416
90	0xbd15728d	-0.036486197
91	0x3cc80ddc	0.024420671
92	0xbce81ec6	-0.028334986
93	0x3c82718f	0.01592329
94	0xbcad9036	-0.02118693
95	0x3c074c52	0.008257942
96	0x3cd2dde8	0.025740579
97	0x3d3cd90f	0.04610544
98	0xbd075242	-0.03303743
99	0xbd168b4f	-0.03675395
100	0xbd258390	-0.04040867
101	0xbc955505	-0.018229017
102	0xbcd5d633	-0.026103115
103	0xbb4b5fc4	-0.0031032423
104	0xbd293af0	-0.041315973
105	0x3d46f76c	0.048575804
106	0x3d5e6691	0.054297034
107	0xbcbffa69	-0.023434835
108	0xbd1cd9d9	-0.038293693
109	0x3c807244	0.015679486
110	0xbcdbd5b0	-0.026835293
111	0x3c0d56b5	0.00862663
112	0x3ca96d48	0.020681992
113	0xbcafc314	-0.021455325
114	0xbc88a16e	-0.016678538
115	0x3cd2680c	0.025684379
116	0x3d288b4c	0.04114847
117	0x3c82f0d0	0.015983969
118	0xbce2a14a	-0.0276648
119	0x3c067ca8	0.008208431
120	0x3d287b0c	0.04113297
121	0x3d495597	0.04915389
122	0xbd390245	-0.04516818
123	0xbcbc73d1	-0.023004444
124	0x3d4f9809	0.0506821
125	0x3b795d7c	0.0038050106
126	0xbce12273	-0.027482247
127	0xbd451754	-0.04811795
128	0xbcb4e458	-0.022081539
129	0xbd1ce0c8	-0.038300306
130	0x3d0183c8	0.031619817
131	0xbc57e9d5	-0.0131783085
132	0xbd0f8da7	-0.0350472
133	0x3d088527	0.03333011
134	0xbc8b176f	-0.016978947
135	0x3d6087e6	0.054817103
136	0x3d3fb022	0.046798833
137	0xbc02a7e8	-0.007974602
138	0xbd14b4b1	-0.036305133
139	0xbd169193	-0.036759924
140	0xbce2af29	-0.027671413
141	0xbd0f4db2	-0.034986205
142	0x3d222c96	0.0395933
143	0x3d4ff903	0.050774585
144	0x3d00f8d8	0.031487316
145	0xbd505dec	-0.05087082
146	0xbcbf131b	-0.02332454
147	0xbd40429f	-0.046938535
148	0xbc24d66b	-0.010060887
149	0xbbbfc689	-0.0058525247
150	0x3d72f2ee	0.059313707
151	0x3aeb7944	0.0017965217
152	0x3cc3b041	0.023887755
153	0x3ca31e4e	0.019911911
154	0xbd175184	-0.036942974
155	0xbd0635cc	-0.03276615
156	0xbbafed9e	-0.0053689023
157	0x3c3dcc69	0.01158438
158	0xbca812ad	-0.020516718
159	0x3c8c2e8a	0.017112035
160	0xbc59bf2a	-0.013290206
161	0x3c83ffa2	0.016113106
162	0x3cc6ff2a	0.024291594
163	0xbc59c6ad	-0.013291997
164	0x3d0c3662	0.03423155
165	0x3d6b646d	0.05746882
166	0x3d5666f1	0.052344266
167	0x3d42a7bd	0.04752325
168	0x3cde77b2	0.027156685
169	0x3cbef7a9	0.023311453
170	0x3d16b8d8	0.036797374
171	0xbd58b0c1	-0.05290294
172	0x3d1b8ea5	0.037977833
173	0x3be3b5ab	0.0069491467
174	0xbceb2e17	-0.0287085
175	0xbcc30e1a	-0.023810435
176	0xbb5109e4	-0.0031896764
177	0x3cc85938	0.024456605
178	0xbd07c80f	-0.033149775
179	0xbbae89f6	-0.005326505
180	0xbcf927f4	-0.030414559
181	0xbb681620	-0.0035413578
182	0x3d81e93c	0.06343314
183	0x3d50ebb8	0.05100605
184	0xbd215c43	-0.03939463
185	0x3d2383ad	0.039920498
186	0x3c3081a1	0.010773093
187	0x3d2cf173	0.04222245
188	0x3d2a54cd	0.04158478
189	0x3cdaf6e3	0.026729053
190	0xbd6dada0	-0.05802691
191	0x3d15e161	0.03659189
192	0xbc820025	-0.01586921
193	0xbd142c0f	-0.03617483
194	0xbd3d27b0	-0.046180427
195	0xbcb23fd1	-0.021758946
196	0xbd08d6e2	-0.033408053
197	0xbd3652b4	-0.044512466
198	0x3ce55575	0.02799485
199	0x3c9ec053	0.019378817
200	0x3c2bdb99	0.010489368
201	0x3d52f339	0.051501486
202	0x3ca816c0	0.02051866
203	0xbc834ccf	-0.016027836
204	0xbd3d5809	-0.046226535
205	0x3d72023f	0.059084173
206	0xbcb4b9c0	-0.022061229
207	0x3d370df9	0.04469106
208	0xbb0b8046	-0.0021286174
209	0x3cc6f5cf	0.024287133
210	0xbd14bd69	-0.036313448
211	0x3cbeffd4	0.023315348
212	0x3d4090eb	0.047013205
213	0xbd5871a3	-0.052842747
214	0xbcc603db	-0.02417176
215	0xbc21afef	-0.009868606
216	0xbab8fe23	-0.0014113825
217	0xbd6abca2	-0.0573088
218	0x3d02817b	0.031861763
219	0xbd819955	-0.06328074
220	0x3b3abab4	0.0028492631
221	0xbc64be7f	-0.013961433
222	0x3cdfbe5f	0.027312456
223	0x3d3f176e	0.046653204
224	0x3c9fcb05	0.019505987
225	0xbd36b315	-0.04460438
226	0x3d5390a6	0.05165162
227	0xbb7d2cb9	-0.0038631393
228	0x3d5888d8	0.05286488
229	0xbd30500b	-0.043045085
230	0x3d4251ad	0.047441173
231	0x3d682caa	0.05668322
232	0xbca271a6	-0.019829582
233	0x3d3fb2de	0.04680144
234	0x3d2ed740	0.042685747
235	0xbd37696d	-0.044778276
236	0x3d296538	0.041356295
237	0x3d06944a	0.032856263
238	0x3d46976e	0.04848426
239	0x3c3569ba	0.01107257
240	0x3c67b44a	0.014142105
241	0x3cd8ab79	0.026448952
242	0xbccc5d8b	-0.024946949
243	0xbcaeb939	-0.021328555
244	0x3d1692a9	0.03676096
245	0x3ce57844	0.028011449
246	0xbc997b46	-0.01873554
247	0x3cedd993	0.029034412
248	0x3cd90ab9	0.02649437
249	0x3d027cfd	0.03185748
250	0xbcdf38b8	-0.027248725
251	0xbd1448e1	-0.036202315
252	0xbcb640f0	-0.022247761
253	0x3cc0f7d5	0.023555676
254	0xbd30f3c2	-0.043201216
255	0xbcd66c75	-0.026174763

backbone.2.conv3x3.bias f4 [32]
0	0x3b900af9	0.0043958393
1	0x3a0e53b0	0.00054293405
2	0xbd3e5161	-0.046464328
3	0x3d39b108	0.045334846
4	0x3d3d257a	0.04617832
5	0xbaf9be2e	-0.001905387
6	0xbc9ca561	-0.019121828
7	0xbd7047a9	-0.05866209
8	0x3c8fd9b0	0.017559856
9	0xbd2ef4fa	-0.042714097
10	0x3c8a73b9	0.016900884
11	0xba02ccb1	-0.0004989608
12	0x3d648288	0.055788547
13	0x3c3fb907	0.011701829
14	0x3c27acd0	0.010234073
15	0x3c4fd84b	0.012685846
16	0x3d7001d8	0.05859551
17	0x3cf57615	0.029963532
18	0xbd33970b	-0.043845218
19	0x3c504333	0.012711334
20	0xbd2ca8a5	-0.04215302
21	0x3d4f395e	0.05059182
22	0xbcccaca3	-0.024984663
23	0xbd11feed	-0.035643507
24	0x3cb651a3	0.022255724
25	0x3d10f0aa	0.035385765
26	0xbd5ce18a	-0.05392603
27	0xbd5ccf2f	-0.053908523
28	0xbb71d3d4	-0.003689994
29	0x3d1135f8	0.03545186
30	0x3d5924ab	0.053013485
31	0x3d48e70d	0.049048472

backbone.2.bn.weight f4 [32]
0	0x3f7ed400	0.99542236
1	0x3f7d9348	0.9905286
2	0x3f7e2a1d	0.9928301
3	0x3f81845e	1.011852
4	0x3f7dfb26	0.9921135
5	0x3f808547	1.0040673
6	0x3f7dbb9c	0.99114394
7	0x3f7e3e53	0.9931385
8	0x3f800cfe	1.0003965
9	0x3f7e2599	0.9927612
10	0x3f7e95a9	0.99447113
11	0x3f801602	1.0006716
12	0x3f7e939f	0.99444
13	0x3f80cb95	1.0062128
14	0x3f7f12a2	0.99637806
15	0x3f81491d	1.0100437
16	0x3f7e8ef1	0.9943686
17	0x3f80ae41	1.0053178
18	0x3f8104ad	1.0079552
19	0x3f7e3814	0.9930432
20	0x3f7e11fc	0.9924619
21	0x3f7fbc1f	0.99896425
22	0x3f7db194	0.9909909
23	0x3f7e7cf3	0.9940941
24	0x3f7d5752	0.98961365
25	0x3f7ebcde	0.9950694
26	0x3f811ff1	1.0087873
27	0x3f80e2f5	1.0069262
28	0x3f80bd49	1.0057765
29	0x3f7e05a3	0.9922735
30	0x3f80c7cc	1.0060973
31	0x3f7edb7c	0.99553657

backbone.2.bn.bias f4 [32]
0	0xbc1d253e	-0.009591399
1	0xbc3969be	-0.011316715
2	0xbc087222	-0.008327993
3	0xbc463715	-0.0120980935
4	0xbbfb571d	-0.007670297
5	0xbc82eb8a	-0.015981454
6	0xbc287596	-0.010281941
7	0xbbf762fb	-0.007549641
8	0xbc2409a0	-0.01001206
9	0xbbe0f606	-0.006865266
10	0xbbeb0c26	-0.007173079
11	0xbc3f067e	-0.011659263
12	0xbc0bda93	-0.008535999
13	0xbc5b395b	-0.013380374
14	0xbc08e7dd	-0.008356062
15	0xbc255627	-0.010091341
16	0xbc33bc7b	-0.01097023
17	0xbc5d24d6	-0.013497552
18	0xbc43d448	-0.011952467
19	0xbbb8f446	-0.005644354
20	0xbbe86f18	-0.0070933215
21	0xbc16f711	-0.009214179
22	0xbbedff5d	-0.0072631077
23	0xbbc3c250	-0.0059740916
24	0xbc037a7b	-0.008024807
25	0x3a627f99	0.00086402294
26	0xbc5a6a4c	-0.013331007
27	0xbc2ef55c	-0.010678615
28	0xbc3ac95c	-0.011400547
29	0xbbff0239	-0.0077822474
30	0xbc66fa72	-0.014097797
31	0xbc3aba20	-0.011396915

backbone.2.bn.running_mean f4 [32]
0	0x3e662937	0.2247666
1	0xbe5a7a01	-0.21335603
2	0xbe70c8d4	-0.2351411
3	0x3f1d8780	0.6153488
4	0xbe9b10e3	-0.3028632
5	0x3f0b6119	0.54445034
6	0xbe7e0903	-0.24808125
7	0xbefa48aa	-0.48883563
8	0x3f0290aa	0.5100199
9	0xbe89513e	-0.26819795
10	0x3e8d0dc6	0.2754957
11	0x3ecfdc9c	0.40598
12	0xbe1d3143	-0.15350823
13	0x3ece2143	0.40259752
14	0x3ea6b47f	0.32559583
15	0x3ecf8216	0.40528935
16	0x3eab6ecd	0.33482972
17	0x3efc73a2	0.4930697
18	0x3ebbde8c	0.36693227
19	0xbebae517	-0.36502907
20	0xbee2e754	-0.44317114
21	0x3ec1e8b3	0.37872848
22	0x3dc34e51	0.09536422
23	0xbe2e2c77	-0.1700915
24	0x3e4823ab	0.19544856
25	0xbf04d857	-0.5189261
26	0x3f03d233	0.51492614
27	0x3e55c51a	0.2087597
28	0x3e6c2241	0.23059942
29	0xbe8cf2c7	-0.27528974
30	0x3f1862b1	0.5952559
31	0x3e9a4301	0.30129245

backbone.2.bn.running_var f4 [32]
0	0x3eed4065	0.46338192
1	0x3e91edaf	0.2850165
2	0x3f1a723b	0.6033055
3	0x3f3c0266	0.7344116
4	0x3f4a4913	0.7901775
5	0x3fb55b85	1.4168555
6	0x3f3a7d92	0.72847855
7	0x3f5338ae	0.8250836
8	0x3f0415b9	0.51595646
9	0x3e3767eb	0.17910735
10	0x3f250ab5	0.6446946
11	0x3e938e2e	0.28819412
12	0x3e1bd7c9	0.15219034
13	0x3f6f3d11	0.93452555
14	0x3ec0a463	0.37625417
15	0x3ecd393a	0.40082723
16	0x3ecd724c	0.40126264
17	0x3f0a9442	0.54132473
18	0x3f56812b	0.83790845
19	0x3f451605	0.76986724
20	0x3f8f76c2	1.1208117
21	0x3fa29f09	1.2704784
22	0x3ea919af	0.33027408
23	0x3f0c7b5b	0.54875726
24	0x3e5449c6	0.20731267
25	0x3f873d39	1.0565559
26	0x3f5dd1d5	0.86648303
27	0x3ecb0832	0.3965469
28	0x3e41dea5	0.18932588
29	0x3fb975d5	1.4489084
30	0x3f31444a	0.69244826
31	0x3ef8615e	0.48511785

backbone.3.conv3x3.weight f4 [32, 32, 3, 3]
0	0xbcf78af2	-0.030217621
1	0x3d130d4b	0.03590135
2	0x3d337b13	0.043818545
3	0xbbacd496	-0.0052743657
4	0x3caea8d9	0.021320747
5	0xbd314ace	-0.04328423
6	0xbd592f4f	-0.053023633
7	0xbca1ed5d	-0.019766504
8	0x3cf3f7e4	0.02978129
9	0xbd4a557f	-0.04939794
10	0xbcee5548	-0.0290934
11	0xbc282a8a	-0.010264048
12	0xbd664dac	-0.056226417
13	0x3d1dcfe0	0.038528323
14	0xbd4e36ec	-0.050345346
15	0x3d44e59d	0.04807054
16	0xbcf35741	-0.029704692
17	0xbbe2ca20	-0.006921068
18	0xbd7518d7	-0.059838142
19	0x3cb613c9	0.022226231
20	0xbd78cd0b	-0.06074242
21	0x3af99934	0.001904285
22	0xbd3f9e59	-0.04678187
23	0x3ceea94e	0.029133465
24	0xbcfa469d	-0.03055125
25	0xbca7fc93	-0.020506179
26	0x3c5f98cb	0.0136472685
27	0xbc55d2bc	-0.013050731
28	0xbab99332	-0.0014158248
29	0x3d65220d	0.055940676
30	0xbc07f987	-0.008299238
31	0x3ce67432	0.028131578
32	0xbcc58ded	-0.024115527
33	0x3c27ec2c	0.010249179
34	0x3d648abf	0.05579638
35	0x3c6c9d01	0.0144417295
36	0xbd0b0ee5	-0.03394975
37	0x3d55b9ab	0.05217902
38	0x3b2239b8	0.0024753641
39	0xbd3f1e39	-0.046659682
40	0xbcf4b6bf	-0.029872296
41	0x3d59339b	0.05302773
42	0xbbcff42e	-0.006346247
43	0x3d47ff57	0.048827495
44	0xbbb4c7b2	-0.0055169696
45	0x3d08a8a8	0.033363968
46	0xbbf03e31	-0.0073316325
47	0x3d55ea03	0.052225124
48	0xbd789f7b	-0.060698967
49	0xbd469618	-0.048482984
50	0x3d192042	0.03738428
51	0xbcbff408	-0.023431793
52	0x3ce29a57	0.027661486
53	0xbaa1e977	-0.0012352903
54	0x3c7c4daa	0.015399376
55	0xbc3d352a	-0.01154832
56	0x3c936b05	0.017995367
57	0xbd03d5fb	-0.03218649
58	0xbc985b40	-0.018598199
59	0x3d3b628d	0.045748282
60	0xbba55005	-0.0050449395
61	0xbd8133ba	-0.06308694
62	0x3d439302	0.04774762
63	0x3b9afba9	0.0047297073
64	0xbd37e14e	-0.0448926
65	0x3c9e8310	0.019349605
66	0x3d557b83	0.052119743
67	0xbd53c8a8	-0.051705033
68	0x3d5862a9	0.052828465
69	0x3cb36391	0.021898063
70	0xbd1ee23b	-0.03878997
71	0x3d31f980	0.043450832
72	0x3c066822	0.008203538
73	0x3baa6393	0.0051998585
74	0xbcb30ba3	-0.021856135
75	0x3d5c5b73	0.05379815
76	0xbcfc8cb6	-0.030828815
77	0x3d49dbe5	0.049281973
78	0x3d20cbc9	0.039256845
79	0xbc34ae7f	-0.011027931
80	0x3b8360af	0.0040093283
81	0x3c2ad2b2	0.01042621
82	0x3c0ac627	0.008470095
83	0xbd2d1009	-0.04225162
84	0x3c4432f2	0.011975037
85	0xbd43dc8e	-0.04781776
86	0xbd760496	-0.060062967
87	0x3d4888f8	0.04895875
88	0x3aad1b18	0.0013206927
89	0xbcbcaba2	-0.02303106
90	0xbb8f1a91	-0.0043671806
91	0xbd2bf567	-0.04198208
92	0x3d2b0408	0.04175189
93	0xbc9f4d9f	-0.019446192
94	0xbd4cd331	-0.050006095
95	0xbb73a1ea	-0.0037175366
96	0x3d5e02df	0.054201957
97	0xbc3d4882	-0.011552932
98	0x3d013a5f	0.031549808
99	0x3d41293c	0.047158465
100	0x3d1950b7	0.03743049
101	0x3b59ebbd	0.0033252083
102	0xbd4511ea	-0.048112787
103	0xbd4384ae	-0.047733955
104	0xbca36ae0	-0.019948423
105	0xbd333916	-0.043755613
106	0x3c7a6b54	0.015284378
107	0x3c8b9086	0.017036688
108	0x3bca720e	0.006178147
109	0x3d3a5331	0.045489494
110	0xbae25081	-0.0017266424
111	0xbca9acf8	-0.02071236
112	0xbca2cddf	-0.019873558
113	0x3d093c79	0.033504937
114	0xbd2dc01d	-0.04241954
115	0xbceaeb2c	-0.028676592
116	0xbd60a024	-0.054840222
117	0x3ccf9eaa	0.025344212
118	0x3d2e83e1	0.04260624
119	0x3d333bf5	0.04375835
120	0xbc8345dc	-0.016024522
121	0x39cedeaa	0.0003945728
122	0xbd2f2a4c	-0.042764947
123	0xbc43cf95	-0.011951347
124	0x3b79e9a2	0.003813364
125	0xbbd634d3	-0.006537059
126	0xbd25c4ae	-0.04047077
127	0x3d1ed756	0.03877958
128	0xbd43b106	-0.047776245
129	0x3d317eae	0.0433337
130	0x3cb30dd7	0.021857185
131	0x3c3aabe1	0.011393518
132	0xbbe1afa0	-0.006887391
133	0xbc71b094	-0.014751572
134	0x3d5b001a	0.053466894
135	0x3c9605ec	0.01831337
136	0x3d1f6308	0.038912803
137	0x3d285b7b	0.041102868
138	0x3d21e024	0.039520398
139	0x3cc9cc9b	0.024633696
140	0x3c701241	0.01465279
141	0x3c9bae06	0.01900388
142	0xbb29abd1	-0.0025889764
143	0x3b84dc2b	0.0040545664
144	0x3d45681c	0.04819499
145	0x3b642315	0.003481095
146	0xbc61ea52	-0.0137887765
147	0x3cf95f81	0.030441048
148	0x3d16b34e	0.036792092
149	0x3d632551	0.05545551
150	0x3b94f27d	0.0045455084
151	0x3bbb5f15	0.005718122
152	0x3d613989	0.05498651
153	0xbd46f19d	-0.048570264
154	0xbcaabc99	-0.020841883
155	0xbc146159	-0.009056413
156	0x3ca15b1d	0.019696767
157	0x3d6b0345	0.057376165
158	0xbd06d6e5	-0.032919783
159	0xbce291b1	-0.027657362
160	0xbd1c9fc8	-0.038238317
161	0x3cbd335d	0.023095781
162	0xbc48de28	-0.012259997
163	0xbd0a405b	-0.03375278
164	0x3ccd63bd	0.025071973
165	0x3cdac1fd	0.026703829
166	0xbd51ba40	-0.051203012
167	0xbd345af7	-0.044032063
168	0x3ccfe010	0.025375396
169	0xbcc2e106	-0.02378894
170	0x3d528267	0.051393893
171	0xbd23a405	-0.039951343
172	0x3d24a027	0.040191796
173	0x3d6aa2fa	0.057284333
174	0xbd2168be	-0.03940653
175	0xbd488686	-0.048956417
176	0x3ba9e6ae	0.00518497
177	0x3cb4d19d	0.022072608
178	0x3b517dfa	0.0031965957
179	0x3cacb717	0.021083398
180	0x3b506a3c	0.0031801602
181	0xbc8c7080	-0.017143488
182	0x3d2d15a5	0.04225697
183	0xbcd043c1	-0.025422933
184	0xbb0bbe49	-0.0021323136
185	0xbd484046	-0.04888942
186	0xbd07029e	-0.03296148
187	0x3d67350a	0.056447066
188	0x3d3f3b84	0.046687618
189	0xbc50b4f0	-0.012738451
190	0xbb883572	-0.004156762
191	0xbd438dad	-0.047742534
192	0xbb26c9f2	-0.0025449959
193	0x3ca5bbdc	0.02023118
194	0xbd5b8645	-0.053594846
195	0x3d041b75	0.032252748
196	0xbd12af7e	-0.035811894
197	0x3d3fc8e4	0.046822444
198	0xbd720401	-0.05908585
199	0x3d17c78f	0.03705555
200	0x3d4adaef	0.049525198
201	0xbd845fd3	-0.064635895
202	0xbca61b5c	-0.020276718
203	0xbc9284e7	-0.017885638
204	0xbad2ef7a	-0.0016093098
205	0xbca6fc09	-0.020383852
206	0x3d217ca8	0.039425522
207	0x3b14e565	0.0022719738
208	0x3b183cf9	0.0023229702
209	0x3ac076e2	0.0014683867
210	0xbc9919f6	-0.018689137
211	0x3d2cf29e	0.042223565
212	0xbc1602a8	-0.009155907
213	0x3ce827d8	0.028339311
214	0xbcbe3b25	-0.023221562
215	0xbd24fa5e	-0.04027783
216	0x3d6d445d	0.057926524
217	0xbd3be9a4	-0.045877114
218	0x3a3040d2	0.0006723526
219	0xbd3bea64	-0.04587783
220	0x3d56d96c	0.052453443
221	0x3c73d8cc	0.014883231
222	0x3c7221bd	0.014778552
223	0xbd2cbc36	-0.04217168
224	0x3d14c751	0.036322895
225	0xbcad928b	-0.021188041
226	0x3d28d79a	0.04122124
227	0x3b977953	0.0046226173
228	0x3d132132	0.03592033
229	0xbc7a7a44	-0.015287939
230	0xbd3e2152	-0.046418495
231	0x3cccb035	0.024986366
232	0x3d19ab4b	0.037516873
233	0x3d30f462	0.04320181
234	0x3d7af646	0.06127002
235	0xbcf371b0	-0.029717296
236	0xbd19033e	-0.037356608
237	0x3a8662dd	0.0010252852
238	0x3d26b62a	0.04070107
239	0xbd52c68c	-0.05145888
240	0x3ba7dfd9	0.0051231203
241	0x3d19f5cb	0.037587922
242	0xbd3455c8	-0.04402712
243	0xbc64f944	-0.013975445
244	0x3cfb75c8	0.03069581
245	0x3d1e66cc	0.038672253
246	0xbd430997	-0.047616567
247	0x3d7d8648	0.06189564
248	0x3a7dcbeb	0.000968157
249	0xbcdea989	-0.02718045
250	0xbc95a663	-0.018267816
251	0x3c9fa7db	0.01948922
252	0x3cc92ea7	0.024558378
253	0xbcb5f730	-0.022212595
254	0x3d3baeff	0.045821186
255	0x3d23e817	0.04001626

backbone.3.conv3x3.bias f4 [32]
0	0x3bc2514b	0.005930101
1	0xbb4fe166	-0.0031720041
2	0x3d6bf682	0.057608135
3	0xbd0cf1f9	-0.03441045
4	0xbcc86b89	-0.02446534
5	0xbcf611fb	-0.03003787
6	0xbcf8f3eb	-0.030389747
7	0xbd2d4366	-0.042300604
8	0xbc23e3ff	-0.010003089
9	0xbbe678ec	-0.007033458
10	0x3c33f427	0.010983503
11	0xbd68319a	-0.05668793
12	0x3d372522	0.044713147
13	0xbd0e40d2	-0.034729786
14	0x3d43ba2c	0.04778497
15	0x3d3dd061	0.046341304
16	0xbcfd9caa	-0.030958492
17	0xbd3da1b8	-0.046296805
18	0x3d6838dd	0.056694854
19	0xbd6b6d97	-0.05747756
20	0xbc92573a	-0.017863858
21	0x3d25431f	0.040347215
22	0xbd534348	-0.051577836
23	0x3d0b7c5d	0.03405415
24	0xbc38cd79	-0.011279457
25	0xbc2ea963	-0.010660502
26	0x3cd261f3	0.025681471
27	0xbcee29d6	-0.029072683
28	0xbd4c4d01	-0.049878124
29	0xbd507862	-0.050896056
30	0xbd066cb5	-0.032818515
31	0xbd1bffe5	-0.038085837

backbone.3.bn.weight f4 [32]
0	0x3f7cc7c1	0.987423
1	0x3f7d1c54	0.9887135
2	0x3f7e0f12	0.99241745
3	0x3f7e6a16	0.99380624
4	0x3f7dc7d1	0.9913302
5	0x3f80ff6b	1.0077947
6	0x3f8047e0	1.0021935
7	0x3f8015e1	1.0006677
8	0x3f80b0cb	1.0053953
9	0x3f7fe1eb	0.999541
10	0x3f7de030	0.9917021
11	0x3f8102f3	1.0079025
12	0x3f7b1b81	0.9808884
13	0x3f811827	1.0085496
14	0x3f7f4ef2	0.99729836
15	0x3f810bf1	1.0081769
16	0x3f7c490b	0.98548955
17	0x3f814d84	1.0101781
18	0x3f7efde0	0.9960613
19	0x3f814553	1.0099281
20	0x3f7d5f3f	0.9897346
21	0x3f7da234	0.9907563
22	0x3f800b64	1.0003476
23	0x3f7df45d	0.99200994
24	0x3f7c79b0	0.9862318
25	0x3f7db247	0.99100155
26	0x3f7e3310	0.99296665
27	0x3f817eb0	1.0116787
28	0x3f7dc0f1	0.9912253
29	0x3f80c243	1.0059284
30	0x3f7ef13d	0.9958685
31	0x3f7fdcd4	0.9994633

backbone.3.bn.bias f4 [32]
0	0xbc40e3bb	-0.011773045
1	0xbc1e7ea2	-0.009673746
2	0xbbf5c5c9	-0.0075003845
3	0xbbfe6b58	-0.007764261
4	0xbc4b363d	-0.012403068
5	0xbc1e371f	-0.009656697
6	0xbc172333	-0.009224701
7	0xbc0c24f8	-0.008553736
8	0xbbd0c206	-0.0063707856
9	0xbc1be320	-0.0095146
10	0xbc0da28f	-0.008644714
11	0xbc05d2b4	-0.008167911
12	0xbc44ef87	-0.012019998
13	0x3c14bc14	0.009078044
14	0xbc25a2bd	-0.010109601
15	0xbb9bc809	-0.0047540707
16	0xbc1dbadf	-0.009627073
17	0xbc2d78a7	-0.010587848
18	0xbc4406fd	-0.011964557
19	0xbc2cbe33	-0.010543394
20	0xbc5239b5	-0.012831141
21	0xbbdf45d3	-0.0068137436
22	0xbc01028f	-0.007874145
23	0xbc44619e	-0.011986164
24	0xbc3a683e	-0.011377392
25	0xbc2890f0	-0.010288462
26	0xbbd11618	-0.0063808076
27	0xbc5ffe41	-0.013671459
28	0xbc22673c	-0.009912308
29	0xbbc5ff78	-0.006042417
30	0xbc05ab8c	-0.008158576
31	0xbbf50fb6	-0.0074786795

backbone.3.bn.running_mean f4 [32]
0	0x3de3972b	0.111128174
1	0xbebbb861	-0.36664107
2	0xbed9d361	-0.42544082
3	0x3e11532b	0.14191882
4	0xbeb36f90	-0.35046053
5	0x3e750c4a	0.23930469
6	0x3e3b0173	0.18262272
7	0x3e952da0	0.29136372
8	0x3e7479ad	0.2387454
9	0x3e39a6a3	0.18129973
10	0xbdaca8db	-0.08430644
11	0x3ec2766e	0.3798098
12	0x3e483285	0.19550522
13	0x3e534ca0	0.20634699
14	0x3eef3561	0.46720412
15	0x3eb0ddf2	0.3454433
16	0xbea244e9	-0.316932
17	0x3ed254b6	0.41080254
18	0x3ec8eca1	0.39243034
19	0x3ea9dd49	0.3317664
20	0xbeb8718a	-0.36024123
21	0xbe8794e9	-0.26480797
22	0x3ecbd586	0.39811343
23	0x3e69b96a	0.22824636
24	0xbea81482	-0.32828146
25	0xbe86340b	-0.2621158
26	0xbecaf6fc	-0.3964156
27	0x3edcc3f0	0.43118238
28	0xbee9d536	-0.4567048
29	0x3e8977fb	0.2684935
30	0x3ecb4e44	0.3970815
31	0x3ed6b5f1	0.41935685

backbone.3.bn.running_var f4 [32]
0	0x3e8b571f	0.27214906
1	0x3fb5da43	1.4207233
2	0x3fe5cbf3	1.7952865
3	0x3f07cfc1	0.5305138
4	0x40093fa3	2.144509
5	0x3f3887f4	0.7208245
6	0x3f3d86d9	0.74033886
7	0x3efee0b6	0.49780816
8	0x3f84befb	1.0370783
9	0x3f38b48a	0.7215048
10	0x3f585cc7	0.84516567
11	0x3faca17b	1.348678
12	0x3f37120e	0.71511924
13	0x3f8ad3cd	1.0845886
14	0x3f806717	1.003146
15	0x3f50ac9c	0.8151338
16	0x3f4839f7	0.7821345
17	0x3f870d19	1.0550872
18	0x3f183f85	0.59471923
19	0x3fa16cbf	1.2611312
20	0x3f1c39c8	0.6102567
21	0x3fba9c6c	1.4578986
22	0x3fafb026	1.3725631
23	0x3f144459	0.5791679
24	0x3f06ce0e	0.52658165
25	0x3f2299f3	0.6351616
26	0x3fc88776	1.5666339
27	0x3fa9aaae	1.3255212
28	0x3fbc0b0f	1.4690875
29	0x3fb849c2	1.4397509
30	0x3f773d6f	0.96578115
31	0x3f5cad4e	0.8620194
