models/ps_f2_best_epoch.pt (torch, 217579 bytes, 38 tensors)

backbone.0.conv3x3.weight f4 [32, 12, 3, 3]
000000 7e bf 80 3b 7b 76 7e bc 24 d0 08 3c 7d 75 22 3c
       0.0039290776 -0.015531178 0.008350406 0.009915707
000010 92 6d 04 3c b9 0a 99 3d 01 c5 e4 3b f5 0d 05 3d
       0.008082764 0.07472748 0.0069814925 0.032484014
000020 c2 5a 4a bc 80 59 9d 3c ac 87 08 3d e3 ae d2 bc
       -0.01235074 0.019207716 0.03333251 -0.025718158
000030 a4 c2 c5 3c 3d e2 af bc 2a 84 ca 3c aa bd 0d 3a
       0.024140663 -0.021470184 0.024721224 0.00054069853
000040 c5 44 fd 3c c3 32 40 3c 94 72 13 3d 67 1c d6 3b
       0.03091658 0.011730853 0.035997942 0.0065341475
000050 1f c5 76 3c 68 31 a1 3c 2a 4e 2d be 93 fd 56 bd
       0.015061646 0.019676879 -0.16924348 -0.05248792
000060 fc e1 f2 bc 70 ed fa bb 0c a1 1a bb 97 91 9b bc
       -0.029648773 -0.0076576993 -0.0023594527 -0.018990321
000070 3d 00 25 bc ee 50 7a bc 3a b7 84 3d b7 a6 85 bb
       -0.010070858 -0.015278084 0.0648026 -0.004078712
000080 cc 2f e0 bb 9f d6 80 bc 5a ba 94 bb 3d cf d1 bb
       -0.0068416353 -0.01572734 -0.0045388164 -0.0064028786
000090 49 f7 87 bc 1f 3c 2c 3b 82 e7 a9 bc 8f 73 62 bc
       -0.016597407 0.0026280952 -0.020740274 -0.013821497
0000a0 22 ae 40 3d 7c b9 09 bd 5c 11 70 3c 55 09 3e 3d
       0.047041066 -0.033624157 0.014652576 0.04639562
0000b0 c8 36 fe 3c f2 71 b2 3a 44 25 85 bc 9c b6 16 3d
       0.031031981 0.0013614281 -0.016253121 0.036795244
0000c0 cc ca 8f 3a 78 a0 de bc f2 9d 18 bd f0 46 9a bb
       0.0010970472 -0.027176127 -0.037260003 -0.0047081634
0000d0 a6 0f b8 b8 29 60 88 bc 29 91 a2 3b 2e 13 4a bc
       -8.7767185e-05 -0.016647415 0.004961152 -0.012333674
0000e0 31 7b e1 3b 54 fe ad bc 89 2e 7b 3d 5e 3e 39 3c
       0.0068811406 -0.021239437 0.061323676 0.011306373
0000f0 81 cf 32 3b 09 9c a7 bc 1c 50 2c ba e8 6a 1e bd
       0.0027284326 -0.020460146 -0.00065732165 -0.038676172
000100 ff 48 ee 3b e1 b7 71 bc 6e 24 80 3d 5c 98 13 3c
       0.0072718854 -0.014753313 0.062569484 0.009008493
000110 73 f4 81 bc 95 a4 07 bc e9 b3 c1 ba 31 8f 13 bc
       -0.015863633 -0.0082789855 -0.0014778349 -0.009006307
000120 c2 dc 7a bc d9 5b 16 bd c7 b2 c8 3c d5 13 88 3c
       -0.015311422 -0.036708687 0.02449931 0.01661102
000130 8c 57 f3 bb 11 50 22 3d d9 93 0b bc 31 71 f3 3c
       -0.007426208 0.03962714 -0.008519136 0.02971706
000140 da 6d b2 bc 6f ba 05 3c 52 86 f5 3b b6 84 90 bc
       -0.021780897 0.008162125 0.007492819 -0.017641407
000150 0f 20 6e bc c0 bf be bc a7 38 a6 3c 90 5d 7c bc
       -0.014534011 -0.023284793 0.020290686 -0.015403166
000160 67 ca ec 3a f5 64 00 3d 2f ef 93 3c be 4b d2 b9
       0.0018065692 0.03134628 0.018058388 -0.00040110754
000170 f2 fd bd 3c 3e b5 70 3b 8c 8c 62 bf aa 39 2e bc
       0.02319238 0.0036729123 -0.8849571 -0.010633865
000180 a0 4e f4 3a 28 5e 8f 3b d8 ec 74 bc cc 89 28 bc
       0.0018639155 0.004375238 -0.014949046 -0.01028676
000190 cb 96 af 3c 2b cc 21 bc 6e 35 2a bc 3c 32 4a ba
       0.021434208 -0.009875338 -0.010388715 -0.0007713174
0001a0 b0 f4 fa bb 1a fd f7 bb d9 be c0 3b f4 f5 b0 bb
       -0.0076585636 -0.007568014 0.005882126 -0.0054004136
0001b0 05 f3 d1 bb 87 1c c6 bb d7 3f 0e bb 48 72 0a 3b
       -0.006407144 -0.006045881 -0.0021705532 0.0021125246
0001c0 90 f8 bf b9 93 6f b9 bc 6d 6d c5 3a f4 5f ed b9
       -0.00036615552 -0.02263621 0.0015062519 -0.00045275653
0001d0 e9 25 6f 38 2c b8 1a bb 46 30 04 bb 99 ae bc 3b
       5.7017347e-05 -0.002360831 -0.0020170375 0.0057581184
0001e0 b8 8f a4 3a e9 c6 e2 b9 de 13 1f bc 92 14 6d 3a
       0.0012555039 -0.0004325428 -0.009709327 0.0009043898
0001f0 6f dc 6e ba 42 9f 82 ba b6 b4 2c 39 95 af f2 b9
       -0.00091118267 -0.0009965675 0.00016470518 -0.00046288656
000200 c1 00 87 ba b5 73 7c bb aa 76 8f 3e 4c fe 8b 3b
       -0.0010299907 -0.0038521115 0.2802022 0.004272258
000210 b9 5d 1a 3a 55 ee 85 ba 33 ce a8 bb de 45 b9 b9
       0.00058885996 -0.0010218123 -0.005151534 -0.00035338005
000220 0d 8f b5 39 78 3e a6 3b 6a 30 0f 3b 0a 41 b2 3b
       0.0003462959 0.005073365 0.0021848925 0.005439882
000230 1a af 6b 3c 75 4b 38 ba 84 54 12 ba 43 12 ed ba
       0.014385009 -0.0007030287 -0.0005582052 -0.0018087107
000240 9f e2 16 3b 27 75 03 3c 22 1a f0 3b 44 ea 92 3a
       0.002302326 0.008023537 0.007327334 0.0011208733
000250 be 14 a3 3b b6 1b 79 3b ca 58 d1 3a 06 16 af ba
       0.004976838 0.0038010902 0.0015971896 -0.0013358004
000260 37 eb 40 ba 19 f3 b5 3a b2 5a b9 3b 9c b7 7b bb
       -0.00073592685 0.0013881653 0.0056565637 -0.0038409
000270 4a d0 ac 3b 78 c0 9d 3b 3f 45 fe ba a8 09 1c 3b
       0.0052738534 0.004814204 -0.0019399299 0.0023809467
000280 19 28 74 3b 90 dc 90 3b b7 92 29 bb c3 b0 d1 bb
       0.0037255345 0.0044208243 -0.0025874802 -0.0063992455
000290 0e 7b 1f bb e2 28 1b bb 30 65 ff be 38 d0 4a bb
       -0.002433482 -0.002367549 -0.49881887 -0.0030946862
0002a0 9d 3a ea ba d3 ef 22 3b 3c 68 4e 3b 92 80 d8 3a
       -0.0017870251 0.0024862185 0.0031495234 0.0016517809
0002b0 8f d0 8b 3b 48 5a a0 3b 09 d6 84 b9 4e fa 86 3b
       0.0042668055 0.004893575 -0.0002533647 0.004119194
0002c0 3c c0 a4 3c b0 9e 16 3b d3 47 3b ba 46 24 82 3a
       0.020111196 0.0022982769 -0.00071441865 0.0009929023
0002d0 e1 23 1f 3b ae b5 ed 3a d3 fd 9a 3b ec 4b 98 ba
       0.002428286 0.001813581 0.0047299652 -0.0011619306
0002e0 fd aa 6e ba 14 9d ae 3b 21 cd 98 bb ef 6e 1d 39
       -0.0009104459 0.0053287838 -0.004663125 0.00015014013
0002f0 c4 a4 cb 3b 61 71 2f bb 6b 4d dc ba 42 2f 1e bb
       0.00621471 -0.002677046 -0.001680774 -0.0024137055
000300 d3 97 67 b9 ff 02 b7 bb f1 4a 8c 3b a2 6c 0b bb
       -0.00022086436 -0.005585074 0.0042813946 -0.0021274467
000310 00 f8 5e b9 6e da 09 3b 3d 78 0f bb 32 4d 0f ba
       -0.00021263957 0.0021034735 -0.0021891736 -0.000546652
000320 ce 01 ff bb 6e 8c 77 bb 6b 2c 99 3e 49 c2 c7 3b
       -0.0077821976 -0.0037772912 0.299167 0.0060961586
000330 8e 1c d1 3a e8 db cc ba 31 7d 0d bb 66 53 ab bb
       0.0015953945 -0.0015629502 -0.0021589512 -0.0052284477
000340 f7 d7 b7 bb 45 04 e1 bb 0d b0 9c 3a 7b 30 49 3a
       -0.005610462 -0.006866964 0.0011954323 0.00076747657
000350 12 ba 57 bd 86 9b 93 ba 30 f1 5e bb 63 50 b0 bb
       -0.052667685 -0.001126156 -0.003401827 -0.0053806766
000360 9c 4a 09 bd b8 1d 70 3c 5c 0e 8f 3b fc 6c d6 3c
       -0.03351842 0.014655523 0.0043657254 0.026175015
000370 17 df a5 bc 0d 68 cb 3d 5a 7c ad bd 78 0e 66 3c
       -0.02024798 0.099319555 -0.08470984 0.014041536
000380 cb 02 d4 bd b0 57 07 3d fe 77 8f ba e5 df 8f 3c
       -0.10352095 0.03304261 -0.0010945795 0.017562816
000390 f3 a7 ad 3c cd 2a f2 bd f2 e7 17 3c c7 0f 6f 3d
       0.021198248 -0.1182457 0.009271609 0.058364656
0003a0 73 d9 b5 3d b2 51 b0 3d 0a d6 04 3d 01 e9 8b 3d
       0.08879366 0.08609332 0.032430686 0.06831551
0003b0 cc 53 02 3d e9 c8 cd bc 67 21 36 be fe 89 2b bd
       0.031818196 -0.025120215 -0.1778618 -0.041879646
0003c0 4f a6 ad 3d 3c 70 b0 bc c5 fe 1b bd ff c9 07 bd
       0.084789865 -0.021537893 -0.038084764 -0.033151623
0003d0 79 9b 55 bc 4c a6 89 bd 89 a0 cd bc 70 99 e0 3d
       -0.013037556 -0.06721172 -0.025100963 0.10966766
0003e0 3e 26 fa 3c 80 29 ff 3c a9 39 e4 3c 61 54 96 bd
       0.030535813 0.031147718 0.027859526 -0.07340313
0003f0 3e b6 94 bc 0d 89 81 3c af 3b 3b bc 21 09 9f bd
       -0.018153306 0.015812421 -0.011427804 -0.07765413

backbone.0.conv3x3.bias f4 [32]
000000 d6 c0 cb bc ac 2a a9 3c e4 72 5a bb f6 8f 9a 3b
       -0.024872225 0.02065023 -0.003333264 0.0047168685
000010 12 a5 af bc bf 5c 0a bb a3 c5 2d 3d 57 5b 94 3d
       -0.021441016 -0.002111241 0.04242481 0.07243984
000020 49 c1 a3 3d f9 7a a0 bd be 2d a5 bd 23 d4 52 bc
       0.079958506 -0.07835955 -0.08065365 -0.01286796
000030 9a 52 e6 bb c2 fb 50 3d 15 1f a2 3d d4 6f c6 3c
       -0.00702889 0.051021345 0.07916085 0.024223246
000040 24 5c 8c bd 9c 33 04 bc 48 2a 74 3d ff 65 01 3d
       -0.06853512 -0.008068945 0.059610635 0.03159141
000050 73 88 8a bd 21 58 0c 3c 90 40 ba bd bc a2 22 bd
       -0.06764307 0.008565933 -0.090943456 -0.039705977
000060 e9 f4 83 3d f0 29 2e bd c0 1b 6c 3d 08 a9 a1 bd
       0.06443197 -0.042520463 0.057643652 -0.07893568
000070 02 45 b3 3d 67 8c 3a 3d 1d eb 74 3d 19 f3 d1 3c
       0.087533966 0.045544054 0.059794534 0.025628613

backbone.0.bn.weight f4 [32]
000000 dc 38 9e 3f 1f 91 69 3f 33 c6 40 3f 11 18 9a 3f
       1.2361102 0.9123706 0.7530243 1.2038594
000010 fa 35 f6 3e c7 c1 a4 3f f1 76 38 3f 64 cc 8a 3f
       0.48088056 1.2871636 0.7205649 1.0843625
000020 be 29 80 3f 04 6e 8e 3f 7e 35 43 3f 14 d3 36 3f
       1.0012739 1.1127324 0.762535 0.7141583
000030 fa 3b 9a 3f c2 2a dd 3e 3f dd 19 3f 8e d8 35 3f
       1.2049553 0.43196684 0.6010322 0.7103356
000040 76 55 26 3f 24 2d 7d 3f f9 7e cb 3e f8 93 42 3f
       0.64974153 0.98897004 0.3974531 0.7600703
000050 4a 08 fc 3e b8 dc 55 3f 58 ca a7 3e c8 4f 0a 3f
       0.49225074 0.83539915 0.32771564 0.54027987
000060 86 45 89 3f 6f f9 08 3f 95 40 53 3f 63 55 5a 3f
       1.0724342 0.53505605 0.8252042 0.8528654
000070 f7 07 59 3f c1 7e 00 3f 46 ec 04 3f a0 56 e3 3e
       0.8477778 0.5019341 0.51923025 0.44402027

backbone.0.bn.bias f4 [32]
000000 66 e8 8c 3e 85 f7 63 3f 8b 3c 0e bd 35 5a 82 be
       0.27521056 0.8904956 -0.034725707 -0.25459448
000010 ff 26 a9 3f 8f 40 9c bd 14 ae 88 3f 36 33 69 3c
       1.3215026 -0.07629501 1.0678124 0.014233401
000020 5c 3b 25 bd 15 3c de 3c ad cb 12 3f 6e 9b d0 3f
       -0.040339813 0.027128259 0.57342035 1.6297433
000030 35 54 0b bd e1 51 a2 3f a5 d8 c5 3f 07 5e d6 3f
       -0.034015853 1.2681237 1.545674 1.6747445
000040 6f de 42 3f b1 06 90 be ef 87 d2 3f c8 fd bf 3d
       0.76120657 -0.28130105 1.6447734 0.09374577
000050 8b f1 dd 3f 04 97 af 3d 21 46 c3 3f 7a 98 a8 3f
       1.7339338 0.08573726 1.5255777 1.3171532
000060 04 51 df be 66 fa cc 3f 1e 0b cc 3e e0 21 2c 3e
       -0.43616498 1.6013916 0.39852232 0.16809797
000070 bd 34 77 3e 06 8e 97 3f d3 0b c3 3f 8c 31 99 3f
       0.24141212 1.1840217 1.5237983 1.1968246

backbone.0.bn.running_mean f4 [32]
000000 b9 63 83 be 08 2d 8d 3c a1 bd aa bb 23 5b 08 be
       -0.2566202 0.017233387 -0.005210594 -0.13316016
000010 18 05 25 3d f5 20 bd be 6b 2f 0c 3e 18 e9 da bc
       0.04028806 -0.36939207 0.13689964 -0.026722476
000020 6e 35 f1 bb 38 cb bd be 04 c9 99 be 16 d1 7b 3c
       -0.0073611056 -0.37069106 -0.30036175 0.015369674
000030 c4 73 95 be c7 7d a8 3d e6 6c db 3d 72 c0 23 3d
       -0.29189885 0.08227115 0.1071413 0.039978452
000040 f9 7f f6 bc 89 a7 1e be 04 07 95 3d 9f ab b5 bc
       -0.030090319 -0.15493597 0.07276729 -0.022176562
000050 26 ea 72 bc 0b a0 97 3c 31 a4 c5 bd 99 76 f2 3c
       -0.014826333 0.018508932 -0.09650458 0.029597567
000060 cf 2e ab bd 98 0d 17 bc 3e 88 3a 3e f0 f0 f5 bd
       -0.083585374 -0.00921955 0.18216035 -0.12008846
000070 4a 9d 4f 3e e4 b3 bc 3d 66 0d 98 3d 03 7d 36 3d
       0.20274845 0.09213999 0.074244305 0.044552814

backbone.0.bn.running_var f4 [32]
000000 2f 4c ac 3c c0 6b 3d 3a fc 32 36 3a 96 b1 20 3c
       0.02103242 0.0007225834 0.0006950346 0.009807965
000010 c4 f5 04 3b 29 0f 5b 3d aa 22 97 3b 1c fc a8 3b
       0.002028809 0.053481255 0.0046122866 0.005157007
000020 2b f8 3c 3b 08 ff fb 3c b3 d9 85 3c 78 fa a9 3a
       0.0028834443 0.030761257 0.016339159 0.0012968322
000030 c9 94 ee 3c 0e 66 78 3a fc ff 56 3a d4 c2 8e 3a
       0.02912368 0.00094756566 0.0008201597 0.0010891804
000040 02 b1 a6 3b 57 c0 54 3c 02 7b 5c 3a 6b c8 f9 3a
       0.005087019 0.0129853105 0.00084106636 0.0019056922
000050 6f e9 04 3b 1e b9 4c 3a 8a 68 64 3a 44 64 24 3b
       0.0020280739 0.0007809567 0.00087130873 0.0025084177
000060 5a a6 22 3c 72 3c c8 3a 0a 6d 9d 3b dc c0 9f 3a
       0.009927357 0.0015276803 0.0048042582 0.0012188214
000070 4c b4 aa 3b f5 59 05 3b c5 13 66 3a fc 71 94 3a
       0.0052094813 0.0020347808 0.00087767496 0.0011325474

backbone.1.conv3x3.weight f4 [32, 32, 3, 3]
000000 6e bb 53 bb df 46 a8 bd 82 0e ec ba 62 26 08 bd
       -0.0032307762 -0.082166426 -0.0018009695 -0.03323973
000010 7f 87 62 3d 32 12 7d bd e9 09 5b bc b3 ce 85 bd
       0.055305 -0.06178493 -0.013369062 -0.06533565
000020 4f 0d dc bc e7 86 24 bd f1 12 97 bc 70 cb 8b bb
       -0.026861815 -0.040167715 -0.01844165 -0.004266195
000030 5d c9 ac 3b 6c d4 f3 3c 71 32 44 bb 10 bf fb ba
       0.005273028 0.029764377 -0.0029937292 -0.0019206721
000040 c2 71 06 3d d1 73 77 3c 4d 09 d2 3c 29 44 70 3d
       0.03282333 0.015103296 0.0256392 0.058658753
000050 0a cb 9d 3c dc 0d 0d 3d 5c 48 b0 3d ee 18 cc 3c
       0.019261856 0.034437045 0.086075515 0.024914231
000060 24 f1 54 3d 00 29 01 3d b9 17 fb 3c 66 9a c7 3c
       0.051987782 0.03153324 0.03065096 0.024365615
000070 41 3f b4 bd 43 aa 83 3c 16 ed ca bd 20 e5 86 3d
       -0.08801127 0.016072398 -0.09908502 0.06586671
000080 a5 df a8 3b 7a bf 43 3e 5e 72 8e bd 68 33 28 3d
       0.0051536136 0.19116011 -0.069554076 0.04106465
000090 f9 f1 3e 3d 8c c8 9b bb 58 b9 c1 3c c6 2a 71 ba
       0.04661748 -0.0047541317 0.02364795 -0.0009199794
0000a0 78 b1 d5 3b bf 11 35 3d 68 36 b2 bb 48 08 8c bd
       0.0065214 0.044206377 -0.0054386146 -0.06837517
0000b0 80 7c 0e bc 6a cd ed bc 94 05 3b bc db 73 cd bb
       -0.008696675 -0.029028613 -0.011414904 -0.0062699146
0000c0 fe 11 ca 3c 10 7d ca bd a6 26 4a 3c 0f d0 64 be
       0.024666782 -0.09887135 0.012338316 -0.22344993
0000d0 d8 4b f2 3c 7a 10 9f bd b5 89 72 3d 87 db 14 3c
       0.02957718 -0.077668145 0.05921336 0.0090855425
0000e0 59 e4 83 39 ac 3d b4 bd bf c3 c3 bd f3 86 e6 bb
       0.000251564 -0.088008255 -0.0955882 -0.00703513
0000f0 39 e5 10 bd 9a 5b 24 bc b3 9c 7c bc f5 3d 1e 3c
       -0.035374854 -0.010031605 -0.015418219 0.009658326
000100 ee 03 78 3c 82 e4 b0 bc 21 5b 87 3d 2a 52 1f 3e
       0.015137656 -0.021593336 0.06609178 0.15558687
000110 df d0 32 3d b0 72 99 3c b8 15 2a bb e3 16 45 bd
       0.043656226 0.018731445 -0.0025952887 -0.04811753
000120 ba 83 0f 3d 0d 78 e3 3c 33 51 12 3c 3c 02 60 3d
       0.035037734 0.027767206 0.008930492 0.05468963
000130 44 27 be bc 75 3b 29 3c 4a e9 27 3c 5d 8f 60 3d
       -0.023212083 0.010329117 0.010248492 0.054824222
000140 39 64 43 3d d5 fa 35 bd eb e6 20 3c fe 66 e7 bc
       0.047703 -0.044428665 0.00982068 -0.028247353
000150 7e c7 57 bc 29 32 71 3d 1d d4 24 bd ff c2 cf bd
       -0.013170121 0.058885727 -0.04024135 -0.101446144
000160 25 d5 20 bd ac 47 4c bd c7 78 00 3d f2 08 d0 3c
       -0.03926577 -0.04987304 0.031365182 0.02539489
000170 28 5f 75 bd 4c 44 9d bd 20 76 15 bd 07 2b a9 3c
       -0.0599052 -0.07679042 -0.036489606 0.0206504
000180 a6 c1 1d 3c 21 5e 45 bd cb e4 e1 bc dd db 07 bd
       0.009628689 -0.04818547 -0.027574917 -0.033168662
000190 85 98 bc bc f9 97 0a bc 7e 8d 5d bc a8 b2 30 bd
       -0.023021946 -0.008459085 -0.013522504 -0.04313913
0001a0 af 9f af bc 43 fc 80 bd 40 32 a4 3b 5d 8d b9 3c
       -0.021438448 -0.06298115 0.005010873 0.022650415
0001b0 51 29 66 3c bd 3c 78 3d cf a4 af bc 42 59 03 be
       0.014047937 0.0606048 -0.021440892 -0.12827018
0001c0 a4 27 3d 3e e8 0e a2 3b 68 32 6e 3d c8 43 dc bd
       0.18472153 0.0049456246 0.05815354 -0.10755116
0001d0 c0 9e 54 bd 8f 11 17 3c c0 04 02 3d 1b 5a e3 3c
       -0.05190921 0.009220495 0.03174281 0.027752927
0001e0 2e 22 b1 3c 8e 4f a8 bd 62 d9 e0 bb 80 a8 c6 bc
       0.021622743 -0.08218299 -0.0068618516 -0.024250269
0001f0 30 7a 6a 3d dd ca 1d bc f0 3d 8f bb ee a7 f0 3c
       0.057245433 -0.009630886 -0.004371397 0.02937695
000200 41 ec 0a 3d 6f 4d 21 3c 81 05 cc 3d 49 68 01 3d
       0.033916716 0.009845122 0.09961987 0.031593595
000210 71 68 34 bd cc 29 d0 bb 04 a2 6b bc ca 36 01 bd
       -0.044044916 -0.006352639 -0.014381889 -0.03154639
000220 de 89 78 bc d4 b9 89 3b 4f 54 3d bd 29 bb 77 bd
       -0.015169589 0.0042030606 -0.04622298 -0.060481224
000230 a6 ad 5b bd f2 23 83 3d 3b 85 10 be 49 25 d1 bd
       -0.0536324 0.064033404 -0.14113323 -0.1021219
000240 ec 6b 24 3c 96 9f 5e bd 94 b5 a4 3b 79 76 3f 3b
       0.010035496 -0.05435141 0.0050265286 0.0029214902
000250 3e ff a7 bb fe 29 98 bd 20 fb 48 bc f5 23 6f bb
       -0.005126863 -0.074298844 -0.012266904 -0.0036489938
000260 4c 3b 82 3d 17 78 a6 bc a9 06 e9 bd 56 46 4b 3b
       0.06358966 -0.020320935 -0.113782234 0.0031017265
000270 68 de 65 bc 43 d2 ca 3d 08 08 1f bd 5f c8 18 3c
       -0.014030077 0.099033855 -0.03882602 0.009325116
000280 f7 c3 3e 3d df 97 32 bc 45 7b 27 bd 49 58 28 bc
       0.046573605 -0.010900467 -0.040889043 -0.010274955
000290 9e 15 02 3d 04 bf a6 3c 52 e1 2d 3e c3 db 99 3c
       0.031758897 0.020354755 0.16980484 0.018781548
0002a0 8a e7 60 bd 5b 2c 9a bb 8d 91 eb bb 11 50 fe 3c
       -0.054908313 -0.0047049946 -0.007188982 0.031044038
0002b0 22 1c cd 3d 88 2a 37 3d fa 00 c6 bc 66 88 7c 3d
       0.100151315 0.044718295 -0.024170388 0.061653517
0002c0 16 98 f6 3c 50 50 2e 3d 64 8d 32 3c 0d 2e ab bc
       0.030101817 0.04255706 0.010897968 -0.020895982
0002d0 ea 0c 5f bc 3f de b5 bc 54 ef 61 bb 54 3a 84 3d
       -0.013613919 -0.022200702 -0.0034474926 0.06456438
0002e0 29 96 4a 3c 49 fc 05 bd ba d9 11 3c 2c 0a f3 3c
       0.0123649025 -0.0327113 0.008902008 0.029667936
0002f0 bd dc c5 bc d6 68 2b 3c 2f e1 82 3d 93 c8 92 bd
       -0.024153108 0.010462007 0.063906066 -0.07167163
000300 2e 70 d7 3b 4a d1 16 bd 21 a1 98 3d 7a 07 73 3c
       0.006574652 -0.036820687 0.07452608 0.0148333255
000310 6b 3c d4 3c 34 bf b0 3a dd 6f f6 3c 8f 16 64 bd
       0.025907716 0.0013484717 0.030082637 -0.055685576
000320 eb 18 99 bc 9a fc 1e bd da 49 c5 3d fe 49 b5 bc
       -0.01868864 -0.03881512 0.09633227 -0.022130009
000330 45 19 06 bd 7f 5b f0 bc 1a 92 95 bc 6b e6 ab 3b
       -0.032738943 -0.029340504 -0.018258143 0.005245974
000340 10 30 04 be 2c 3c 0e 3b 06 f6 05 bd e3 8f 44 bb
       -0.1290896 0.0021703346 -0.03270533 -0.002999299
000350 28 54 a9 bd c7 75 7c 3b c5 23 ac bd cd d7 1b bd
       -0.08268005 0.003852235 -0.0840526 -0.0380476
000360 b5 99 a4 ba 5d 80 ff bc e7 52 ce bc 55 a1 5d bd
       -0.0012558015 -0.031189138 -0.025186015 -0.054108936
000370 65 77 1a 3c 23 23 a3 bd 27 00 89 3d 0a 14 a3 bc
       0.00942788 -0.07965686 0.06689482 -0.019907016
000380 30 1d 36 3e a2 5a 64 3c 99 f7 43 3c d3 fa 38 3d
       0.17784572 0.013937624 0.011960887 0.04516108
000390 3f 88 4a bd d0 e2 c0 3b 40 f4 28 3d a4 ec 81 ba
       -0.04944634 0.005886413 0.04124856 -0.0009912443
0003a0 cd 6d 8b bc d8 f6 b1 3a 02 16 32 3d 0a 58 bb 3d
       -0.01702013 0.0013577593 0.04347802 0.091476515
0003b0 cc a6 32 bc c5 8e b1 bb 33 1d 85 bd 80 08 4c 3d
       -0.010904025 -0.005418631 -0.0649971 0.049812794
0003c0 a9 97 1f bc 19 fd 41 3d 4f d5 92 bc 64 31 6e bc
       -0.009740748 0.047360513 -0.01792398 -0.014538143
0003d0 29 4b 38 3e 47 87 08 3d dc 67 8d bc de 64 77 3e
       0.17997421 0.033332136 -0.017261438 0.24159572
0003e0 d3 f5 68 3d 79 a2 2c 3c 48 a0 b0 3d d4 80 7c bb
       0.05687506 0.010536783 0.08624321 -0.0038528936
0003f0 cd 34 17 bd aa 02 0d bc 07 57 04 bd 6f 96 b2 3c
       -0.03691559 -0.008606592 -0.03230956 0.021800248

backbone.1.conv3x3.bias f4 [32]
000000 03 02 4f 3c 7d 62 43 bd c1 0b d7 3c 01 9e 6d 3c
       0.012634757 -0.047701348 0.026250722 0.014503003
000010 21 0a d2 3c 76 f0 6b bc bd 06 48 3d 36 5c e7 3b
       0.025639595 -0.014400592 0.04883455 0.007060553
000020 9a a3 64 bc 77 c3 b9 ba 1d 0e c1 bc 52 6f 0e bc
       -0.013955021 -0.0014172633 -0.0235663 -0.008693533
000030 7c 47 4d 3d 29 46 a0 3c 92 f8 d4 bb d6 dd 17 3b
       0.050117 0.019564705 -0.0064993585 0.0023172996
000040 05 55 5c 3c 6d d9 0a bd d8 27 04 bd f4 e6 56 3d
       0.013448005 -0.03389876 -0.03226456 0.052466348
000050 12 15 4b 39 33 79 90 3c fc fb dc bc b5 a0 31 bd
       0.00019367438 0.017635917 -0.026975624 -0.043366153
000060 ac c1 40 3c da 76 03 3d 40 e4 62 bd d3 d4 6e bd
       0.011764925 0.032095768 -0.055393457 -0.058308434
000070 57 b6 9f bc 25 c5 1c 3d 2e 89 57 bd 6f ac 41 3d
       -0.019496126 0.03827395 -0.05262106 0.047283586

backbone.1.bn.weight f4 [32]
000000 76 3d 5c 3f 9a f8 73 3f d1 c4 97 3f 0f 27 77 3f
       0.8603128 0.9530121 1.1856939 0.96543974
000010 74 30 23 3f cd 8a 79 3f 2d 45 81 3f 8b 07 7f 3f
       0.6374581 0.9747742 1.0099236 0.99620885
000020 0f d4 64 3f a1 cf 83 3f 14 64 44 3f 2f 3d 3a 3f
       0.89386076 1.0297738 0.7671521 0.7274961
000030 97 13 3a 3f a3 b5 69 3f 7a 8c 8d 3f 84 cb 7c 3f
       0.7268614 0.9129278 1.1058495 0.9874804
000040 8c 13 4b 3f 06 97 65 3f f7 e2 61 3f f8 bf 67 3f
       0.793267 0.8968357 0.88236946 0.90527296
000050 dc 66 88 3f 7f 44 8c 3f a9 94 93 3f 9c 25 89 3f
       1.065639 1.0958403 1.1529742 1.0714602
000060 57 27 91 3f f3 3d 84 3f a9 3d 7e 3f 23 7f 78 3f
       1.134013 1.0331405 0.99312836 0.97068995
000070 0d b0 72 3f 51 d0 63 3f 69 38 5c 3f e6 ec 66 3f
       0.9479988 0.8898974 0.86023575 0.9020523

backbone.1.bn.bias f4 [32]
000000 f3 c1 ad 3c d9 67 4b 3d bb 66 90 be 4b 1f 0b bf
       0.021210646 0.049659584 -0.28203377 -0.54344624
000010 53 63 a3 be 40 08 b2 be fa 49 14 be 99 ff 4b 3d
       -0.31911716 -0.3477192 -0.14481345 0.049804304
000020 66 22 b6 be ea 7a 03 bf ec 49 a5 bc 71 55 dd bd
       -0.3557312 -0.51359427 -0.02017685 -0.10807312
000030 f5 a6 65 bf 3e 3d 8e bd 48 2f 10 be 4e a7 1a bf
       -0.8970788 -0.06945275 -0.14080536 -0.60411537
000040 ab d1 8a bd 71 7e 28 bf b5 fe 22 bf a6 ec a8 be
       -0.06778272 -0.65817934 -0.636699 -0.32993048
000050 e3 2b 68 be d1 97 19 3c 63 c1 24 be 97 b4 3a 3e
       -0.22672991 0.009374575 -0.16089396 0.18232952
000060 49 8c b5 3e 70 f5 0f bf fd 4d 1e bf 53 0a 14 be
       0.35458592 -0.5623388 -0.6183775 -0.14457063
000070 6b 08 c6 bb cf 79 3a 3d 43 3b 54 bf b7 9d 02 be
       -0.006043484 0.045526322 -0.82902926 -0.12755476

backbone.1.bn.running_mean f4 [32]
000000 83 02 8d bf de 09 a5 bf d5 ec d9 bd 26 6c c2 3f
       -1.1016392 -1.2893636 -0.10640875 1.5189254
000010 11 ec f5 3f 1c 65 16 3f 8f 0f a6 bf 9b d5 92 bf
       1.9212667 0.5874803 -1.2973498 -1.1471437
000020 c6 f9 8d bd 60 c8 c1 be 8d dc be 3e 43 ed 4c 3f
       -0.06932406 -0.37848186 0.37277642 0.8004953
000030 24 56 05 3f c3 f1 ab be d3 52 15 bf 51 8d 10 3f
       0.52084565 -0.33582887 -0.58329505 0.5646563
000040 c8 ee 97 3f 44 a9 4c 3f 30 40 62 bf 15 8e 8d 40
       1.1869745 0.7994578 -0.8837919 4.423594
000050 c8 0c 98 bf be 83 a2 bf e8 45 62 bf 7b ce 49 c0
       -1.18789 -1.2696455 -0.8838792 -3.1532276
000060 2a 5e cd bf 55 0a 18 3d e8 b1 ee 3e fd 6d f5 3c
       -1.6044362 0.03711923 0.46620107 0.029959673
000070 fb b3 3b bf 0e 7a ee be 45 0f bd 3d 32 49 c1 be
       -0.73321503 -0.46577495 0.09231428 -0.37751156

backbone.1.bn.running_var f4 [32]
000000 ac ac c6 3e c3 94 69 3f 19 11 a8 3e 2d fa 60 3e
       0.38803613 0.9124262 0.32825544 0.21970434
000010 4f 49 d4 3e b8 ec ce 3e 33 d3 57 3f ac ca 86 3f
       0.4146218 0.40414977 0.8430664 1.05306
000020 a7 80 ef 3e 04 06 38 3e f2 53 e2 3d dc 1b 29 3e
       0.4677784 0.17971045 0.110511675 0.16514534
000030 5e 8b 7e 3d 60 69 f3 3e 9e 7b 01 3f a7 c4 52 3e
       0.06214463 0.47541332 0.5057925 0.2058283
000040 46 1a 3d 3f e6 5e 83 3e 2a 0d 93 3e 24 70 d2 3f
       0.73868215 0.2565834 0.2872098 1.6440473
000050 32 b5 57 3e 7b 32 fa 3e c5 d0 57 3f 4d fd 6d 3f
       0.21065214 0.4886664 0.8430293 0.9296463
000060 4d 17 09 3f d9 97 bc 3e a4 11 e5 3e c9 08 de 3e
       0.5355118 0.368346 0.4474002 0.43366078
000070 60 c4 03 3e 9f e9 eb 3d 44 e5 18 3e 71 8f 1c 3f
       0.1286788 0.11519169 0.14931208 0.61156374

backbone.2.conv3x3.weight f4 [32, 32, 3, 3]
000000 19 96 28 3c 99 dd a0 bd 69 3c bf bc a5 57 1b bd
       0.010289692 -0.078547664 -0.023344235 -0.03792538
000010 9a 0d 7a 3b e7 57 50 bc fe 82 30 bd ea 6f 07 bd
       0.003815508 -0.01271627 -0.043093674 -0.033065714
000020 79 f2 d9 ba 74 49 d7 3a 49 32 12 3d 3d 93 87 bc
       -0.0016628049 0.0016425089 0.035692487 -0.0165497
000030 37 29 f1 3c 5b 45 79 3d 3f 7c 1c bc 26 30 d8 3a
       0.029438598 0.06085716 -0.009551107 0.0016493842
000040 b2 01 b9 3b 1e 2d 98 3c f3 db 01 3d a2 00 3a bb
       0.005645954 0.018576201 0.0317039 -0.0028381725
000050 ca 62 7f bc 17 c7 62 be c3 d4 73 3d 57 d2 b2 bc
       -0.015587518 -0.22146259 0.059529077 -0.021828813
000060 dc 1c 23 3d 59 3d 3b 3c f5 b8 53 bc 2c ac 2e 3d
       0.039822444 0.011428201 -0.012922515 0.042644665
000070 0c 2b 0f 3d 46 e8 05 3a e8 df f1 3b 3e ee 5e 3d
       0.034953162 0.0005108159 0.007381428 0.054426424
000080 55 8f 20 3c 28 7b 40 be 45 1b 8e 3d 13 de 1d 3b
       0.009799798 -0.1879698 0.06938795 0.0024088665
000090 38 0a eb bd d6 f3 fe bd 8d 3c fb bd 9d df 2c be
       -0.114765584 -0.12448852 -0.122674085 -0.16882177
0000a0 80 d0 0c be 6b 07 1a be 45 6f 8d bd 5c fa 0c be
       -0.13751411 -0.15041892 -0.069059886 -0.1376738
0000b0 24 11 b1 bd 4d a8 90 bd 57 70 30 3c 81 80 28 bd
       -0.086458474 -0.07063351 0.010768971 -0.041138176
0000c0 ae a3 84 bd e2 42 90 bc d9 67 1b bc c3 38 95 bc
       -0.06476532 -0.017610017 -0.009485208 -0.018215543
0000d0 9a 95 51 bd 87 1f 94 bd f2 9b 85 bd 5e b4 f3 bc
       -0.05116806 -0.07232576 -0.06523885 -0.029749092
0000e0 79 1a 33 3d 3e d0 1f bd b3 18 35 bd 5e 56 72 bc
       0.04372642 -0.039016955 -0.044213008 -0.014791099
0000f0 2a 90 57 bc ad a2 45 bd d7 ad 0f bd 6a 80 68 bb
       -0.01315693 -0.048250843 -0.035077896 -0.0035476931
000100 96 c2 0a bd 95 df ea bc 7c 59 c6 3c 38 65 4a 3d
       -0.033876978 -0.028671065 0.024212591 0.049412936
000110 83 59 87 bd 1a 41 46 bd ae a4 c4 3b ed 5f 91 3c
       -0.0660887 -0.04840193 0.0060010767 0.017745936
000120 3b 7f 1c bc a5 33 73 bc 1c 49 e2 3c af b5 33 3d
       -0.0095518185 -0.014843856 0.027622752 0.04387444
000130 ab 1e 0b 3c 14 e3 0c bc 1c 17 40 bd bf c8 fb 3c
       0.0084911985 -0.0085990615 -0.04689704 0.030735372
000140 df df f2 bc 8f 3b 2e be 37 4c 41 3c d9 f9 3a 3b
       -0.029647766 -0.17014907 0.011797956 0.0028530268
000150 bf 1f 19 3c 25 d9 8c bc 14 d1 e2 bb 0e 9f 8a 3c
       0.009345948 -0.017193386 -0.0069218967 0.016921546
000160 5b a6 2b be 10 57 87 3b 3c 42 14 be 59 8c b1 bd
       -0.16762678 0.0041302517 -0.14478391 -0.08669347
000170 67 a0 d8 bc 4d 34 9c bc 8f 96 2e bc 18 b5 ee bc
       -0.026443673 -0.019067908 -0.010656013 -0.029139087
000180 a4 d2 7e 3c a8 e1 56 bd 77 94 09 bd c6 4a cc bd
       0.01555315 -0.052461296 -0.033588853 -0.099751994
000190 f3 5a 1e be 69 6b 8c bd 61 1c aa 3c 76 4c 02 bd
       -0.15464382 -0.06856424 0.020765485 -0.0318112
0001a0 17 05 b7 bd b9 85 56 bd d3 67 16 be 01 f7 66 bd
       -0.08936518 -0.05237362 -0.14688043 -0.056387905
0001b0 38 5b 8a 3d 3b 6d 68 bb dc 10 34 be 42 a1 a6 3d
       0.0675568 -0.0035465497 -0.17584556 0.08136226
0001c0 66 c4 f9 3d 5c 98 20 be 00 06 4f be a1 da 2a 3d
       0.12195663 -0.1568312 -0.20217133 0.041712407
0001d0 14 29 0b 3d aa ef 5e bd 8a 22 5e ba 6f 89 c2 3c
       0.033974722 -0.05442778 -0.00084737747 0.023747174
0001e0 21 04 1f 3c 8e 7e ce bb 1c 1f a5 bc dc 57 ad bc
       0.009705574 -0.0063017076 -0.020156436 -0.021160059
0001f0 da 3b bb bb e4 4a 8f bc 46 26 3b 3d 73 62 04 3d
       -0.005713922 -0.017491765 0.045690797 0.03232045
000200 f9 3f c0 3c e3 24 da 3c d6 ad 07 3d 97 27 b2 bc
       0.023468005 0.026628917 0.033124767 -0.021747394
000210 ec 91 a2 3c 0a 6d c4 bc 83 3c ae 3c 67 a5 37 3c
       0.019844972 -0.023977775 0.021269089 0.011208869
000220 cf 3f e4 bd 7b 8c 02 3d 59 e5 17 3d 7a 9c 06 3d
       -0.11144983 0.031872254 0.037083957 0.03286407
000230 fe e0 ea 3c 0b b5 9c 3c ac 16 00 3d 18 d8 ed bc
       0.028671738 0.019129297 0.03127162 -0.029033706
000240 cd e9 69 3c b1 51 41 3c f3 06 fc bc 99 05 93 bb
       0.014276934 0.011799262 -0.030765032 -0.0044867513
000250 e0 d8 5d bd 3e c0 1f bd 5e 37 b3 bd ea 38 5b bc
       -0.054161906 -0.039001696 -0.08750795 -0.013380269
000260 81 8b 25 bd 2c fe 46 3c 8e ac c3 3c 51 9e c9 bc
       -0.040416244 0.01214556 0.023885991 -0.024611624
000270 cc 91 99 bd 7e 84 a3 3d 17 7d 4c 3d 19 c0 0f 3d
       -0.07498512 0.07984255 0.049923982 0.035095308
000280 0f 8c 25 3d 6a 18 3c 3d 63 9c c0 bc 27 8e c0 bd
       0.040416773 0.04592172 -0.023512071 -0.094021134
000290 ee 36 5f 3d e0 37 8a bc 71 e4 cc bb 96 4b 0c be
       0.054495744 -0.016872346 -0.0062528183 -0.13700709
0002a0 bd 37 bf 3d 67 90 06 3d bd 45 e7 bb dd 14 a2 bc
       0.09336803 0.032852557 -0.007057874 -0.019785339
0002b0 7c 9d 9a bd fb 1f 99 bc 9a c2 e1 3c 2a 16 23 3d
       -0.07549569 -0.018692007 0.027558614 0.03981606
0002c0 4e fd be bb 9b 76 0c bc 7d ef 8a 3c 52 c5 18 3d
       -0.005828536 -0.0085732 0.0169599 0.037297554
0002d0 93 3c 60 be b6 a9 94 be 46 82 f0 39 a3 a4 76 3d
       -0.21898107 -0.2903573 0.00045873428 0.060215604
0002e0 7d 1c f0 3c 1a 4a 36 3d 1d 78 a4 bd c9 19 ad be
       0.02931046 0.044504263 -0.08030722 -0.33808735
0002f0 ce 6d 84 3d 8e ff 1c 3b d2 33 ac bc e6 a9 8b 3c
       0.06466256 0.0023956033 -0.021020804 0.017048787
000300 0d a9 e2 3b bb f2 54 3c 0d 79 20 bc 49 29 05 bd
       0.006917125 0.012997325 -0.009794486 -0.032510076
000310 2e 64 87 3c cf 47 12 3d b1 1e f9 3c 14 be b2 3d
       0.016527262 0.035713013 0.030410143 0.08727661
000320 56 66 1f 3b 78 0c f7 3c bf e4 41 3c 4e 8c 01 3d
       0.0024322472 0.030157313 0.0118343225 0.031627946
000330 d0 43 22 3d cc da 18 3d 1c 2b 3a 3d ef 01 2b 3d
       0.039615452 0.037318036 0.04545127 0.04174989
000340 bb c1 97 3b 56 71 43 3d a7 77 81 bd 33 4e 2d bd
       0.004631249 0.047715507 -0.0632165 -0.042310905
000350 05 6f e7 3c 49 bd b0 3c 65 7c 48 3d 01 62 66 3d
       0.02825118 0.021574633 0.048946757 0.056245808
000360 c0 ca cd 3d 6d 20 23 3d c3 89 68 3d 78 6e c3 3d
       0.10048437 0.039825846 0.056772005 0.095425546
000370 18 71 5c 3d 56 7a a3 3d 20 79 d9 3d 3d f1 82 3d
       0.053818792 0.07982318 0.10618806 0.06393669
000380 0d bc 51 3d f5 3d 0f bd 9b 5c 0f 3e 9a f2 a6 be
       0.05120473 -0.034971196 0.1400017 -0.32606965
000390 bd 32 5b b9 53 bd 8f bc 7d 7c 98 be 04 29 9f be
       -0.00020904369 -0.017546332 -0.29782477 -0.3108598
0003a0 4f 4a 83 3d 6e 32 2a bd ad 53 e5 3c fe 42 45 3d
       0.064106576 -0.041552 0.027994001 0.04815959
0003b0 80 07 19 be dd 6b df 3c 49 5b f7 3c e9 52 03 3c
       -0.14944267 0.027273113 0.030194895 0.008015373
0003c0 b0 b4 78 bc e3 f6 0d 3d 4d 75 57 3c f8 ba 06 3d
       -0.015179798 0.034659278 0.013150525 0.03289315
0003d0 e3 cc 87 3c cc 04 0e bb 30 6d 83 3b 2c 61 b3 3c
       0.01657719 -0.002167034 0.004010819 0.021896921
0003e0 be 8b 83 bc cd 3e d7 3c 07 49 85 3c 7d 10 27 bd
       -0.016057845 0.026275063 0.016270174 -0.04078721
0003f0 0a fa 3e 3d cc f9 4e 3c 57 df 17 3c 87 71 ae 3c
       0.046625175 0.012632798 0.009269557 0.021294368

backbone.2.conv3x3.bias f4 [32]
000000 c4 16 6e bd 11 d7 e7 bc fe 6c 22 3c ff 79 2c bd
       -0.05812718 -0.028300794 0.009913681 -0.042108532
000010 2e f7 02 bd ee e6 c2 bc 95 53 f1 3c 50 ca d4 3c
       -0.03197401 -0.023791756 0.0294588 0.025975376
000020 b6 a2 b9 bc 9b 61 f7 bc e7 89 45 3c 79 ee 8d 3c
       -0.022660594 -0.03019791 0.012056804 0.017325627
000030 33 93 57 3d c1 49 2d 3d 47 69 84 bc 5e 22 a5 bb
       0.052630614 0.042306665 -0.016163481 -0.0050394973
000040 3a 88 02 3d 42 71 58 3c 03 cd e8 3c 04 3a 5e 3d
       0.031868197 0.0132105965 0.02841807 0.054254547
000050 23 8a a6 3c e2 f1 86 bb 90 a7 6b bd 27 47 de bc
       0.02032954 -0.00411819 -0.057532847 -0.027133537
000060 e4 34 e4 3c c0 84 5b 3d 40 3f a2 3c ca 24 28 bd
       0.027857251 0.053593397 0.01980555 -0.04105071
000070 9f 4a 42 bd 02 37 67 3d 41 41 92 bc fe 6d 7a bc
       -0.047434445 0.056448944 -0.017853381 -0.015285013

backbone.2.bn.weight f4 [32]
000000 72 cc 88 3f b9 20 71 3f 0c 17 40 3f 98 55 5b 3f
       1.0687392 0.94190556 0.75035167 0.8567748
000010 7c 79 67 3f 28 28 90 3f ec 34 89 3f 12 fe 90 3f
       0.90419745 1.1262255 1.0719275 1.1327536
000020 b9 7d 67 3f d5 8e 7a 3f 23 1d 9f 3f 16 28 70 3f
       0.9042621 0.97874194 1.2430767 0.93811166
000030 53 ed 5c 3f 1b 42 8e 3f 47 95 71 3f e3 f2 7d 3f
       0.8629963 1.1113924 0.94368404 0.9919874
000040 e1 9c 88 3f de 6c 7c 3f 6e dc 8a 3f db 7c 98 3f
       1.0672876 0.9860362 1.084852 1.1913103
000050 9b 00 6e 3f 80 5d 96 3f 0d 5e 71 3f ca fd 83 3f
       0.92969674 1.1747284 0.94284135 1.0311825
000060 a1 93 5a 3f 67 e4 78 3f e1 4b 83 3f 3f a8 80 3f
       0.85381514 0.97223514 1.0257531 1.0051345
000070 10 07 74 3f 6a 81 7d 3f d6 93 94 3f 5d aa 6b 3f
       0.95323277 0.99025595 1.1607616 0.9205683

backbone.2.bn.bias f4 [32]
000000 25 41 22 3e 38 97 87 3d ab 32 69 bb 66 d8 f3 bd
       0.15845163 0.066206396 -0.003558318 -0.11906509
000010 88 2f a2 be 23 4a 7d 3e ed c0 34 3d ca 53 f2 3e
       -0.31676888 0.24735312 0.0441293 0.4732955
000020 4b 79 b8 bd 35 1b 22 be 81 11 17 3d 04 a5 b4 bd
       -0.0900751 -0.15830691 0.036881927 -0.08820537
000030 11 88 dc be fe 8f d6 3d ba 2a 64 be 8b a2 84 be
       -0.4307256 0.10476683 -0.22281924 -0.2590526
000040 8c 33 b4 bb 6a 5c dc 3e af e7 3f 3e 57 0d 8f 3e
       -0.005499309 0.43039256 0.18740724 0.27939865
000050 4b 08 07 be bb 03 00 3f cf 66 6a 3e 6b 5a fb bd
       -0.13186757 0.5000569 0.22890781 -0.12273105
000060 66 90 dc bd 49 e4 70 3d d8 39 b7 bd 7d 05 7b be
       -0.10769729 0.05881146 -0.0894658 -0.24513812
000070 51 f4 3e bd 9f 21 08 3e 65 9e ea 3d 91 05 cf be
       -0.046619717 0.13294075 0.114559926 -0.40433934

backbone.2.bn.running_mean f4 [32]
000000 07 36 91 be d3 b3 ef be bb 79 6c 3f 90 16 ff 3e
       -0.28361532 -0.46816882 0.92373246 0.498219
000010 cc 40 fc 3f 0e 28 f8 bd cb 3f 7a bf 91 44 2f bf
       1.9707274 -0.12117015 -0.9775359 -0.68464
000020 e1 ea a2 be 56 b9 cf be 86 25 09 bf 9a 6b 16 be
       -0.31819823 -0.40571088 -0.5357288 -0.14689484
000030 5a 3d 43 3e 54 9c 19 be 15 46 48 be 5d 65 ae be
       0.19066373 -0.1500104 -0.19557984 -0.3406171
000040 47 aa b5 be de 35 f1 bf 66 b2 82 bf ac c0 45 bf
       -0.35481474 -1.8844564 -1.0210693 -0.7724712
000050 52 82 30 bf 2c 1b 3e bf 38 1d 82 bf f9 7a 60 bf
       -0.68948853 -0.7426021 -1.0165167 -0.8768764
000060 48 27 0a bf cd 33 b2 be 31 8e ed 3e 71 d4 ac 3f
       -0.5396619 -0.34805146 0.46397546 1.3502332
000070 c3 22 bd 3d 2c 33 e5 be 88 84 5f be 6c d7 95 3f
       0.09235146 -0.44765604 -0.218279 1.1706367

backbone.2.bn.running_var f4 [32]
000000 35 95 81 3f ac 1b f1 3e 1e 43 28 3f 5c 91 e7 3e
       1.0123659 0.47091424 0.6572741 0.45228088
000010 96 b1 00 3f 27 1e 71 3f 80 46 44 3f 40 30 0d 3f
       0.50270975 0.94186634 0.76670074 0.5515175
000020 f1 eb 2b 3f 3f d4 25 3f 15 ea 35 3f e5 b6 9f 3e
       0.67156893 0.64776987 0.71060306 0.31194225
000030 d1 fa 20 3f 87 71 0b 3f 33 5a bb 3e 8a 6f ae 3e
       0.62882715 0.54470104 0.36592254 0.34069473
000040 a5 cc 29 3f 6e d1 07 3f 4f 08 16 3f ae 26 3f 3f
       0.6632789 0.5305394 0.5860643 0.74668396
000050 68 46 75 3f 64 79 3f 3f 09 23 04 3f 68 ab 02 3f
       0.95810556 0.747946 0.5161596 0.51042795
000060 30 db 9e 3e 5f a1 da 3e da 34 e3 3e fe 57 51 3f
       0.31026602 0.4270124 0.4437626 0.8177489
000070 6b 70 e0 3e 4a 98 c9 3e 95 6b 42 3f 3a 17 75 3e
       0.43835768 0.39374 0.7594541 0.23934641

backbone.3.conv3x3.weight f4 [32, 32, 3, 3]
000000 a4 f7 20 bd 79 63 a9 bc 5c 07 13 3d f9 ba 51 bc
       -0.03929867 -0.020677315 0.03589569 -0.012800925
000010 8e b3 91 3c ed db bb 3c 56 88 09 bd 1c 53 b6 bc
       0.017785814 0.022932017 -0.033577286 -0.022256427
000020 ce 53 d3 bc 1e 17 ae 3c 83 f9 b9 3c de 5b 0d 3b
       -0.025796797 0.021251258 0.022701984 0.002156965
000030 82 a6 20 3b 8b d8 48 bd 12 cc 91 bc ec 05 e3 bc
       0.002451331 -0.049034636 -0.017797504 -0.027712785
000040 9e fa f8 bc ce 61 3e bc ef 53 2d 3c 42 df 82 3c
       -0.030392941 -0.011619998 0.010579093 0.015975598
000050 32 a1 47 3c 0c 3e c2 bc bd c6 68 bc 59 98 69 3d
       0.012184428 -0.023711227 -0.014207539 0.057030056
000060 11 cc 30 3d a7 bf c2 3c d4 85 27 3d 26 d5 08 3e
       0.043163363 0.023773028 0.040899113 0.1336256
000070 7c cc 88 bd 34 27 86 3d fe c0 73 3c 52 d4 08 3d
       -0.06679627 0.06550446 0.014877556 0.03340561
000080 07 e6 08 3c e3 65 04 bd 57 f0 9d 3b 5e 5e d2 3c
       0.008355624 -0.03232373 0.0048199105 0.025679763
000090 03 dc 8f 3d ac 95 64 3d 33 7b e6 3d b7 2f 6c 3d
       0.07024386 0.0558068 0.11253967 0.057662692
0000a0 0f 2b 21 3d 97 26 57 bc 11 c5 e3 3d 3d 72 69 3c
       0.039347704 -0.013131759 0.11121572 0.014248428
0000b0 5a 98 9a 3d fa 58 6c bd 12 9f 81 bd 21 01 88 bc
       0.0754859 -0.057702042 -0.063291684 -0.0166021
0000c0 00 76 39 bc b5 a3 8b bb b6 0b 0c be d9 bc 58 bc
       -0.011319637 -0.0042614588 -0.13676342 -0.013228619
0000d0 ce c9 84 bc 52 91 47 3d 1a 20 2b 3e 1b 51 b7 3d
       -0.01620951 0.048722573 0.16711465 0.089510165
0000e0 c6 41 a3 3d d9 b2 0f 3e f7 17 3c 3d 48 79 53 3d
       0.0797153 0.14033069 0.045921292 0.051629335
0000f0 7b 1e 13 3d 77 3d 76 3d 8c 3c 4a 3a 40 b6 8b bd
       0.03591774 0.06011721 0.00077147107 -0.06821871
000100 11 47 7f bd 91 9c d3 bc f3 c6 af bd 0a c6 ef bc
       -0.062323634 -0.025831493 -0.085828684 -0.029269237
000110 92 db 90 bd e0 5a 79 bd 9e a9 4c bd bb b2 6a 3c
       -0.0707313 -0.06087768 -0.049966447 0.014324839
000120 cb 1b 19 3d 05 9d 83 ba 34 84 56 3c e8 af a2 3c
       0.03738002 -0.0010041302 0.013093043 0.01985927
000130 a9 45 a4 3d 50 9c 0d bb 80 43 07 3c df 93 aa b8
       0.08021099 -0.0021608062 0.008255839 -8.133775e-05
000140 ba d6 d3 bc aa 03 b4 bb 7a e7 4b 3c b6 c7 ed bc
       -0.025859226 -0.005493601 0.012445325 -0.029025894
000150 07 11 b8 bc b3 41 c5 bc 63 ba a0 3d 81 0c 76 3d
       -0.022469057 -0.02407918 0.078480504 0.06007052
000160 c9 8c eb 3c 90 1e 67 bc 00 76 13 bd 3f 69 71 3c
       0.028753655 -0.014106408 -0.036001205 0.014734565
000170 7c b9 c7 3c 13 b8 1d bb 7e 6b d5 3b 5e d3 a5 3d
       0.024380438 -0.0024066016 0.006513058 0.08096956
000180 53 88 a9 ba bc e8 1e 3d 1d 0d 7d 3d 7b f1 82 bd
       -0.0012934305 0.03879617 0.061780084 -0.06393715
000190 bc 9c 03 bd 85 00 e4 3c 08 62 b0 bd 1b 20 c2 bd
       -0.032131895 0.027832279 -0.08612448 -0.0947878
0001a0 f2 15 3a bd d6 95 88 bd 6a ce 40 bd f5 84 65 bc
       -0.045431085 -0.06669204 -0.04707185 -0.01400875
0001b0 17 c2 66 bb fc 20 85 3c 22 b9 84 3b dc 82 8e bc
       -0.0035210901 0.01625108 0.00405039 -0.017396383
0001c0 7c 12 56 bd 36 ea d8 bc be 4c 56 3d 02 fe 79 3d
       -0.05226372 -0.026478868 0.05231928 0.061033256
0001d0 03 76 6e bd 6a 0e 3d bd fa 9b f9 bd 47 5d a6 3b
       -0.058218013 -0.046156324 -0.12187953 0.0050770375
0001e0 31 e0 85 bd 34 94 be bd 4f 68 3e bd 20 b9 72 bd
       -0.06536902 -0.09305611 -0.046486195 -0.05925858
0001f0 a4 9e 6e bd c7 a0 11 bd 36 a3 4c bc 3f b7 cf bc
       -0.05825676 -0.03555372 -0.012490084 -0.025355933
000200 95 f5 0f bd a6 a1 9f bc 0f 32 0f 3d 01 bd 0f 3d
       -0.035146315 -0.01948626 0.03495985 0.035092358
000210 fa e6 f5 3b 5e 11 dd 3b 6e 57 46 bc f9 3e 2c bd
       0.007504341 0.006746455 -0.012105806 -0.042052243
000220 eb d6 2c bd e8 93 aa 3c f0 4b 76 bc b2 83 38 bc
       -0.04219715 0.02082248 -0.015032753 -0.011261867
000230 f4 08 a5 bd d7 d8 0a bc 6f ce 5e bd 4e c5 98 bd
       -0.08058348 -0.00847455 -0.05439609 -0.07459508
000240 c0 31 1c 3d be 2a 68 3c e4 fe f2 3b 7c 81 8e 3d
       0.038133383 0.014170347 0.0074156392 0.06958291
000250 3c ac d1 bb 5b 6d a3 3d e9 ab 60 3d d3 81 ae 3c
       -0.0063987058 0.07979842 0.054851446 0.02130214
000260 f8 34 27 bc 51 a0 1a 3e e9 f1 da 3d 11 ff 99 3d
       -0.0102055 0.15100218 0.10690672 0.07519353
000270 cc fc 09 3e 06 18 19 3e fa 36 10 3e 45 15 a7 3d
       0.1347534 0.1495057 0.14083472 0.08158354
000280 aa bc f5 3d fc 3e da 3d 46 e2 a9 bd e5 c5 55 3d
       0.119988754 0.106565446 -0.08295111 0.05219068
000290 9c e7 ae 3c 3a d3 1c 3d 56 de 99 3d f9 82 e7 3c
       0.021350674 0.03828738 0.0751311 0.028260695
0002a0 5c 6a 0c 3d a1 16 ea 3b 52 53 ac bc e7 be e8 bc
       0.03428112 0.007143811 -0.021035824 -0.028411342
0002b0 7f 2f ce bc 85 0f 3f 3d 88 71 c5 3c 64 c5 ac 3c
       -0.025169132 0.04664566 0.024101987 0.021090217
0002c0 05 cf f1 ba e9 1b ab bc b2 78 50 bd bc 93 33 bd
       -0.0018448537 -0.020887332 -0.050896354 -0.043842062
0002d0 a4 01 ac 3d c2 36 69 3d 65 e6 48 3d cd 08 15 3d
       0.083987504 0.056936987 0.049047846 0.036385346
0002e0 bc 2d 3c 3d 62 da 4e 3d 50 a6 97 3c 5c d7 d9 bc
       0.045942053 0.050501235 0.018511921 -0.02659195
0002f0 cb f3 0d 3d 58 e5 88 bd d2 41 b5 bd 3c d2 13 bb
       0.034656327 -0.06684369 -0.08850445 -0.002255573
000300 da 50 be bb 55 36 95 bc d6 ac 26 bd 7b 5f c5 bd
       -0.005807978 -0.018214384 -0.040692173 -0.09637352
000310 69 a5 50 bc b6 c3 3b 3c e0 14 f5 3c dd 9a 4f bc
       -0.012734749 0.011460235 0.02991718 -0.0126712
000320 67 8b c4 3b 53 b3 43 3d 8b b2 fe 3b 2c e7 e3 bc
       0.0059980634 0.04777844 0.007772749 -0.027820192
000330 59 a7 c6 3c 02 fa 98 bc 8b 65 20 bd 2c 20 3b 3c
       0.02424972 -0.0186739 -0.03915934 0.011421245
000340 e5 4c 4a bd e6 51 3a bd b5 0d 8a 3d 92 3f a5 bd
       -0.04938974 -0.04548826 0.06740896 -0.08068766
000350 27 d3 23 bc 9f 98 73 bd 82 6f d3 bc e8 62 10 be
       -0.009999073 -0.059471723 -0.025810007 -0.1410023
000360 87 77 61 bd 54 a4 c2 bd b2 ce 40 bd e6 ec da bc
       -0.05504563 -0.09503999 -0.04707212 -0.02672429
000370 cb bb af bd e5 63 82 bd 8d a4 bd bc 82 2b 61 bd
       -0.085807405 -0.063667096 -0.023149753 -0.054973133
000380 ea 24 8a bd 0b 17 60 bd 17 8b ea bc eb 33 5b bb
       -0.06745322 -0.054709475 -0.028630776 -0.0033447694
000390 ac c8 69 bd 8f 27 1e bd 4c 5c 2c bd f6 2e 59 bd
       -0.05707614 -0.038611945 -0.04208021 -0.0530233
0003a0 ca bf c0 bc bd 7e 1b bd 97 24 e5 3d 0a 12 f9 3d
       -0.023528952 -0.037962664 0.111886196 0.12161644
0003b0 53 3f a4 3c ce 28 83 3d b8 1c f3 3d 66 ba 07 3d
       0.020049727 0.06404267 0.11870712 0.033136748
0003c0 ec 60 67 3d d4 06 ae 3d 41 bf 88 bd 1e 28 a7 3d
       0.056488916 0.08497396 -0.06677104 0.081619486
0003d0 f0 51 ae 3c 62 ad 00 bd 0a 81 10 3e b1 c4 5a 3d
       0.021279305 -0.03141535 0.14111724 0.053410236
0003e0 43 ea 52 3d 70 f3 a6 3d 41 c0 a3 3d 4c 72 e7 3c
       0.05149294 0.08151901 0.07995654 0.028252743
0003f0 1c 82 83 3d 2f 0f 49 bc 4e 44 7e bc cf 6c 61 3c
       0.06421301 -0.012271686 -0.015519215 0.013758852

backbone.3.conv3x3.bias f4 [32]
000000 a0 4d 70 bc a3 a7 17 3d b8 15 b6 bb af 21 09 3d
       -0.014666945 0.037025105 -0.0055567883 0.03347939
000010 88 58 3f bd 33 40 8a 3c 5d 4c 43 bd 78 8d a7 bc
       -0.04671529 0.016876316 -0.047680248 -0.0204532
000020 be 91 e2 3c 2f 31 1e bd 9b 15 04 3d 62 57 0e 3d
       0.027657386 -0.038621124 0.032247167 0.034751303
000030 30 30 b0 3c 6e 95 26 bc 03 77 20 3c b2 ab 07 3c
       0.021507353 -0.010167463 0.009794 0.008280681
000040 12 6c a3 bc fd d1 41 bd 48 c6 40 bb ed 8f fb 3c
       -0.019948993 -0.0473194 -0.002941506 0.030708278
000050 12 39 d9 bc 4e a3 a4 3c aa ba 9b bc 1c d4 b3 bc
       -0.026516471 0.020097401 -0.019009907 -0.021951728
000060 a0 30 37 bd d8 2b 60 bd 03 e7 b8 bc d1 3c a9 bc
       -0.044724107 -0.054729313 -0.022571092 -0.020658882
000070 48 fa 2d bd 3a 4e 70 3d fd 16 4f bd bf 9e fa 3c
       -0.042475015 0.058668353 -0.050559033 0.030593274

backbone.3.bn.weight f4 [32]
000000 66 6f 61 3f 1a 84 6f 3f c6 61 4f 3f 20 61 41 3f
       0.88060606 0.93560946 0.81008565 0.75538826
000010 eb 5b 83 3f 64 a3 7f 3f d5 e3 67 3f 3e 49 5e 3f
       1.0262426 0.9985869 0.9058202 0.8683051
000020 92 d7 84 3f 15 ec 84 3f 31 0f 8f 3f c1 5a 6d 3f
       1.0378287 1.0384547 1.1176511 0.92716604
000030 a3 be 63 3f e9 fd 67 3f e7 46 85 3f d2 41 71 3f
       0.88962764 0.9062181 1.0412263 0.9424106
000040 4f df 95 3f 99 8f 67 3f d8 91 65 3f d0 7b 8d 3f
       1.1708773 0.9045349 0.89675665 1.105341
000050 0e 77 88 3f e3 07 8d 3f ec 3c 78 3f 8e b6 60 3f
       1.0661333 1.1018032 0.9696796 0.87778556
000060 2a a3 6e 3f f7 62 8c 3f 2c e5 6c 3f f9 f0 84 3f
       0.9321772 1.0967702 0.9253719 1.0386039
000070 23 c4 83 3f 45 52 52 3f b7 e1 7f 3f 83 80 8e 3f
       1.0294231 0.82156783 0.9995379 1.1132969

backbone.3.bn.bias f4 [32]
000000 e4 17 80 be 39 e1 43 be 10 fc a5 bd 38 a4 79 be
       -0.25018227 -0.19128884 -0.08104718 -0.2437905
000010 a7 ce 49 3e d3 78 b8 3d a5 bc 0e be 06 ce 2b be
       0.19707738 0.090074204 -0.1393915 -0.1677781
000020 4c 1e 2c bf a1 88 ae be 4a 64 48 be 16 53 2f 3d
       -0.6723373 -0.34088615 -0.19569507 0.042803846
000030 3e d7 f4 bd 9b 66 7a 3c 37 a9 b3 be c1 4b 04 bf
       -0.11955117 0.015283252 -0.35090038 -0.5167809
000040 11 e0 8c be bd 5c a7 be cd 46 e0 bc f8 58 49 bf
       -0.275147 -0.3268794 -0.02737751 -0.7865138
000050 a2 8f b4 be ff 00 0d bf 0e 37 8a be 9d 28 04 bd
       -0.35265833 -0.55079645 -0.26995128 -0.032265294
000060 3e 88 23 be 12 a7 0a bf 27 5f 9f be 6c 88 de be
       -0.15969941 -0.5416118 -0.31127283 -0.43463457
000070 3b 91 2d 3e 73 c1 9f be e4 dc 87 3d 02 44 05 bf
       0.16949932 -0.31202278 0.066339284 -0.52056897

backbone.3.bn.running_mean f4 [32]
000000 77 a4 ce 3e 00 2f 8a 3f 1d 77 40 bf 4f 2c a7 be
       0.40359852 1.0795593 -0.7518175 -0.32650992
000010 31 65 5e bf 4c 78 ca bf 2a 55 8a 3e 16 83 f4 be
       -0.86873156 -1.5817962 0.270181 -0.4775626
000020 7b 58 0b 3f 13 ea f9 bc 5f c3 74 be de 14 2e be
       0.54431885 -0.030507123 -0.23902653 -0.17000148
000030 8d 71 5c bf d6 1b 86 bf ea 9c 75 3e fc 3a 43 3f
       -0.86110765 -1.0477245 0.23985639 0.7626188
000040 52 10 de bd ca 48 aa 3e 71 fc 61 3e e7 bd f2 3e
       -0.108429566 0.3325866 0.22068955 0.4741051
000050 be 0c 02 be 2b 3d c3 3e 29 59 a4 3e 8b ab 56 3e
       -0.12700173 0.38132605 0.32099274 0.20963876
000060 dc 25 05 3e 01 37 cb be ba 2a d0 bd ff 54 70 bc
       0.13002723 -0.39690402 -0.101643994 -0.014668702
000070 58 dc 59 bf e5 c4 8f 3f 47 65 bc 3e e4 2b 57 3e
       -0.8510184 1.1231962 0.36796018 0.21012837

backbone.3.bn.running_var f4 [32]
000000 f2 81 6a 3e 37 7a e6 3e 85 f6 9e 3e 75 77 96 3e
       0.22901133 0.45015118 0.31047454 0.29388013
000010 84 01 b3 3e de 88 cd 3f 11 43 bd 3e d7 f2 10 3f
       0.34962094 1.6057394 0.3696523 0.56620544
000020 34 23 a0 3e 71 ca 5d 3e de cc a9 3e 03 cd 7f 3e
       0.31276858 0.21659257 0.33164114 0.2498055
000030 fc c2 9d 3f c5 5b 4d 3f 45 a8 bb 3e a1 9c 8b 3e
       1.232513 0.80218154 0.36651817 0.27267936
000040 0d 3c b6 3e 77 01 6f 3e c4 78 b2 3f 60 f6 bd 3e
       0.3559269 0.23340403 1.3943105 0.37102032
000050 31 a3 a1 3e e0 4d e0 3e 2d 63 8c 3e 29 b5 13 3f
       0.31569818 0.43809414 0.27419415 0.57698303
000060 9a 5b 16 3f 31 dd 8e 3e 67 c5 87 3e cc 21 94 3e
       0.5873352 0.2790313 0.26517794 0.28932035
000070 4b 58 55 3f 7d 88 1e 3f 62 44 5c 3f 1c 98 da 3e
       0.8333785 0.61927015 0.86041844 0.42694175
