models/ps_factor2_last_epoch.pt (torch, 217579 bytes, 38 tensors)

backbone.0.conv3x3.weight f4 [32, 12, 3, 3]
00000000: 96c9 8e3d 72ca 9b3d bec1 f6bc 601e 9e3d
00000010: 6d10 cbbc e6af 393c 84c1 50bd d5ab 873d
00000020: c28e b73d 3e0d 93bd b28d a23d 73b1 283c
00000030: 822d 913d 743a 193c 90f3 263d 082a 84bc
00000040: 224e 973d 6dee 353c ea6a 35bd d75c db3c
00000050: 086d 2abd 817d 70bc 8498 25bd 0b71 7d3d
00000060: 4319 98bd 964e 2dbd 4a94 12bd db02 79bd
00000070: bbb3 f93b a4ea b3bd bb7a b53d 8734 adbd
00000080: a17d ad3d ff33 733c d833 09bd 2fdc 563d
00000090: 9514 1d3c a080 9c3d abed 143c ae0d 14bd
000000a0: a7f6 d73c adef c8bc 02fa 083d 14f5 c03d
000000b0: 2484 763d 14be 3dbd b322 623d 92be 203c
000000c0: 5f88 3e3d 8956 72bd 4b00 c6bd 53d6 30bd
000000d0: 3290 a5bd 35fb a23d 1bc6 583c 4bc4 153d
000000e0: 0187 f53c 4fd9 29bc d627 983d 27cb 8ebd
000000f0: f376 7b3a b4d5 84bd e55d e23c dd9c 07bd
00000100: 3375 053d cadb 94bc 65b5 a13d acfb 65bd
00000110: 7b8b 83bd 66d9 64bd b129 b53d 5b3b 073d
00000120: 13b6 ab3d 0e1d a9bd fa47 c0bd 3c05 9ebd
00000130: cf32 86bd 65cf 223d 8a29 f83c b9f9 b63d
00000140: 4d1d 6dbd e9cd 86bd a6d9 503d a9e5 19bd
00000150: 485a 703d fbb5 b2bc 87a3 4e3d 2854 9dbd
00000160: 19f4 50bd 3b6c fa3c 9d5b 6b3c 662d bebc
00000170: 594b 5f3d b7e6 843d a5af 92bd 74a2 56bd
00000180: 9111 aa3d aad7 0bbd 2fcf 19bd 6b44 c0bd
00000190: 3927 61bd 1714 933c e855 74bc 7b7f 8ebd
000001a0: 5063 f33a 6251 80bd 7aa5 a9bd da73 7cbd
000001b0: da35 2ebd 4e99 36bd 71d3 d23d 4131 5b3c
000001c0: cc20 0b3d 59b4 d1bd fd89 09bd ca11 3dbc
000001d0: b60e 4d3d d638 4abd 79e6 1fbd bf67 21bd
000001e0: ca4b 343b e2e6 5ebd 8ba9 5abc 81c8 25bd
000001f0: 2502 86bd 51a2 17bd 91d7 12bc 221a 99bd
00000200: af65 c03d 251a c9bc c79a 9d3d e91b 683c
00000210: 7a97 02bd 2fbd 663d f79c 95bc 3b46 e0bc
00000220: 20e7 bbbd 275b 9abd f05e 673c 648f e0bc
00000230: 0969 323d bb51 13bd a0bd 8b3d 405c 2bbd
00000240: 5346 3abb b33f 803c b9d1 a63d adc5 a93d
00000250: 7d0f e73d 60aa a7bd 73c3 523d 8cd0 18bd
00000260: 5727 26bb f9b7 39bd f483 9c3d cb7c 5abd
00000270: 9d15 593d 01a9 a13c 5f61 ff3c 60d2 37bd
00000280: 45d2 cc3d 6e0c 233d 1639 a1b9 78bb cebd
00000290: 5337 803d 01ee b6bc 5de5 95bd 85bb db3d
000002a0: 6776 173d 42c3 dbbc 8cd5 fcbc 7947 873c
000002b0: 3df7 b33d 963d 53bc 8811 9cbd d22b 23bd
000002c0: d9b9 7fbd d512 0d3d 6224 903d a969 58bd
000002d0: 8dd2 fe3b 4b79 0c3d 7f63 1e3d f036 50bd
000002e0: 0de1 603d ea6b 4d3d bc05 523d 020c 0b3c
000002f0: b868 8ebc 4d40 893c 4f86 ecbc 1ef6 b1bc
00000300: cc8a 8c3d 2978 983d 4142 a8bc 2a0a 99bc
00000310: 0398 58bc 0d43 fd3a aac0 133d 597a 213d
00000320: 221d d1bd 3a4a 44bd 39d0 663d e235 b93c
00000330: f689 0fbc 91c8 47bd 471b 48bd 0e1f babd
00000340: f342 3dbd 4453 063d 95e5 243d ed4e b83c
00000350: 1624 a4bd 14eb 0ebd ee1b 73bc 03cf b83d
00000360: d999 a13c 185f a1bc de4f 0b3d 5ebe 93bb
00000370: fa82 1fbd b4bf b63d b0b3 20bd 74bd d8bb
00000380: 6fef dabd b514 763d a22d 793d 7f7f eb3c
00000390: 48a7 cbbc 9bbc b1bd b801 04bd e2f4 b93d
000003a0: 322a 863d b158 933d 620a 8e3d d461 183d
000003b0: 9fc1 0e3c dbb6 5ebd 0aec afbd 10da 8bbd
000003c0: 72a6 a63d f1a6 33bd c433 2abd 6467 1ebd
000003d0: d7b3 3dbc 8fbd 3bbd 12b7 69bd a252 943d
000003e0: b316 3e3c 20e4 8d3d d0e7 01bd eab5 b0bd
000003f0: 4554 b7bc 0dc1 32bd fce0 d9bc e727 90bd
0.06972043 0.07606973 -0.03012168 0.07720637 -0.024788106 0.011333441 -0.0509658 0.06624571
0.08962776 -0.0718026 0.079371825 0.010296213 0.07088758 0.009352315 0.040759623 -0.016133323
0.073879495 0.011104208 -0.044291414 0.026777668 -0.041607887 -0.01467836 -0.040428653 0.061875384
-0.07426693 -0.042311274 -0.03578595 -0.06079374 0.0076203025 -0.087849885 0.088612996 -0.084572844
0.084712274 0.01484394 -0.033496708 0.052456077 0.009587427 0.07641721 0.009089868 -0.03614586
0.02636273 -0.024528349 0.03344155 0.09421745 0.060184613 -0.04632385 0.055208873 0.0098110605
0.046516772 -0.059164558 -0.09668025 -0.043173146 -0.08084144 0.0795807 0.013230826 0.036564153
0.029971601 -0.010366752 0.07429473 -0.06972342 0.0009592615 -0.06486073 0.027632663 -0.03310858
0.032582473 -0.01817121 0.078959264 -0.056148216 -0.06423088 -0.05587139 0.08845843 0.03301559
0.08384337 -0.08257495 -0.093887284 -0.07715842 -0.0655266 0.039748568 0.030293245 0.089343496
-0.05788927 -0.06582243 0.050988816 -0.037572537 0.05867985 -0.02181529 0.05044892 -0.07682067
-0.05101404 0.030569186 0.014365104 -0.023215007 0.054515216 0.06489318 -0.07162408 -0.05240102
0.08304132 -0.03414122 -0.0375511 -0.0938805 -0.054969046 0.017953916 -0.01491306 -0.06957909
0.0018569026 -0.062655225 -0.08283515 -0.061633922 -0.042531826 -0.044579796 0.102942355 0.013378442
0.033966824 -0.10239477 -0.03357886 -0.011539886 0.050062858 -0.04937061 -0.039038155 -0.03940558
0.0027510994 -0.054419406 -0.013346086 -0.04047442 -0.06543378 -0.03702003 -0.008962528 -0.074756876
0.093943946 -0.0245486 0.07695537 0.014166811 -0.03188274 0.056332763 -0.018263323 -0.027377238
-0.09174943 -0.07536917 0.014121756 -0.027412124 0.0435572 -0.035966616 0.068232775 -0.041836023
-0.0028423264 0.015655374 0.0814547 0.08289657 0.11282251 -0.08186793 0.051455926 -0.03730826
-0.0025353038 -0.045341466 0.076423556 -0.053341668 0.052999128 0.019733908 0.03117436 -0.044878364
0.10001043 0.039806776 -0.00030750845 -0.100943506 0.06260552 -0.022330286 -0.07319138 0.10729126
0.03697815 -0.026826505 -0.030863546 0.016513573 0.08787391 -0.012893101 -0.07620531 -0.039836712
-0.062433098 0.034441788 0.070381895 -0.05283514 0.0077765645 0.03429536 0.038669106 -0.050833642
0.054902125 0.050151743 0.051275 0.00848675 -0.017383918 0.016754294 -0.028872637 -0.021723803
0.06862411 0.07444794 -0.020539405 -0.018681604 -0.013219836 0.0019322351 0.03607241 0.03942332
-0.10210635 -0.04792235 0.05635092 0.022608701 -0.00876092 -0.04877526 -0.04885414 -0.090879545
-0.046206426 0.032794252 0.04025801 0.022498572 -0.08014695 -0.034892157 -0.014838202 0.09023859
0.01972668 -0.019698665 0.034011714 -0.0045087775 -0.03894327 0.08923283 -0.039233863 -0.0066143814
-0.106901996 0.06007834 0.060834534 0.028747318 -0.02486004 -0.08678552 -0.0322282 0.09079911
0.06551017 0.07194651 0.06935574 0.03720267 0.008713155 -0.054373603 -0.08589943 -0.068287015
0.08137216 -0.04386038 -0.041553274 -0.03867282 -0.011578522 -0.045835074 -0.057059355 0.072423235
0.011602092 0.06928277 -0.031715214 -0.08628447 -0.02237905 -0.04364114 -0.026596539 -0.07038861

backbone.0.conv3x3.bias f4 [32]
00000000: 8cd6 c2bc bb3b 3a3c 5bc3 96ba 90e3 a43b
00000010: 9a0a 9bbc a81a 77bb 5f52 2a3d e7e2 903d
00000020: 1125 a73d c462 a1bd f3c4 a4bd 6be3 65bc
00000030: 5801 f8bb eee8 583d f388 b93d 7dd3 ca3c
00000040: 6526 8bbd 89cf 3fbc 7f54 7f3d 8c71 103d
00000050: 9b06 8bbd 0ea9 b03b 7401 bebd ca7e 20bd
00000060: 7ab7 893d a438 2abd 724c 703d 65d6 a0bd
00000070: 7ea1 af3d 5873 393d 0900 803d 7f55 d73c
-0.023783945 0.01136678 -0.0011502312 0.0050320104 -0.018925954 -0.0037705097 0.04158246 0.07074528
0.08161367 -0.07880166 -0.080453776 -0.014031271 -0.0075685196 0.052956514 0.09059324 0.024759049
-0.067944326 -0.011707195 0.06233644 0.035264537 -0.06788369 0.0053912466 -0.09277621 -0.039183415
0.067244485 -0.041557923 0.058666654 -0.078533925 0.08575724 0.045276016 0.06250007 0.026285885

backbone.0.bn.weight f4 [32]
00000000: 0fa2 7e3f 3b0b 813f 6250 803f e2cc 803f
00000010: 2a89 7f3f 11eb 803f bd0d 7f3f 6525 813f
00000020: 552a 7e3f f283 7e3f 487f 7e3f 9651 803f
00000030: 7311 803f ef88 813f a7dd 803f 6532 7c3f
00000040: 3f59 7a3f 895d 7f3f ce79 803f c6a5 803f
00000050: 299b 813f de1a 803f a96a 813f 6436 7f3f
00000060: c2d2 7d3f 8c9b 803f a25b 7a3f 7884 7e3f
00000070: 79eb 7d3f 47a7 803f 7b3d 803f 1754 803f
0.9946603 1.0081552 1.0024531 1.0062525 0.9981867 1.0071737 0.9963034 1.0089537
0.99283344 0.9942008 0.99412966 1.0024898 1.0005325 1.0119914 1.0067643 0.98514396
0.9779243 0.997521 1.0037172 1.005059 1.0125476 1.0008199 1.0110675 0.9969237
0.99149716 1.0047469 0.9779607 0.9942088 0.9918743 1.0051049 1.0018762 1.0025662

backbone.0.bn.bias f4 [32]
00000000: c111 aabb f8e2 933a 07d9 69bc dde5 903c
00000010: 698c 5bb8 38f8 073c 0879 58b9 ffbf e83b
00000020: ee36 30bc ca27 38bb d4c9 03bd d6bf 00bc
00000030: cf8b d63a 129b fdbb a616 40bb 2e4d 6dbc
00000040: d1de 8ebc 674e b6bc cdc0 8bbc 52a4 45b9
00000050: 1842 993c 8d3a 90bc 4a39 a7bc b1a8 7fbb
00000060: d7da 07bc b7ca 33bc 4736 92bc 36fc 07bc
00000070: 56d8 b1bb 95f1 06bb 1b88 4d3b 951a 61bc
-0.0051901047 0.0011282852 -0.014272935 0.017687732 -5.2344436e-05 0.008298926 -0.00020644453 0.007102966
-0.010755284 -0.0028099888 -0.0321749 -0.007858237 0.001636857 -0.007739433 -0.0029310375 -0.014483733
-0.017440232 -0.022254182 -0.017059708 -0.00018848598 0.018708274 -0.017606044 -0.02041306 -0.003901046
-0.008291922 -0.010973624 -0.017848147 -0.008299878 -0.0054274006 -0.0020590771 0.0031361643 -0.013739248

backbone.0.bn.running_mean f4 [32]
00000000: 8117 8fbd 69db 17bc d8bc 0eb9 004b e1be
00000010: 94c6 403e f501 b1be a526 d73e a7c9 543b
00000020: 879f 943d bb78 a4be 320f b5bd eaa6 9d3e
00000030: a1e3 48be 339b 323d 5c2c 983e 3577 8c3c
00000040: de1e 103d f130 0ebd 21aa 633d d755 153e
00000050: 4a92 4ebe 273e 67bc 213a c5bd 7f81 9e3e
00000060: b465 103d a7da d03e a211 8a3e 0a27 e3bd
00000070: bd90 983e 582b 4b3e c1bb b0bd e143 f53b
-0.06986905 -0.00926862 -0.00013612525 -0.44002533 0.18825752 -0.34571806 0.4202167 0.0032468827
0.0725699 -0.3212336 -0.08840789 0.30791408 -0.19618084 0.04360504 0.29721344 0.017146686
0.035185687 -0.034714643 0.05558217 0.14583527 -0.20172992 -0.014113939 -0.09630228 0.30958173
0.03525324 0.40791818 0.26966578 -0.110914305 0.29797927 0.19840753 -0.08629561 0.0074848984

backbone.0.bn.running_var f4 [32]
00000000: 714b f83a 2fe3 a23a a1e9 1c3a 2544 913d
00000010: 534e 603c f288 283d 1d90 433d d3ff 753b
00000020: 8cbb 5b3a 0845 a23c 4ed8 3a3a 82ed 0f3d
00000030: 896a 4a3c 17c4 253a 601f 893c 4aa1 2a3b
00000040: 7d8f f23b df26 8f3a 1c9c fc39 e6d7 963b
00000050: 0f91 0b3c b6ed 563a 63cd 413a fa7c 263d
00000060: 3bf4 9d3a ff2e 823d 0339 763c e459 d33a
00000070: 8369 783c dc6d 063c 2c71 0e3c a809 253a
0.0018943382 0.0012427325 0.0005985741 0.07093076 0.013690549 0.041146226 0.04774486 0.0037536516
0.00083821337 0.019808307 0.0007127569 0.035138614 0.0123545015 0.000632347 0.016738594 0.0026036077
0.007402359 0.0010921619 0.00048181496 0.004603374 0.008518471 0.0008198874 0.0007392971 0.04064653
0.0012050936 0.0635662 0.015028241 0.0016124812 0.015161875 0.008204903 0.008693974 0.00062956894

backbone.1.conv3x3.weight f4 [32, 32, 3, 3]
00000000: 259e 773c 6848 cfbb 28b7 bcbc a18b 42bd
00000010: 4088 393d 8aca 83bc 12cc edbb 498c 80bd
00000020: 3e5e 923c e18d 0cbc 68df f9bc 18d0 b93c
00000030: 9cd0 4ebd 0741 c93c 2a02 40bd a110 4c3d
00000040: ccb9 36bd 968f 1f3c a72c 2c3d 0bdd 9cbc
00000050: a7c0 7c3d bae8 533d 24bb 3c3c 038d 353d
00000060: 76c9 2f3c 8e06 7a3d ec65 3b3d bed5 3abd
00000070: 6354 08bd 8ff7 42bd a676 86bc 6219 85bb
00000080: 1ea7 b1bc 7162 0c3d c1f0 15bd 8897 39bd
00000090: 03e9 22bd 663d 03bd 85d0 623d 856e 533c
000000a0: d982 c0bb cc8d 71bc e36b 25bd 567a 87bc
000000b0: 8ff2 f03c 728a fe3c 75f3 873d d13e 133c
000000c0: befd e0bc 180d 10bc 50e2 8b3d 850b 79bd
000000d0: 9d89 c33c 97f7 b1bb e9ea 5c3d 77b0 ef3c
000000e0: 4b89 77bc 0388 42bd 87aa de3b 43c8 28bd
000000f0: 4344 8eba 5073 8f3c e5af dd3c 13fc 8dbb
00000100: a0e8 d93b 938d 29bd 0bea 32bd 4917 483c
00000110: b4a9 cabc e023 283c 199a 1abc 8529 2ebd
00000120: 9a90 333d 4f39 2a3d c1f0 703d e24e 403d
00000130: fb93 2cbd cc63 f7bc dbb4 36bd 3ce0 063d
00000140: ced3 bf3c 22eb 093d 1b51 0cbd 0559 8fbc
00000150: 2fa5 603d 51fa 2abd 3d70 f1bc d0e4 dd3c
00000160: b3e0 27bd 786d 6bbc 001e 573d 927c 9d3d
00000170: 0976 173c 5e1d a3bc 8e3d 693d 1a56 8b3d
00000180: e354 54bd de89 123c 4cb6 8cbc db5a c4bc
00000190: 3da1 ad3c db06 b03c 5e10 023d 50ec 52bd
000001a0: f235 74bc 82f6 103d 457e 22bb 7c4e 95bc
000001b0: f413 b4bc 0c19 7b3d 47f9 25bd e788 3dbd
000001c0: 37af 403d 7814 9bbc e882 fc3c 3c2e fabc
000001d0: 7286 d7bb e967 f2bc c7bd 673d 510a 823d
000001e0: 05b7 403d 90c7 5c3c 5b5b 4bbc 654b 0ebd
000001f0: cd88 ddbc 24aa 10bb 7212 34bc 295a 053d
00000200: 6b7f 3b39 40cb 793b c042 19bd fc97 9b3c
00000210: 7630 52bd dacf 4a3c 5a9a 6b3c c1c3 653c
00000220: 24ae 213d 1412 3c3c 2a1a b0bc 4d9b 1cbd
00000230: 84ce 61bd 73f0 e53c 5c81 153d 9b14 21bd
00000240: 9ba3 593c 85a8 b7bc 8321 013d 6e2c adbc
00000250: 1d79 3d3d 11b4 ee3c 88d6 d93c 8e0c 903c
00000260: f21d 81ba 4b74 ec3c f1dc 31bd 0a37 9e3c
00000270: 659b cfbc e02a 2a3d 53ad 41bd ac74 983c
00000280: 62fd 023d e704 033c 880e 9e3d d88e 013d
00000290: adf9 773d f1a4 a1bb a7ee 773d ff92 bc3c
000002a0: dbe9 13bc 8f3a 18bd 5a22 483d a54f 0eba
000002b0: 907f 573d 3f79 11bd e151 20bd 9c42 da39
000002c0: 757c 2fbd b751 a03c 3788 3c3b 1b34 dabc
000002d0: c396 293d d90c 423d cebf 6ebd c0e9 16bd
000002e0: c32f 643d a30b 67bc 0c8e fc3b 0412 88bc
000002f0: 52e3 2c3c 51ed 00bd 8be5 5dbb 415e e43b
00000300: 10f0 64bb 0896 973b 5466 3a3d c0e8 123d
00000310: 0a9a 7c3c 164e 3a3c a0e0 a13d 77ea 9a3d
00000320: 488a 9f3c 7850 a7bc 62ec 733d b7d5 353d
00000330: 0889 2bbd 9c8f 0fbd f6fe 813c fbd7 6c3d
00000340: 7a6c 5abd ffda ebbc 1f03 85bc 37b9 44bd
00000350: f5c4 11bd e882 583d 252c 313d 6d48 52bd
00000360: d83b 463c 8d4f 2dbd 9203 b63c 12f2 9bbc
00000370: 46c1 8abc 3118 41bc e8fa 9f3b 57a4 0d3d
00000380: f3f1 6fbc a160 353c 569e 2b3d efd1 2abc
00000390: e7ed f43b 73ea 9139 69ab f1bb 380f 1f3d
000003a0: d541 f23c 120c 11bd 21b0 693d 9da0 0f3d
000003b0: 1ca2 98bb cc63 4b3d d346 dfb8 3395 083d
000003c0: c78b 43bd 5321 5a3d ba2d 5f3d 27ad 4bbd
000003d0: ab6d 06bd a3b0 cbbb 6585 12bd 37c6 853c
000003e0: b926 043d e2b1 66bc 0342 433d 24e8 2ab9
000003f0: 428e ecbb 2914 34bd 3a76 c13c 90fd 48bd
0.015113388 -0.00632577 -0.023036554 -0.04749644 0.045295954 -0.01608779 -0.007256993 -0.06276757
0.017867204 -0.008578748 -0.030502036 0.022682235 -0.050491914 0.02456714 -0.046877064 0.049820546
-0.044610783 0.009738823 0.04203477 -0.01914837 0.061707165 0.051735617 0.011519227 0.044323932
0.010729184 0.061041407 0.045751497 -0.045613997 -0.033283602 -0.04759937 -0.016413998 -0.0040618638
-0.021686133 0.03427357 -0.036606554 -0.045310527 -0.039773 -0.032040976 0.05537464 0.012904768
-0.0058749733 -0.01474328 -0.040386092 -0.016537827 0.029412536 0.031071875 0.066382326 0.008987145
-0.027464744 -0.008792184 0.06830275 -0.060802 0.02386933 -0.0054311263 0.053934965 0.02925895
-0.015108417 -0.047492992 0.006795231 -0.04120661 -0.0010854084 0.01751104 0.027061412 -0.004333028
0.0066500455 -0.04139478 -0.043680232 0.012212583 -0.024739124 0.0102624595 -0.009436154 -0.042520065
0.043839075 0.04155856 0.05882335 0.04695023 -0.042133313 -0.030198954 -0.04460607 0.03292869
0.023416426 0.033671506 -0.034257036 -0.017498503 0.05484503 -0.041742627 -0.029472465 0.027086645
-0.040985774 -0.014369361 0.052518845 0.076897755 0.00924445 -0.019911464 0.05694347 0.06803532
-0.051838767 0.008944003 -0.01717677 -0.023969105 0.021195048 0.021487644 0.03175389 -0.051494896
-0.01490544 0.03539134 -0.00247945 -0.0182259 -0.02198217 0.061303183 -0.040520933 -0.04627314
0.047042098 -0.018930659 0.03082414 -0.030539624 -0.0065773064 -0.029590564 0.05657747 0.06349624
0.04704954 0.013475314 -0.012411918 -0.03473987 -0.02704277 -0.0022074068 -0.010990726 0.032556687
0.00017881177 0.0038115531 -0.037417173 0.01899337 -0.051315747 0.012378657 0.014380062 0.014023722
0.039472714 0.01147892 -0.021496851 -0.038234044 -0.05512859 0.028068757 0.03650032 -0.03932629
0.0132836355 -0.022419224 0.0315261 -0.02113935 0.04625808 0.029138597 0.026591554 0.017584112
-0.0009850843 0.028864047 -0.043423597 0.019313354 -0.025342653 0.041544795 -0.047284435 0.018610321
0.031979926 0.007996774 0.07717615 0.031630367 0.060540844 -0.0049329926 0.06053033 0.023019312
-0.009027923 -0.03716522 0.048860885 -0.0005428738 0.052611887 -0.03551602 -0.039140586 0.00041629828
-0.0428433 0.019570215 0.0028767714 -0.026636174 0.041403543 0.047375534 -0.058288388 -0.036844015
0.05570961 -0.0141018955 0.007707363 -0.016610153 0.010552244 -0.031476323 -0.0033858742 0.0069692438
-0.0034933127 0.0046260394 0.045507744 0.0358665 0.015417585 0.011371156 0.07904172 0.07564252
0.019475117 -0.020424113 0.059551604 0.044393267 -0.04187873 -0.035049066 0.015868645 0.057823163
-0.053326108 -0.028790949 -0.01623684 -0.048028197 -0.035588223 0.052859217 0.04325499 -0.0513386
0.012099229 -0.042312194 0.0222185 -0.019036327 -0.016937863 -0.011785553 0.0048822053 0.034580555
-0.0146450875 0.011070401 0.041899048 -0.010426029 0.007474649 0.00027831233 -0.00737517 0.038832873
0.029572407 -0.0354119 0.057052735 0.035065282 -0.004657997 0.04965572 -0.00010646661 0.033345412
-0.047740724 0.053254437 0.054486968 -0.049725678 -0.03281943 -0.006216125 -0.035771746 0.016329868
0.03226349 -0.0140804965 0.047670376 -0.00016298943 -0.007219107 -0.04396454 0.023615945 -0.04906994

backbone.1.conv3x3.bias f4 [32]
00000000: c19e 503c 596c 43bd f8dd d63c 425b 6e3c
00000010: 7dfe d13c ea95 6ebc 0a46 483d ec9a ea3b
00000020: 2629 64bc 0114 d7ba d759 c0bc 5f2d 0dbc
00000030: 4e0e 4d3d 02b6 a03c 120d d7bb fd24 143b
00000040: 69dc 5c3c b5f3 0abd 74ae 04bd 4e0b 553d
00000050: 0922 9b39 33ec 8f3c 8251 debc 7c39 31bd
00000060: 1304 413c 08ac 023d 2047 63bd 7bda 6ebd
00000070: 92dd a0bc ff9c 1c3d 426f 57bd 7d06 413d
0.012733162 -0.04771075 0.02622889 0.014548125 0.025634045 -0.0145621095 0.04889492 0.0071595814
-0.013925826 -0.001640916 -0.023480339 -0.008616774 0.05006247 0.019618038 -0.0065628374 0.0022605055
0.013480284 -0.033923823 -0.032392934 0.052012734 0.00029589262 0.017568683 -0.027138475 -0.043267712
0.0117807565 0.031902343 -0.055487752 -0.058313828 -0.019636903 0.03823566 -0.052596338 0.04712533

backbone.1.bn.weight f4 [32]
00000000: 4263 7f3f 6278 7d3f dd6b 7e3f 6e58 803f
00000010: f1e6 7c3f 79b2 803f 4d57 7e3f 8aed 803f
00000020: be5d 803f 421d 7f3f 2868 823f 5e0b 7f3f
00000030: 83e0 7e3f 92ef 7e3f f597 7f3f 4b73 803f
00000040: 576a 7f3f bb63 7e3f f787 7d3f fe05 813f
00000050: ecc7 7e3f 5f05 823f c411 803f fc6b 803f
00000060: 1b8a 7d3f 9a59 803f ca1a 7e3f 74fd 803f
00000070: e42c 803f 0fa0 7e3f e764 803f 197c 793f
0.9976083 0.99011815 0.99383336 1.0026987 0.9878989 1.0054466 0.9935196 1.0072491
1.0028608 0.9965402 1.0188036 0.9962672 0.9956133 0.99584305 0.99841243 1.0035185
0.99771637 0.99370927 0.9903559 1.0079954 0.99523807 1.0157889 1.0005422 1.0032954
0.9903886 1.0027344 0.99259627 1.0077348 1.00137 0.9946298 1.0030793 0.97454983

backbone.1.bn.bias f4 [32]
00000000: d7a5 5abc 1d17 283b 4433 e8bb e80b c53a
00000010: 330f 30bb a580 6bbb 36e3 91bc 54d7 9e3a
00000020: 57db 86bb b4b8 67ba 6036 44bc a65c 523c
00000030: d799 8fbb dc42 663b 7506 073b 3d1c 573a
00000040: 09ef d6bb 46ce c4bc 0dde 8bbc 52dd 933b
00000050: 6ac4 0c3b 15dd 363c 799e 103c f5b6 a63b
00000060: cfdd eabb fbac f1bb 8665 16bc 7a8c 2c3b
00000070: 2662 0d3b 8995 ebbb 4709 96bb 1dbd 31bc
-0.013345203 0.0025648542 -0.0070861895 0.0015033456 -0.0026864528 -0.0035934832 -0.017808538 0.0012118616
-0.004115503 -0.00088394736 -0.011975855 0.012839472 -0.004382353 0.0035135066 0.0020603214 0.0008205807
-0.006559257 -0.02402414 -0.017073656 0.0045124674 0.0021479377 0.0111611085 0.008826845 0.005087728
-0.007167555 -0.007375357 -0.0091794785 0.0026328848 0.0021573394 -0.007189457 -0.0045787427 -0.010848311

backbone.1.bn.running_mean f4 [32]
00000000: f331 923e 46ed 733e 1554 6c3e a539 8abe
00000010: 3432 0f3f 5f26 243f 2295 4a3e 1a0d d73e
00000020: be42 7d3e 8df3 5ebe 158c ec3e 19c3 413e
00000030: 2348 bfbe 0ea8 f83e 9e51 10bf 4221 bf3c
00000040: c252 d23e 1f12 153e 8951 88be bc84 383f
00000050: 7666 08be 1be5 a83e b539 6cbe 12e0 33bf
00000060: 668f 85bd 0d19 223d 9bcb b2be ea19 f13d
00000070: fb29 143e 13a2 033f 3a05 113e 1d7f 5bbe
0.28553733 0.23820981 0.2307895 -0.26997104 0.5593598 0.6412105 0.19783452 0.42002183
0.24732491 -0.21772595 0.46200624 0.1892208 -0.37359723 0.48565716 -0.5637454 0.023331288
0.41078764 0.14557694 -0.26624706 0.72077537 -0.13320336 0.32987294 -0.23068888 -0.7026378
-0.06521492 0.03957467 -0.34920964 0.11772521 0.1446914 0.5141918 0.1416215 -0.21435209

backbone.1.bn.running_var f4 [32]
00000000: 31e5 1f3e 721b bc3e 6adb 603e f665 d23d
00000010: 85b2 173e 95fa 9b3e 790b b23d 32f5 f43e
00000020: aeb8 463e 7dab c63d 0292 803e cb34 fa3d
00000030: 0d10 be3e 81c7 3f3e c0b9 8a3e 2bcc a93d
00000040: 61e8 083f 281f 9f3d 15ae 423e 6133 8b3f
00000050: 2b59 393e 9eca 3c3e f059 0a3f 93cc 803e
00000060: 2b47 813e a553 ae3d 99f2 b13e 798a ab3e
00000070: e6d9 233e 62a5 c83e 32ce 753e 605c 123e
0.15614773 0.3673969 0.219587 0.10273354 0.14814194 0.30464616 0.086935945 0.4784332
0.19406387 0.097006775 0.25111395 0.12217101 0.3712162 0.18728448 0.2709484 0.08290895
0.5347958 0.077696145 0.1901172 1.0875055 0.18100421 0.18436667 0.54043484 0.25156078
0.2524961 0.08512048 0.347554 0.33504084 0.1600109 0.39188677 0.24004439 0.14293051

backbone.2.conv3x3.weight f4 [32, 32, 3, 3]
00000000: a0fb 533d 26f4 adbc 2ee3 fa3a be33 7abb
00000010: feb9 343d bb45 a6ba b04e f43b 7efe ecbc
00000020: 43be 2fbc 4c72 e0bc b8ff 8e3b 7ba0 16bc
00000030: 3e2c 5b3c f268 b93b 2230 50bd e080 123d
00000040: 6160 e03c 18ab 153d 89c9 213d f24f 4d3c
00000050: 7dc1 e53c 106f cc3c 110c f63c 46d7 21bd
00000060: eadd bd3c 06df 0ebc f0ad 973c a6d6 ae3c
00000070: ed72 30bd b226 cdbc 6914 1abd c663 55bc
00000080: f699 b93c c7f1 843c dd8c 4d3d ffe7 1fbd
00000090: f84c 533c 3896 2d3d 0731 51bd 8677 48bd
000000a0: 88c4 073c c430 efbc e3e6 173c 9601 0cbd
000000b0: 8abd d33a d95a 5cbd cd22 303d d81e 2fbd
000000c0: 32b4 70bd 12f3 0ebd e2da 76bb f6a5 4c3d
000000d0: 6628 e43b 18f0 8cbc 6004 53bd 436c 153c
000000e0: b399 6abc cca9 18bc 119b cabc 417b f2ba
000000f0: bbdd 003d 991b 2fbd f134 b0bc 88f3 d33c
00000100: 0788 2dbd 4e3a 61bb 0729 3a3d 22ea 1e3d
00000110: 3500 4abd e7f1 ecbc c9d0 f93b 6197 113d
00000120: 34dd d9bc d84f 66bd f08a b6bb be49 0f3d
00000130: a7bc 03bd de8f 6abd 7660 e23a 35f4 363d
00000140: a256 52bd 619a 053c 69f6 043d b9eb 26bb
00000150: c901 06bd 3a19 cabc 1154 23bd 09ad 8c3b
00000160: 078e fdbc 482c 9dbb 38b2 7dbc 3848 37bd
00000170: d237 513d 6efb 493c f730 d43c 98fc ea3c
00000180: caee a83c db6c 99bc e5d3 c9bc 9d6a 20bd
00000190: 4b99 71bd 3129 56bd af96 d2bc dd46 3b3d
000001a0: 2b6c 89bd 8e0b 1fbd ee0c 5ebd ed6c 51bd
000001b0: 7910 4e3d 13c9 3bbd 118d 23bd d280 19bd
000001c0: 2695 733c 87c5 bbbc c577 37bd f48e 313d
000001d0: a110 363b 5994 35bd 8595 b4bc fefc 053d
000001e0: 9965 963c 9dac 28bd 5bfb 0cbd 7e05 d6bc
000001f0: e785 943c ff0d 53bd 078e 3d3d b094 61b9
00000200: bc42 883c 035e 763c 4fab 223d 2173 c4bc
00000210: 92fa ffbc 854c 43bd cc88 1f3d 747c 37bc
00000220: 1f54 4fbc 2fbd 353d 008f b0bc 374a cebc
00000230: 94ae cebc 4a92 f93c 4bf8 bc3b 06b5 f9bc
00000240: 7404 1c3d bf76 b03c 6616 67bc 0c6c 5b3c
00000250: c840 61bd d8b2 2dbd aaae b9bc 8ca9 d93c
00000260: d0fe 74bc 9505 0a3d f4eb 73bd f64a 133d
00000270: 09fb 89bd 41fa e8bc 0d6a 2b3d 051a f8bc
00000280: d924 1dbd 06e5 b43c 8145 eabc d494 463c
00000290: 5c51 dbbc 2170 8a3c 98c4 2abd dd02 27bd
000002a0: da98 37bd 7488 80bc d0e0 5d3d ed02 083d
000002b0: 28cd 43bd fee8 e63c 0450 563d 818c 633d
000002c0: f216 513b 1355 623c 3e7e 223d 3b46 5c3d
000002d0: 5c79 8e3b b3ff e1bb e68e 483d 9cfd 6dbc
000002e0: 0151 443d b4d7 513d d5d7 8e3c 6d83 43bd
000002f0: 06d6 3d3d 8ac6 b33c b74f e73b 91a3 6b3b
00000300: 64d1 ae3c 109d c23c 7c17 43bd 4ee6 5abd
00000310: 2b03 ba3c 46c3 03bd 0bfb 68bd bd7c 2f3d
00000320: 8bb3 51bd 9ae8 d1bc 6b75 28bd f602 363d
00000330: 405d 4ebc d342 15bd 273b 323d 9078 5d3d
00000340: 78b1 033d c467 3d3d 315e 58bd 3ed4 52bd
00000350: b840 063d a09a 61bc f6fb da3c ffd6 643d
00000360: 7fc0 77bb 531a aebc 119a 823d 692f b8bc
00000370: 523d b4bc 6804 683d 605e f33b 3dd5 9abc
00000380: c94e fc3c f406 41bd 5907 b8bb 7094 66bd
00000390: 770f 93bc d5dc ee3c 1804 c0ba 4b76 7ebc
000003a0: fab4 f83c 6fe7 d83c 7626 cf3c 0159 b23c
000003b0: afa6 d6bc 739d 67bd 794c 23bd e2ab 22bd
000003c0: 3d1a 2e3c 7869 283d 5b94 473d 1519 3f3d
000003d0: caeb b03b 0b20 213d ffb9 3b3b 95d3 e33c
000003e0: 0f8a 1cbd d46c 643d 6986 db3c 4d6a 82ba
000003f0: 3c6a debc f1a5 a73b fd4e 4fbc 2a6e 33bd
0.05175364 -0.021234583 0.0019141191 -0.0038177813 0.04412269 -0.0012685576 0.0074556693 -0.028929945
-0.010726514 -0.027398251 0.00436398 -0.009193535 0.013377247 0.0056582624 -0.050827153 0.035767436
0.027389707 0.03654012 0.03949884 0.0125312675 0.028046364 0.024955302 0.03003505 -0.03951194
0.023177106 -0.008720165 0.018515557 0.021342587 -0.04307835 -0.025042865 -0.03761712 -0.013024276
0.022656422 0.01622857 0.050183166 -0.039039608 0.012896769 0.042379588 -0.051072147 -0.04894211
0.008286603 -0.029198058 0.009271356 -0.0341812 0.001615451 -0.053797577 0.04300194 -0.042754024
-0.058765598 -0.03489978 -0.0037667085 0.04996296 0.0069628237 -0.01720433 -0.051517844 0.00912005
-0.014318871 -0.0093178265 -0.024732145 -0.0018499867 0.03146146 -0.04275093 -0.02150962 0.02587296
-0.042366054 -0.0034367028 0.045449283 0.038797505 -0.049316604 -0.028923942 0.007623766 0.035544757
-0.026594736 -0.05622849 -0.005570762 0.034982435 -0.032162335 -0.05726611 0.0017271179 0.044666488
-0.05135215 0.008154483 0.032461558 -0.0025470091 -0.032716546 -0.024670232 -0.039875094 0.0042930883
-0.030951513 -0.0047965385 -0.015484385 -0.044746608 0.051078625 0.012328012 0.025902255 0.0286849
0.020621676 -0.018728664 -0.024637172 -0.039164174 -0.058984082 -0.052285377 -0.025706617 0.045721877
-0.067100845 -0.03882938 -0.05421155 -0.05112927 0.05030868 -0.045846056 -0.039929453 -0.03747637
0.014867103 -0.022921337 -0.044791956 0.04334922 0.0027780908 -0.04433093 -0.022043953 0.032711975
0.018358992 -0.04118024 -0.0344194 -0.026125666 0.018130256 -0.05152702 0.046278026 -0.00021513063
0.016633384 0.015037063 0.039714154 -0.023980679 -0.03124741 -0.047680397 0.03894882 -0.0111991055
-0.012654333 0.044369873 -0.021552563 -0.025181873 -0.02522973 0.030465264 0.0057669035 -0.030481827
0.038090184 0.021540998 -0.014104461 0.01339246 -0.05499342 -0.042406887 -0.022666294 0.026570104
-0.01495333 0.03369673 -0.059551194 0.03596016 -0.06737334 -0.028439643 0.041849185 -0.030285845
-0.03836522 0.022081863 -0.028597595 0.012120444 -0.026772194 0.01689917 -0.041691393 -0.040774215
-0.044823505 -0.015690066 0.054169476 0.033205915 -0.047803074 0.028187271 0.052322403 0.055553917
0.0031904546 0.013814229 0.039671175 0.053777914 0.0043479633 -0.006896937 0.048964404 -0.014525797
0.047928814 0.0512311 0.017436901 -0.04773276 0.046346687 0.021945257 0.0070590633 0.0035955647
0.02134008 0.023756534 -0.04762982 -0.053442292 0.022706589 -0.03216865 -0.05688004 0.04284357
-0.051196616 -0.025623608 -0.041127604 0.044436418 -0.012595475 -0.03644068 0.043513443 0.054070055
0.03215167 0.046241537 -0.052824203 -0.05147194 0.032776564 -0.013769776 0.026731472 0.0558691
-0.0037803946 -0.021252787 0.06377042 -0.022483544 -0.022001896 0.056644827 0.007427022 -0.018900508
0.030799286 -0.04712577 -0.0056161103 -0.056293905 -0.01795171 0.029158035 -0.0014649658 -0.015531133
0.030359734 0.026477544 0.025286894 0.021770956 -0.026202528 -0.05654664 -0.039867852 -0.0397147
0.010626373 0.041116208 0.048725467 0.04665478 0.005399202 0.0393372 0.0028644798 0.027810851
-0.0382176 0.05576785 0.02679749 -0.0009949893 -0.027150266 0.0051162173 -0.01265311 -0.043806233

backbone.2.conv3x3.bias f4 [32]
00000000: 7030 6ebd edd7 e7bc ee87 223c 62a1 2cbd
00000010: 242e 03bd 80a0 c4bc 0115 f13c 131c d33c
00000020: 1869 b8bc 2a0b f5bc 82c0 433c 6633 8d3c
00000030: b5d3 573d 46c1 2c3d 7b67 84bc 49ee 98bb
00000040: e5e6 023d a694 563c b2d5 ea3c 5885 5e3d
00000050: 7068 a63c c50b 83bb 2f92 6bbd 1499 debc
00000060: b32a e23c 66a4 5b3d 5684 a23c c09b 28bd
00000070: 4c21 43bd f6d1 673d 5c3d 92bc b4ed 76bc
-0.058151662 -0.028301204 0.0099201035 -0.042146094 -0.032026425 -0.024002314 0.02942896 0.025770223
-0.02251105 -0.02991255 0.011947753 0.017236423 0.052692134 0.042176507 -0.016162625 -0.0046670777
0.03195848 0.013096964 0.028666351 0.054326385 0.020313472 -0.003999206 -0.05751246 -0.027172603
0.027608251 0.05362358 0.019838493 -0.04116416 -0.047639176 0.05659672 -0.017851524 -0.015071321

backbone.2.bn.weight f4 [32]
00000000: a6a4 7e3f 3562 803f 462b 7b3f f88d 803f
00000010: 4d58 803f 4a08 7d3f b58d 803f 5dfc 7c3f
00000020: e57d 7e3f 286e 813f 4cad 7e3f 1768 7d3f
00000030: c4a8 7f3f b458 7f3f 1df0 7e3f ba02 813f
00000040: 2919 7d3f 81d7 7d3f fda8 7e3f 300b 7e3f
00000050: d761 7f3f 1322 7f3f 519d 7c3f 8f22 803f
00000060: 748f 7c3f 4db3 813f d82a 813f 021a 813f
00000070: be26 803f 3ca5 7e3f 0fa2 7f3f 9f43 813f
0.99469984 1.002997 0.98112905 1.0043325 1.0026947 0.98840773 1.0043246 0.98822576
0.9941085 1.0111742 0.9948318 0.98986953 0.9986689 0.99744725 0.99585134 1.0078957
0.98866516 0.9915696 0.99476606 0.9923582 0.99758667 0.9966137 0.98677546 1.0010546
0.9865639 1.0132843 1.00912 1.0086062 1.0011823 0.9947088 0.99856657 1.0098761

backbone.2.bn.bias f4 [32]
00000000: 9810 d9bb 8e2d 16bc 0c3b 41bc 16fd cabb
00000010: e142 04bc eac9 f5bb 2fc7 a03b 7179 d9bb
00000020: 3c97 97bc 943c cbbc e571 283b 50cd 43bc
00000030: 105a b5bb 530b d03a e26d b8bc cd4a 4fbc
00000040: 0e7e 9bbb 7ac1 aebb be57 bdbb 427b 04bc
00000050: 25db 59bc 13c6 653b 16d1 5abc 3dcf 5b3b
00000060: dc75 40bb 40c6 853c 254a 963b c7a9 953b
00000070: 2bbb 63bb 19b3 b8bb 63db c63b 64db 14bc
-0.0066242926 -0.0091661345 -0.011793863 -0.006194721 -0.008072586 -0.0075008767 0.004906557 -0.0066367914
-0.018504731 -0.02480916 0.0025702652 -0.011950806 -0.005534418 0.0015872516 -0.022513334 -0.012652111
-0.0047452515 -0.005333123 -0.005778282 -0.008086028 -0.013296877 0.0035060688 -0.013355514 0.0033540272
-0.0029367125 0.016329885 0.0045864754 0.004567358 -0.0034749012 -0.0056365845 0.0060686334 -0.00908551

backbone.2.bn.running_mean f4 [32]
00000000: 6231 93be 8f4e a63d c1b4 3bbd 6707 a53e
00000010: 23ef 8e3e 7325 1ebd 8090 e2be ad48 503d
00000020: b202 b4bc d416 bb3e 19b0 ffbe 60b0 0c3f
00000030: 7b69 4a3e f1a9 bfbd 7b75 4d3e 8dd6 743e
00000040: 910e 99bd 1f31 bbbc 6193 3e3e 92da f3bc
00000050: cc53 07be 9b06 94be 0cd1 05be 5162 4dbe
00000060: e289 253e a2d3 a43d 991e 0b3e bfbd 223e
00000070: 2d1a 653e b6ed b03d 57d4 08bd 9757 083f
-0.28748614 0.081204526 -0.045826677 0.3223221 0.27916822 -0.038609933 -0.4425087 0.05085056
-0.021973941 0.36540854 -0.4993904 0.54956627 0.197668 -0.093585856 0.20064346 0.2390997
-0.074734814 -0.022850571 0.18610908 -0.029767308 -0.1321556 -0.2891129 -0.13068026 -0.20057036
0.1616588 0.08048178 0.13585891 0.15892695 0.22373267 0.0863909 -0.033405628 0.5325865

backbone.2.bn.running_var f4 [32]
00000000: bcf4 be3e 39c3 f33e ec39 e73d f8b5 0b3f
00000010: 6c76 fe3e 47cf 3c3e a180 4c3f 2af3 d73e
00000020: 27be 2e3e 2ca7 413e ef43 193f b112 213f
00000030: ea14 ab3d 50b9 7b3f 3140 bf3e 9511 f03d
00000040: 9e88 973e 17ff 693e 47b3 133e aab9 5b3e
00000050: 46c8 393f 0e1e 263f 4200 dd3d b019 db3e
00000060: e2d6 2d3e 3793 a23e e1c0 403f 8e05 383f
00000070: 5871 1b3f eec7 7a3e 87f2 063f a8d3 733f
0.37296093 0.4760988 0.112903446 0.5457454 0.49699724 0.18438445 0.7988377 0.42177707
0.17064725 0.18911427 0.59869283 0.62919146 0.083535984 0.9832964 0.37353662 0.117221035
0.29596418 0.22851215 0.14423858 0.21457544 0.7257122 0.6488961 0.10791065 0.42793036
0.16976503 0.3175294 0.7529431 0.71883476 0.60719824 0.2449033 0.5271382 0.95244837

backbone.3.conv3x3.weight f4 [32, 32, 3, 3]
00000000: f92b 41bc 7ae4 033d 7f91 543d 4260 ac3c
00000010: d7a6 1e3d ea59 533d 9f17 52bd 3e4d 95bc
00000020: ef03 d2bc 1ef4 0b3d 2c41 3c3d 446c 303c
00000030: 5a3c 323d 97d4 5cbd 022b 2ebc da39 1c3c
00000040: 1bc2 81bb c3f8 413d 2e7a e6bc b6b8 253d
00000050: 3baa b5bc 6d0e edba e850 a93b fd9c 2e3d
00000060: c903 e7bb 07cf e8bb 3dda 303d a84e 753d
00000070: 5eac fcbc 53b8 953c 02f9 123b edb3 5abd
00000080: 3ebd 46bd 5fd7 33bc 1f34 0ebc 9cb7 533c
00000090: 4690 edbc 90e9 653c de92 723d c112 dc3b
000000a0: 66f2 203d 8190 09bd db4a 643d 1a94 2abc
000000b0: 4783 853d aa5d 60bc 735c 213c c8ff 443c
000000c0: 4be4 703c 25c1 883b a566 9dbc 84e9 8dbc
000000d0: 4e1c 213d 2c68 413d a1b1 693d 9963 10bd
000000e0: 7190 4d3d e457 533d dbcb f73c a6e6 2dbb
000000f0: 5537 24bd cb5a 94bc 8b6a 5abd 2532 e23c
00000100: 7e32 1a3d 956c 753c e9a8 80bd 17e4 603c
00000110: b5c2 0abd 1de4 f6bc d338 58bd 275b 323d
00000120: b6cd b43c f1a1 333d 4634 233d de55 fabc
00000130: 7eee 0b3d e00d 193d a699 c43b 330b 87bd
00000140: f7fc 85bc 5b45 69bd a581 c5b9 09ca 463d
00000150: 390e cebb c437 20bd 5682 6a3d ec26 48bb
00000160: 22fe 1a3d d8fc 31bc bb36 24bd fa4c 7f3c
00000170: 3dbe fe3b 8d3d 6c3c f207 cabb dfba 3a3d
00000180: 2a28 5dbd 422f 40bd 5a6d 52bd e85f 52bc
00000190: d558 903c e4b8 8dbc 94d9 56bc e50d dfbc
000001a0: 872f 98bc 5739 4fbd 7b6e d83b 0454 ac3c
000001b0: 0168 dabc cb96 233b d723 443d 4d64 033d
000001c0: 5f09 46bd fd66 34bd f4ab 8f3c ae52 8bbb
000001d0: f6b1 5f3d 6a6a 093d 5622 46bd cea7 70bd
000001e0: 5c1e 3c3b 5ae6 323c b7a3 a2bc 3800 0e3d
000001f0: e321 473d 9e50 53bc 5f15 923c 497d 5abd
00000200: f400 09bc eacf 48bd 99f5 333d 7a5a 773c
00000210: e05c 033d efdc 8ebc 824b d43c a256 d03c
00000220: 0b3e f0bc 4765 97bb 952f d63c abed 3c3c
00000230: 5157 d2bb 274d 083b 878d 29bd ce94 04bc
00000240: 20de 033c 18f2 033d 985c aabc e86f ff3c
00000250: c8a5 533c a2d2 733d 6779 1f3d 294e 42bd
00000260: 5edd fdbb 7eec fdbb 4fc4 c6bc c5e1 bdbc
00000270: 172a 1ebb 42c8 eebb 9073 b0bc bd7d e6bc
00000280: 590b dfbc 26ad 773c 6e61 a03c b719 073c
00000290: b05c 0c3d 9111 e43b 20d8 5f3d 96ad 7abc
000002a0: c3ef 523b 7fe2 fbbc b7e0 44bd 9cde d5bc
000002b0: 86f1 723c 9fb6 d93b cdcb c33c 47e7 483c
000002c0: cffb 58bd 3acb 433d ab71 8abc 2a9e 29bd
000002d0: a006 e03c 31ba 983c d9dc f4bc 2b67 993b
000002e0: 989c 5d3d 01d4 9a3c 135d 50bc a293 1ebc
000002f0: eb1c b63c bb61 6d3d 8bbe 75bc 6e27 5d3d
00000300: 5d10 b9bc 74e7 2e3d 929e fa3b fba7 d9bc
00000310: 4873 503d 4a42 2d3d 0002 e5bb d615 63bd
00000320: 7f3f 02bd 23c5 9b3b 6655 4dbd 9ef4 35bd
00000330: 2889 533a 0a5c d8bb b8c0 f53b 4c5d e0bc
00000340: 8120 f0bc 7108 b13c 02ea ac3b f36e 263d
00000350: 9975 ffbc 466d cabc 3004 ddbc 16a9 11bd
00000360: 40b4 023d 8c63 b7bc 0206 693d aede 0d3d
00000370: 97b2 d3bc 78bc 6dbc 4880 073d f4c2 16bd
00000380: f032 5b3d 95be 253b 5676 1d3c 1866 3c3d
00000390: 82a7 5bbd fb44 e5bc 6bf3 13bd e722 29bd
000003a0: b6f1 f53c f1ee 0f3d 892b 403d 729c 6d3d
000003b0: 46d4 debc e437 a43b 6ebe 9c3c 28e2 71bc
000003c0: 34ba 1c3d c248 813d 94bc 5bbd 5f66 34bc
000003d0: a45b 0f3d da9b 2cbd 8b99 e1bb 8276 263d
000003e0: cd4c 8f3c 2f4f ddbc 455c 33bc fb84 8a3b
000003f0: 00b3 6c3d d452 16bd eadf 31bb 9e94 0bbc
-0.011790269 0.032200314 0.05189657 0.021041993 0.03873333 0.05159942 -0.051292058 -0.018225309
-0.025636641 0.034168355 0.04596059 0.010768 0.043514587 -0.05391368 -0.010630371 0.009535277
-0.0039599068 0.04735638 -0.028134432 0.040459357 -0.022175899 -0.0018085964 0.0051671155 0.042630184
-0.007050012 -0.0071047577 0.04317688 0.059889466 -0.03084391 0.01827637 0.0022426252 -0.053394247
-0.04852032 -0.010976641 -0.008679419 0.012922194 -0.028999459 0.014032736 0.059222095 0.006716103
0.03929367 -0.033585075 0.05573545 -0.010411287 0.0651918 -0.013694206 0.009848702 0.012023874
0.014702867 0.0041734152 -0.019213984 -0.017323263 0.039333634 0.047218487 0.057054166 -0.035251234
0.05018658 0.05159749 0.030248573 -0.0026535182 -0.04009183 -0.0181097 -0.053324264 0.027611801
0.03764581 0.014979501 -0.06282217 0.013726256 -0.033877093 -0.03013807 -0.052788567 0.04354396
0.022070747 0.04385561 0.039844774 -0.030558523 0.03416299 0.037366748 0.0059997616 -0.06593933
-0.016355975 -0.05695091 -0.0003767136 0.04853252 -0.0062883166 -0.039115682 0.057253204 -0.0030540777
0.037840016 -0.010863505 -0.040091258 0.0155823175 0.007774143 0.014418972 -0.006165498 0.04558837
-0.05399338 -0.04692007 -0.051373817 -0.012840249 0.017620483 -0.017300077 -0.013113398 -0.027228305
-0.01857735 -0.050591793 0.006604967 0.021036156 -0.026660921 0.0024961706 0.047885742 0.032078076
-0.04834878 -0.04404353 0.017538048 -0.0042517995 0.054613076 0.03354875 -0.04837259 -0.05875378
0.002870462 0.010919178 -0.019853456 0.034668177 0.0486163 -0.012897639 0.017832456 -0.053342137
-0.008362044 -0.049026407 0.043935392 0.015097255 0.032070994 -0.017439334 0.025914911 0.025431935
-0.02932646 -0.0046202275 0.026145736 0.011531274 -0.0064191003 0.002079794 -0.041394737 -0.008092118
0.008048564 0.0322133 -0.020796105 0.03118129 0.012917943 0.059527047 0.038934138 -0.04743782
-0.0077473363 -0.0077491393 -0.02426353 -0.023178944 -0.0024133974 -0.007287056 -0.02153948 -0.028136129
-0.02722709 0.015116965 0.019577708 0.008245877 0.03426808 0.006960102 0.054649472 -0.015300175
0.0032186366 -0.03074765 -0.048065867 -0.026107125 0.0148280915 0.0066440846 0.02390089 0.012262172
-0.05297452 0.047801234 -0.016899904 -0.041410603 0.027346909 0.01864347 -0.029890465 0.004681488
0.054104418 0.01889992 -0.012717503 -0.009678753 0.022230586 0.05795453 -0.014999042 0.05399268
-0.02259081 0.0427012 0.0076482976 -0.026569357 0.05089119 0.042299546 -0.006988764 -0.055440746
-0.031798836 0.004753725 -0.05013027 -0.04442274 0.0008069449 -0.006602769 0.0074997805 -0.027388237
-0.029312374 0.02161047 0.0052769193 0.040633153 -0.031184005 -0.024710309 -0.026979536 -0.035561644
0.03191018 -0.022386335 0.056890495 0.034636192 -0.025841994 -0.0145102665 0.033081323 -0.036807016
0.053515375 0.0025290598 0.009610733 0.0459958 -0.053626545 -0.027986994 -0.036120813 -0.04129305
0.030022483 0.03513998 0.04691652 0.058010526 -0.02720083 0.0050115455 0.019133773 -0.0147633925
0.038263515 0.063127056 -0.05364664 -0.011010735 0.034999505 -0.04214082 -0.006884759 0.04064036
0.017492676 -0.027015297 -0.010947292 0.0042272783 0.057787895 -0.036700085 -0.002714152 -0.00851932

backbone.3.conv3x3.bias f4 [32]
00000000: e1e7 6fbc 7167 173d f6f4 b4bb 5637 093d
00000010: f3e9 3ebd c1c1 8a3c b037 43bd c29e a7bc
00000020: bdda e23c 2f0a 1ebd 135e 043d 094c 0e3d
00000030: b375 b03c 1bbe 26bc 522c 1f3c 6718 083c
00000040: 77b7 a2bc 82bd 41bd 4300 44bb 9074 fb3c
00000050: 4f95 d8bc 9fb0 a63c 07ba 9bbc 2343 b4bc
00000060: 2827 37bd cc4f 60bd 8984 b8bc 2ac9 a8bc
00000070: 3aed 2dbd 7d6d 703d 7037 4fbd 74c0 f83c
-0.014642687 0.036963884 -0.0055223657 0.033500038 -0.04660983 0.016938092 -0.04766053 -0.020461444
0.027692193 -0.03858393 0.03231628 0.03474048 0.021540498 -0.010177161 0.009715157 0.008306599
-0.019862873 -0.04729987 -0.0029907383 0.03069523 -0.026438383 0.020347891 -0.019009603 -0.02200467
-0.044715077 -0.0547636 -0.022524135 -0.020603735 -0.042462565 0.058698166 -0.05058998 0.030365206

backbone.3.bn.weight f4 [32]
00000000: 2f24 7f3f 3d12 803f ed20 813f b0df 7f3f
00000010: d188 7d3f 5c4b 7e3f d5a2 803f e1c5 803f
00000020: 5236 7f3f 54bc 7d3f 6ec3 7d3f 2207 803f
00000030: 4401 813f 50c5 803f 08f4 7d3f 5982 7d3f
00000040: fdcb 803f 6ff2 7c3f c23d 7f3f 051d 813f
00000050: bb0f 803f 7f68 803f 3c59 7e3f ad2f 7e3f
00000060: 4a3b 7f3f f1bb 803f f1ff 803f d447 813f
00000070: 2646 7c3f 90d6 803f 698c 7d3f 2c8a 843f
0.99664587 1.0005566 1.0088173 0.99950695 0.9903689 0.9933374 1.0049692 1.0060388
0.9969226 0.9911549 0.9912633 1.0002177 1.0078511 1.0060215 0.9920049 0.9902702
1.0062252 0.98807424 0.9970361 1.0086981 1.00048 1.003189 0.9935491 0.992915
0.9969984 1.0057355 1.0078107 1.0100045 0.9854454 1.0065479 0.99042374 1.0354667

backbone.3.bn.bias f4 [32]
00000000: cd11 63bb 96b9 183c 92cf 8a3b f433 15bc
00000010: b80a bfbb 031c 9bba 32d0 a03b a7cb 57bb
00000020: 1e28 7dbc a2c7 f8bb d91d 1fbc f519 b73b
00000030: b120 bcbc 1013 fe3a 5401 62bc 1380 e5bb
00000040: ab93 c03b 0125 e2bc 0ece dabb 063b c0bc
00000050: 9980 af3a 15c3 ca3b 31d6 a2bb 1371 01ba
00000060: 5bf4 0dbc 7012 1c3b 9634 5abc fc17 ce3b
00000070: 1fb7 5dbc 9d9a 993b b8fe d6bb 429f 33bc
-0.0034648061 0.009321591 0.00423617 -0.009106625 -0.005830135 -0.001183391 0.0049076313 -0.0032927783
-0.015451459 -0.0075921575 -0.009711706 0.005587811 -0.022964807 0.0019384343 -0.013794262 -0.007003793
0.0058769784 -0.027605535 -0.0066773957 -0.023465645 0.0013389766 0.0061878064 -0.0049693813 -0.0004937809
-0.008664216 0.00238147 -0.0133182015 0.0062894803 -0.013532429 0.004687621 -0.0065611266 -0.010963263

backbone.3.bn.running_mean f4 [32]
00000000: 65f3 893e 7165 193d 634d e83c 6624 a93e
00000010: fccf 1abf d7f6 96be c7d9 b13b 8bba 4c3e
00000020: 625b 703e b4f5 d63d e4f4 183e a784 33be
00000030: 990f cb3e 58e2 523e 2ad7 683d 13d2 d3bc
00000040: 39cb db3d 6e57 4f3e 6b2a 063f f706 313e
00000050: 5daa 483e 3418 d5be 8f05 cabd dcda e7bd
00000060: 8c83 943d 210f 7f3d adda 683e fa9a 083d
00000070: 482a 07bf 008a e73d f6b6 3b3e 9dc4 893e
0.26943508 0.037450258 0.028357213 0.33035582 -0.6047361 -0.294852 0.0054275724 0.19993035
0.2347236 0.10496083 0.14937168 -0.17531072 0.39660338 0.20594156 0.05684582 -0.025857007
0.10732121 0.20248196 0.52408475 0.17287813 0.19596238 -0.41620028 -0.098643415 -0.11321041
0.07251653 0.062270287 0.22739668 0.033350922 -0.5279889 0.11305618 0.18331513 0.26907817

backbone.3.bn.running_var f4 [32]
00000000: 4c0f 1a3f 1ff5 4e3f f202 2c3f 1374 d73e
00000010: f863 1c3f 7106 983e c216 d43e 302a 163f
00000020: f875 073e 7011 763e d9e9 bf3e 8059 e53e
00000030: 212b 703f fefe 103f ebd2 b73d 9d15 6c3e
00000040: fe46 393f 79ef d93d acdc 2e3f a8ab f93d
00000050: 3065 e23e c380 af3e 539d bd3e 66c2 8a3e
00000060: e277 913e f21c 8e3e 9e4a 473f 3165 563e
00000070: 056c 1f3f dfb6 4c3f aa09 bc3e e18a e93d
0.6017959 0.80842775 0.67191994 0.42080745 0.6109004 0.29692414 0.41423613 0.58658123
0.13228595 0.2403009 0.374831 0.44794846 0.9381581 0.5663909 0.08975776 0.2305512
0.7237395 0.10641379 0.6830547 0.12190944 0.44217825 0.34277925 0.3703409 0.2710144
0.28411776 0.2775646 0.7784823 0.20937039 0.622742 0.7996654 0.36726123 0.11403442

backbone.4.conv3x3.weight f4 [32, 32, 3, 3]
00000000: a533 4a3d e057 383c 7033 333d 6696 85bc
00000010: 14d8 813d 3a58 c73c 5552 baba a93e 46bd
00000020: b2d2 873c 49fc 4bbd 1d88 ed3c a454 bfbc
00000030: 92bc fcbc 2123 863a 64c5 15bd 9cba 293c
00000040: 39e5 2b3c 1518 d23c d2fd 413d 820e 323d
00000050: f5d6 283d 21fd edbc 3baf 99bc e1ef 663d
00000060: bdfe dbbc a941 7c3c a333 0d3d 4683 803d
00000070: 5159 ca3c 56f5 b43c d132 7a3d aac2 413d
00000080: ac55 abbc fa82 c33c 304e 733c 54e5 1b3d
00000090: 7a1f c4bc b363 39bb b52c d23c fded 373d
000000a0: 0e1a f53c d19a 0ebd 1fa3 3f3c 1f44 14bc
000000b0: d784 9f3c d83e d03c 7395 673c 68eb 04bd
000000c0: de31 3a3d 21f3 1c3b 356c 253d b171 e53c
000000d0: 54ef c73c 8eb4 92bc 5ba8 433d 0af7 beba
000000e0: ff7b 053d 9a11 adbb 12e4 feba 2d11 233d
000000f0: 5c9b 04bd a52c ccbc 51dc 2dbd 545e 3a3d
00000100: 37e1 603d b6b7 163c 1ff3 ec3c cd19 0d3d
00000110: 95fe db3c cab3 583c 6779 bb3c 48e2 203d
00000120: 199b 1ebd df50 c2bc dc6d 9fbb da98 7fbd
00000130: 467c 953c 8840 0d3c 09ce 913b 31e1 da3c
00000140: b96d f5bc c638 32bc 9961 7c3c 89b1 243c
00000150: 2315 8c3c 8b02 8bbc e65d 5cbc 5faa 93bc
00000160: b38c 44bd 70d6 af3c beef 57bd d3dd 3f3d
00000170: 4757 47bc ae8d 313c f1ca 3c3d a40f 633a
00000180: 182e 443d 2aa9 273c 2485 e4bc 89d7 8ebc
00000190: 5ecc a5bc f15b 513d c050 f0bc 06e7 c1bc
000001a0: 85be 14bc 79f7 8cbc bf73 18bd 7099 073c
000001b0: 1eb8 203d a834 8abc 6bba 3abc 4a89 17bd
000001c0: b4aa b23c 25ee 8e3c 7a30 133d 30c5 593d
000001d0: 6871 c5bc eda8 213d 5042 2ebd 0767 6dbc
000001e0: 38b9 45bd 6c5d 99bc d5a2 20bd 9d20 62bd
000001f0: 2cd4 0fbd bc97 c5bc da1d 3fbd e0ab 093d
00000200: f92f 293d 9836 64bb db32 7ebc 29a7 4bbd
00000210: c293 443d 2e53 943b 9384 12bc 365e b7bc
00000220: fb87 313d 37cc 043d 911a 4e3d 9349 303d
00000230: 6b71 5cbd 9ab7 68bd ea1f 31bd d956 66bd
00000240: dc60 c4bb e308 24bc 510e 24bc 01e8 e03c
00000250: b173 0abc f54a 2b3d d7c6 c33c edba 673d
00000260: f100 2b3d 4def bdbc fd9d 04bd a77f 23bc
00000270: b532 68bd 42a3 36bd ed2e 07bd c188 263d
00000280: 9656 2abd 9d71 02bd 46c6 19bd 6fc4 14ba
00000290: 1288 efbc 73f5 3dbd 5516 7f3d 719e 7fbc
000002a0: 3289 d23a ba58 5a3c eaa5 193c aa04 443c
000002b0: 030c c83c 683d a3bc 7905 ecbc 5691 353b
000002c0: 65ba 2cbd ac8e 0dbd aaaf e93c e7c4 a139
000002d0: 1325 16bd f39c 04bd 20b7 66bc 01f3 733d
000002e0: f566 273d a7f1 0ebd eb64 043d 1762 1abd
000002f0: 5b83 7e3d 42cd 093c cac3 d4ba 6669 563d
00000300: ec7f deba cd1e 4dbd 0591 283d 4c5a 0f3c
00000310: 7bc0 36bd 1bb0 433c 9d47 113d 30cc db3c
00000320: 764e 70bd 75cc 1fbd ba51 643d 6beb 3a3d
00000330: 8bf2 963b 2b2c a1bc c074 553d 3b0b af39
00000340: 3802 163d 0221 5abd 20a0 2dbd f1ff a83b
00000350: 90f1 b8ba 726b 5a3b 791e 03bd 58d3 c33c
00000360: 735b 39bd fc29 ffbb 0b60 52bd 1bfb 88bc
00000370: 42d7 b03c f68c 16bc d516 27bd 9f69 42bd
00000380: 66d6 b03c b1f6 e0bb f15e 9d3c b3cd 1b3d
00000390: f27a 63bc f7eb 2ebd b1ba 283d bba6 6e3d
000003a0: 90e2 eebc 9158 18bd 9431 aebc fbdd 173c
000003b0: bb19 873c 381d e63c ea13 793d cee1 04bd
000003c0: bb75 303d c95d 803d 341c acbc 7e97 1dbd
000003d0: 9ef6 4f3d 8199 683d e742 193c a395 f9bc
000003e0: 3715 b3bc c547 71bd 803d 22bc 15b5 ffbc
000003f0: 93d3 473d 59db 0dbc f140 c73c a558 f63c
0.04936566 0.01125142 0.043750226 -0.016307067 0.06340042 0.024334062 -0.0014215211 -0.0483996
0.01657996 -0.049801145 0.028995568 -0.02335579 -0.030851636 0.0010233858 -0.0365652 0.010359433
0.010491663 0.025646249 0.047361203 0.043470867 0.041220624 -0.029051365 -0.018760314 0.05638111
-0.026854867 0.015396514 0.034473073 0.062750384 0.024700793 0.022089642 0.06108362 0.047304787
-0.020914875 0.023866165 0.014850184 0.0380605 -0.02394079 -0.0028288185 0.025656084 0.044904698
0.02991965 -0.034815613 0.011696606 -0.009049444 0.019472523 0.025420591 0.014134753 -0.032451063
0.045457713 0.0023948627 0.040386397 0.028008314 0.024406113 -0.01790836 0.04776798 -0.0014569473
0.032588955 -0.0052816393 -0.0019446632 0.039811302 -0.032374725 -0.024923632 -0.04244644 0.045500115
0.05490228 0.009199074 0.028924523 0.034448434 0.026854793 0.013226459 0.022885038 0.0392783
-0.03872213 -0.023720203 -0.004865391 -0.06240163 0.018247735 0.0086213425 0.00444961 0.026718708
-0.029959546 -0.010877794 0.0154041285 0.010052093 0.017099923 -0.016968986 -0.0134501215 -0.018025575
-0.047985744 0.021464556 -0.05271887 0.046842407 -0.012166805 0.010837002 0.046091978 0.00086616934
0.04789552 0.010233203 -0.027895518 -0.01743676 -0.020239051 0.051113073 -0.02933538 -0.02366973
-0.0090786265 -0.017207848 -0.03721976 0.008276328 0.039238088 -0.016870812 -0.011396985 -0.036996163
0.021809913 0.01744754 0.035934903 0.05316657 -0.024101928 0.03946774 -0.04254371 -0.014489896
-0.04827234 -0.018721305 -0.03921779 -0.055206884 -0.035114452 -0.024120204 -0.046659328 0.03361118
0.041305516 -0.003482258 -0.015515055 -0.049719963 0.047992475 0.0045265174 -0.008942741 -0.02238379
0.04334257 0.032421317 0.050318304 0.043038916 -0.0538191 -0.05681572 -0.043243326 -0.056235168
-0.005992992 -0.010011884 -0.010013179 0.027454378 -0.008450435 0.04181953 0.023898525 0.05657475
0.041748945 -0.023185397 -0.032377232 -0.009979165 -0.056688983 -0.04458929 -0.033003736 0.040657762
-0.04158648 -0.03184663 -0.037542604 -0.0005675023 -0.029239688 -0.046376657 0.062277157 -0.01560174
0.0016062616 0.013326818 0.009377936 0.011964003 0.02441979 -0.019926742 -0.028811203 0.0027705035
-0.042169947 -0.03455989 0.028526146 0.00030855017 -0.03665645 -0.03237624 -0.014081746 0.05955792
0.04086967 -0.034898426 0.032322805 -0.037691202 0.06213699 0.008410754 -0.0016232666 0.05234661
-0.001697538 -0.050078202 0.041153926 0.008749556 -0.044617157 0.011943842 0.035468686 0.026830763
-0.058668576 -0.039013345 0.055742003 0.04563467 0.00460655 -0.019674381 0.052113295 0.00033386968
0.03662321 -0.053254135 -0.042389035 0.0051574637 -0.0014110077 0.0033328203 -0.032011483 0.023904487
-0.04525323 -0.0077869873 -0.051361125 -0.016721299 0.021587018 -0.009188881 -0.04079326 -0.04746401
0.021586608 -0.0068653454 0.01921031 0.038037967 -0.013884293 -0.042705502 0.041193668 0.058264475
-0.029160768 -0.03719384 -0.021263875 0.009269233 0.016491761 0.028090104 0.060810007 -0.032441907
0.043081027 0.06267888 -0.021009542 -0.038474552 0.0507723 0.056787018 0.00935433 -0.03046686
-0.021860702 -0.058906335 -0.009902358 -0.031214276 0.048785757 -0.008658254 0.024322959 0.030071566

backbone.4.conv3x3.bias f4 [32]
00000000: 717b 133d 286a 11bd e3e0 733b 5171 19bd
00000010: 3ac6 58bc 0de7 063b 2cfa 4e3d ddd6 4b3d
00000020: 4587 44bd 3b98 32bd 2546 373b f95f 573d
00000030: 54f7 533d c2c6 513d 56ff 103d 3ac4 3ebc
00000040: 909a ff3c 0bb3 e13c 63f3 2d3d bb1b fcbc
00000050: 02a1 41bd 7dd6 b63c 4f0f 9e3c 70dc 61bd
00000060: 82b8 f1bc 9b93 403d 3a67 2e3c 96d9 ef3c
00000070: 9d3b 24bd d81a 24bc 8e0b 0e3c 23d0 54bd
0.036006395 -0.03550163 0.00372129 -0.037461583 -0.013230855 0.0020584494 0.05053155 0.049765456
-0.047980566 -0.04360221 0.0027965393 0.05258176 0.051749542 0.05121494 0.035399757 -0.011643464
0.03120163 0.027551195 0.04246844 -0.030774942 -0.04727269 0.022319073 0.01929441 -0.055141866
-0.029506925 0.047015768 0.010644728 0.029278558 -0.040095914 -0.010016166 0.008669747 -0.051956307

backbone.4.bn.weight f4 [32]
00000000: 58b7 803f dc52 813f f096 803f d428 803f
00000010: c1a0 7e3f 68a1 803f f6d7 7e3f ac54 7e3f
00000020: 2b58 7e3f 65aa 803f 5c88 7d3f 53d6 803f
00000030: 2212 813f c799 803f 668b 803f 7ea5 7f3f
00000040: 8ab3 7f3f 8917 7f3f 0ffd 7d3f ca7c 803f
00000050: 3001 7d3f a8d4 803f f047 7e3f ef23 803f
00000060: 74fd 7d3f 90b5 7e3f a87a 7f3f d7c4 7c3f
00000070: 0fd1 7e3f 0f3d 813f 3522 803f f9d2 7e3f
1.0055952 1.0103412 1.0046062 1.001246 0.9946404 1.0049257 0.9954828 0.9934795
0.99353284 1.0052 0.9903619 1.0065407 1.0083659 1.0046929 1.0042541 0.99861896
0.9988333 0.99645287 0.9921426 1.0038083 0.98829937 1.0064898 0.9932852 1.0010966
0.99214864 0.9949579 0.99796534 0.98737854 0.9953775 1.0096759 1.0010439 0.9954067

backbone.4.bn.bias f4 [32]
00000000: 6b01 ff3b 19f8 9a3b 4fd4 67b9 2d5f 2dbb
00000010: 802f b2bb 4b9b 93bb d563 793b 4823 0bbc
00000020: 578e cdbb 6c77 ab3b 80da 5fbc bed3 13bd
00000030: 26d4 733b 59ff 983b c3de 23bb 551b fa3b
00000040: 73c2 47bc 4ad1 8dbc eb5d 2fbc 0b41 1b3a
00000050: 2050 203c 2c03 473b 8dba 29bc 6362 7cbc
00000060: e4de e7bb e13d 143a e565 733b a996 67bc
00000070: 5d95 1339 0bb5 e33b 1671 0ebc 1ba0 2b39
0.0077821515 0.0047292826 -0.00022108968 -0.0026454434 -0.0054377913 -0.0045045963 0.003805389 -0.008492298
-0.0062730717 0.005232742 -0.013662934 -0.036090605 0.0037205308 0.0046691117 -0.0025004603 0.0076326528
-0.012192356 -0.01731171 -0.010703544 0.0005922473 0.009784728 0.003036688 -0.010359419 -0.015404317
-0.007076131 0.00056549726 0.0037139591 -0.014135041 0.00014074655 0.0069490722 -0.008693954 0.00016367475
