models/ps_f4_best_epoch.pt (torch, 878443 bytes, 38 tensors)

backbone.0.conv3x3.weight f4 [64, 48, 3, 3]
-0.005760661 0.006677708 -0.018881556 0.021914965 -0.051024348 0.064963855 -0.0065859715 0.030587584
0.008754373 -0.0150698405 0.016022772 0.010803461 0.004955909 0.03773581 0.00045219503 -0.00076178194
0.06610825 -0.026150616 -0.0032254993 0.043606717 -0.012428535 0.0108707845 -0.00013922584 -0.0062875487
-0.104909115 0.032772515 0.007679569 -0.043495513 -0.012547729 -0.03059924 0.04846673 -0.049873453
0.09131121 0.051297005 -0.026453685 0.05477868 -0.0039143376 0.021146968 -0.009221189 -0.010276353
-0.0088599 -0.0013209771 -0.006406127 0.041721936 0.03454264 0.0064254007 0.04780539 0.011313157
0.029102175 0.0007132697 -0.024942119 -0.0034730546 -0.015808504 0.008002113 0.023562295 0.021759314
-0.007298298 0.0032974505 0.08997302 -0.13063304 0.018733187 -0.0330374 0.008230726 -0.0003173667
0.027589789 -0.0018931475 0.03709384 -0.0865822 -0.00048730883 -0.065345354 0.07014082 -0.036869973
0.012610232 -0.027572712 -0.023168081 -0.008918486 -0.048948783 0.01648788 0.00827188 0.0287536
-0.02230782 -0.037042182 -0.0015431503 -0.024477128 0.010208335 -7.127096e-06 0.020316426 -0.0196861
-0.02664927 0.015510512 0.0028181816 -0.0018145535 0.0237408 0.010722129 -0.017407056 -0.036676113
0.011080541 -0.0060514887 -0.023878308 -0.021678455 0.005218472 -0.006319174 -0.013523152 -0.03961737
0.010235217 -0.009365196 -0.02503548 0.01101097 -0.0084191635 0.011055871 0.01950396 0.019415285
-0.02184412 -0.07776157 -0.0055063874 -0.0025685437 0.025391337 -0.0063932207 0.0060687643 -0.033822484
0.006168878 -0.09072053 0.011584093 0.01461215 -0.09024407 -0.060816254 -0.018349024 0.00020609965
0.035063103 -0.009189182 0.07833165 0.14350487 0.0003325335 0.05233336 0.034882817 0.027525112
-0.027590467 -0.052763205 0.026038349 0.016748436 0.008374917 -0.011237343 0.047646727 -0.06731049
-0.001095458 0.010436815 0.0049539236 0.014526389 0.11797171 -0.07345546 0.0020603484 -0.044667944
-0.012241269 -0.0027469131 0.027598023 -0.009447535 -0.008854925 -0.019660868 0.018350292 -0.0055645173
0.029077545 0.020590097 0.031246666 -0.0891109 0.027894698 -0.023788117 -0.056978725 0.0771842
0.09901288 -0.069859125 -0.064727925 0.015764419 0.023731692 0.007323758 -0.024500309 0.024898417
-0.054984488 0.026381044 0.030487122 -0.18620637 -0.0029977697 0.012058975 0.008615756 -0.018514417
-0.001188376 0.019734617 0.011576751 -0.06172607 -0.047825333 -0.0001707181 -0.13992217 -0.00268785
-0.011944962 0.013652369 0.0039527444 -0.0006535776 0.014401208 0.009154819 0.012864652 0.046145193
-0.006317273 -0.015172381 -0.014798013 0.14669257 -0.009370405 -0.0023046602 -0.045978248 -0.0382378
-0.05566787 0.018012127 0.020731393 0.0028030241 -0.011442448 -0.02417581 0.0015738866 0.067718975
-0.0029640377 -0.0044240295 -0.003112547 0.011953676 -0.04393542 0.027088284 -0.01839881 0.014653655
-0.0005914859 0.029607188 0.009981363 0.029307082 -0.05839248 -0.025057014 -0.0034285267 0.0051163887
0.038115893 0.026410293 -0.0044848844 0.011761284 -0.020555114 -0.00980603 -0.031065544 -0.037911594
0.0057003275 -0.014267724 0.031899843 0.009226283 -0.00047661117 -0.0074149948 6.9109454e-05 0.12161036
-0.009040021 0.018977407 0.0012132644 -0.048592787 0.02060499 -0.027576728 -0.024916956 -0.021923264
00000000: edc3 bcbb add0 da3b 7ead 9abc 0387 b33c
00000010: e8fe 50bd c50b 853d 22cf d7bb d092 fa3c
00000020: 806e 0f3c 7ee7 76bc 3042 833c 0001 313c
00000030: 2e65 a23b dd90 1a3d 9714 ed39 52b2 47ba
00000040: c363 873d d139 d6bc e662 53bb f59c 323d
00000050: 0ea1 4bbc 601b 323c 27fd 11b9 c807 cebb
00000060: 97da d6bd 793c 063d e5a4 fb3b 5a28 32bd
00000070: fd94 4dbc 42ab fabc 0d85 463d 1b48 4cbd
00000080: 5f01 bb3d cf1c 523d 66b5 d8bc 9c5f 603d
00000090: d843 80bb 683c ad3c 7814 17bc 265e 28bc
000000a0: 1d29 11bc a324 adba 7dea d1bb 9fe4 2a3d
000000b0: 957c 0d3d 2b8c d23b 96cf 433d d25a 393c
000000c0: af67 ee3c b8fa 3a3a 6a53 ccbc 309c 63bb
000000d0: d680 81bc 4b1b 033c b705 c13c 9740 b23c
000000e0: 9026 efbb 0a1a 583b c643 b83d abc4 05be
000000f0: 5776 993c 3a52 07bd 2bda 063c 3d64 a6b9
00000100: fb03 e23c 7d23 f8ba b6ef 173d 0252 b1bd
00000110: 7c7d ffb9 c9d3 85bd fea5 8f3d f804 17bd
00000120: 269b 4e3c 2be0 e1bc fdca bdbc d71e 12bc
00000130: 857e 48bd 9711 873c c886 073c ab8c eb3c
00000140: e4be b6bc 8bb9 17bd 8843 caba 4284 c8bc
00000150: dc40 273c 4a25 efb6 a26e a63c be44 a1bc
00000160: 924f dabc cd1f 7e3c 3eb1 383b 50d6 edba
00000170: 117c c23c deab 2f3c 3e99 8ebc b139 16bd
00000180: 288b 353c 914b c6bb 719c c3bc 0497 b1bc
00000190: b7ff aa3b 1311 cfbb 3690 5dbc d345 22bd
000001a0: 9db1 273c 7b70 19bc 3517 cdbc 5b67 343c
000001b0: 88f0 09bc af23 353c c5c6 9f3c ce0c 9f3c
000001c0: 71f2 b2bc 7541 9fbd ed6e b4bb 0355 28bb
000001d0: 7e01 d03c 397e d1bb 7cdc c63b 7289 0abd
000001e0: 4d24 ca3b afcb b9bd 35cb 3d3c cd67 6f3c
000001f0: e2d1 b8bd 771a 79bd b150 96bc 741c 5839
00000200: 549e 0f3d 398e 16bc 586c a03d f1f2 123e
00000210: e457 ae39 815b 563d 49e1 0e3d 587c e13c
00000220: 6705 e2bc 3b1e 58bd 604e d53c 0434 893c
00000230: f336 093c d51c 38bc 3729 433d 15da 89bd
00000240: 7995 8fba 2dff 2a3c 8654 a23b 1700 6e3c
00000250: 279b f13d d16f 96bd e906 073b bcf5 36bd
00000260: 9b8f 48bc 8e05 34bb 4015 e23c d5c9 1abc
00000270: 3f14 11bc d40f a1bc 5a53 963c 8e56 b6bb
00000280: 0834 ee3c 90ac a83c 02f9 ff3c c77f b6bd
00000290: 6c83 e43c 4cdf c2bc 8662 69bd c012 9e3d
000002a0: 44c7 ca3d 4d12 8fbd 1390 84bd 6224 813c
000002b0: f768 c23c 23fc ef3b dfb4 c8bc c4f7 cb3c
000002c0: 6a37 61bd 0f1d d83c 21c0 f93c e2ac 3ebe
000002d0: 3b76 44bb 0293 453c 1a29 0d3c 8cab 97bc
000002e0: 48c3 9bba 7eaa a13c 6aac 3d3c 7ad4 7cbd
000002f0: 7fe4 43bd cb02 33b9 c247 0fbe a426 30bb
00000300: cdb4 43bc 30ae 5f3c 0686 813b da54 2bba
00000310: 0bf3 6b3c 18fe 153c 43c6 523c be02 3d3d
00000320: 2001 cfbb 9495 78bc 5d73 72bc 9436 163e
00000330: 5486 19bc c809 17bb b053 3cbd 3d9f 1cbd
00000340: fe03 64bd 2b8e 933c e2d4 a93c f1b2 373b
00000350: 1b79 3bbc 590c c6bc df4a ce3a 3fb0 8a3d
00000360: 4d40 42bb 73f7 90bb e0fb 4bbb 5ad9 433c
00000370: a1f5 33bd 40e8 dd3c 1ab9 96bc e215 703c
00000380: f20d 1bba c68a f23c df88 233c 6815 f03c
00000390: f42c 6fbd 5e44 cdbc 22b1 60bb 61a7 a73b
000003a0: 691f 1c3d 665a d83c f0f5 92bb 67b2 403c
000003b0: 3363 a8bc 79a9 20bc 2b7d febc 3049 1bbd
000003c0: d0c9 ba3b 2cc3 69bc 69a9 023d d629 173c
000003d0: abe1 f9b9 7cf9 f2bb dbee 9038 da0e f93d
000003e0: 991c 14bc 8276 9b3c 6606 9f3a 3b09 47bd
000003f0: cccb a83c 97e8 e1bc a51e ccbc 6b98 b3bc

backbone.0.conv3x3.bias f4 [64]
-0.017859071 -0.032958712 0.03626015 0.0022098646 0.0061250636 0.0017576821 0.043812327 0.05598122
0.036343616 -0.02456521 0.04499964 0.041421425 -0.043077186 -0.04243359 -0.04689001 -0.014309682
-0.05453151 -0.023905123 -0.030819109 0.059696186 -0.022309294 -0.008032591 0.036971588 0.0089396825
-0.0037687726 -0.0051787687 0.03851385 -0.039461892 0.020112757 0.0048683803 0.028687125 -0.04002854
0.029575145 0.024836108 -0.043943916 0.05011155 -0.0035218624 0.029686855 -0.021940883 0.0064333756
-0.03528049 -0.030469432 0.014833053 0.03353345 0.03307545 -0.04047843 0.031339828 0.016517306
0.044992592 -0.001163685 -0.0030548256 -0.063011974 0.031010693 -0.0051572924 -0.0137281865 -0.0074734697
-0.027847566 0.00044996987 0.0100011425 0.030248042 -0.03641117 -0.048878804 0.006945191 0.04076713
00000000: 304d 92bc b7ff 06bd 8685 143d 60d3 103b
00000010: c2b4 c83b 0662 e63a 8e74 333d 904c 653d
00000020: 0bdd 143d fb3c c9bc 8b51 383d 83a9 293d
00000030: b471 30bd d8ce 2dbd bd0f 40bd 2873 6abc
00000040: 6f5c 5fbd add4 c3bc 5b78 fcbc fd83 743d
00000050: fbc1 b6bc 219b 03bc 856f 173d bf77 123c
00000060: 83fd 76bb a9b2 a9bb b3c0 1d3d cba2 21bd
00000070: 82c3 a43c ef86 9f3b 4301 eb3c f7f4 23bd
00000080: 9347 f23c 1875 cb3c 89fe 33bd c541 4d3d
00000090: 0ccf 66bb d931 f33c 5ebd b3bc 11cf d23b
000000a0: 4682 10bd 089b f9bc 5506 733c 5f5a 093d
000000b0: 207a 073d b6cc 25bd 315e 003d 4d4f 873c
000000c0: 274a 383d ca86 98ba 7833 48bb 6c0c 81bd
000000d0: 230a fe3c 81fe a8bb 30ec 60bc 02e4 f4bb
000000e0: 9420 e4bc efe9 eb39 d5db 233c beca f73c
000000f0: e123 15bd 2435 48bd 7c94 e33b 6ffb 263d

backbone.0.bn.weight f4 [64]
0.7847056 0.84428596 0.7733063 0.8541765 0.5394262 0.72880983 0.92638206 0.87450576
0.5530141 0.7613896 0.8915862 0.676928 0.8770367 0.583325 0.9967969 0.94196117
1.0682098 0.936766 0.91134286 0.94079006 1.0619158 1.0131336 0.88637173 0.9373821
0.7230231 0.91896266 0.6308031 0.9223457 1.1045074 0.87058806 0.8897713 1.0941067
0.9565767 1.056236 0.5010872 0.9244596 0.9480376 0.9774708 1.2863429 1.1608417
0.548473 1.1092678 1.0192084 1.0804279 1.0715259 1.0242714 0.9392515 0.87400323
0.45382258 0.79383755 0.8650569 1.2135994 0.9945746 0.88069 0.9193356 1.1807327
1.222177 1.1544683 0.94022536 0.99386793 1.0595758 1.0043633 0.79395175 0.83906126
00000000: 77e2 483f 2023 583f 67f7 453f 50ab 5a3f
00000010: d617 0a3f 4893 3a3f 6027 6d3f 9cdf 5f3f
00000020: 5592 0d3f 6eea 423f fe3e 643f 274b 2d3f
00000030: 7a85 603f ca54 153f 152e 7f3f 5e24 713f
00000040: 19bb 883f e6cf 6f3f c44d 693f 9ed7 703f
00000050: dbec 873f 5dae 813f 42e9 623f 46f8 6f3f
00000060: 0b18 393f 2341 6b3f 507c 213f d91e 6c3f
00000070: 8060 8d3f dcde 5e3f 0dc8 633f b00b 8c3f
00000080: 36e2 743f be32 873f 4047 003f 62a9 6c3f
00000090: 98b2 723f 873b 7a3f e2a6 a43f 7696 943f
000000a0: ba68 0c3f 7dfc 8d3f 6c75 823f 764b 8a3f
000000b0: c327 893f 531b 833f c972 703f adbe 5f3f
000000c0: 6f5b e83e f038 4b3f 5e74 5d3f 3a57 9b3f
000000d0: 719c 7e3f e674 613f 9459 6b3f 4022 973f
000000e0: 4c70 9c3f 9ec5 933f 9cb2 703f 216e 7e3f
000000f0: 2ea0 873f fa8e 803f 6c40 4b3f b8cc 563f

backbone.0.bn.bias f4 [64]
0.12806383 0.09925026 0.51264334 -0.08916288 0.95602095 0.15017626 0.046837114 -0.0054397406
1.2273809 0.57402825 0.6137635 1.3057202 0.21725354 0.92893416 -0.1445849 -0.0017928742
-0.18291518 -0.18510467 0.04310719 -0.11861727 0.07813027 -0.77398545 -0.010111484 0.061448894
0.8445393 -0.31708416 1.4184852 -0.11837818 -0.18054466 0.6570989 0.1966249 -0.1935985
0.49279615 0.4236901 1.4907013 -0.074234426 -0.14949845 0.18358223 -0.19450343 -0.11761246
1.1765763 -0.096877314 -0.067087926 -0.19333617 -0.08250186 -0.10663028 -0.13085938 0.9016353
1.4860302 0.8522476 0.21305662 -0.22925608 -0.106653005 0.2545925 0.5052191 -0.093060605
-0.24815637 -0.14690492 -0.88003576 0.28963372 0.0156174665 -0.12178814 0.116198555 0.4562617
00000000: 2a23 033e b843 cb3d 983c 033f 079b b6bd
00000010: cabd 743f cec7 193e 46d8 3f3d da3f b2bb
00000020: d11a 9d3f 84f3 123f 9b1f 1d3f d721 a73f
00000030: b677 5e3e a1ce 6d3f 100e 14be e0fe eaba
00000040: 1e4e 3bbe 148c 3dbe 2a91 303d 9ced f2bd
00000050: c302 a03d e923 46bf a3aa 25bc d6b1 7b3d
00000060: ba33 583f db58 a2be ec90 b53f 4270 f2bd
00000070: b3e0 38be a237 283f 0a58 493e af3e 46be
00000080: c74f fc3e e9ed d83e 4dcf be3f 3808 98bd
00000090: 1f16 19be fbfc 3b3e e82b 47be cdde f0bd
000000a0: 0d9a 963f 9d67 c6bd 6565 89bd ebf9 45be
000000b0: bcf6 a8bd fa60 dabd 0000 06be 92d1 663f
000000c0: 3d36 be3f e62c 5a3f 842b 5a3e 1bc2 6abe
000000d0: e46c dabd f359 823e 0a56 013f 8f96 bebd
000000e0: b41c 7ebe 3e6e 16be 064a 61bf df4a 943e
000000f0: 67e0 7f3c 0f6c f9bd 82f9 ed3d 229b e93e

backbone.0.bn.running_mean f4 [64]
-0.012736379 -0.029165713 0.010380146 0.0010563325 -0.008709539 0.043508124 0.29617745 0.05608181
0.041405793 -0.049923677 0.01958096 0.057027202 0.039995722 -0.020664625 -0.2924752 0.19877283
-0.056532077 -0.040420882 0.22782372 0.057076126 -0.10457676 -0.041290615 0.3625569 0.007852055
0.00819578 -0.020419957 0.044156395 -0.5816702 0.015634637 -0.0031142135 0.1685307 -0.045505572
-0.031051835 -0.23902895 -0.042154565 0.054497987 0.24535191 -0.11216355 -0.02666267 -0.12530415
-0.02389344 -0.80339205 0.012982623 0.033561654 -0.27183565 -0.042995017 0.024925048 0.02299194
0.038065672 -0.0026046128 -0.21906799 -0.06646694 0.028817004 0.10273442 -0.060199324 -0.37918913
-0.029689368 -0.0036306488 -0.054009028 0.015207741 -0.036954045 -0.2372731 0.0011453774 0.08338034
00000000: 3fac 50bc efec eebc 7d11 2a3c a374 8a3a
00000010: 74b2 0ebc 9335 323d 92a4 973e 0ab6 653d
00000020: 1f99 293d c57c 4cbd 4068 a03c 5b95 693d
00000030: 8ed2 233d dc48 a9bc 4fbf 95be 1b8b 4b3e
00000040: 2e8e 67bd 5e90 25bd 9f4a 693e a8c8 693d
00000050: 572c d6bd 5920 29bd 0fa1 b93e e8a5 003c
00000060: 9847 063c c147 a7bc 56dd 343d 57e8 14bf
00000070: 3614 803c d517 4cbb 5093 2c3e 0d64 3abd
00000080: 6b60 febc 01c4 74be 44aa 2cbd 4839 5f3d
00000090: 883d 7b3e 01b6 e5bd ac6b dabc bb4f 00be
000000a0: 2dbc c3bc 1aab 4dbf 11b5 543c f277 093d
000000b0: 0b2e 8bbe 8b1b 30bd 9d2f cc3c 9859 bc3c
000000c0: c0ea 1b3d 27b2 2abb 5c53 60be d21f 88bd
000000d0: a311 ec3c 6c66 d23d 9193 76bd 1425 c2be
000000e0: 1e37 f3bc 2ef0 6dbb 9238 5dbd e429 793c
000000f0: 205d 17bd b8f7 72be 7d20 963a 50c3 aa3d

backbone.0.bn.running_var f4 [64]
0.0010656763 0.0011739766 0.0018641325 0.0009897985 0.0017932857 0.004059867 0.021448715 0.0010533149
0.0017821445 0.0036773474 0.002223485 0.0019532235 0.005259389 0.00197394 0.022749607 0.015532051
0.0012649931 0.0020999538 0.025190795 0.0013987607 0.005243099 0.0017641534 0.033892415 0.0018218255
0.0022245583 0.001481249 0.0017097922 0.096563995 0.0011544668 0.0014929606 0.008856417 0.0019455755
0.00456591 0.03077495 0.0019155396 0.0016260067 0.021133723 0.010284575 0.0013961332 0.0069610234
0.0019732115 0.19899982 0.0014441782 0.0013766524 0.03489711 0.0011434384 0.0011307655 0.0015900483
0.0023014073 0.0024674921 0.019040396 0.0012256334 0.0010944776 0.008270586 0.0029960657 0.05068753
0.0014676533 0.0013045028 0.0032975944 0.0013956863 0.0017992014 0.015001481 0.0017312169 0.006644266
00000000: 2aae 8b3a 1ee0 993a e855 f43a 20bc 813a
00000010: af0c eb3a a208 853b 37b5 af3c 620f 8a3a
00000020: d996 e93a a7ff 703b e3b7 113b a701 003b
00000030: f456 ac3b 385d 013b 625d ba3c 257a 7e3c
00000040: 20ce a53a 619f 093b ed5c ce3c 9f56 b73a
00000050: 4dce ab3b 2a3b e73a c6d2 0a3d 52ca ee3a
00000060: e5c9 113b 7826 c23a 1b1b e03a 58c3 c53d
00000070: 7a51 973a 72af c33a 811a 113c ae02 ff3a
00000080: a19d 953b bf1b fc3c d812 fb3a bb1f d53a
00000090: a120 ad3c a280 283c 75fe b63a 4c19 e43b
000000a0: ff50 013b 9cc6 4b3e 944a bd3a ca70 b43a
000000b0: 46f0 0e3d 6ddf 953a 3236 943a 2b69 d03a
000000c0: 35d3 163b a6b5 213b 9bfa 9b3c 6fa5 a03a
000000d0: 9374 8f3a 5a81 073c a459 443b ba9d 4f3d
000000e0: 465e c03a dafb aa3a 741c 583b 76ef b63a
000000f0: 2ed3 eb3a c6c8 753c 00ea e23a 25b8 d93b

backbone.1.conv3x3.weight f4 [64, 64, 3, 3]
-0.01635968 0.019153599 0.0009318312 -0.015594442 0.0150546 0.004043128 -0.01230642 -0.010276419
-0.00030939907 -0.001421235 -0.01344283 -0.0031536876 0.004239456 -0.19629037 -0.0832514 0.006281692
-0.0006263496 -2.5666988e-05 0.0124384975 0.021242302 -0.009418508 0.005436936 -0.028601417 0.0054077734
-0.011322978 0.020512871 0.017434487 -0.0041342974 0.0013836935 0.0018203771 0.00028526215 -0.0048298235
0.0009777601 -0.0061349524 -0.008548502 0.041009095 0.034957595 -0.024605913 -0.012210511 -0.026326055
-0.040977478 -0.017025474 -0.040073045 -0.015080618 0.0063360035 0.011603669 -0.021475554 -0.010529674
-0.009543993 -0.05779075 -0.02949082 0.0070376727 -0.019517561 2.5605716e-05 -0.020959396 0.0001549601
0.015114826 -0.029337032 0.06980823 0.036721397 0.0047659045 0.038152967 -0.0576289 0.0019515223
-0.00012355701 0.005947192 -0.0020265717 0.014627131 -0.051261533 0.0016478656 0.008537964 0.009471131
-0.024030678 0.0072729206 -0.0020023785 -0.029779468 -0.058780964 0.026705008 -4.4542867e-05 -0.0036099355
0.0046789856 0.004827992 -0.012419662 -0.005224259 0.0030761932 -0.0015564873 0.028834876 -0.003790062
-0.06078091 -0.01433555 -0.0007845005 -0.0035945647 0.0041731535 -0.0012066563 0.015515615 0.0061072754
0.010450969 0.02694647 0.008430604 -0.0036231806 0.014118675 0.009841638 0.0040523093 0.016111117
0.02632886 -0.0110190995 0.009600347 0.0052253907 -0.03980134 -0.03626793 0.008643608 0.0010816489
0.01363071 -0.0036146552 -0.01563372 0.006952264 -0.017379172 -0.0085944105 0.0033102157 -0.009842259
-2.6850677e-05 0.0012287163 0.006742254 -0.02742677 0.0055360007 -0.0023950732 0.01805506 0.019308897
-0.005853295 0.042492747 0.047128875 0.018114671 0.029661825 -0.0011484869 0.0059581306 -0.0047786133
-0.026692143 -0.03988729 -0.07182139 -0.009004897 0.03933326 -0.033388536 -0.0050945133 0.049144063
0.0023509653 0.0056964178 0.0024040448 0.0008782281 0.005122487 0.012519761 0.0075713033 0.005688271
0.004312644 -0.010453563 -0.010367125 0.012676016 0.011061235 -0.054819852 -0.0020972162 0.008061882
0.0062133665 -0.0035905063 -0.0028552716 -0.0036662305 -0.015347112 -0.025129994 -0.0042148354 -0.00079812173
-0.022506952 -0.0771247 -0.020252645 -0.001836791 -0.00025623728 0.007019311 -0.0072940825 -0.018355763
-0.019440463 -0.0076192548 -0.010153075 0.00065936864 0.008437027 -0.0132245505 -0.0077613248 -0.0031217139
-0.023222515 0.0038065694 -0.0301549 0.42188418 -0.023279285 -0.005247893 0.00595934 -0.00604344
0.00087181357 -0.011144279 0.009849988 0.004042819 0.00035812697 -0.0042675952 -0.038283437 0.0043636463
0.00265584 0.041692663 0.064213604 0.011820686 -0.028014673 0.017992249 0.004214095 0.0038268066
0.010716687 -0.0025527466 -0.0014825867 -0.012747801 -0.004131714 -0.0017114194 -0.0047610197 0.00064461434
0.00058597117 0.0010238074 0.0030390208 0.013755406 0.29227725 0.028219486 -0.012009728 -0.0047193086
0.007460356 0.0059406776 -0.009341095 0.004510423 0.004209775 0.049862213 -0.005176505 0.0061591445
0.02377752 0.0083826715 -0.0075565814 0.020143619 -0.015056471 -0.023827927 0.21267447 -0.1276385
-0.017155033 0.010785874 0.010614749 0.010228569 0.0047238693 0.0002749906 0.012079962 -0.031270918
0.022722483 -0.0009672972 0.0035985042 -0.07492854 0.0030607437 0.004949924 0.015674474 0.0043594446
00000000: bc04 86bc 02e8 9c3c 2246 743a d57f 7fbc
00000010: 92a7 763c 377c 843b dea0 49bc 6d5e 28bc
00000020: d736 a2b9 bc48 baba 513f 5cbc 19ae 4ebb
00000030: 22eb 8a3b 5800 49be b67f aabd a7d6 cd3b
00000040: 9c31 24ba 704f d7b7 d7ca 4b3c 5604 ae3c
00000050: 1650 1abc 5328 b23b 854d eabc b133 b13b
00000060: 0384 39bc 9c0a a83c c5d2 8e3c 0079 87bb
00000070: 0d5d b53a b899 ee3a 3d8f 9539 7f43 9ebb
00000080: 2f28 803a b607 c9bb 040f 0cbc 27f9 273d
00000090: b22f 0f3d 5792 c9bc 980e 48bc bda9 d7bc
000000a0: 00d8 27bd 0279 8bbc a223 24bd b214 77bc
000000b0: 409e cf3b 511d 3e3c 80ed afbc a784 2cbc
000000c0: 685e 1cbc feb5 6cbd bb96 f1bc 479c e63b
000000d0: 4be3 9fbc dbcb d637 0ab3 abbc c97c 2239
000000e0: 2da4 773c 3754 f0bc 9ef7 8e3d 2d69 163d
000000f0: 4e2b 9c3b 4946 1c3d 480c 6cbd 39ca ff3a
00000100: 158f 01b9 aae0 c23b 3bd0 04bb a2a6 6f3c
00000110: 9df7 51bd 32fd d73a d1e2 0b3c cd2c 1b3c
00000120: fcdb c4bc ae51 ee3b 563a 03bb 12f4 f3bc
00000130: 4fc4 70bd 76c4 da3c 8ad3 3ab8 ab94 6cbb
00000140: 2d52 993b 2234 9e3b d77b 4bbc 4330 abbb
00000150: f599 493b 0c03 ccba 1e37 ec3c b062 78bb
00000160: 67f5 78bd a8df 6abc f0a6 4dba ca92 6bbb
00000170: f3be 883b ab28 9eba 3535 7e3c 8a1f c83b
00000180: 8b3a 2b3c d8be dc3c 8420 0a3c e272 6dbb
00000190: 0452 673c d23e 213c 3cc9 843b 76fb 833c
000001a0: 9faf d73c 7489 34bc c64a 1d3c c139 ab3b
000001b0: bb06 23bd ae8d 14bd eb9d 0d3c 1dc6 8d3a
000001c0: 5753 5f3c dae3 6cbb 4a12 80bc d1cf e33b
000001d0: c45e 8ebc 92cf 0cbc 34f0 583b 6d41 21bc
000001e0: 643d e1b7 e10c a13a 20ee dc3b 1bae e0bc
000001f0: 5767 b53b a9f6 1cbb 35e8 933c b12d 9e3c
00000200: ffcc bfbb e00c 2e3d 350a 413d 3865 943c
00000210: 5bfd f23c d388 96ba 6c3c c33b ea95 9cbb
00000220: 7ba9 dabc db60 23bd 1817 93bd 4789 13bc
00000230: ea1b 213d 6bc2 08bd e0ef a6bb 494b 493d
00000240: a712 1a3b 04a9 ba3b 2e8d 1d3b e438 663a
00000250: 89da a73b af1f 4d3c b218 f83b ad64 ba3b
00000260: 1451 8d3b 6c45 2bbc e0da 29bc 11af 4f3c
00000270: 2f3a 353c c88a 60bd 7371 09bb fc15 043c
00000280: 7f99 cb3b b34e 6bbb 821f 3bbb 2445 70bb
00000290: 7472 7bbc 6bdd cdbc 9a1c 8abb 0b39 51ba
000002a0: 8060 b8bc 8ef3 9dbd e0e8 a5bc 7bc0 f0ba
000002b0: 9657 86b9 4002 e63b 3303 efbb d35e 96bc
000002c0: 9b41 9fbc f1aa f9bb 1559 26bc 7bd9 2c3a
000002d0: 753b 0a3c c9ab 58bc b652 febb ab95 4cbb
000002e0: 253d bebc a377 793b 6907 f7bc 3401 d83e
000002f0: 33b4 bebc 84f6 abbb 9146 c33b 0d08 c6bb
00000300: 6b8a 643a 7e96 36bc d861 213c a079 843b
00000310: fdc2 bb39 2fd7 8bbb 18cf 1cbd ebfc 8e3b
00000320: 9a0d 2e3b edc5 2a3d 6c82 833d 8dab 413c
00000330: 077f e5bc 7b64 933c 6416 8a3b 29cb 7a3b
00000340: 0b95 2f3c fb4b 27bb 5b53 c2ba 27dc 50bc
00000350: 5463 87bb b551 e0ba 5402 9cbb 56fb 283a
00000360: dc9b 193a 4731 863a 4f2a 473b 5b5e 613c
00000370: 5da5 953e 8d2c e73c 73c4 44bc 6ea4 9abb
00000380: 0176 f43b 04aa c23b 640b 19bc 2ccc 933b
00000390: 27f2 893b 523c 4c3d ac9f a9bb a6d2 c93b
000003a0: 13c9 c23c 7957 093c 339d f7bb 3b04 a53c
000003b0: 6baf 76bc c932 c3bc 56c7 593e abb3 02be
000003c0: b688 8cbc 3cb7 303c 7ce9 2d3c ba95 273c
000003d0: b0ca 9a3b 9d2c 9039 08eb 453c ef15 00bd
000003e0: 8024 ba3c 3792 7dba e2d4 6b3b 2274 99bd
000003f0: c296 483b f932 a23b c167 803c acd9 8e3b

backbone.1.conv3x3.bias f4 [64]
-0.026806237 0.030346643 -0.0023417512 0.012381512 0.024323873 0.03197986 0.0067168754 0.029008238
-0.041679785 0.0027952713 -0.0071145566 -0.023253564 -0.0073794858 0.036340285 0.020639231 0.0031075547
-0.01297683 -0.021953497 0.001185987 0.0005859582 0.030977352 0.023721358 -0.026746128 -0.001762245
0.037278492 0.028956939 0.011609187 0.004913528 0.019254074 -0.034925025 0.011844104 -0.030471804
0.0035904378 -0.008709488 0.0019765545 -0.0011968386 -0.0032116566 0.011965448 -0.011765669 0.041604403
0.008311865 0.02880198 -0.007808335 0.0072202617 -0.03791328 -0.030896919 0.016075596 0.012617345
0.012224021 -0.04157528 0.039091885 0.023191677 -0.008641682 0.0061738314 -0.013861235 0.011878644
-0.018140368 -0.009009999 -0.023478243 -0.026174018 0.027784927 0.039951805 0.0011263504 0.036430985
00000000: c198 dbbc 8699 f83c 1178 19bb d3db 4a3c
00000010: dc42 c73c 50fd 023d 3c19 dc3b afa2 ed3c
00000020: 6cb8 2abd df30 373b 3a21 e9bb 427e bebc
00000030: 9dcf f1bb 8dd9 143d 9b13 a93c 1ea8 4b3b
00000040: c59c 54bc d2d7 b3bc 1f73 9b3a fd9a 193a
00000050: 37c4 fd3c 4b53 c23c b21a dbbc 21fb e6ba
00000060: 55b1 183d 1a37 ed3c 7634 3e3c a901 a13b
00000070: b8ba 9d3c 8b0d 0fbd c60d 423c 01a0 f9bc
00000080: 8d4d 6b3b 3eb2 0ebc 1589 013b 3ddf 9cba
00000090: a87a 52bb ba0a 443c cbc4 40bc 6169 2a3d
000000a0: 7d2e 083c 21f2 eb3c 10dd ffbb f297 ec3b
000000b0: f54a 1bbd 891b fdbc f8b0 833c fbb8 4e3c
000000c0: 4347 483c d74a 2abd d01e 203d 79fc bd3c
000000d0: d795 0dbc da4d ca3b 3c1a 63bc a59e 423c
000000e0: 1c9b 94bc ad9e 13bc 7255 c0bc e56a d6bc
000000f0: 379d e33c 81a4 233d 0ca2 933a a838 153d

backbone.1.bn.weight f4 [64]
0.97893435 1.1199178 1.3310946 0.8273561 0.9007509 1.0248662 0.94093174 0.97496444
1.0786557 1.0876514 0.96880704 1.2074947 1.0514833 1.0374254 0.8913086 0.99179775
1.2416593 1.0130326 1.4448533 1.1693413 1.2314423 1.078797 0.84519434 0.9827933
0.99873817 0.80098057 1.1649065 0.98091626 1.4404157 0.92944527 0.9274388 0.96596926
1.0000662 0.84103674 0.8951353 0.8621495 0.9347985 1.0238496 1.0841284 0.85638374
0.949904 0.85211927 0.9624465 0.9566714 0.91395885 1.1661958 0.89171964 1.1009922
0.9086399 1.0150634 0.96512085 1.1326598 0.9976697 0.92655027 0.8769633 0.96004295
0.945189 0.90433705 0.9012144 0.8962886 0.93527657 0.7884622 0.8706457 1.2421873
00000000: 719b 7a3f 7759 8f3f 4f61 aa3f 9ccd 533f
00000010: 9c97 663f d12e 833f e7e0 703f 4597 793f
00000020: 6411 8a3f 2938 8b3f bd03 783f 308f 9a3f
00000030: 0197 863f 5bca 843f cd2c 643f 75e6 7d3f
00000040: b1ee 9e3f 0dab 813f f4f0 b83f faac 953f
00000050: e79f 9d3f 0516 8a3f a85e 583f 5798 7b3f
00000060: 4ead 7f3f 100d 4d3f a81b 953f 541d 7b3f
00000070: 8b5f b83f 20f0 6d3f a16c 6d3f c349 773f
00000080: 2b02 803f 2f4e 573f 9627 653f d4b5 5c3f
00000090: f44e 6f3f 810d 833f b8c4 8a3f f73b 5b3f
000000a0: e92c 733f 7d24 5a3f e562 763f 6be8 743f
000000b0: 35f9 693f e745 953f bd47 643f 50ed 8c3f
000000c0: a09c 683f 99ed 813f 2912 773f fffa 903f
000000d0: 4867 7f3f 6632 6d3f ab80 603f 60c5 753f
000000e0: e8f7 713f a282 673f fdb5 663f 2b73 653f
000000f0: 496e 6f3f a9d8 493f a3e2 5e3f feff 9e3f

backbone.1.bn.bias f4 [64]
-0.5690752 0.12346144 0.36288792 0.40521553 0.78370106 0.19278057 -0.047457956 0.055064682
-0.07983834 -0.12473563 0.05678291 -0.21211855 -0.38689193 0.19423993 0.43039897 0.078003444
-0.1050453 0.80261827 0.46917683 -0.010832596 0.060160484 0.09352687 -0.22537091 0.080257975
-0.18226488 -0.04407199 0.50698423 -0.06262438 0.28543684 0.2898804 -0.08543108 -0.17987213
-0.045327622 0.7286261 0.72128624 -0.028551789 -0.3846002 0.10409816 0.71397763 -0.18245369
0.3968623 0.35560176 0.38651457 0.39199913 0.3280565 0.31862724 0.115236595 -0.24168074
-0.1840827 0.14215788 0.026163872 0.15240984 0.24640533 0.55547905 -0.26691046 0.6346654
-0.14698228 -0.13315126 0.34082794 0.066835746 0.00093423564 -0.2092328 -0.20211142 0.091526374
00000000: eaae 11bf 5ad9 fc3d 72cc b93e 6978 cf3e
00000010: a2a0 483f 4568 453e 4663 42bd 818b 613d
00000020: 4982 a3bd 6575 ffbd 3295 683d 9b35 59be
00000030: b316 c6be d5e6 463e 415d dc3e 45c0 9f3d
00000040: fe21 d7bd 6478 4d3f f237 f03e 337b 31bc
00000050: d76a 763d 048b bf3d a2c7 66be 4b5e a43d
00000060: a5a3 3abe d584 34bd b8c9 013f 3641 80bd
00000070: c724 923e 346b 943e 7df6 aebd 6630 38be
00000080: 75a9 39bd 3d87 3a3f 37a6 383f 71e5 e9bc
00000090: 51ea c4be 6b31 d53d 3dc7 363f 24d5 3abe
000000a0: 8931 cb3e 6f11 b63e 3de5 c53e 1cb4 c83e
000000b0: 06f7 a73e 1c23 a33e 2a01 ec3d 287b 77be
000000c0: 2d80 3cbe d691 113e 9e55 d63c 5311 1c3e
000000d0: ae51 7c3e e033 0e3f 7da8 88be 6f79 223f
000000e0: 8682 16be ce58 08be 0081 ae3e 2ee1 883d
000000f0: 7ee7 743a 2041 56be 4cf6 4ebe 2e72 bb3d

backbone.1.bn.running_mean f4 [64]
-0.8486352 -0.7382975 -0.4167348 -0.7469955 -0.32113764 1.0878043 -0.3213992 1.5839969
-0.6008885 0.124149516 -0.572529 -1.3351609 -0.020604106 -0.834156 0.99209815 -0.28157875
-1.4314609 0.0018301695 -0.3877402 -0.7300975 -0.6240799 -0.9789017 0.51052207 -1.3587143
-0.21468744 -0.53159124 -0.0990069 1.9168736 -0.6692291 0.4011977 -1.0277758 -0.6345148
-0.13525009 1.3484466 1.292109 0.43336642 0.20208994 -0.10278234 -0.24572013 -0.72949415
1.125847 0.3807996 0.73870957 1.1755327 0.7922304 -0.20472454 -1.4933509 -0.024315612
-1.1583459 0.7581811 0.12457983 -1.026612 0.46595007 0.8886178 0.090683736 0.29289547
-1.1398424 -0.71441376 1.4012877 3.7388203 -3.3060143 0.43532327 -0.70077604 -0.70257807
00000000: 2840 59bf 1101 3dbf 445e d5be 193b 3fbf
00000010: 276c a4be 2c3d 8b3f 708e a4be 69c0 ca3f
00000020: d4d3 19bf 1a42 fe3d 4391 12bf 8de6 aabf
00000030: f1c9 a8bc 3f8b 55bf 25fa 7d3f 172b 90be
00000040: 1c3a b7bf 4ce2 ef3a e285 c6be abe7 3abf
00000050: b3c3 1fbf 4d99 7abf 93b1 023f 5aea adbf
00000060: 06d7 5bbe 5d16 08bf 21c4 cabd 1d5c f53f
00000070: 9952 2bbf c969 cd3e 288e 83bf 906f 22bf
00000080: 007f 0abe e699 ac3f d463 a53f 34e2 dd3e
00000090: aaf0 4e3e 8c7f d2bd 0f9e 7bbe 21c0 3abf
000000a0: c11b 903f 2af8 c23e 121c 3d3f db77 963f
000000b0: 9dcf 4a3f 4fa3 51be 1f26 bfbf 8931 c7bc
000000c0: ae44 94bf 2818 423f b623 ff3d 0668 83bf
000000d0: 0291 ee3e 757c 633f 65b8 b93d 65f6 953e
000000e0: 5be6 91bf d2e3 36bf 655d b33f d548 6f40
000000f0: bd95 53c0 b1e2 de3e 0f66 33bf 28dc 33bf

backbone.1.bn.running_var f4 [64]
0.27655756 2.087593 1.4018569 1.1440072 0.7538244 1.0205802 0.7654467 1.0395613
0.42114273 0.26161537 1.5481124 2.2415345 0.4093559 1.3031205 0.501705 0.40605158
2.4832368 0.7924039 1.5612434 2.0430129 1.6551982 0.57491016 1.3081115 1.8001457
0.36185542 0.25559857 1.4580333 2.184806 2.086377 4.4157457 1.8173434 0.5363748
0.51290196 0.9450703 0.8644476 0.38958722 0.4078091 1.4534426 0.84840995 0.29223514
0.8700877 0.99630535 0.7919153 1.1366291 0.44652283 1.5831459 0.8274263 0.37420577
2.114423 2.036489 3.1013696 1.4459757 0.58050746 0.8499361 1.7759159 0.69758385
3.1504762 2.035546 0.96691287 1.7098688 2.5282042 0.39428878 1.5280641 1.9301449
00000000: f498 8d3e 209b 0540 0c70 b33f d46e 923f
00000010: a3fa 403f 5fa2 823f 51f4 433f 5810 853f
00000020: 05a0 d73e 73f2 853e 8c28 c63f 4d75 0f40
00000030: 1997 d13e a7cc a63f bd6f 003f fee5 cf3e
00000040: 5aed 1e40 fbda 4a3f d3d6 c73f b9c0 0240
00000050: 89dd d33f 502d 133f 3370 a73f 2d6b e63f
00000060: 1d45 b93e d1dd 823e d6a0 ba3f ddd3 0b40
00000070: 3387 0540 ca4d 8d40 b59e e83f dc4f 093f
00000080: 8b4d 033f 21f0 713f 704c 5d3f fa77 c73e
00000090: 5bcc d03e 680a ba3f 6531 593f d89f 953e
000000a0: 11be 5e3f de0d 7f3f f6ba 4a3f 107d 913f
000000b0: a49e e43e 86a4 ca3f 36d2 533f e697 bf3e
000000c0: b552 0740 d655 0240 d77c 4640 bb15 b93f
000000d0: 239c 143f 6a95 593f 3651 e33f db94 323f
000000e0: 67a1 4940 6346 0240 9a87 773f fbdc da3f
000000f0: 19ce 2140 38e0 c93e 9b97 c33f fd0e f73f

backbone.2.conv3x3.weight f4 [64, 64, 3, 3]
-0.021160861 -0.04597718 -0.0011111853 0.026800508 0.08895967 -0.007608292 0.00039356662 0.039785992
0.0019255247 0.0033688666 -0.038251847 -0.066619426 -0.053221997 -0.12614478 -0.07156428 0.011805539
-0.055064227 -0.027545072 -0.045475543 -0.01826214 0.15630369 0.106375135 -0.1224025 -0.029150847
0.018925086 0.039244767 -0.030712655 -0.0023325828 -0.027024804 0.02910724 -0.029092658 0.034579255
0.04293462 0.02187828 0.024403714 0.039470427 -0.057562582 0.026688933 0.015304843 -0.081320494
0.24918766 0.04189929 9.871916e-05 0.025221283 -0.013840335 0.047018945 0.045291286 0.020336162
-0.012823397 0.028691813 0.016394438 0.0120969 -0.007844924 -0.00638165 0.013048372 0.041374944
0.010484849 0.07554882 0.0076257912 0.05527763 0.048389364 0.02153443 -0.025358325 -0.0075161583
-0.017808033 0.021173492 0.056461878 0.076182395 -0.077255175 -0.051016934 0.03642724 0.0007854862
-0.019993711 0.100416146 -0.032379717 0.017274715 0.0658226 0.028203271 -0.010114656 0.05760958
-0.0119369915 -0.027097914 -0.0022325034 0.0069937496 0.046689104 0.13961329 0.025990654 0.012038438
-0.039637435 -0.008261923 -0.024715668 -0.02122322 -0.026956087 -0.025875095 -0.12597884 0.016529866
-0.016567927 -0.023374148 0.01445771 -0.05424254 -0.03655236 0.047422685 -0.11155945 -0.12248835
-0.013876228 0.010711511 0.010614293 0.02199218 0.0010446898 0.024056545 -0.009381603 -0.039446667
-0.05637375 0.057271484 -0.029504519 -0.024014836 -0.051202893 -0.037758794 -0.03464386 -0.011583134
-0.0052824975 -0.11464224 -0.071678385 0.01567648 -0.019877832 -0.022198988 -0.023560546 -0.009849665
0.027080294 0.052389022 0.0033600668 0.033951923 0.0023846396 0.008169486 0.016294448 0.051724445
0.0823259 0.025738277 0.015337653 0.007112464 0.008424485 -0.020334084 -0.010778591 -0.014254591
-0.04233676 0.02915343 0.01959363 -0.07702661 0.04327204 -0.055231098 -0.070142545 -0.11108656
-0.07091302 -0.00061993295 0.04667756 0.020545296 0.06615184 0.08372586 -0.016514191 -0.0019220168
0.0070744264 -0.0061180745 0.036091484 -0.054279335 0.0074088606 -0.11215888 0.15134826 0.053174287
-0.0027069903 0.0046908665 0.065532595 -0.050771937 -0.020603439 -0.00474113 0.0061110314 -0.06574754
-0.06902299 -0.035664108 -0.05187153 -0.06582409 -0.018768476 -0.019520164 0.041072447 0.03716895
-0.05773961 0.042809863 -0.0047651967 -0.06467874 0.028527685 -0.038294684 -0.027198369 0.02352909
-0.089045316 0.05541966 0.0190935 0.0031587326 0.02729533 -0.045663904 0.020199435 -0.0450565
-0.018275285 -0.015138689 -0.06395977 0.016836384 -0.007409935 0.035007704 -0.0035102277 0.025269097
0.022893364 -0.027951598 -0.017971607 0.011103959 0.015932152 -0.0316675 -0.054617874 -0.0116890045
0.05729644 -0.015995992 -0.0012291817 -0.04522113 0.142126 -0.0019914976 -0.007158835 0.0043895263
0.012405293 0.0065154163 -0.032976255 -0.018604457 0.03421085 0.02667871 0.0040263426 0.0023254717
0.0012434112 -0.010423127 0.0036628277 0.044813767 0.034227036 -0.010588364 -0.038322058 0.0392598
-0.19579184 -0.04351933 -0.053563394 -0.022993168 -0.048363052 0.007357735 0.01666391 -0.009221057
-0.029438507 0.08143437 0.040989604 0.03382736 -0.034729317 0.033099037 0.0139754815 -0.015561874
00000000: 8b59 adbc 9152 3cbd 31a5 91ba bd8c db3c
00000010: 7d30 b63d fb4e f9bb 9e57 ce39 a3f6 223d
00000020: e361 fc3a 34c8 5c3b f8ad 1cbd c46f 88bd
00000030: 4fff 59bd 192c 01be 4b90 92bd 056c 413c
00000040: 078b 61bd 34a6 e1bc 9044 3abd 7c9a 95bc
00000050: 130e 203e 35db d93d 29ae fabd c2cd eebc
00000060: c808 9b3c 1fbf 203d 1b99 fbbc 3fde 18bb
00000070: 1f63 ddbc 4e72 ee3c ba53 eebc faa2 0d3d
00000080: 36dc 2f3d 143a b33c 4cea c73c beab 213d
00000090: bec6 6bbd c0a2 da3c 2ac1 7a3c 5c8b a6bd
000000a0: 0d2b 7f3e 979e 2b3d 7207 cf38 dd9c ce3c
000000b0: 93c2 62bc f096 403d 5b83 393d 0698 a63c
000000c0: 3a19 52bc 180b eb3c a14d 863c 1332 463c
000000d0: ff87 00bc 291d d1bb d7c8 553c c678 293d
000000e0: a5c8 2b3c 57b9 9a3d c6e1 f93b cc6a 623d
000000f0: ed33 463d f968 b03c 43bc cfbc 1b4a f6bb
00000100: 27e2 91bc 0874 ad3c 9244 673d 8405 9c3d
00000110: f637 9ebd 22f7 50bd bb34 153d 16e9 4d3a
00000120: dac9 a3bc fba6 cd3d 98a0 04bd b483 8d3c
00000130: 00ce 863d 8c0a e73c f1b7 25bc 06f8 6b3d
00000140: 5f93 43bc 72fc ddbc 314f 12bb d32b e53b
00000150: 133d 3f3d c9f6 0e3e 5aea d43c de3c 453c
00000160: dd5a 22bd 045d 07bc 8378 cabc 51dc adbc
00000170: 03d3 dcbc 02f8 d3bc 9900 01be a469 873c
00000180: 76b9 87bc 247b bfbc 08e0 6c3c 6d2d 5ebd
00000190: edb7 15bd 4a3e 423d 4879 e4bd 2cdb fabd
000001a0: 1e59 63bc 557f 2f3c 92e7 2d3c f228 b43c
000001b0: f9ed 883a 3b12 c53c 4cb5 19bc d492 21bd
000001c0: 29e8 66bd 8195 6a3d 76b3 f1bc c3ba c4bc
000001d0: 20ba 51bd f7a8 1abd b8e6 0dbd 2fc7 3dbc
000001e0: cd18 adbb 8dc9 eabd 1ecc 92bd f66b 803c
000001f0: d6d6 a2bc a7da b5bc 0c02 c1bc 7d60 21bc
00000200: 7ed7 dd3c df95 563d 9134 5c3b 2c11 0b3d
00000210: 9d47 1c3b 4fd9 053c ef7b 853c 03dd 533d
00000220: 7b9a a83d 14d9 d23c c84a 7b3c ac0f e93b
00000230: da06 0a3c aa93 a6bc b098 30bc 178c 69bc
00000240: 4f69 2dbd 2dd3 ee3c d282 a03c 21c0 9dbd
00000250: 063e 313d 013a 62bd e5a6 8fbd 5a81 e3bd
00000260: d83a 91bd ff82 22ba f830 3f3d 9c4e a83c
00000270: 9e7a 873d 7778 ab3d c548 87bc 2fec fbba
00000280: 97d0 e73b 217a c8bb aad4 133d 0254 5ebd
00000290: 07c6 f23b 8eb3 e5bd 0afb 1a3e 48cd 593d
000002a0: c367 31bb d7b5 993b f435 863d 3cf6 4fbd
000002b0: 8bc8 a8bc 7b5b 9bbb 0c3f c83b a5a6 86bd
000002c0: ed5b 8dbd 8714 12bd 3e77 54bd c8ce 86bd
000002d0: 59c0 99bc c0e8 9fbc 953b 283d 783e 183d
000002e0: 5f80 6cbd 6559 2f3d 5e25 9cbb 4a76 84bd
000002f0: e4b2 e93c e3da 1cbd 1dcf debc 14c0 c03c
00000300: 645d b6bd baff 623d f969 9c3c bd02 4f3b
00000310: 759a df3c 130a 3bbd 4979 a53c 2a8d 38bd
00000320: 0db6 95bc 4408 78bc 57fd 82bd 75ec 893c
00000330: 0acf f2bb 3d64 0f3d d90b 66bb 2301 cf3c
00000340: dd8a bb3c c0fa e4bc 3139 93bc 61ed 353c
00000350: 2584 823c c8b5 01bd feb6 5fbd 3d83 3fbc
00000360: acaf 6a3d 070a 83bc 7e1c a1ba cb39 39bd
00000370: 7a89 113e c983 02bb a994 eabb 04d6 8f3b
00000380: 923f 4b3c 467f d53b 1c12 07bd 6068 98bc
00000390: ad20 0c3d 4f8d da3c 69ef 833b f166 183b
000003a0: f5f9 a23a c3c5 2abc 0d0c 703b a48e 373d
000003b0: a631 0c3d d17a 2dbc 97f7 1cbd e2ce 203d
000003c0: a87d 48be 5341 32bd 4a65 5bbd 2b5c bcbc
000003d0: 5618 46bd 2819 f13b c182 883c eb13 17bc
000003e0: 0629 f1bc 10c7 a63d b7e4 273d 8f8e 0a3d
000003f0: 5440 0ebd db92 073d 6bf9 643c 3bf7 7ebc

backbone.2.conv3x3.bias f4 [64]
0.0030181636 -0.01849903 -0.02562562 0.025545247 0.0042512184 0.037998144 -0.01883021 0.020244299
0.02504306 -0.020250268 -0.0064936243 -0.025149684 0.003905864 0.025904851 0.022681203 -0.030793253
0.015670141 -0.016046112 0.03111908 0.008821146 -0.023724118 -0.015018638 -0.022676878 -0.013277784
0.022904897 0.018869368 0.017911222 0.013526103 -0.0021376733 0.026798083 0.006021109 -0.0086060325
0.025891952 -0.0056609986 0.028920446 -0.035352614 -0.015053461 0.010885428 0.025419192 0.03801492
0.023040053 0.025059525 0.022397771 0.027531182 -0.024690052 -0.04069038 -0.019556146 0.04137723
0.0024682675 -0.0025312991 -0.04010393 0.0123341335 0.029985726 -0.004782248 0.037060343 -0.03068589
-0.03459438 -0.014494856 -0.019363716 -0.024902709 0.014764043 -0.009452299 0.015597143 -0.0038877896
00000000: 62cc 453b 478b 97bc d2ec d1bc 4444 d13c
00000010: ce4d 8b3b f1a3 1b3d d041 9abc 5fd7 a53c
00000020: 1a27 cd3c e4e3 a5bc 78c8 d4bb b606 cebc
00000030: 86f9 7f3b 6936 d43c eecd b93c 2242 fcbc
00000040: ab5e 803c 2373 83bc 71ed fe3c 9186 103c
00000050: 1559 c2bc bc10 76bc dcc4 b9bc 108b 59bc
00000060: 0da3 bb3c ef93 9a3c 8eba 923c 979c 5d3c
00000070: 3518 0cbb a787 db3c b94c c53b 5100 0dbc
00000080: 5c1b d43c e67f b9bb 92ea ec3c e7cd 10bd
00000090: cba2 76bc cb58 323c e93b d03c 88b5 1b3d
000000a0: 7ebe bc3c a249 cd3c 887b b73c 1389 e13c
000000b0: cb42 cabc f5aa 26bd 3634 a0bc 2c7b 293d
000000c0: a8c2 213b 27e4 25bb 0544 24bd 1b15 4a3c
000000d0: a0a4 f53c 67b4 9cbb 96cc 173d fa60 fbbc
000000e0: d6b2 0dbd d57b 6dbc a8a0 9ebc c400 ccbc
000000f0: e2e4 713c d1dd 1abc 298b 7f3c 49ca 7ebb

backbone.2.bn.weight f4 [64]
0.9930628 1.0678636 0.90347815 0.8877609 0.93756914 0.7648743 1.1357819 1.2014165
1.0293012 0.9631517 1.0980965 0.9573263 1.0186188 1.1562412 0.9621378 0.9893686
0.92088926 1.0892009 0.99193597 1.0189168 1.0390933 1.1113993 0.9514095 0.92571586
1.1114088 1.0151566 1.0821851 1.0857404 1.2638981 0.88548684 0.8505602 0.7854526
0.966399 0.8785262 1.1007904 0.89017075 1.0559248 0.9932588 0.88753855 1.1388265
0.919745 1.1341189 1.0128521 1.0353236 0.9801874 0.8994226 0.9321787 0.8857811
1.1025659 0.9730849 0.9100857 1.0632534 1.0181953 0.8915491 0.9590916 0.8943285
0.9394388 1.0274675 1.2098459 0.9022184 0.95850456 1.0079465 1.0174323 0.9928473
00000000: 5d39 7e3f c1af 883f 584a 673f 4c44 633f
00000010: 8804 703f cdce 433f 4d61 913f 04c8 993f
00000020: 24c0 833f 1c91 763f 6d8e 8c3f 5613 753f
00000030: 1a62 823f b6ff 933f aa4e 763f 4347 7d3f
00000040: 66bf 6b3f ef6a 8b3f 84ef 7d3f de6b 823f
00000050: 0201 853f 5542 8e3f 938f 733f b7fb 6c3f
00000060: a542 8e3f a7f0 813f 0b85 8a3f 8bf9 8a3f
00000070: 6ac7 a13f 44af 623f 50be 593f 6c13 493f
00000080: ed65 773f 18e7 603f b3e6 8c3f 3be2 633f
00000090: 8b28 873f 3546 7e3f ba35 633f 11c5 913f
000000a0: 6974 6b3f cf2a 913f 23a5 813f 7c85 843f
000000b0: 90ed 7a3f 8f40 663f 43a3 6e3f 8dc2 623f
000000c0: e120 8d3f 181c 793f 60fb 683f b018 883f
000000d0: 3954 823f 903c 643f 0787 753f b6f2 643f
000000e0: 107f 703f 0e84 833f 3bdc 9a3f c9f7 663f
000000f0: 8e60 753f 6404 813f 393b 823f 3e2b 7e3f

backbone.2.bn.bias f4 [64]
0.48030195 0.2746114 -0.21832567 -0.1026069 -0.12832421 -0.33173788 0.45095745 0.110068195
-0.09202991 0.25607613 0.32907245 -0.01685125 0.14778844 0.16545849 -0.11091071 -0.36826518
-0.162056 -0.12986591 -0.010651431 -0.03763494 -0.21904157 0.060255527 -0.09540812 -0.17574526
0.24542816 0.02144365 0.24963163 -0.14731999 -0.05919054 -0.05570198 0.20430593 -0.24002577
-0.094503015 -0.27090067 -0.049083818 -0.17265378 -0.08143732 -0.014122312 -0.14521065 0.104851544
-0.09394173 0.28405508 -0.32440493 -0.37823355 -0.2114866 -0.0627315 -0.2221655 -0.31013045
0.37291124 -0.09680415 0.1514388 0.25813887 0.30269015 -0.13547413 0.04950181 -0.19077326
-0.025888227 -0.08653083 -0.061196577 -0.21464589 0.0565502 0.1288776 0.23259518 -0.031550005
00000000: 23ea f53e de99 8c3e c490 5fbe 9123 d2bd
00000010: 6c67 03be 8cd9 a9be e5e3 e63e 6f6b e13d
00000020: 2d7a bcbd 691c 833e 2f7c a83e a20b 8abc
00000030: da55 173e f36d 293e 2825 e3bd 418d bcbe
00000040: 02f2 25be 92fb 04be 5783 2ebc 1827 1abd
00000050: 6f4c 60be 80ce 763d 5565 c3bd 91f6 33be
00000060: 8551 7b3e 98aa af3c 6f9f 7f3e 0ddb 16be
00000070: c871 72bd c227 64bd 9335 513e 51c9 75be
00000080: cc8a c1bd 7eb3 8abe 1d0c 49bd 27cc 30be
00000090: 9cc8 a6bd 4561 67bc 1ab2 14be 68bc d63d
000000a0: 8664 c0bd ab6f 913e 6718 a6be d4a7 c1be
000000b0: f18f 58be 5f79 80bd 5a7f 63be 6bc9 9ebe
000000c0: 39ee be3e 4141 c6bd c612 1b3e c72a 843e
000000d0: 34fa 9a3e bbb9 0abe 69c2 4a3d 115a 43be
000000e0: 8c13 d4bc 1337 b1bd 43a9 7abd 22cc 5bbe
000000f0: 2fa1 673d 7df8 033e 6e2d 6e3e 943a 01bd

backbone.2.bn.running_mean f4 [64]
-0.5369368 -1.5351272 -0.025980523 -2.8415112 -1.274872 -0.4675472 -0.91104156 0.506627
-0.8170188 -0.6065262 -1.0401682 -2.5168586 -0.95500904 -1.1422417 -2.162945 -0.26347637
1.1996616 -0.39034715 -0.81989086 -0.21885419 -0.015834538 -1.2358546 0.16930278 -2.5784328
-1.2011437 0.8106398 -0.51954126 -0.3269948 -0.9634366 -0.26475132 -1.3755349 1.6982312
0.2715072 -1.0515183 -0.14986202 -2.1628613 -0.63344926 -1.0666753 2.2008798 -0.7129066
-2.170955 -1.0136563 0.4241076 -0.6766885 0.5611064 -2.4685946 -0.29531103 -1.5108175
-1.0243751 0.6061025 -1.3051392 -0.34151915 -0.13189566 -0.4246425 0.19285806 -0.21209879
-1.3577434 -0.6534072 -1.1223975 0.4445809 -0.4149969 -2.0333114 -1.43393 -1.7135237
00000000: b174 09bf 0c7f c4bf 1bd5 d4bc 52db 35c0
00000010: 012f a3bf 5962 efbe 053a 69bf 4fb2 013f
00000020: 2528 51bf 4d45 1bbf 3b24 85bf 3614 21c0
00000030: 797b 74bf fa34 92bf b16d 0ac0 60e6 86be
00000040: 838e 993f 95db c7be 5ee4 51bf 501b 60be
00000050: 6fb7 81bc 7c30 9ebf b55d 2d3e 0b05 25c0
00000060: 14bf 99bf 1786 4f3f a800 05bf dd6b a7be
00000070: c8a3 76bf 7c8d 87be 8711 b0bf a45f d93f
00000080: fe02 8b3e 2798 86bf 6e75 19be 526c 0ac0
00000090: bb29 22bf d188 88bf 37db 0c40 0c81 36bf
000000a0: edf0 0ac0 7dbf 81bf a224 d93e 753b 2dbf
000000b0: aba4 0f3f 74fd 1dc0 0233 97be 7862 c1bf
000000c0: b91e 83bf 8929 1b3f cd0e a7bf 99db aebe
000000d0: a80f 07be be6a d9be 957c 453e 6d30 59be
000000e0: 89ca adbf b245 27bf b9aa 8fbf 1ca0 e33e
000000f0: 797a d4be c621 02c0 058b b7bf bf54 dbbf

backbone.2.bn.running_var f4 [64]
0.7220715 0.5649497 2.0187256 2.5038438 0.76090866 0.85720915 0.61424655 1.3987703
0.44056237 0.91270655 0.590884 0.58781695 0.56355363 0.4787451 1.6361856 0.76545966
1.1838061 0.65036345 0.6355647 2.6432517 0.62333417 0.6721903 0.2919666 0.8094614
0.77746415 1.0857834 0.5068074 0.8428091 0.7652297 1.0070558 0.59464633 1.3970461
0.53061783 1.1274084 0.99004024 0.7721177 0.8055594 0.6507617 1.261461 0.5890311
0.8191467 0.74994296 0.5912771 0.54724324 2.117253 1.1610465 0.99243516 5.3863006
0.5247514 1.1754779 0.62111527 0.4976641 1.1025494 3.9591184 0.53401005 0.6607176
0.9532495 0.93879 0.74551034 0.26127404 0.91803104 0.7592484 0.58420306 0.64491147
00000000: aed9 383f 8ba0 103f cd32 0140 fa3e 2040
00000010: e9ca 423f 0f72 5b3f 433f 1d3f e80a b33f
00000020: 6491 e13e 23a7 693f 2c44 173f 2c7b 163f
00000030: 0d45 103f 141e f53e 886e d13f 2af5 433f
00000040: f586 973f 387e 263f 5eb4 223f 092b 2940
00000050: d492 1f3f aa14 2c3f a57c 953e dd38 4f3f
00000060: e407 473f f3fa 8a3f 21be 013f 56c2 573f
00000070: 18e6 433f 34e7 803f be3a 183f 68d2 b23f
00000080: 92d6 073f eb4e 903f 4773 7d3f 81a9 453f
00000090: 2439 4e3f 5298 263f 8e77 a13f beca 163f
000000a0: 99b3 513f 43fc 3f3f f05d 173f 2218 0c3f
000000b0: 1381 0740 2c9d 943f 3b10 7e3f 935c ac40
000000c0: 1c56 063f 0f76 963f 6901 1f3f d4cd fe3e
000000d0: 5720 8d3f 3262 7d40 e2b4 083f ca24 293f
000000e0: 2908 743f 8b54 703f c4d9 3e3f b6c5 853e
000000f0: 1504 6b3f 1a5e 423f 558e 153f eb18 253f

backbone.3.conv3x3.weight f4 [64, 64, 3, 3]
-0.06039168 -0.031115737 -0.05784795 -0.06236811 -0.090164535 -0.02056249 -0.026919028 0.053833168
0.004196533 0.06402098 0.024481425 0.0076798694 0.036442224 -0.0026736113 0.100053065 -0.033840276
0.048632585 0.0069011473 0.026633296 0.052847195 0.02979 0.052548822 0.041104257 -0.0059757004
0.07640512 0.04121562 0.00044597517 -0.0005634421 0.03822299 -0.034598157 0.04411649 -0.026572868
-0.0052796127 -0.0050625806 -0.002472836 0.00073501724 0.033163667 -0.03146874 0.062254805 0.027246164
-0.015272309 -0.018450182 0.020435736 0.013303632 -0.014876367 0.02474972 0.014945617 -0.021424532
-0.008516301 -0.0403855 -0.020061666 0.016018696 0.004780095 0.027544474 -0.08952195 0.07264594
0.0025387888 -0.07367896 0.12690726 0.12501626 0.022666471 -0.0640744 0.025510157 -0.06246427
-0.003306142 -0.0015387688 -0.01888496 0.013147482 -0.159215 -0.0113667175 0.05621252 -0.028789835
-0.059273213 -0.0068555195 -0.021022312 -0.0109360665 -0.0050128545 -0.008241214 -0.012049866 0.05030482
0.01874314 -0.037527237 -0.039574243 -0.03941112 -0.004046943 -0.043556485 -0.030486269 -0.030770514
-0.013295604 -0.061646856 -0.030990088 -0.028377179 -0.0374941 -0.030916728 -0.07064346 0.03142886
-0.019749973 0.051450092 -0.04997195 -0.03826324 0.0261122 0.01882158 -0.07012596 -0.0041708155
-0.03421223 -0.025046911 -0.021288833 -0.012777802 0.042567313 -0.051727567 0.018889092 -0.029225934
0.09952544 -0.015064481 0.0557585 0.010304984 0.082691 -0.010980157 -0.06275487 -0.017695704
0.010511045 0.15345132 -0.0027110337 0.037077907 0.0061015445 0.031350397 0.03166139 -0.004882752
0.009574258 0.052127376 0.0017208161 0.008551815 0.025681965 0.057569757 -0.028820036 -0.025234561
0.010134491 -0.06632711 -0.018964188 0.0054677236 -0.014697039 -0.03987663 -0.034753185 -0.043114617
0.032569643 -0.0018327936 0.034264546 0.0025853086 -0.018330839 0.009496304 0.034551535 -0.01345402
0.091213144 0.045841377 0.0003058454 0.024718314 -0.015950799 -0.03123904 -0.040497042 0.0041998085
-0.15118322 0.0077500446 0.07682661 -0.031587925 -0.0003642338 0.063760236 -0.027483858 -0.027154977
0.045609128 -0.012507349 -0.024754941 0.05348757 0.0073687895 0.018959498 -0.009008307 0.026199412
-0.11257692 -0.04502988 -0.03131783 -0.018258097 0.034183774 0.04489338 0.112364255 -0.03693236
0.010340641 0.05701036 -0.050608426 -0.018579252 0.08470719 0.01777593 0.13187699 0.032438494
0.14515367 0.1839057 -0.082616135 0.055135764 -0.13932393 0.024387619 0.045127656 -0.020608122
-0.0025131733 -0.052364886 -0.020598905 -0.045109194 -0.008019371 -0.032560837 0.005185418 0.058659606
0.033726458 0.04541559 0.085592136 0.07636912 -0.0015101623 0.08411479 0.014712684 0.029739965
0.059030123 0.07518933 -0.036635842 -0.022898942 0.024847295 -0.005370045 0.024378141 0.08439661
-0.021711495 -0.07362842 -0.05789906 0.00042582015 -0.06713523 -0.035268128 -0.09304195 -0.06345034
-0.0225211 0.004926746 -0.009506666 -0.04755866 -0.05083313 -0.027806398 -0.04353727 0.03321785
-0.006876427 0.06312451 -0.06663902 0.04363126 0.13134043 0.090957165 0.054709855 0.17462623
0.0381485 -0.016140206 0.09531036 -0.032925103 0.061840817 -0.05880995 -0.013633843 0.00029508874
00000000: 445d 77bd 6ee6 febc f9f1 6cbd b475 7fbd
00000010: 2fa8 b8bd ab72 a8bc 4b85 dcbc 2b80 5c3d
00000020: 1283 893b 6e1d 833d 458d c83c 6aa7 fb3b
00000030: 7144 153d c137 2fbb 9fe8 cc3d 1a9c 0abd
00000040: f632 473d 0523 e23b 122e da3c 4d76 583d
00000050: 280a f43c 6f3d 573d f05c 283d cfcf c3bb
00000060: 4a7a 9c3d b6d1 283d c6d1 e939 f6b3 13ba
00000070: b68f 1c3d ccb6 0dbd 7eb3 343d 58af d9bc
00000080: 9a00 adbb 01e4 a5bb 4e0f 22bb 2cae 403a
00000090: a0d6 073d 5ee5 00bd e5fe 7e3d 5933 df3c
000000a0: b538 7abc d624 97bc d868 a73c 7af7 593c
000000b0: 01bc 73bc edbf ca3c 76de 743c 8082 afbc
000000c0: f587 0bbc 446b 25bd 5d58 a4bc a439 833c
000000d0: 58a2 9c3b f3a4 e13c 4957 b7bd 65c7 943d
000000e0: cf61 263b ffe4 96bd faf3 013e 4304 003e
000000f0: 09af b93c 7039 83bd adfa d03c 89da 7fbd
00000100: dcab 58bb 83b0 c9ba a2b4 9abc 8968 573c
00000110: 4209 23be 783b 3abc 193f 663d a9d8 ebbc
00000120: 78c8 72bd 44a4 e0bb fc36 acbc 302d 33bc
00000130: df42 a4bb 2806 07bc cd6c 45bc 6d0c 4e3d
00000140: 378b 993c 29b6 19bd 9a18 22bd 8e6d 21bd
00000150: 389c 84bb 4968 32bd 57be f9bc 7212 fcbc
00000160: ced5 59bc 6a81 7cbd edde fdbc 4277 e8bc
00000170: 6a93 19bd 1445 fdbc 85ad 90bd 8cbb 003d
00000180: b2ca a1bc 55bd 523d 63af 4cbd eab9 1cbd
00000190: 41e9 d53c b72f 9a3c 339e 8fbd 56ab 88bb
000001a0: 2022 0cbd 2e2f cdbc eb65 aebc fc59 51bc
000001b0: 105b 2e3d 49e0 53bd 4cbd 9a3c 3a6b efbc
000001c0: fed3 cb3d 03d1 76bc 0663 643d 3cd6 283c
000001d0: e659 a93d 1ee6 33bc a085 80bd 95f6 90bc
000001e0: 8536 2c3c 5822 1d3e 99ab 31bb 01df 173d
000001f0: 77ef c73b 4669 003d 60af 013d 7eff 9fbb
00000200: 59dd 1c3c 8483 553d 028d e13a e91c 0c3c
00000210: fc62 d23c 44ce 6b3d ff17 ecbc b6b8 cebc
00000220: 230b 263c 82d6 87bd c95a 9bbc 972a b33b
00000230: d9cb 70bc ad55 23bd 5b59 0ebd f498 30bd
00000240: bf67 053d 593a f0ba fb58 0c3d 486e 293b
00000250: 8e2a 96bc 6396 1b3c e985 0d3d 406e 5cbc
00000260: f5cd ba3d 2bc4 3b3d e059 a039 107e ca3c
00000270: 40ab 82bc 04e9 ffbc 3ae0 25bd 8c9e 893b
00000280: c6cf 1abe 16f4 fd3b 4557 9d3d 5762 01bd
00000290: a2f6 beb9 ba94 823d d425 e1bc 1d74 debc
000002a0: a3d0 3a3d a0eb 4cbc e0ca cabc c815 5b3d
000002b0: e375 f13b f350 9b3c 9497 13bc 26a0 d63c
000002c0: ba8e e6bd 4071 38bd 2047 00bd 0192 95bc
000002d0: 4904 0c3d 1fe2 373d 3b1f e63d 6346 17bd
000002e0: cb6b 293c b283 693d c84a 4fbd 8433 98bc
000002f0: f77a ad3d d49e 913c c30a 073e 3ade 043d
00000300: 2aa3 143e c751 3c3e a632 a9bd 0ad6 613d
00000310: efaa 0ebe 8bc8 c73c c7d7 383d 5dd2 a8bc
00000320: 0db4 24bb 907c 56bd 09bf a8bc 6bc4 38bd
00000330: ae63 03bc 835e 05bd 70ea a93b 0e45 703d
00000340: c124 0a3d b305 3a3d ee4a af3d 6a67 9c3d
00000350: a3f0 c5ba 6044 ac3d 780d 713c 3aa1 f33c
00000360: 92c9 713d ddfc 993d 770f 16bd 9096 bbbc
00000370: 8e8c cb3c 34f7 afbb abb4 c73c 21d8 ac3d
00000380: 4edc b1bc 7fca 96bd 9127 6dbd 9d40 df39
00000390: 327e 89bd 5075 10bd c78c bebd 40f2 81bd
000003a0: 2b7e b8bc 8a70 a13b d9c1 1bbc dfcc 42bd
000003b0: 6636 50bd 3eca e3bc 2354 32bd 710f 083d
000003c0: a753 e1bb 6c47 813d 0a7a 88bd b1b6 323d
000003d0: 1b7e 063e c047 ba3d 7117 603d 38d1 323e
000003e0: 9a41 1c3d 7738 84bc 1432 c33d 79dc 06bd
000003f0: cc4c 7d3d b4e2 70bd 7b60 5fbc 24b6 9a39
