models/relu_best_epoch.pt (torch, 206379 bytes, 38 tensors)

backbone.0.conv3x3.weight f4 [32, 3, 3, 3]
0	0x3dfe0c84	0.12404731
1	0x3dfa34b6	0.12217085
2	0xbd2bd30f	-0.041949328
3	0x3e534572	0.2063196
4	0xbd5c0e3a	-0.053724505
5	0x3d5e7cbc	0.054318175
6	0xbd83305e	-0.0640571
7	0x3e07ed32	0.13274077
8	0x3e4c954a	0.19978824
9	0xbe151af5	-0.14561065
10	0x3e249d45	0.16075619
11	0x3d48a473	0.048984956
12	0x3ddf498d	0.109027006
13	0x3bce7fbb	0.0063018478
14	0x3d6605e6	0.05615797
15	0xbd599d42	-0.05312849
16	0x3e153139	0.14569558
17	0x3d00c404	0.031436935
18	0xbdc30d03	-0.09523966
19	0x3dc45fc8	0.09588581
20	0xbde6788d	-0.11253462
21	0xbbda4b6d	-0.0066618235
22	0xbe020d7c	-0.12700456
23	0x3dcad1dc	0.09903309
24	0xbde9d483	-0.114174865
25	0xbdd65896	-0.10466115
26	0xbd6c5dde	-0.057706706
27	0xbdb20e7a	-0.086941674
28	0x3d6adc75	0.05733915
29	0xbe20411b	-0.15649836
30	0x3e485b15	0.19565995
31	0xbe3a37d0	-0.18185353
32	0x3e0babe9	0.13639797
33	0x3d157e42	0.036497362
34	0xbdb7c1cf	-0.08972513
35	0x3dc5303f	0.09628343
36	0x3c04c41f	0.0081034
37	0x3e2e9de7	0.17052422
38	0x3d040d9e	0.03223955
39	0xbd912f55	-0.07089106
40	0x3da4b1e0	0.080417395
41	0xbd061caf	-0.0327422
42	0x3d6449e2	0.055734523
43	0x3e14a647	0.14516555
44	0x3de78260	0.11304164
45	0xbd5abe7e	-0.053404324
46	0x3e1615f0	0.14656806
47	0x3d08fb54	0.03344281
48	0x3ddfe493	0.10932269
49	0xbdfea80f	-0.124343984
50	0xbe5541e9	-0.20825924
51	0xbd54489f	-0.05182707
52	0xbe21a107	-0.15784083
53	0x3e1d794c	0.15378302
54	0xb9c66e35	-0.00037847614
55	0x3d595d80	0.053067684
56	0x3da4c5b4	0.080455214
57	0xba6169da	-0.0008598842
58	0x3e290b26	0.16508159
59	0xbdbf2785	-0.093337096
60	0x3acb3261	0.0015502685
61	0xbe70c71a	-0.23513451
62	0x3d09f5d5	0.03368171
63	0xbde0ae86	-0.10970788
64	0x3d374e29	0.044752274
65	0x3c65d810	0.014028564
66	0x3e24de12	0.16100338
67	0xbe1b140b	-0.15144365
68	0xbd65ee75	-0.056135613
69	0xbdcbea2f	-0.09956776
70	0x3e3cd2db	0.1843981
71	0x3d05dabd	0.03267931
72	0x3e2280ad	0.15869398
73	0xbddd4fc9	-0.108062334
74	0xbdd91751	-0.106001504
75	0xbe1e4b38	-0.15458381
76	0xbdcb92c9	-0.099401064
77	0x3df62fd4	0.12020841
78	0x3d10c2c5	0.035341997
79	0x3e4c09fb	0.19925682
80	0xbd81f954	-0.06346384
81	0xbd748e38	-0.059705943
82	0x3bb0df15	0.005397687
83	0x3aac88dd	0.0013163347
84	0x3e385e59	0.18004741
85	0xbe56b89e	-0.20968863
86	0x3dd0400b	0.10168465
87	0xbd810739	-0.06300206
88	0xbcd5a74e	-0.026080754
89	0x3a9ab354	0.0011802712
90	0x3d341d4a	0.043973245
91	0xbd55bf0b	-0.052184146
92	0x3df77e14	0.12084594
93	0x3e062664	0.13100582
94	0xbe948e1c	-0.2901467
95	0xbd8fcf34	-0.07021943
96	0x3ddad27a	0.106846765
97	0xbd217f50	-0.039428055
98	0xbc27cab3	-0.010241198
99	0xbd882232	-0.06647147
100	0xbe996b39	-0.29964617
101	0x3dc3f896	0.095688984
102	0x3c3dfa23	0.011595282
103	0xbe04fb2a	-0.12986436
104	0xbbad3151	-0.00528542
105	0xbdc5cb47	-0.09657913
106	0xbb2afeec	-0.0026091887
107	0xbd54a6a6	-0.05191674
108	0xbea361f4	-0.3191067
109	0xbe1c0fc3	-0.15240388
110	0x3e5c59a7	0.21518575
111	0x3dc132ac	0.09433493
112	0x3c3d5a90	0.011557236
113	0xbdda1fab	-0.106505714
114	0xbd82ac49	-0.06380517
115	0xbd8c13b1	-0.06839693
116	0x3d87eefa	0.06637378
117	0xbe104f91	-0.14092852
118	0xbd9431a3	-0.0723603
119	0xbdb4c53b	-0.08826681
120	0xbc1d44ac	-0.009598892
121	0xbde9718a	-0.11398609
122	0x3d52f1fb	0.0515003
123	0xbda5c8a3	-0.08094909
124	0xbd9aff62	-0.07568242
125	0xbc3b9d1d	-0.011451033
126	0xbe15d70e	-0.14632818
127	0xbe0dad47	-0.13835631
128	0x3e27e550	0.1639607
129	0x3cec8e0b	0.028876325
130	0x3e2b4e9c	0.16729206
131	0x3d6c0196	0.0576187
132	0xbdc5e547	-0.09662872
133	0x3e390f1c	0.1807217
134	0xbb8382c4	-0.004013391
135	0xbb86ab34	-0.0041097645
136	0xbe5fd1cb	-0.21857373
137	0xbe19cded	-0.1501996
138	0x3d4c0b9f	0.04981577
139	0xbd00f700	-0.031485558
140	0x3d2e2981	0.04252005
141	0xbdcb4542	-0.09925319
142	0x3e005c2c	0.12535161
143	0xbd915232	-0.07095756
144	0x3b779808	0.0037779827
145	0x3d37e47d	0.044895638
146	0x3e159bd4	0.14610225
147	0x3db6c96e	0.089251384
148	0x3e191368	0.14948809
149	0xbe4373ea	-0.19087186
150	0x3b140767	0.002258742
151	0xbe2d1ae9	-0.16904797
152	0x3ca59190	0.020211011
153	0xbe40305c	-0.18768448
154	0x3e40608b	0.18786828
155	0xbe2ef6de	-0.1708636
156	0x3d8c6df9	0.06856913
157	0x3d475c84	0.048672214
158	0x3d7fc407	0.062442806
159	0xbe02a60a	-0.12758651
160	0x3e36b52d	0.1784255
161	0x3c216f78	0.009853236
162	0x3cb42d3f	0.021994231
163	0xbe5aab17	-0.21354328
164	0x3d786685	0.060644645
165	0x3c4934d8	0.012280665
166	0xbd036c2b	-0.03208558
167	0x3e5fae23	0.21843772
168	0x3d27c39b	0.04095803
169	0xbdd4d4c0	-0.10392141
170	0xbceb4008	-0.028717056
171	0x3a7e66cf	0.0009704651
172	0x3dde7b00	0.10863304
173	0xbd38082e	-0.044929676
174	0xbda24714	-0.07923713
175	0xbd0043e0	-0.03131473
176	0xbe53dc20	-0.2068944
177	0x3d532fd0	0.05155927
178	0x3e2f2d0c	0.17107028
179	0xbdf43235	-0.11923639
180	0x3bbe43a4	0.0058064032
181	0x3d93098f	0.071795575
182	0x3b5c6723	0.003363081
183	0xbd5b43d2	-0.053531475
184	0x3d9cb003	0.07650759
185	0x3e02e4fb	0.12782662
186	0x3c45a912	0.012064235
187	0xbd2bd881	-0.04195452
188	0x3b8dec0f	0.004331119
189	0x3c04ee46	0.008113449
190	0xbcc0c5a1	-0.023531737
191	0xbcfd69af	-0.030934183
192	0x3de2dc2e	0.11077152
193	0x3e4c2a90	0.19938111
194	0xbd123397	-0.03569373
195	0xbd2595b8	-0.040425986
196	0xbc5d85f0	-0.013520703
197	0xbd180353	-0.037112545
198	0x3cfa291f	0.030537186
199	0x3d1ce726	0.038306378
200	0xbe13de33	-0.14440231
201	0xbda02fd4	-0.078216225
202	0x3e428240	0.18994999
203	0x3d3ff7e0	0.04686725
204	0xbc42e442	-0.011895241
205	0xbddb979f	-0.10722279
206	0xbe13463f	-0.14382266
207	0xbe0d2feb	-0.1378781
208	0xbcf0670d	-0.029346013
209	0x3d3c38ee	0.04595273
210	0x3dc0a79e	0.094069704
211	0x3df0bea9	0.117551155
212	0xbe35a4cd	-0.17738648
213	0xbd9b37f2	-0.0757903
214	0xbbbecf4a	-0.0058230506
215	0x3e60990d	0.21933384
216	0x3cfe003c	0.031005971
217	0xbb1ad176	-0.0023623384
218	0x3d9bf404	0.07614902
219	0xbc973d93	-0.018461978
220	0xbdb6e922	-0.08931185
221	0x3e31ea06	0.17374429
222	0xbd204871	-0.039131586
223	0xbb99eeae	-0.0046976423
224	0xbe9e5778	-0.30926108
225	0x3dc61f74	0.09673968
226	0x3dad4068	0.0845955
227	0x3d33027a	0.043703534
228	0xbd92ec9c	-0.07174036
229	0xbe75a576	-0.239889
230	0xbe4255ec	-0.18978089
231	0x3d88e090	0.06683457
232	0x3dbca3b3	0.09210911
233	0x3e37702a	0.17913881
234	0x3d910c98	0.0708248
235	0x3cda5317	0.026650948
236	0x3cd17b0a	0.025571365
237	0xbd3d6673	-0.04624028
238	0xbe123143	-0.14276604
239	0xbe5569ab	-0.2084109
240	0x3d830202	0.06396867
241	0xbd10a9e9	-0.03531829
242	0xbcf9342e	-0.030420389
243	0xbc36d080	-0.011158109
244	0xbd2fb395	-0.042895872
245	0xbe31fa33	-0.173806
246	0xbd9fd671	-0.07804573
247	0x3d67ea56	0.056619965
248	0xbcdc8c0d	-0.02692225
249	0x3dbe0896	0.092789814
250	0xbcc1d3b1	-0.023660513
251	0xbe80f6ef	-0.25188395
252	0x3d0826af	0.033240017
253	0xbda63dee	-0.08117281
254	0xbe1f356c	-0.15547723
255	0xbe022d5a	-0.12712613

backbone.0.conv3x3.bias f4 [32]
0	0xbdbc6b05	-0.092001
1	0x3e2a5723	0.16634803
2	0x3e12810b	0.14307038
3	0x3d692f68	0.056929976
4	0x3c6c27cb	0.014413784
5	0xbe25461b	-0.16140024
6	0xbcae697b	-0.021290531
7	0x3e36e1aa	0.17859522
8	0x3d4b3c93	0.049618315
9	0x3c7b7712	0.015348213
10	0xbd243a4f	-0.04009467
11	0xbd873007	-0.06600957
12	0x3deb73a3	0.11496665
13	0x3c18dee2	0.009330483
14	0x3e01af03	0.12664418
15	0xbd0d70f9	-0.034531567
16	0x3dad381f	0.0845797
17	0x3da5c245	0.080936946
18	0x3cf74709	0.03018524
19	0x3e0a7178	0.13519847
20	0x3df4fb34	0.11961976
21	0x3e3345ff	0.1750717
22	0x3e16880a	0.14700332
23	0xbd4d6b76	-0.05015131
24	0xbe23c9f1	-0.15995003
25	0x3d11ba6f	0.035578188
26	0x3a9d6456	0.0012008052
27	0xbd5a3c08	-0.053279907
28	0xbd026e51	-0.031843487
29	0x3c30ad0a	0.010783443
30	0x3e137da5	0.14403398
31	0x3d78b072	0.060715146

backbone.0.bn.weight f4 [32]
0	0x3f7c45e8	0.9854417
1	0x3f7863ef	0.97027487
2	0x3f80ef77	1.0073079
3	0x3f84ab4c	1.0364776
4	0x3f830d09	1.0238353
5	0x3f8412bb	1.0318216
6	0x3f816044	1.0107503
7	0x3f75db56	0.96037805
8	0x3f85da7f	1.0457305
9	0x3f7ecfb9	0.9953571
10	0x3f760ab4	0.9611008
11	0x3f7b0bec	0.98065066
12	0x3f8224c2	1.0167468
13	0x3f812cf5	1.0091845
14	0x3f7adc81	0.9799271
15	0x3f807eb1	1.0038663
16	0x3f7cbd65	0.98726493
17	0x3f79b1a9	0.9753671
18	0x3f847caf	1.035055
19	0x3f816c4d	1.0111176
20	0x3f7feb1c	0.99968123
21	0x3f75e664	0.96054673
22	0x3f7ea7a8	0.99474573
23	0x3f83f4a6	1.0309036
24	0x3f873ebe	1.0566022
25	0x3f7fd0e2	0.99928105
26	0x3f6cdfa7	0.92528766
27	0x3f7b31cb	0.98122853
28	0x3f830020	1.0234413
29	0x3f72bad7	0.94816345
30	0x3f8133d3	1.009394
31	0x3f74bd08	0.9560094

backbone.0.bn.bias f4 [32]
0	0xbd84908b	-0.06472882
1	0xbcf06e02	-0.02934933
2	0x3da5202a	0.080627754
3	0x3d1209e2	0.035653956
4	0x3d0d21df	0.03445613
5	0xbd4f4013	-0.050598215
6	0x3d9845ea	0.0743521
7	0x3d7ac4bd	0.06122278
8	0x3dd70bc8	0.10500294
9	0x3baf391c	0.005347384
10	0xbcbbcdaf	-0.022925226
11	0xba35178e	-0.0006908112
12	0x3cde1337	0.027108772
13	0x3dd6b7c5	0.1048427
14	0xbcf3a18f	-0.029740123
15	0xbd1b6ed1	-0.03794748
16	0x3d6ba5d1	0.05753118
17	0x3c5b6e7e	0.013393043
18	0x3e8b2114	0.27173674
19	0x3cc789f6	0.024357777
20	0xbd0162f7	-0.03158852
21	0x3dfe5602	0.124187484
22	0xbc865cc9	-0.016401665
23	0x3d0860f8	0.0332956
24	0x3b307387	0.0026924328
25	0xbc87579c	-0.016521268
26	0x3e87db2e	0.26534408
27	0xbd8b0dd0	-0.06789744
28	0x3cefffcb	0.029296776
29	0xbc8dbf90	-0.017303258
30	0xbdbcc2e6	-0.092168614
31	0x3cb44d41	0.022009494

backbone.0.bn.running_mean f4 [32]
0	0x3dcc14be	0.09964894
1	0x3e92cb63	0.28670797
2	0x3e14c6f0	0.14529014
3	0xbe094c84	-0.13408095
4	0xbe439e31	-0.19103314
5	0xbe562e19	-0.20916022
6	0xbc95aa76	-0.018269759
7	0x3e34c498	0.1765312
8	0xbd7b3b1c	-0.061335668
9	0xbde4171b	-0.111372195
10	0xbde0dec2	-0.10979988
11	0x3d292fdd	0.04130541
12	0xbd7fe76d	-0.062476564
13	0x3b5c8bb5	0.0033652608
14	0x3d87667f	0.066113465
15	0xbde8d865	-0.11369399
16	0x3db039ba	0.086047605
17	0x3d425299	0.047442053
18	0x3d350a06	0.044199012
19	0x3e0be951	0.13663222
20	0x3e57f0a3	0.2108789
21	0x3e3e5b42	0.185895
22	0xbe10c86e	-0.14138958
23	0xbe4851c3	-0.1956244
24	0xbe7a6177	-0.24451242
25	0x3e22b29a	0.15888444
26	0x3c8f2ae7	0.017476512
27	0xbdab6e33	-0.08370628
28	0xbe09dcfc	-0.13463205
29	0xbdd4131c	-0.10355207
30	0x3dce8122	0.10083224
31	0x3cc9a207	0.024613393

backbone.0.bn.running_var f4 [32]
0	0x3c4e77c6	0.012601798
1	0x3b986470	0.004650645
2	0x3a11ea86	0.0005566258
3	0x3c655c1d	0.013999012
4	0x3c76dacb	0.015066813
5	0x3aec2a9f	0.0018018073
6	0x39e86f09	0.00044333216
7	0x3a4a2d78	0.0007712464
8	0x3bc38cdd	0.00596772
9	0x3bf98b7c	0.007615505
10	0x3b1256f0	0.002232965
11	0x3b9b8073	0.004745537
12	0x3c613957	0.013746581
13	0x3a26b185	0.000635885
14	0x3b05e206	0.002042891
15	0x3b248f1e	0.0025109719
16	0x3ad39983	0.0016143773
17	0x3b30c103	0.0026970513
18	0x39c3f1ef	0.00037373553
19	0x3a1654b2	0.00057346665
20	0x3b9470e6	0.00453006
21	0x3ab74faa	0.0013985534
22	0x3cf8b731	0.03036079
23	0x3bf7f5e4	0.0075671542
24	0x3b41dfba	0.0029582814
25	0x3bff3138	0.0077878498
26	0x3a6987f0	0.0008908501
27	0x3ab70bca	0.0013965305
28	0x3b8cdd31	0.004298829
29	0x3ba4f321	0.005033866
30	0x3ac28424	0.0014840406
31	0x3b1af064	0.002364182

backbone.1.conv3x3.weight f4 [32, 32, 3, 3]
0	0x3ced2902	0.028950218
1	0xbca8d971	-0.020611497
2	0xbc0af67a	-0.008481616
3	0xbc015647	-0.007894105
4	0x3db4282d	0.087967254
5	0xbc71fcac	-0.014769714
6	0x3d01cca3	0.031689297
7	0xbc27d3ad	-0.0102433385
8	0x3ca6f23b	0.020379176
9	0xbc226293	-0.009911197
10	0xbd1da57b	-0.038487893
11	0xbb5fc4ae	-0.003414433
12	0xbb268ddd	-0.0025414147
13	0xbc532547	-0.012887306
14	0xbbf90f9b	-0.0076007373
15	0x3c1906a9	0.009339967
16	0x3cfe66d1	0.031054886
17	0x3aabe176	0.0013113457
18	0x3caff1ed	0.021477664
19	0xbd174443	-0.036930334
20	0xbbf9c4ee	-0.007622353
21	0xbc9c4623	-0.019076413
22	0xbd58d656	-0.05293878
23	0x3b85f8dd	0.0040885047
24	0xbd029946	-0.031884454
25	0xbc78e52a	-0.015191356
26	0xbb4be336	-0.003111077
27	0xbb221e69	-0.0024737364
28	0x3d31edfc	0.04343985
29	0xbcf24cbb	-0.029577604
30	0xbca4d173	-0.020119404
31	0x3cab7da9	0.020933943
32	0xbc95a0ba	-0.018265117
33	0x3b49ef16	0.0030812672
34	0x3d803984	0.0626097
35	0xbd007ef1	-0.03137106
36	0xbd49a56b	-0.04923002
37	0xbcd1e891	-0.025623592
38	0xbcd0763f	-0.02544701
39	0xbcfa08c6	-0.030521762
40	0xbcd51077	-0.026008828
41	0x3d7444c7	0.059635904
42	0x3c6abc41	0.01432711
43	0xbcb16e39	-0.021659004
44	0xbd08497e	-0.033273213
45	0x3a02906b	0.00049806264
46	0x3c466bc4	0.012110654
47	0xbcba95a6	-0.022776436
48	0x3ba6722a	0.0050795274
49	0x3dc035d7	0.09385269
50	0xbd681cf3	-0.056668233
51	0xbc40e5a8	-0.011773504
52	0x3b7d397c	0.0038639
53	0x3b010218	0.0019685086
54	0xbc8e3468	-0.017358974
55	0xbbcf297e	-0.006322085
56	0xbae6cc1f	-0.001760844
57	0xbcec35d4	-0.028834261
58	0x3dcdb96b	0.10045131
59	0xbc3ed4ec	-0.011647444
60	0xbd8b1048	-0.06790215
61	0xbd229c4b	-0.039699834
62	0x3ce4a118	0.027908847
63	0xbc28a07a	-0.010292167
64	0xbd2ca593	-0.04215009
65	0xbc8f0537	-0.017458541
66	0xbd2e45e9	-0.04254714
67	0xbaf7e7b1	-0.0018913654
68	0xbd477b74	-0.04870172
69	0x3d6aac3f	0.057293173
70	0x3cac696a	0.02104636
71	0xbab89f71	-0.0014085603
72	0xbd0a6048	-0.033783227
73	0xbcf58dbd	-0.029974813
74	0x3d17cff2	0.037063546
75	0xbcc6d6d5	-0.024272362
76	0xbcd8b9ca	-0.026455779
77	0xbcb50353	-0.022096312
78	0x3d573ecc	0.052550122
79	0xbc9fa405	-0.01948739
80	0xbca5c206	-0.02023412
81	0x3cd6e811	0.026233705
82	0x3d341b3d	0.04397129
83	0x3d81a552	0.063303605
84	0x3cf87941	0.030331256
85	0xbb5a2230	-0.0033284537
86	0x3d16d378	0.036822766
87	0x3d19fb98	0.037593454
88	0xbd6ef8ba	-0.058342673
89	0xbba42e0b	-0.0050103716
90	0xbd70227a	-0.05862663
91	0xbd10d473	-0.035358857
92	0xbca92b49	-0.020650523
93	0xbcefc7ce	-0.029270079
94	0x3c0a8f9c	0.008457091
95	0x3a9cd7f8	0.0011966219
96	0xbc7236d8	-0.014783584
97	0xbd50f819	-0.051017854
98	0x3d5b3dc1	0.05352569
99	0xbcd1b53e	-0.025599118
100	0x3cdf8ed4	0.027289785
101	0xbc36e4a7	-0.011162913
102	0x3cd33499	0.025781916
103	0xbc642206	-0.013924127
104	0x3c9cee40	0.019156575
105	0xbd50354c	-0.050832078
106	0xbd5014ad	-0.050800968
107	0xbb8fe764	-0.0043915976
108	0xbd0986d5	-0.03357585
109	0xbc9582fc	-0.018250935
110	0x3b1a752e	0.002356838
111	0xbbfa2daf	-0.0076348404
112	0xbc60c613	-0.0137191
113	0x3a0c7c89	0.00053591334
114	0x3c21e20c	0.009880554
115	0xbd1923d6	-0.03738769
116	0xbce4dda3	-0.027937716
117	0x3c5cd482	0.0134784
118	0xbb2bbbbf	-0.0026204435
119	0x3d6de9ca	0.058084287
120	0xbd1d84e0	-0.038456798
121	0xbd2ddd8f	-0.042447623
122	0xbc3f251c	-0.011666562
123	0x3c142a03	0.0090432195
124	0xbc0b8fa2	-0.008518131
125	0xbce55774	-0.027995802
126	0xbad20eb2	-0.0016026108
127	0xbcbca6b0	-0.023028702
128	0xbcc8379a	-0.024440575
129	0x3bed78b7	0.0072470563
130	0x3d488ffa	0.04896543
131	0xbe14b003	-0.14520268
132	0xbb73ce0a	-0.0037201666
133	0x3c3ff2d6	0.011715611
134	0x3c78e538	0.015191369
135	0xbb08300e	-0.0020780596
136	0xbd33c06e	-0.043884687
137	0xbd4d7347	-0.050158765
138	0x3c71298d	0.014719379
139	0x3de07407	0.109596305
140	0x3d829d45	0.06377653
141	0xbc184418	-0.009293579
142	0xbb4b0553	-0.0030978515
143	0xbb2a51e1	-0.0025988745
144	0xbcc7f02a	-0.024406511
145	0x3ca33646	0.01992334
146	0x3ce758ae	0.028240528
147	0xbab82980	-0.0014050454
148	0xbdc5b8db	-0.09654399
149	0xbbbd38b3	-0.0057745813
150	0x3c17d6ca	0.009267518
151	0x3ca6425d	0.020295316
152	0xbbb553c0	-0.0055336654
153	0xbc2adccd	-0.01042862
154	0x3d02cb9f	0.03193247
155	0xbad9dc72	-0.0016621484
156	0xbda7fd54	-0.082026154
157	0xbd130a8e	-0.035898738
158	0x3c8f91bb	0.017525544
159	0x3d5007ca	0.05078868
160	0x3cab05e4	0.020876832
161	0xbbb74799	-0.005593252
162	0x3c01a81d	0.0079136165
163	0x3c8371f9	0.016045557
164	0x3c08776d	0.008329255
165	0xbdd255c2	-0.10270263
166	0x3d98d4ed	0.07462487
167	0x3b24c3cc	0.0025141118
168	0xbd26ad14	-0.040692404
169	0xbb8f6311	-0.0043758233
170	0xbb2d2c66	-0.0026424169
171	0x3c2746c8	0.010209747
172	0x3d109c8d	0.03530555
173	0xbb40bbaa	-0.0029408731
174	0x3d5ed3ef	0.054401334
175	0x3d4c032a	0.049807705
176	0x3cf51a4c	0.029919766
177	0xbd032cc0	-0.0320251
178	0xbcc73a7d	-0.024319882
179	0xbadeb38c	-0.0016990765
180	0xbc3c312f	-0.011486336
181	0x3ce75f03	0.028243547
182	0xbca719d6	-0.020398062
183	0x3d170137	0.036866393
184	0x3c091209	0.008366116
185	0xbbf65eed	-0.0075186403
186	0xbcec6621	-0.028857293
187	0xbd27f74b	-0.04100732
188	0x3bfe17ec	0.0077543166
189	0x3c6996b1	0.014257119
190	0x3d3a1a08	0.04543498
191	0xbac49c73	-0.0015000239
192	0x3c8326e4	0.016009755
193	0xbd3edff3	-0.046600293
194	0x3d21ad09	0.03947166
195	0xbc0652de	-0.008198468
196	0xbd080342	-0.033206232
197	0x3cea0246	0.028565537
198	0x3d2e9243	0.042619955
199	0x3b82f1b3	0.003996098
200	0xbd19691f	-0.037453767
201	0x3d4d5fab	0.050140064
202	0x3d30a787	0.043128517
203	0x3d519ce4	0.051175013
204	0xbce59219	-0.028023766
205	0x3d099b23	0.033595216
206	0xbd032179	-0.032014344
207	0x3d0550a7	0.03254762
208	0xbc811489	-0.015756862
209	0x3d1754b4	0.036946014
210	0xbc39002d	-0.011291546
211	0x3cc5e2cc	0.024155997
212	0xbc8220b5	-0.015884737
213	0x3c6d591c	0.014486577
214	0xbcefd54d	-0.029276514
215	0xbd40d10c	-0.047074363
216	0xbc607cb2	-0.013701605
217	0x3b9e70e6	0.004835236
218	0xbcf0c92b	-0.0293928
219	0x3c88f3d9	0.016717838
220	0xbcaa1690	-0.020762712
221	0x3c075c3e	0.008261738
222	0x3d7c500c	0.061599776
223	0x3cb53113	0.022118127
224	0xbaf71504	-0.0018850868
225	0xbd85eeb5	-0.065396704
226	0x3ca295c7	0.01984681
227	0x3c4ce9f0	0.012506947
228	0x3d047a3d	0.032343138
229	0xbd5cfbbb	-0.053951006
230	0x3d609c2d	0.05483644
231	0x3d0d8d70	0.034558713
232	0x3c422e1c	0.011851814
233	0x3949b604	0.0001923666
234	0x3a67aa14	0.00088372943
235	0x3c322931	0.010874079
236	0x3bffa655	0.0078018107
237	0xbd18af8a	-0.037276782
238	0x3da5eb16	0.0810148
239	0x3be0bbd8	0.00685833
240	0x3ce0297e	0.027363535
241	0xbbe670dd	-0.0070324973
242	0xbd0c1fca	-0.034210004
243	0xbd057291	-0.032579962
244	0xbc313d45	-0.01081783
245	0x3c8cc439	0.01718341
246	0x3daef499	0.08542747
247	0xbddf61f1	-0.10907353
248	0xbd073d67	-0.033017542
249	0x3d02814e	0.031861596
250	0xbd2a0e45	-0.041517515
251	0xbd08b0e0	-0.033371806
252	0x3d29c693	0.04144914
253	0x3cbc47c4	0.02298344
254	0xbd9e2285	-0.07721428
255	0x3c9deb71	0.019277306

backbone.1.conv3x3.bias f4 [32]
0	0xbd575799	-0.052573774
1	0x3d6968e3	0.056984793
2	0x3d2a5056	0.04158052
3	0xbd3bdefa	-0.045866944
4	0x3d3ca50c	0.04605584
5	0xbd61cb33	-0.055125427
6	0x3d1f60b5	0.038910586
7	0x3d275156	0.040849052
8	0x3d1811ee	0.037126474
9	0x3ccb1be7	0.024793578
10	0xbd11088b	-0.035408538
11	0xbcd11a56	-0.025525253
12	0x3c4cde2b	0.012504141
13	0x3cbf7e2e	0.023375597
14	0x3d5523f1	0.05203623
15	0x3b3650ab	0.0027819078
16	0x3cc694cc	0.024240874
17	0xbd35a957	-0.04435095
18	0xbc45b2e7	-0.012066579
19	0x3d103172	0.035203405
20	0x3b94563a	0.0045268806
21	0x3d3e5ad0	0.046473324
22	0xbd418dca	-0.04725436
23	0xbd216412	-0.039402075
24	0x3c9a5f7d	0.01884436
25	0xbb1ba073	-0.0023746758
26	0xbd4e51be	-0.050370924
27	0x3ccbddbe	0.024886008
28	0x3b28070a	0.0025638961
29	0x3c67532f	0.014118954
30	0x3c5ac8dd	0.013353554
31	0xbd271aa6	-0.0407969

backbone.1.bn.weight f4 [32]
0	0x3f85102c	1.039556
1	0x3f794cb8	0.9738269
2	0x3f820c93	1.0160087
3	0x3f7be88e	0.98401725
4	0x3f82083d	1.0158764
5	0x3f793767	0.9735016
6	0x3f74239e	0.9536685
7	0x3f856719	1.0422088
8	0x3f85b216	1.0444973
9	0x3f7f3b45	0.99699813
10	0x3f8b4e42	1.0883257
11	0x3f8199bd	1.0125042
12	0x3f7b0c67	0.980658
13	0x3f7bdf1c	0.9838731
14	0x3f7d6993	0.9898922
15	0x3f74368b	0.95395726
16	0x3f716957	0.9430136
17	0x3f7cd231	0.98758227
18	0x3f85ff0b	1.0468458
19	0x3f80d00a	1.0063488
20	0x3f7a6b5e	0.9782008
21	0x3f822932	1.0168822
22	0x3f81945c	1.0123401
23	0x3f83d7e9	1.0300266
24	0x3f7c71e6	0.98611295
25	0x3f7a77d0	0.9783907
26	0x3f7f3ced	0.9970234
27	0x3f80692f	1.00321
28	0x3f7a5339	0.9778324
29	0x3f7ce370	0.9878454
30	0x3f825da1	1.0184823
31	0x3f7c1089	0.9846273

backbone.1.bn.bias f4 [32]
0	0xbb3da27b	-0.0028935957
1	0xbdab3154	-0.08359018
2	0xbe12c74c	-0.14333838
3	0x3c5f08e7	0.013612962
4	0xbb9ca86d	-0.00478082
5	0xbc7fa8c7	-0.0156042045
6	0xbd098c69	-0.03358117
7	0xbe319c21	-0.17344715
8	0xbdd15155	-0.10220591
9	0xbd326e04	-0.04356195
10	0xbdbf3c32	-0.09337653
11	0x3ce9222e	0.028458681
12	0xbce0b25b	-0.027428797
13	0xbd7c1950	-0.061547577
14	0xbd89c278	-0.06726545
15	0xbca6a42b	-0.020341953
16	0xbd56fe9a	-0.0524889
17	0xbdd470bf	-0.10373067
18	0x3d42a53c	0.04752086
19	0xbdd43228	-0.10361129
20	0xbd110aa2	-0.03541053
21	0x3d879669	0.06620485
22	0xbde67720	-0.1125319
23	0x3d84568d	0.06461821
24	0xbb27027a	-0.0025483654
25	0xbd795a65	-0.060877223
26	0xbb9dc864	-0.004815148
27	0xbde61c5c	-0.11235878
28	0x3cefa57e	0.029253718
29	0xbd9a9035	-0.075470366
30	0xbc877f65	-0.016540239
31	0xbd3a7bd8	-0.045528263

backbone.1.bn.running_mean f4 [32]
0	0xbe1c7ea5	-0.15282686
1	0x3e21bc0b	0.15794389
2	0x3e3e46be	0.18581674
3	0xbedad4b6	-0.4274041
4	0xbe57f63b	-0.21090023
5	0xbdeac203	-0.11462786
6	0x3e71fdfe	0.23632047
7	0x3e42ce0e	0.19023916
8	0x3da751a3	0.08169868
9	0x3e226499	0.15858687
10	0xbe1cb63f	-0.15303896
11	0xbe15bd74	-0.14623052
12	0xbe524c27	-0.20536862
13	0x3ea1afd2	0.31579453
14	0x3f16b283	0.5886614
15	0xbe7f4763	-0.24929576
16	0xbd6d0141	-0.057862524
17	0xbdd53417	-0.10410326
18	0xbf13ba6e	-0.57706344
19	0xbd36f3b3	-0.044666003
20	0x3e9c6b15	0.30550447
21	0xbdc2bed3	-0.09509053
22	0x3ed37928	0.41303372
23	0xbebc2604	-0.36747754
24	0xbdd9a11d	-0.10626433
25	0xbc932607	-0.017962469
26	0x3e92e849	0.28692845
27	0x3ef3888e	0.4756512
28	0x3eb92559	0.36161307
29	0xbe7b9380	-0.24567986
30	0x3db0e0d0	0.086366296
31	0x3e333ee1	0.17504455

backbone.1.bn.running_var f4 [32]
0	0x3db90efd	0.09036062
1	0x3d85d424	0.06534603
2	0x3da0f835	0.07859842
3	0x3e7d46c9	0.24734034
4	0x3e16f26f	0.14740919
5	0x3ea566db	0.32305035
6	0x3e34d9e2	0.1766124
7	0x3e0fcdf6	0.14043412
8	0x3e02fccc	0.12791747
9	0x3e03ed82	0.12883571
10	0x3df8a9ae	0.12141739
11	0x3e5c56f6	0.21517548
12	0x3df42d4d	0.11922703
13	0x3e212089	0.15735067
14	0x3eb14618	0.3462379
15	0x3eafd7a9	0.34344223
16	0x3e3df5c0	0.18550777
17	0x3e0ce9e3	0.13761096
18	0x3ea19817	0.31561348
19	0x3e16336b	0.14668052
20	0x3e2602ba	0.16211978
21	0x3e9e8e1d	0.309678
22	0x3df42cd0	0.1192261
23	0x3e2d438a	0.16920295
24	0x3e30bc79	0.17259397
25	0x3e906649	0.28203037
26	0x3e2501ba	0.1611394
27	0x3e4c82f8	0.19971836
28	0x3f13f81f	0.5780048
29	0x3e9aafb0	0.30212164
30	0x3e338365	0.17530592
31	0x3e6f9819	0.23397864

backbone.2.conv3x3.weight f4 [32, 32, 3, 3]
0	0xbb9fc120	-0.004875317
1	0xbc62b6a7	-0.013837493
2	0x3d172385	0.03689911
3	0xbcdb42b2	-0.026765201
4	0x3cdd6965	0.027027795
5	0xbcc75309	-0.024331586
6	0x3c524b23	0.012835297
7	0x3e08c7f5	0.13357528
8	0x3b9f4d6b	0.004861524
9	0xbd0de5b6	-0.034642898
10	0x3cc81a61	0.024426641
11	0xbb4f5f72	-0.0031642583
12	0x3c7c4b4d	0.0153988125
13	0xbc02e9f5	-0.00799035
14	0xba99b974	-0.0011728243
15	0x3d107ef4	0.035277322
16	0xbc8e93f6	-0.017404538
17	0xbd1a5ee9	-0.03768817
18	0xbcb2c64c	-0.021823071
19	0x3cff18d7	0.031139774
20	0xbcb7cecc	-0.022437476
21	0xbd000d57	-0.031262722
22	0x3dc131b9	0.09433312
23	0x3c434804	0.011919025
24	0x3ce96eeb	0.028495273
25	0xbc829679	-0.015940892
26	0xbc9f4463	-0.019441789
27	0x3da1f713	0.07908454
28	0xbc361c4d	-0.011115146
29	0x3c675349	0.014118978
30	0x3d1727be	0.036903135
31	0xbc166d6f	-0.009181364
32	0x3baad8ea	0.0052138465
33	0xbd17cbe0	-0.037059665
34	0xbc42f169	-0.011898377
35	0x3b5a8410	0.0033342876
36	0xbd0dc570	-0.03461212
37	0x3d539a0e	0.05166059
38	0x3c881cc4	0.016615279
39	0xbc2a8be9	-0.010409334
40	0xbcd4ecf4	-0.025991894
41	0xbd72c299	-0.059267614
42	0xbcf28e54	-0.029608883
43	0xbd089044	-0.033340707
44	0x3cce43cf	0.025178818
45	0xbd1acccf	-0.037792977
46	0xbcc59819	-0.024120377
47	0x3caf83dd	0.021425182
48	0xbc8f586c	-0.017498218
49	0xbcc4819d	-0.023987586
50	0xbc98d7c2	-0.018657569
51	0x3d18ddc8	0.037320882
52	0x3d5c300b	0.053756755
53	0x3b0db564	0.002162301
54	0xbd070fc2	-0.032974012
55	0x3d1a4839	0.037666533
56	0x3d0f340c	0.034961745
57	0x3c109a9a	0.008825922
58	0x3d57e488	0.05270818
59	0x3c968cae	0.018377628
60	0xbd2b2c12	-0.041790076
61	0xbc33b9cd	-0.010969591
62	0x3c4e2c7b	0.012583847
63	0xbabb612a	-0.0014295925
64	0x3c856d90	0.016287595
65	0x3b7f69e8	0.0038973037
66	0xbba2d8b7	-0.004969682
67	0x3c19b6d8	0.009381972
68	0x3ccdd1dd	0.025124485
69	0xbcdd171a	-0.026988555
70	0x3deab86c	0.11460957
71	0x3b687023	0.003546723
72	0xbd17c323	-0.03705133
73	0xbd45d602	-0.048299797
74	0xbc92c885	-0.01791788
75	0x3de65781	0.11247159
76	0x3c37d21e	0.011219529
77	0x3c55f8f4	0.013059843
78	0x3d13f129	0.03611866
79	0xbd2b5292	-0.041826792
80	0x3c8277b1	0.015926214
81	0x3c711a88	0.014715798
82	0xbd147833	-0.036247443
83	0xbcaa3784	-0.020778425
84	0xbd7fcbc6	-0.062450193
85	0x3d852cbe	0.065026745
86	0x3d1b32e6	0.037890337
87	0xbd3f1991	-0.04665524
88	0x3bec847a	0.007217941
89	0xbc38eee7	-0.0112874275
90	0xbc67ef74	-0.014156211
91	0xba26fbc5	-0.0006369914
92	0x3c93f8bf	0.018062947
93	0x3e1c858d	0.1528532
94	0x3c937c37	0.018003566
95	0xbc8479fc	-0.016171448
96	0xbc60d662	-0.013722988
97	0xbcac540c	-0.02103617
98	0x3bc8d112	0.0061284387
99	0xbcf8c4d8	-0.0303673
100	0xbd38c941	-0.045113806
101	0xbd5135d9	-0.051076744
102	0xbd096146	-0.033540033
103	0xbd0d2f9e	-0.03446924
104	0x3c54ab88	0.012980349
105	0xbd20d442	-0.039264925
106	0xbd35286a	-0.044227995
107	0xbd5d383e	-0.054008715
108	0x3cb9d9ac	0.022686802
109	0x3d99f7dd	0.07517979
110	0x3d966625	0.07343701
111	0x3a0168fe	0.00049366045
112	0x3caaaa87	0.020833267
113	0x3b0ea001	0.002176285
114	0xbc53a5cc	-0.012917947
115	0xbbe88176	-0.007095511
116	0xbd29c337	-0.041445937
117	0xbd38c957	-0.045113888
118	0x3ce50d6a	0.027960498
119	0xbc0b2d88	-0.008494742
120	0x3ac16fe8	0.0014758082
121	0x3db80e56	0.08987109
122	0xbcdb35a1	-0.02675897
123	0xbc5fab55	-0.013651689
124	0xbbb8f098	-0.0056439154
125	0xbd2ad654	-0.041708305
126	0xb9b0f72b	-0.0003375349
127	0xbbdcc43b	-0.0067372597
128	0xbaddfd8b	-0.0016936524
129	0x3d8190d9	0.063264556
130	0xbb057b92	-0.0020367843
131	0x3d943b9f	0.07237934
132	0x3cdbcf56	0.026832264
133	0x3d1c1a19	0.038110826
134	0x3ccf0e87	0.025275482
135	0x3c8a0a62	0.016850654
136	0xbc503095	-0.012706895
137	0xbb9abae0	-0.0047219843
138	0xbb9b7070	-0.004743628
139	0xbcfd2233	-0.030900097
140	0x3d342e5c	0.043989524
141	0xbd525be9	-0.051357184
142	0x3b79a337	0.0038091668
143	0x3ba31b1a	0.004977596
144	0xbd3bfa0d	-0.045892764
145	0xbd1c74fd	-0.038197506
146	0xbd507190	-0.05088955
147	0x3ce279a0	0.027645886
148	0xbcd087e1	-0.025455417
149	0x3c2a0668	0.010377504
150	0xbc76d6e4	-0.015065882
151	0xbc49fc52	-0.012328224
152	0x3cabbbd4	0.020963587
153	0x3cbee578	0.023302779
154	0x3c41792c	0.011808675
155	0x3d7b91f5	0.061418492
156	0xbd05ff8e	-0.03271442
157	0xbd24a43f	-0.0401957
158	0x3c71145b	0.014714326
159	0x3d3aa17d	0.045564163
160	0xbc995ba7	-0.018720461
161	0xbc95bac8	-0.01827754
162	0x3d57e639	0.05270979
163	0xbd2466b4	-0.040137008
164	0xbd854ccb	-0.06508788
165	0x3bbaa49e	0.0056958934
166	0xbcb105cc	-0.02160921
167	0xbc714f20	-0.0147283375
168	0xbc26153f	-0.010136901
169	0x3d147418	0.036243528
170	0x3d6a16da	0.0571507
171	0x3c8d5dc3	0.017256623
172	0xbc369ff1	-0.011146531
173	0x3b3f9e72	0.0029238728
174	0x3d101a4b	0.035181325
175	0x3c3e8078	0.011627309
176	0x3d57e936	0.05271264
177	0x3c04702d	0.008083385
178	0x3c30d48c	0.010792863
179	0x3cefc4f2	0.029268716
180	0xbccecd56	-0.025244396
181	0xbcaeb29f	-0.021325408
182	0x3d07739f	0.03306925
183	0x3c885108	0.016640201
184	0x3d2f6dc1	0.04282928
185	0x39014ac1	0.00012330247
186	0xbd27cc67	-0.040966418
187	0x3d9f76ef	0.07786357
188	0x3c4d0006	0.012512213
189	0x3d650d82	0.055921085
190	0xbd5391ab	-0.05165259
191	0x3c815ea8	0.015792206
192	0xbd7bd0d8	-0.061478466
193	0x3c3b71b7	0.011440686
194	0x3d0d66eb	0.03452198
195	0xbcfa9ed9	-0.030593323
196	0x3d1e3272	0.038622327
197	0xbba6317f	-0.0050718184
198	0x3d19e33f	0.037570234
199	0x3d62fe50	0.055418313
200	0x3bbcac4b	0.0057578436
201	0x3c5e0880	0.013551831
202	0x3db409e9	0.08790953
203	0xbc0725cf	-0.00824876
204	0xbd44e28c	-0.048067614
205	0x3cc1b569	0.023646073
206	0xbd2e83e8	-0.042606264
207	0xbce0896e	-0.027409282
208	0x3d33d124	0.043900624
209	0x3d823a03	0.06358721
210	0xbd13bb41	-0.03606725
211	0x3c787238	0.015163951
212	0x3d09ffd2	0.033691235
213	0x3b062d51	0.0020473788
214	0x3a12a4f2	0.0005594037
215	0x3cc37b7c	0.023862593
216	0xbcd74182	-0.026276354
217	0xbc116884	-0.008875016
218	0xbc492d67	-0.012278891
219	0x3cee84b9	0.029116021
220	0xbc99d0b3	-0.018776273
221	0xbd533959	-0.051568363
222	0xbc6a7100	-0.014309168
223	0x3ca1d25a	0.019753624
224	0x3be0e3b7	0.006863083
225	0x3d3235df	0.043508407
226	0x3d4b5bb2	0.049647994
227	0x3d56f01f	0.05247509
228	0xbd206249	-0.039156232
229	0xbc60c5f3	-0.01371907
230	0xbd33ff7f	-0.043944832
231	0xbd03b7e5	-0.032157797
232	0xbcabc3fa	-0.020967472
233	0x3d332407	0.04373553
234	0x3bb52380	0.0055279136
235	0x3cd24f9a	0.025672723
236	0xbd4bf106	-0.049790405
237	0xbd79d0ef	-0.06099027
238	0xbc1a93ef	-0.009434684
239	0x3d67d7d7	0.056602325
240	0x3cacf19f	0.021111308
241	0xbd47e206	-0.048799537
242	0x3c9e3653	0.019313013
243	0xbc135c6d	-0.008994204
244	0x3c4a6346	0.01235277
245	0xbc9c0511	-0.019045385
246	0x3bc3f85f	0.005980536
247	0x3b9c2c40	0.004766017
248	0xbd4d7535	-0.050160605
249	0xbb5511f6	-0.0032511926
250	0x3d09ae6c	0.033613607
251	0xbcb9e8f3	-0.022694087
252	0xbd0185db	-0.031621795
253	0xbd75bf1d	-0.059996713
254	0xbc4c7844	-0.012479845
255	0xbd166512	-0.036717482

backbone.2.conv3x3.bias f4 [32]
0	0xbd3441c2	-0.044008024
1	0x3cea0eed	0.02857157
2	0xbd2ef739	-0.04271624
3	0xbd3aee00	-0.04563713
4	0xbd306cf3	-0.043072652
5	0xbd4242dc	-0.047427043
6	0x3d3ab003	0.045578014
7	0xbccf9dc0	-0.025343776
8	0x3d14bee7	0.03631487
9	0xbc843d4d	-0.016142512
10	0xbc91e4f3	-0.017809367
11	0xbc84735f	-0.016168294
12	0xbd42e88b	-0.04758505
13	0x3c8b11aa	0.016976196
14	0xbcbe4d75	-0.023230294
15	0x3c8f53f4	0.017496087
16	0xbd4d0ab8	-0.05005905
17	0x3c17ac21	0.009257347
18	0x3d438118	0.047730535
19	0xbc955b5f	-0.018232046
20	0x3c4b55a3	0.012410554
21	0xbd6dec0a	-0.058086433
22	0xbcc57cb4	-0.024107315
23	0x3d47abc3	0.04874779
24	0x3cbeefc5	0.02330769
25	0x3cb201fb	0.02172946
26	0x3cd19981	0.025585892
27	0xbc44e4d6	-0.012017449
28	0xbccb60df	-0.024826465
29	0x3d631eeb	0.055449408
30	0xbcb1fb5d	-0.021726305
31	0xbb9a2206	-0.004703763

backbone.2.bn.weight f4 [32]
0	0x3f843e93	1.0331596
1	0x3f7def62	0.99193394
2	0x3f8347f5	1.0256335
3	0x3f787ddc	0.97067046
4	0x3f7eca6a	0.9952761
5	0x3f73ade0	0.9518719
6	0x3f7b4a60	0.9816036
7	0x3f765d36	0.9623598
8	0x3f789b75	0.9711221
9	0x3f80344f	1.0015963
10	0x3f71b0a7	0.94410175
11	0x3f7f6a21	0.99771315
12	0x3f7b797d	0.9823225
13	0x3f7d3ba9	0.9891916
14	0x3f7d3473	0.98908156
15	0x3f8eac1d	1.1146275
16	0x3f7f9cc5	0.99848586
17	0x3f7503a1	0.9570866
18	0x3f8333a7	1.0250138
19	0x3f870adc	1.0550189
20	0x3f7cb2e2	0.98710454
21	0x3f75d3a0	0.9602604
22	0x3f7b2074	0.98096395
23	0x3f7f0a3c	0.9962499
24	0x3f73d467	0.95245975
25	0x3f7cd66b	0.98764676
26	0x3f80e9c0	1.0071335
27	0x3f80a992	1.0051749
28	0x3f88c9ca	1.0686581
29	0x3f780f05	0.9689792
30	0x3f7fecbb	0.999706
31	0x3f6e9123	0.9319021

backbone.2.bn.bias f4 [32]
0	0xbe152e28	-0.14568388
1	0xbd566e02	-0.052351005
2	0xbdc48bd3	-0.09596982
3	0xbd0b322c	-0.033983395
4	0xbe0f0174	-0.13965398
5	0xbd6c7b52	-0.057734795
6	0xbc8bae0c	-0.017050765
7	0xbdd9ce34	-0.10635033
8	0xbc73cf91	-0.014881031
9	0xbdbdf631	-0.09275473
10	0xbdd91a1b	-0.10600682
11	0xbbed29e6	-0.0072376607
12	0xbda54062	-0.08068921
13	0xbdcf14dd	-0.10111401
14	0xbdc5f159	-0.09665174
15	0xbe2a1da7	-0.16612874
16	0xbd353ce0	-0.044247508
17	0xbd8caddd	-0.06869099
18	0xbe19fbb4	-0.15037423
19	0xbe0251ef	-0.12726568
20	0xbdbfd649	-0.093670435
21	0xbd578cf1	-0.052624647
22	0xbc066d1f	-0.008204727
23	0xbda8c6de	-0.08241056
24	0xbd7ebc7a	-0.062191464
25	0xbdbefb78	-0.093253076
26	0xbdf7986e	-0.120896205
27	0xbdf85150	-0.12124884
28	0xbe2cb957	-0.16867577
29	0xba95a201	-0.0011416079
30	0x3c13fa41	0.009031833
31	0xbd9a4658	-0.07532948

backbone.2.bn.running_mean f4 [32]
0	0x3e0f3749	0.13985933
1	0x3d5afe05	0.05346491
2	0x3dc52501	0.096261986
3	0xbe557401	-0.20845033
4	0x3e9913d6	0.29897946
5	0xbe021af4	-0.12705594
6	0xbc821fb9	-0.015884267
7	0x3e1c92d2	0.15290383
8	0xbe7949a7	-0.24344502
9	0x3e89d92c	0.26923501
10	0xbdc0ee30	-0.09420431
11	0xbf0784d0	-0.5293703
12	0x3edacf75	0.42736402
13	0x3dececfd	0.115686394
14	0x3ecd8c79	0.40146235
15	0x3dadec96	0.08492391
16	0x3da63ae0	0.08116698
17	0x3d55dd16	0.052212797
18	0x3df0aae7	0.11751347
19	0xbcee2914	-0.029072322
20	0x3eae50ee	0.3404612
21	0x3eb43f20	0.3520441
22	0x3e910cb7	0.28330013
23	0x3e824ee1	0.25450805
24	0x3f2ab152	0.6667682
25	0x3da616fe	0.08109854
26	0x3ea55bec	0.32296693
27	0x3e60e87d	0.21963687
28	0x3cfe02a6	0.031007122
29	0xbe7616c3	-0.2403212
30	0xbefd6718	-0.49492717
31	0xbdde49d7	-0.108539276

backbone.2.bn.running_var f4 [32]
0	0x3e88f207	0.26747152
1	0x3eb01b7c	0.3439597
2	0x3e35be4a	0.17748371
3	0x3e8446d2	0.25835282
4	0x3e63e3f2	0.22254923
5	0x3e88f792	0.2675138
6	0x3ea526ac	0.32256067
7	0x3e333b56	0.17503104
8	0x3eb5e3ff	0.3552551
9	0x3ea2ba23	0.31782636
10	0x3e7022c5	0.23450764
11	0x3e48f2c5	0.19623859
12	0x3ebd2348	0.3694098
13	0x3e3d98da	0.1851534
14	0x3e99fd83	0.30076227
15	0x3e1cf5e4	0.15328175
16	0x3e34cc5d	0.17656083
17	0x3e8fd447	0.28091642
18	0x3e513af0	0.20432639
19	0x3dfb8ebb	0.12283083
20	0x3e6fd9ea	0.23422971
21	0x3e7a7389	0.24458136
22	0x3e8e9f85	0.2785608
23	0x3e6478b6	0.22311673
24	0x3f66d640	0.9017067
25	0x3e4ac8b6	0.19803128
26	0x3e58aaf5	0.21158965
27	0x3e6f6007	0.23376475
28	0x3e102688	0.14077199
29	0x3e9718ae	0.29511017
30	0x3ef93da4	0.4867984
31	0x3e3b3226	0.18280849

backbone.3.conv3x3.weight f4 [32, 32, 3, 3]
0	0xbd0f15b7	-0.03493282
1	0x3d1aab3b	0.037760954
2	0x3aba92e5	0.0014234452
3	0xbc0d635c	-0.008629646
4	0x3c496329	0.012291708
5	0x3c9e0a4c	0.01929202
6	0xbd63b5de	-0.055593364
7	0x3d2d8739	0.042365286
8	0x3d86ecb5	0.06588117
9	0xbca00c52	-0.019537125
10	0xbd311429	-0.043232117
11	0x3c82ebf3	0.01598165
12	0xb8d5a953	-0.000101881706
13	0xbd58b4a9	-0.052906666
14	0x3ca03cff	0.019560335
15	0xbcabf3b3	-0.020990228
16	0x3be12e4f	0.0068719755
17	0x3b56e2cd	0.0032788992
18	0xbcd2f757	-0.025752706
19	0xbc922447	-0.017839564
20	0x3cd9c80e	0.026584651
21	0xbd06aedf	-0.032881614
22	0xbbf1dee7	-0.0073813084
23	0xbcbc4087	-0.022979988
24	0xbd073386	-0.03300812
25	0x3d3b0b6f	0.0456652
26	0xbd2aa6a3	-0.041662823
27	0xbd3482b3	-0.044069957
28	0xbc816d45	-0.015799174
29	0x3d283238	0.041063517
30	0xbd12f984	-0.035882488
31	0x3ccd796e	0.025082316
32	0x3d8b417a	0.06799598
33	0x3d57940e	0.05263143
34	0x3d66c8f9	0.056344006
35	0x3b5d7975	0.0033794318
36	0xbd1460fc	-0.036225304
37	0x3d15d10d	0.03657632
38	0x3d00f99a	0.03148804
39	0xbca8899a	-0.020573426
40	0xbd77f247	-0.060533788
41	0x3db41fc0	0.08795118
42	0x3a9ce67a	0.0011970543
43	0x3d8b04d1	0.06788028
44	0x391469e6	0.0001415383
45	0xbd76c28c	-0.060244128
46	0x3d5228ac	0.05130832
47	0xbd4037bf	-0.046928164
48	0xbceb65ce	-0.028735068
49	0x3d3b9337	0.045794692
50	0xbc871a68	-0.016492084
51	0x3c78dd60	0.015189499
52	0x3cf93d6d	0.030424798
53	0xbc37c134	-0.011215497
54	0xbb888240	-0.0041659176
55	0x3bea316d	0.0071470053
56	0xbc9aec31	-0.018911453
57	0x3c945142	0.018105153
58	0x3be319c8	0.0069305636
59	0xbd018526	-0.03162112
60	0xbc85c195	-0.016327659
61	0xbd493b12	-0.0491286
62	0xbcd4df43	-0.025985366
63	0xbc4ae972	-0.012384759
64	0x3d68b89b	0.05681668
65	0xbbca9e4f	-0.0061834226
66	0x3ce8481e	0.0283547
67	0xbd30379a	-0.043021776
68	0xbcb60e6a	-0.02222367
69	0x3c1f4c32	0.009722756
70	0x3d3a8037	0.04553243
71	0xbca72c89	-0.020406978
72	0xbd23a8f2	-0.03995604
73	0xbc386a19	-0.011255764
74	0xbc0377c7	-0.008024163
75	0x3cfc2209	0.030777948
76	0xbd84aa80	-0.06477833
77	0x3c894231	0.016755195
78	0x3cc12d43	0.023581153
79	0xbd607195	-0.05479582
80	0x3c811a26	0.015759539
81	0x3c18cc0a	0.00932599
82	0x3d22e2dd	0.039767135
83	0xbc97493b	-0.018467536
84	0x3cea3758	0.028590843
85	0xbc595cc4	-0.013266746
86	0xbc67a338	-0.0141380355
87	0x3c824d5a	0.015906025
88	0xbc64fbea	-0.013976077
89	0x3d1a2b23	0.037638795
90	0x3cd769e9	0.02629562
91	0xbcb5b8ef	-0.02218291
92	0xbca02a43	-0.019551402
93	0xbb54ab0b	-0.0032450582
94	0xbd67dc2c	-0.056606457
95	0x3d9d9221	0.076938875
96	0x3cf7d029	0.030250626
97	0x3d7db764	0.061942473
98	0xbd1e0b3c	-0.038584933
99	0xbcfc07e9	-0.03076549
100	0x3cfc6210	0.030808479
101	0xb532d44c	-6.66191e-07
102	0xbc861124	-0.016365595
103	0xbca0f163	-0.019646352
104	0xbd0e4981	-0.034738068
105	0xbcfdcb5b	-0.030980757
106	0x3c949f84	0.01814247
107	0xbccf0ebe	-0.025275584
108	0x3c3508fb	0.011049504
109	0x3d34f3ac	0.044177696
110	0xbcf88552	-0.03033701
111	0x3cd522c2	0.02601755
112	0x3d6daf6b	0.05802862
113	0x3cb5f17b	0.022209873
114	0x3cc024a2	0.023454968
115	0xbc545591	-0.012959854
116	0x3c8bb664	0.017054744
117	0xbc7eed44	-0.015559498
118	0x3da41643	0.080120586
119	0xbc4b4b5c	-0.012408104
120	0xbd0f29e2	-0.034952052
121	0xbc9b845a	-0.018984009
122	0x3d3c9ffd	0.046051014
123	0x3d1eb31f	0.038745042
124	0xbc317221	-0.010830433
125	0x3ccbc430	0.024873823
126	0xbc43dabf	-0.011954009
127	0x3c0300d4	0.007995803
128	0x3ce76697	0.02824716
129	0x3ce35de3	0.02775473
130	0x3b9025b5	0.0043990263
131	0x3d717fa6	0.058959626
132	0x3b31027e	0.0027009542
133	0x3bf1088d	0.0073557557
134	0x3c0d07c1	0.008607806
135	0xbbf3f562	-0.0074450234
136	0x3d85168f	0.06498443
137	0x3cceb070	0.025230616
138	0x3dc61c52	0.096733704
139	0xbd472115	-0.048615534
140	0x3b5fa106	0.0034123077
141	0x3a4ccbc5	0.00078123464
142	0x3dd8d2cc	0.10587081
143	0xba9c5b68	-0.0011929097
144	0xbcb91345	-0.022592196
145	0xbc81f38c	-0.015863203
146	0xbd08bc81	-0.033382896
147	0xbd5188e5	-0.051155943
148	0xbd803e17	-0.06261843
149	0x3cc16c34	0.023611166
150	0xba5f1318	-0.000850962
151	0xba86c46e	-0.0010281929
152	0x3d0de1d3	0.03463919
153	0xbc14d011	-0.00908281
154	0x3d7ea447	0.062168386
155	0xbbdac82b	-0.006676694
156	0xbcb1195c	-0.021618538
157	0x3c4c74cb	0.0124790175
158	0xbd0ae2a5	-0.03390755
159	0x3c679733	0.01413517
160	0x3c87177a	0.016490687
161	0x3c0bf678	0.008542649
162	0x3d557a15	0.05211838
163	0x3d4abae9	0.049494658
164	0x3b42b3d2	0.0029709232
165	0xbd5e996b	-0.05434553
166	0x3cf57565	0.029963205
167	0xbcd79cb5	-0.02631984
168	0x3a674c4c	0.000882332
169	0x3d09a75b	0.03360687
170	0x3c3fefca	0.011714885
171	0x3b61c6a6	0.003445068
172	0xbd12f59b	-0.03587876
173	0x3cc149bb	0.023594728
174	0xbd2f85a5	-0.042852063
175	0xbd5a8373	-0.053348016
176	0x3d9d34ad	0.07676063
177	0xbc5dea8a	-0.013544688
178	0x3d5f2e47	0.054487493
179	0x3c24868a	0.010041842
180	0x3d20bb21	0.03924096
181	0x3cb8c8d0	0.022556692
182	0xbd2df62b	-0.042471092
183	0x3c2d6177	0.010582319
184	0x3c042356	0.008065065
185	0xbc811340	-0.01575625
186	0xbd10622b	-0.03524987
187	0xbcb5a045	-0.022171149
188	0x3ccb19e3	0.024792617
189	0xbc7dbcd0	-0.015486911
190	0x3c152b3f	0.009104549
191	0xbc55476d	-0.0130175175
192	0x3d28f5d3	0.04125006
193	0x3c5f1f32	0.013618277
194	0x3c2b7b97	0.010466478
195	0x3d29218d	0.041291762
196	0x3c891348	0.016732827
197	0xbd0e8a8e	-0.034800105
198	0x3c7111a0	0.014713675
199	0xbcacb579	-0.021082627
200	0x3d33392f	0.043755706
201	0xbd637bf4	-0.055538133
202	0xbd1f1598	-0.038838953
203	0x3cc8fde6	0.02453513
204	0xbd05a7fd	-0.03263091
205	0x3cadf39c	0.021234326
206	0xbd4d7b6a	-0.050166525
207	0x39cb8f4c	0.00038825942
208	0x3da377ac	0.0798181
209	0x3936342d	0.0001737631
210	0xbc1816de	-0.009282796
211	0x3c4228f1	0.0118505815
212	0xbce0d4f2	-0.02744529
213	0x3c0b18af	0.008489772
214	0xbd0f7afd	-0.0350294
215	0xbd7a0a5b	-0.061045032
216	0xbbc28e99	-0.005937409
217	0x3d266f66	0.04063358
218	0xbcf12736	-0.029437643
219	0xbd55b313	-0.05217273
220	0xbcd48592	-0.025942598
221	0x3cc47ba1	0.023984732
222	0xbc8f186a	-0.017467696
223	0xbd3c747b	-0.046009522
224	0x3c023e8c	0.007949483
225	0xbcc3fbf5	-0.023923853
226	0x3bbe396c	0.005805185
227	0x3cadd0f2	0.021217797
228	0x3d18cb30	0.03730315
229	0xbc42dbc2	-0.011893215
230	0xbd29213e	-0.041291468
231	0xbcbf16cd	-0.023326302
232	0xbb2b5328	-0.0026142094
233	0xbc813daf	-0.015776483
234	0x3d6f121d	0.058366884
235	0xbcc8c20e	-0.024506595
236	0xbd51a940	-0.0511868
237	0x3d02c546	0.031926416
238	0x3c1b5beb	0.009482364
239	0x3d2ca873	0.042152833
240	0x3d6d39c0	0.057916403
241	0x3d142114	0.03616436
242	0x3d509234	0.05092068
243	0x3af64ff6	0.0018792141
244	0xbca7e78f	-0.020496158
245	0x3c4fc7d6	0.012681922
246	0xbc336ffd	-0.010951993
247	0xbd3e6338	-0.04648134
248	0x3d87b465	0.066262044
249	0x3cee87d9	0.029117512
250	0xbc41ff63	-0.011840674
251	0x3d46f5db	0.04857431
252	0x3cddbf1b	0.027068665
253	0x3d942946	0.07234435
254	0x3cc938d5	0.024563232
255	0x3c5ce440	0.013482153

backbone.3.conv3x3.bias f4 [32]
0	0x3d1285e2	0.03577221
1	0x3ba2f329	0.0049728346
2	0xbcb48f9c	-0.022041135
3	0x3c01e0e0	0.0079271495
4	0xbc98122a	-0.018563349
5	0xbd3e4a0f	-0.046457347
6	0xbc2423d0	-0.010018304
7	0xbd6fe6e4	-0.058569804
8	0xbc9be2fe	-0.019029137
9	0x3c9e225c	0.019303493
10	0xbd3da0b0	-0.04629582
11	0x3cb61f55	0.022231737
12	0x3d713a93	0.05889375
13	0x3c7640fd	0.015030143
14	0xbd24b484	-0.040211216
15	0xbca6cf54	-0.020362534
16	0xbc7bd091	-0.01536955
17	0xbbac8a43	-0.0052655055
18	0xbd2f580d	-0.04280858
19	0xbc7e5bc8	-0.015524812
20	0x3c90475c	0.017612152
21	0xbd5deb8e	-0.05417972
22	0xbd30ace8	-0.043133646
23	0x3ce48b7d	0.027898544
24	0xbc50ebef	-0.012751563
25	0xbcffd2e5	-0.031228492
26	0x3a01d4bb	0.0004952659
27	0x3d020e2f	0.031751808
28	0x3cf4a85c	0.029865436
29	0xbc1ba3aa	-0.00949947
30	0xbbf6b14a	-0.0075284587
31	0x3ce83724	0.028346606

backbone.3.bn.weight f4 [32]
0	0x3f748f17	0.9553084
1	0x3f80cd74	1.0062699
2	0x3f846ae6	1.0345123
3	0x3f75438a	0.9580618
4	0x3f79b196	0.975366
5	0x3f83175e	1.0241506
6	0x3f861982	1.0476534
7	0x3f6bd03c	0.92114615
8	0x3f710f9b	0.9416444
9	0x3f81190b	1.0085768
10	0x3f852278	1.0401144
11	0x3f720d29	0.9455133
12	0x3f76f06d	0.9646061
13	0x3f8427c0	1.0324631
14	0x3f74e1b3	0.9565689
15	0x3f861841	1.0476152
16	0x3f85303a	1.0405343
17	0x3f82e031	1.0224668
18	0x3f7c9ee5	0.98679954
19	0x3f7ecd31	0.9953185
20	0x3f81098e	1.0081041
21	0x3f76f89c	0.964731
22	0x3f70e151	0.94093806
23	0x3f744ea3	0.9543249
24	0x3f81507e	1.0102689
25	0x3f6dae6a	0.9284426
26	0x3f7b55d8	0.9817786
27	0x3f7bb984	0.9832995
28	0x3f847cde	1.0350606
29	0x3f7aa01d	0.97900563
30	0x3f7e9df1	0.9945975
31	0x3f75bf34	0.9599488

backbone.3.bn.bias f4 [32]
0	0xbdc67f24	-0.09692219
1	0xbe0a33d1	-0.13496329
2	0xbe1f341e	-0.15547225
3	0xbe0badeb	-0.13640563
4	0xbd8058e3	-0.06266954
5	0xbe0f4671	-0.13991715
6	0xbe1330b0	-0.14374042
7	0xbd8afc79	-0.067864366
8	0xbd167ce3	-0.036740195
9	0xbdd0abf8	-0.101890504
10	0xbe15eb30	-0.14640498
11	0xbd7d9228	-0.061906964
12	0xbbabc45b	-0.0052419133
13	0xbe091537	-0.13386999
14	0xbd86761a	-0.06565495
15	0xbe172c44	-0.1476298
16	0xbe0e2b1d	-0.13883634
17	0xbe086d33	-0.13322906
18	0xbddfd250	-0.10928786
19	0xbde4a947	-0.111650996
20	0x3d1d2a8e	0.03837066
21	0xbd553915	-0.05205639
22	0xbd89298f	-0.0669738
23	0xbd1cf5a9	-0.038320217
24	0xbe1cdb87	-0.15318118
25	0xbd9905ef	-0.07471835
26	0xbe0f52a8	-0.13996375
27	0xbd94b17a	-0.072604135
28	0xbe04fd22	-0.12987188
29	0xbdffe44d	-0.12494717
30	0x3c250e33	0.010074186
31	0xbc773765	-0.015088891

backbone.3.bn.running_mean f4 [32]
0	0x3e851999	0.25996092
1	0x3ca0a460	0.01960963
2	0x3db80617	0.089855365
3	0x3e0be64f	0.13662075
4	0x3e8e8da1	0.2784243
5	0x3e457bee	0.19285557
6	0x3dded0d2	0.10879673
7	0xbdf89e1e	-0.121395335
8	0x3f25083b	0.64465684
9	0x3ea32be9	0.31869438
10	0x3dcc656e	0.09980284
11	0xbee80a62	-0.4532042
12	0x3f375365	0.71611625
13	0x3e69eebb	0.22844975
14	0x3dc4d2c9	0.096105166
15	0x3c9bf0aa	0.019035656
16	0x3e6ab2a1	0.22919704
17	0x3e5d7e4e	0.21630213
18	0x3db4b5ab	0.08823713
19	0x3dfd6e89	0.123745985
20	0xbf0ce6f2	-0.55039895
21	0x3f07795d	0.5291956
22	0xbe3645e8	-0.17800105
23	0x3ef834ce	0.48477787
24	0x3e2025d1	0.15639426
25	0x3e540b1a	0.2070736
26	0x3ebba3b3	0.3664833
27	0x3dc92fbe	0.09823559
28	0x3e167536	0.1469315
29	0x3e9f3a3b	0.31099114
30	0xbf2977a1	-0.66198164
31	0x3ebdd2c1	0.37074855

backbone.3.bn.running_var f4 [32]
0	0x3ebfb70c	0.3744434
1	0x3f095045	0.53638107
2	0x3ee6a004	0.45043957
3	0x3e8af843	0.27142534
4	0x3f1b5c92	0.60688126
5	0x3edfc126	0.43702048
6	0x3f052b92	0.5201961
7	0x3f017277	0.50565284
8	0x3f55f652	0.8357898
9	0x3f268009	0.65039116
10	0x3f239121	0.63893324
11	0x3f8f24e0	1.1183128
12	0x3f21ad3d	0.63154966
13	0x3ea74b3f	0.32674596
14	0x3ea7d50c	0.3277973
15	0x3ea252b0	0.3170371
16	0x3ece035a	0.40236932
17	0x3ef4de01	0.47825626
18	0x3ee4fc76	0.44723862
19	0x3efd0394	0.49416792
20	0x3f868779	1.0510093
21	0x3f82977b	1.0202478
22	0x3ed69ace	0.41914982
23	0x3eddff75	0.4335896
24	0x3ef758e1	0.48309997
25	0x3ef58b27	0.47957727
26	0x3f0bc945	0.5460399
27	0x3f076056	0.5288137
28	0x3ee9993b	0.45624718
29	0x3f374ba0	0.7159977
30	0x3f7d3355	0.9890645
31	0x3ee56bd9	0.44808844
